experiments/konrad/saved_models/online_expanding/hinge/model_step_0.pt (torch, 7434 bytes, 9 tensors)

A_gate f4 [9]
0	0x3bd8c99b	0.00661583
1	0x3d82d3bf	0.063880436
2	0xbc271d1e	-0.010199813
3	0x3afba939	0.0019200213
4	0x3dc8f4da	0.09812327
5	0x3e49f358	0.19721735
6	0x3bec3999	0.0072090146
7	0x3d19bdc4	0.03753449
8	0xbc718421	-0.014740975

B_gate f4 [120]
0	0xb541bd03	-7.217315e-07
1	0x3c36f94d	0.011167836
2	0xb89c9d6c	-7.467982e-05
3	0x3c56b31d	0.013104227
4	0x3bc100bc	0.00588998
5	0xb9775628	-0.00023587851
6	0x3efe8d74	0.49717295
7	0x36ca368c	6.026419e-06
8	0xbce2820f	-0.027649907
9	0x3ba6a506	0.0050855903
10	0xbd5f8197	-0.054566946
11	0x37ed5e3c	2.8296483e-05
12	0x3c8384f5	0.01605461
13	0xb7268ce2	-9.927173e-06
14	0xb8b767ca	-8.745452e-05
15	0x3e4c8c7d	0.19975467
16	0xb18a5d9d	-4.026971e-09
17	0x33f07d17	1.11986246e-07
18	0x3d64acfb	0.05582903
19	0x0000139c	7.035e-42
20	0x3adb6fc0	0.0016741678
21	0x3c3f4a8c	0.011675488
22	0xa8dadd30	-2.4298787e-14
23	0xb727083e	-9.955895e-06
24	0xbe28a9f4	-0.16471082
25	0xb20e14c5	-8.27021e-09
26	0x3ae8ebb5	0.0017770441
27	0xb8020aae	-3.100436e-05
28	0xbe01a412	-0.12660244
29	0xb21ecaec	-9.2429495e-09
30	0x3d287503	0.041127216
31	0xba765724	-0.000939714
32	0xb2729f5f	-1.4122491e-08
33	0xbe0c8fbe	-0.13726708
34	0xac148c68	-2.1110006e-12
35	0x391cb509	0.0001494476
36	0xbddcbdf7	-0.107784204
37	0x3a30e5e1	0.0006748122
38	0x000012e7	6.781e-42
39	0x3c2b7845	0.010465686
40	0x0000218d	1.2036e-41
41	0x80001203	-6.461e-42
42	0x3c183585	0.009290104
43	0xb0c7717e	-1.4511412e-09
44	0xb18be868	-4.071854e-09
45	0x3d3070e9	0.04307643
46	0x3d6fe43b	0.058567267
47	0xbbae39a8	-0.0053169318
48	0x3e393bcb	0.18089215
49	0x80215942	-3.062591e-39
50	0xbe935fed	-0.28784123
51	0xbc22d4e1	-0.00993845
52	0x2e1ad58c	3.5205214e-11
53	0x80215d39	-3.064013e-39
54	0xb92b8a78	-0.00016359414
55	0x3d8cae50	0.06869185
56	0xb684b229	-3.954647e-06
57	0x3b60d878	0.0034308713
58	0x38bc1c15	8.969769e-05
59	0x80005fcf	-3.437e-41
60	0x3bbd2684	0.0057724137
61	0x3ebe4d78	0.3716848
62	0x8000049b	-1.652e-42
63	0x3a4ae5f4	0.0007739954
64	0x3caa1e98	0.020766541
65	0x00005218	2.945e-41
66	0xbcab7f32	-0.020934675
67	0xa271fdd3	-3.2795964e-18
68	0xba663564	-0.00087817595
69	0x3df9ba6c	0.1219376
70	0x000049d0	2.6479e-41
71	0x3d0529c5	0.032510538
72	0x3da8d033	0.08242836
73	0x2fb7ca8f	3.3431433e-10
74	0x0000668b	3.6785e-41
75	0x3bbd57bf	0.0057782824
76	0xb93261cc	-0.00017011835
77	0x38bd15d0	9.016285e-05
78	0x3b385614	0.0028127478
79	0xb87e9880	-6.0700346e-05
80	0xaf6b40a6	-2.1396093e-10
81	0x39cb6303	0.00038792947
82	0x3ac10e0c	0.0014728918
83	0x8b56f104	-4.139622e-32
84	0xbb3301f1	-0.002731439
85	0xb77d0562	-1.5081228e-05
86	0x365c095a	3.2787998e-06
87	0x3c156b8f	0.009119882
88	0xbb230dec	-0.0024880124
89	0x80bbd08c	-1.724805e-38
90	0x38fc0711	0.000120176126
91	0x1294a957	9.381859e-28
92	0x3dcff1e3	0.10153558
93	0x3b5e1dbc	0.0033892235
94	0xbb8f05b2	-0.0043646926
95	0x2648e663	6.970117e-16
96	0xba3bb69a	-0.00071606936
97	0x33ad3125	8.0648796e-08
98	0x340c01e4	1.3039204e-07
99	0xb891e52d	-6.956826e-05
100	0xbcf86972	-0.030323718
101	0x38a8d989	8.051383e-05
102	0xbe23798d	-0.15964337
103	0x3bf45766	0.007456708
104	0xb85915cb	-5.1757128e-05
105	0x3f8ac160	1.0840263
106	0x262f0238	6.071833e-16
107	0x8000194b	-9.073e-42
108	0x3b3b83a9	0.002861241
109	0xbb3385c1	-0.0027392956
110	0x00002a95	1.5276e-41
111	0x3b772b7c	0.0037715128
112	0x3da18e98	0.07888526
113	0x3e9d15a1	0.30680564
114	0x3b935bb6	0.004497017
115	0x1660330e	1.8110686e-25
116	0xbdb6d08e	-0.089264974
117	0xb9d8f117	-0.00041378356
118	0xb646383f	-2.9537039e-06
119	0x3f50377d	0.8133467

A_mean f4 [9]
0	0x80005fd8	-3.4382e-41
1	0x00007204	4.0901e-41
2	0x800007c5	-2.787e-42
3	0x00004b0f	2.6926e-41
4	0x80007f0e	-4.5579e-41
5	0x80001bba	-9.946e-42
6	0x00007c03	4.4487e-41
7	0x0004347a	3.86167e-40
8	0x000038f0	2.0425e-41

B_mean f4 [120]
0	0x80001092	-5.944e-42
1	0xa27d0602	-3.4291074e-18
2	0x0846340d	5.9644643e-34
3	0x0000105a	5.866e-42
4	0x3775f520	1.4660211e-05
5	0x802101f9	-3.031279e-39
6	0x80003d46	-2.1981e-41
7	0xa5944d48	-2.5726275e-16
8	0xa000f75e	-1.0923869e-19
9	0x80006f5b	-3.9947e-41
10	0x239b0900	1.6808945e-17
11	0xb0c858ca	-1.4577151e-09
12	0x80000311	-1.1e-42
13	0xb5c99570	-1.5019159e-06
14	0xa32c28bd	-9.332765e-18
15	0x8007a0e4	-7.00565e-40
16	0x000d6fa7	1.233915e-39
17	0xa997e7fd	-6.7459906e-14
18	0x8001b2a7	-1.55924e-40
19	0xad303110	-1.0015336e-11
20	0x996518b8	-1.18440144e-23
21	0x80008211	-4.6659e-41
22	0x2bb9e716	1.320918e-12
23	0xb1284646	-2.4487163e-09
24	0x80005350	-2.9887e-41
25	0x96209e58	-1.2974662e-25
26	0xa267b100	-3.140004e-18
27	0x80013a49	-1.12744e-40
28	0x805ba397	-8.415715e-39
29	0x002906f1	3.767745e-39
30	0x8000dc9e	-7.9143e-41
31	0x2898a479	1.6946719e-14
32	0x328ba830	1.6258213e-08
33	0x00001f21	1.1167e-41
34	0x159a4775	6.2312844e-26
35	0x3908ca95	0.00013045438
36	0x80004d75	-2.7786e-41
37	0xac259368	-2.3529737e-12
38	0x2b1212db	5.1895787e-13
39	0x80004f42	-2.8432e-41
40	0xb691bfc5	-4.3436617e-06
41	0x8009a91d	-8.87186e-40
42	0x80002822	-1.4397e-41
43	0x28c0d0cd	2.1406835e-14
44	0xac9401d5	-4.2066164e-12
45	0x00003dc7	2.2162e-41
46	0x190ee181	7.386768e-24
47	0xb30a4b32	-3.219902e-08
48	0x000018b4	8.862e-42
49	0x8008dc1c	-8.13644e-40
50	0xb4f2a708	-4.5197544e-07
51	0x800645c4	-5.7604e-40
52	0x00273403	3.600243e-39
53	0x2ac41fb6	3.4838598e-13
54	0x8000ffb6	-9.1732e-41
55	0x37302704	1.04995015e-05
56	0xa5d50ae0	-3.695698e-16
57	0x00006b31	3.8453e-41
58	0x94c36a45	-1.9731884e-26
59	0xac95fe10	-4.2630413e-12
60	0x8002bb92	-2.50959e-40
61	0x8009f829	-9.15543e-40
62	0x1df6bf10	6.531321e-21
63	0x00016e58	1.3142e-40
64	0x2cd5e568	6.0792933e-12
65	0xab93a7a0	-1.0491503e-12
66	0x000059d7	3.2228e-41
67	0x97e5a82e	-1.4841233e-24
68	0x9e998c30	-1.6257485e-20
69	0x0000eb6f	8.4458e-41
70	0x17f77f4d	1.5994136e-24
71	0xb52651bd	-6.1958764e-07
72	0x00018c46	1.42156e-40
73	0xa29c9ad0	-4.24478e-18
74	0x2a065098	1.1929552e-13
75	0x00008d6e	5.0735e-41
76	0xb00e9bd2	-5.1880733e-10
77	0xafdcbfea	-4.015413e-10
78	0x000295d1	2.37415e-40
79	0x8e089f87	-1.6840104e-30
80	0xa403cf25	-2.8581555e-17
81	0x00000f82	5.563e-42
82	0x00005c8a	3.3197e-41
83	0x260196e8	4.496038e-16
84	0x00008fea	5.1627e-41
85	0x1cc47695	1.3000845e-21
86	0x001093e1	1.522417e-39
87	0x800264e3	-2.19862e-40
88	0xa324a02a	-8.924374e-18
89	0xad49508a	-1.14434105e-11
90	0x80000b23	-3.995e-42
91	0x29df7ce1	9.9248524e-14
92	0x33341dd0	4.193663e-08
93	0x8000c389	-7.0145e-41
94	0xb826de7c	-3.978469e-05
95	0x80004512	-2.4778e-41
96	0x0008e198	8.15612e-40
97	0x99120c00	-7.5504465e-24
98	0xaed28c88	-9.574658e-11
99	0x800000cb	-2.84e-43
100	0x2a3a8d80	1.6569211e-13
101	0x9c1a74aa	-5.110511e-22
102	0x000018b0	8.856e-42
103	0xaf260465	-1.5099173e-10
104	0x00084314	7.58747e-40
105	0x80004e08	-2.7992e-41
106	0x802de78b	-4.215659e-39
107	0x2a6a06a0	2.0785674e-13
108	0x8000e8c1	-8.3496e-41
109	0xa18612dd	-9.085186e-19
110	0xb228fc50	-9.836256e-09
111	0x0000d643	7.6863e-41
112	0x204a5dbe	1.7141082e-19
113	0x001796eb	2.166356e-39
114	0x0000e639	8.2588e-41
115	0xa73eb564	-2.6466129e-15
116	0xa065b1dc	-1.9455903e-19
117	0x80002d29	-1.62e-41
118	0x0d8d2918	8.699689e-31
119	0x093efbc9	2.2988807e-33

A_logvar f4 [9]
0	0x09b53a80	4.3629178e-33
1	0x1589ef20	5.571113e-26
2	0x8002e7f1	-2.66876e-40
3	0x88cd39ec	-1.2351606e-33
4	0x1602d724	1.0569203e-25
5	0x80041116	-3.73471e-40
6	0x89d37a64	-5.0911498e-33
7	0x97379b00	-5.9326127e-25
8	0x0004bf25	4.35912e-40

B_logvar f4 [120]
0	0x075f4594	1.6797103e-34
1	0x30f7c0d0	1.8026416e-09
2	0x14f7e24c	2.5029885e-26
3	0x8000a44d	-5.894e-41
4	0x36806895	3.826872e-06
5	0xb193a7b4	-4.2973287e-09
6	0x96805f9a	-2.0739848e-25
7	0xaf12f951	-1.3367198e-10
8	0xb89803f0	-7.248658e-05
9	0x09d315d3	5.0816926e-33
10	0x33539164	4.9259498e-08
11	0xac1c1b70	-2.2184164e-12
12	0x80003707	-1.974e-41
13	0xabbe3f9c	-1.3517967e-12
14	0x8004dd41	-4.46713e-40
15	0x9663c1d8	-1.839808e-25
16	0x390d9cea	0.00013505263
17	0x2cbecc0f	5.42278e-12
18	0x89758a74	-2.9555903e-33
19	0x003a9d16	5.38281e-39
20	0x00024616	2.08813e-40
21	0x8004bdc4	-4.35417e-40
22	0xb261185c	-1.3102262e-08
23	0xab8cbe4c	-1.0000416e-12
24	0x97acece4	-1.1175039e-24
25	0xa41363b3	-3.1959992e-17
26	0x80081286	-7.41329e-40
27	0x091a299c	1.855664e-33
28	0x0010260a	1.483014e-39
29	0x30ac7a5f	1.2549427e-09
30	0x0000ead8	8.4246e-41
31	0x38979ecc	7.229819e-05
32	0x07792ba0	1.8745498e-34
33	0x969ee129	-2.5668373e-25
34	0x9a57eca3	-4.465211e-23
35	0x3738d704	1.1017317e-05
36	0x87751a00	-1.8439392e-34
37	0x18049218	1.7134359e-24
38	0x9b1bb3a7	-1.2879348e-22
39	0x80089067	-7.86486e-40
40	0x00074028	6.65863e-40
41	0xab29cdfd	-6.032673e-13
42	0x17b06eb4	1.1401679e-24
43	0x1cd3577c	1.3985423e-21
44	0x803a20f8	-5.338286e-39
45	0x09302b26	2.1205518e-33
46	0x259763f0	2.6262045e-16
47	0xb2f5d9c8	-2.862079e-08
48	0x0001b1d1	1.55624e-40
49	0x2c017bd2	1.8400737e-12
50	0x1b7741ac	2.0452581e-22
51	0x97b3f2f0	-1.162893e-24
52	0xa9edec20	-1.05658754e-13
53	0x35fcc5da	1.8833045e-06
54	0x8893f149	-8.903967e-34
55	0x31eaa6df	6.8292674e-09
56	0x193a5c9c	9.634677e-24
57	0x80034ab2	-3.02302e-40
58	0x98b790f0	-4.745074e-24
59	0x99d13bc0	-2.1634226e-23
60	0x96b6d9a1	-2.954103e-25
61	0x1f269118	3.5271886e-20
62	0x800013df	-7.128e-42
63	0x87acdd62	-2.60098e-34
64	0x3696c7ea	4.4936214e-06
65	0x000568cf	4.96776e-40
66	0x8007f8ed	-7.32146e-40
67	0x26fb64be	1.744393e-15
68	0x329b5ae5	1.8085709e-08
69	0x173e22c4	6.143619e-25
70	0xa4e8c292	-1.00943577e-16
71	0x38d7c7c6	0.000102892096
72	0x88413a1d	-5.8147137e-34
73	0x23b62621	1.9748628e-17
74	0x18f1a0ac	6.2459277e-24
75	0x80002691	-1.3835e-41
76	0x955e71f0	-4.4922424e-26
77	0x98588680	-2.798525e-24
78	0x16874748	2.185541e-25
79	0x9ed18937	-2.2185486e-20
80	0x364a82a2	3.0176384e-06
81	0x09357eed	2.1846763e-33
82	0x8005936a	-5.1206e-40
83	0xb29939db	-1.7837854e-08
84	0x800994e7	-8.79936e-40
85	0x001f5d3d	2.880348e-39
86	0xa2538310	-2.8665216e-18
87	0x1809fd3a	1.7834682e-24
88	0x27ffa1fe	7.095235e-15
89	0xabe13628	-1.6002243e-12
90	0x8996b060	-3.627705e-33
91	0x294b4f0a	4.514361e-14
92	0xb2099e5d	-8.010457e-09
93	0x80041e11	-3.78128e-40
94	0xb0b847db	-1.3408185e-09
95	0x99fc7e30	-2.6107156e-23
96	0x169cffae	2.5364516e-25
97	0x18cdec9d	5.3230176e-24
98	0x9fd642d1	-9.0743064e-20
99	0x0912eb9d	1.7684896e-33
100	0xa5b4b260	-3.1345894e-16
101	0x9f280f94	-3.558827e-20
102	0x00040153	3.67817e-40
103	0x99a2cf15	-1.6834047e-23
104	0x2ef90114	1.13234006e-10
105	0x96fbeaf0	-4.0699503e-25
106	0xa2c5a468	-5.357103e-18
107	0x2569fb28	2.0294624e-16
108	0x88783e72	-7.470319e-34
109	0xab9599af	-1.0629743e-12
110	0xb03ff0a2	-6.9827355e-10
111	0x00039eab	3.32426e-40
112	0x2b46091a	7.035636e-13
113	0xae8f8faf	-6.5284105e-11
114	0x1731d958	5.746611e-25
115	0xa02726d4	-1.4158297e-19
116	0xab2b6286	-6.088813e-13
117	0x09b893ea	4.4435486e-33
118	0x304fd0b0	7.5602724e-10
119	0xa90899fc	-3.0331626e-14

ar_gate_lin.weight f4 [1, 64]
0	0x3cfaba17	0.030606313
1	0x3caf7f62	0.021423046
2	0xbae5ccbb	-0.0017532328
3	0x3c0fdaaf	0.008780166
4	0xbcd16b88	-0.02556397
5	0x3d1dfe0b	0.038572352
6	0x3c7266ae	0.014794989
7	0xbcd783ac	-0.026307903
8	0x3d9d9253	0.07693925
9	0x3c0962b9	0.008385354
10	0x3cb16f48	0.021659508
11	0xbdc650b4	-0.09683362
12	0x3d34b9e4	0.04412259
13	0x3c90ab1c	0.017659716
14	0xbc68113a	-0.014164263
15	0x3d9b514e	0.07583867
16	0x3d8d7a23	0.06908061
17	0xbdb182d2	-0.0866753
18	0x3ce2766e	0.027644362
19	0xbe023d2c	-0.12718648
20	0x3da864fd	0.08222387
21	0x3d0fc982	0.035104282
22	0x3e1f8ac6	0.15580282
23	0xbdf161b5	-0.11786214
24	0xbd85b38f	-0.06528389
25	0xbcd2f953	-0.025753653
26	0xbdd4c289	-0.10388667
27	0xbe0f4f94	-0.139952
28	0xbb596bae	-0.0033175754
29	0xbe278e33	-0.16362838
30	0xbd60201b	-0.05471812
31	0x3c6d4fb4	0.014484335
32	0x3cb4dc0d	0.022077585
33	0xbd91e614	-0.07123962
34	0x3cb88e8b	0.022528907
35	0x3dadf1a0	0.08493352
36	0x3de3f8b0	0.11131418
37	0x3e1d7a52	0.15378693
38	0x3cd33457	0.025781794
39	0xbd11728d	-0.035509635
40	0x3da43467	0.080178075
41	0x3d8c366b	0.06846317
42	0xbdb80e89	-0.08987147
43	0x3c8d447f	0.017244576
44	0x3d852e26	0.06502943
45	0x3db0ae9c	0.08627054
46	0x3b62671b	0.003454632
47	0x3dac0a26	0.08400373
48	0x3dee7c7b	0.116448365
49	0x3e079ce3	0.13243441
50	0x3dc30063	0.09521558
51	0x3dabccb7	0.08388656
52	0x3de2c5c0	0.11072874
53	0xbd85f416	-0.06540696
54	0x3ce9c8ca	0.028538126
55	0x3d300f6b	0.042983454
56	0x3e228517	0.15871082
57	0x3c7746af	0.015092536
58	0x3dd91f0c	0.10601625
59	0x3d9d699b	0.07686158
60	0x3d6af50c	0.0573626
61	0x3d909c1a	0.07061024
62	0x3dfe09c3	0.12404206
63	0xbb4e381e	-0.0031466554

ar_mean_lin.weight f4 [1, 64]
0	0xbd892898	-0.06697196
1	0xbc119715	-0.008886118
2	0x3d08c2a2	0.03338874
3	0x3c836b90	0.0160425
4	0x3c8a05c0	0.016848445
5	0xba77b60b	-0.0009449429
6	0xbb92e358	-0.004482668
7	0x3bb9b5a1	0.005667404
8	0xbc965901	-0.018352987
9	0xbbcdc64a	-0.0062797414
10	0x3cd192d4	0.025582708
11	0xbd783f4c	-0.06060724
12	0xbaeee6a0	-0.0018226691
13	0xbb0afbbb	-0.0021207172
14	0xbd20fcff	-0.039303776
15	0xbcb939fb	-0.022610655
16	0x3d6e7305	0.05821516
17	0x3cd03788	0.025417104
18	0x3d69fa1e	0.057123296
19	0xbb87b210	-0.0041410998
20	0xb8f256bc	-0.00011555615
21	0x3cce528b	0.025185844
22	0x3c97ece4	0.018545575
23	0xbcc2127b	-0.023690453
24	0xbd0259e4	-0.031824008
25	0xbd043da9	-0.032285366
26	0x3d382a6e	0.04496234
27	0xbd4921f2	-0.04910464
28	0x3b9b7551	0.00474421
29	0xbd06e7dd	-0.032935966
30	0xbd0c0e05	-0.034193058
31	0x3c71ae2d	0.014750999
32	0x3d81447f	0.06311893
33	0xbcdb01f3	-0.026734328
34	0x3ce3e337	0.027818305
35	0xbd52877a	-0.05139873
36	0x3cfae0ff	0.030624865
37	0x3cba63a9	0.0227526
38	0xbd9e6da9	-0.0773576
39	0xbad3844d	-0.0016137451
40	0xbce6d945	-0.028179774
41	0x3d56a3fd	0.052402485
42	0xba2b657a	-0.00065382535
43	0x3cb1ae6d	0.021689618
44	0x3cd4a612	0.025958095
45	0xbc77633f	-0.015099346
46	0x3d023b2d	0.031794716
47	0xbbf37d98	-0.0074307434
48	0x3a40f026	0.00073600037
49	0x3d1417b5	0.03615542
50	0x3d26a7d8	0.040687412
51	0x3d0c0f3e	0.034194224
52	0x3ccac032	0.024749849
53	0x3cf91167	0.030403806
54	0xbcc1dc07	-0.023664488
55	0x3b9397cf	0.004504181
56	0x3d64b0db	0.055832725
57	0x3cb82c01	0.02248192
58	0xbce71956	-0.028210323
59	0x3ca75d6f	0.020430295
60	0x3d8b9a30	0.06816518
61	0x3c8478c3	0.016170865
62	0x3dc76f25	0.09737996
63	0x3ecf6941	0.4050999

ar_logvar_lin.weight f4 [1, 64]
0	0xbd8a2c69	-0.06746752
1	0xbd798152	-0.060914345
2	0x3e0bf758	0.13668573
3	0xbd52bfa5	-0.051452298
4	0xbd4ef9a8	-0.05053106
5	0xbe408485	-0.18800552
6	0xbe1c570a	-0.15267578
7	0xbb88f8ea	-0.0041800635
8	0xbd6b62c3	-0.057467233
9	0x3dab5843	0.08366444
10	0x3e0c9e5c	0.13732284
11	0xbd90e5bc	-0.07075068
12	0xbcb35d4c	-0.021895073
13	0xbc84f756	-0.01623122
14	0x3c461351	0.012089566
15	0xbd9cf9f1	-0.0766486
16	0x3dbe15df	0.09281515
17	0x3d96dcf3	0.073663615
18	0x3e0545eb	0.13014953
19	0xbd8927df	-0.06697058
20	0xbbc14b6f	-0.005898885
21	0x3d725f1e	0.059172742
22	0x3dd864ac	0.10566077
23	0xbe38dd55	-0.18053181
24	0xbe2918e4	-0.16513401
25	0xbe313fee	-0.17309543
26	0xbe2ea21a	-0.17054024
27	0xbea71cc5	-0.32639137
28	0xbe1e59a7	-0.15463887
29	0x3cf319e0	0.029675424
30	0xbe2f64a4	-0.17128235
31	0x3cb31194	0.021858968
32	0x3e32d8ff	0.1746559
33	0xbe3fb6bb	-0.1872205
34	0xbde9391d	-0.113878466
35	0xbe0bdf70	-0.13659453
36	0x3e78e842	0.2430735
37	0x3d119d25	0.035550255
38	0xbe75844a	-0.23976246
39	0x3d0a1893	0.033714842
40	0xbe0c4e79	-0.1370181
41	0xbdb950a4	-0.09048584
42	0xbd1259b6	-0.035730086
43	0x3e22c18d	0.15894146
44	0x3e0a6db9	0.13518418
45	0xbe5f4cae	-0.21806595
46	0xbd416bdc	-0.047222003
47	0x3e69fefe	0.22851178
48	0x3c8c78f5	0.01714752
49	0x3c70920d	0.014683259
50	0x3c5d7299	0.013516092
51	0xbda8586e	-0.082199916
52	0x3e38d999	0.18051757
53	0xbc578fb1	-0.013156817
54	0x3ddf6876	0.10908596
55	0xbd3815cb	-0.04494266
56	0x3d7f1b91	0.06228215
57	0xbce678ee	-0.028133836
58	0x3de2d957	0.110766105
59	0xbd823b2c	-0.063589424
60	0x3d09b0c7	0.033615854
61	0x3e38ba7c	0.18039888
62	0x3dfc0da5	0.1230729
63	0x3e4030d3	0.18768625
