experiments/konrad/saved_models/online_expanding/hinge/model_step_4.pt (torch, 7434 bytes, 9 tensors)

A_gate f4 [9]
000000 c7 8d f1 36 20 49 7e 3a ee a9 bd ba f8 91 e9 36
       7.1988648e-06 0.00097002275 -0.0014470199 6.960934e-06
000010 f5 73 c0 b9 fd bf 65 ba f7 e0 df b5 a5 12 02 ba
       -0.00036707488 -0.0008764265 -1.6680268e-06 -0.00049618847
000020 d8 c5 d2 3b
       0.006432276

B_gate f4 [120]
000000 38 0b 61 b6 96 31 1c b9 4b 4b 00 00 c5 fb 2a 3a
       -3.3534143e-06 -0.00014895792 2.701e-41 0.0006522502
000010 15 e1 2d 38 14 18 92 b2 59 ab 85 37 9b 20 00 80
       4.1456038e-05 -1.7007586e-08 1.5934625e-05 -1.1697e-41
000020 48 1b 00 80 6e 7f ab b6 35 4f 00 00 24 1e c2 2f
       -9.787e-42 -5.111032e-06 2.8414e-41 3.530981e-10
000030 29 7c b0 3a 4a 47 bf b1 db 0a 41 bd cc 4d 79 3b
       0.0013464737 -5.5669362e-09 -0.047129493 0.0038040755
000040 2e a7 6b 98 d4 72 13 29 44 10 cd b5 f8 aa f0 99
       -3.0457442e-24 3.2740154e-14 -1.5278424e-06 -2.4884472e-23
000050 3b 76 76 9e 62 df c3 3a 30 1d 00 80 13 5d 00 00
       -1.3047581e-20 0.0014943893 -1.047e-41 3.3389e-41
000060 ee 54 28 39 4f ed a5 ab 74 34 00 00 18 b2 5c b6
       0.00016053367 -1.1789822e-12 1.8817e-41 -3.2886219e-06
000070 26 d4 39 31 61 07 2a 2f 22 bc 0b 3b 82 03 00 00
       2.7041636e-09 1.5464031e-10 0.0021321853 1.258e-42
000080 96 d0 e7 36 15 ff 8f 39 db ee e5 2c f0 20 e9 ab
       6.908619e-06 0.00027465136 6.5350897e-12 -1.6564788e-12
000090 18 55 d8 b5 81 50 a1 37 b5 c2 bb a4 c2 f1 90 3a
       -1.611802e-06 1.9230183e-05 -8.142817e-17 0.0011058378
0000a0 cb c3 c0 33 d7 41 3b 3e 17 cf 77 38 11 98 85 b8
       8.976311e-08 0.18286835 5.9082256e-05 -6.370259e-05
0000b0 8c 7d c1 a2 37 44 82 b5 e8 c4 35 34 34 52 00 80
       -5.2445683e-18 -9.705608e-07 1.6928573e-07 -2.9489e-41
0000c0 95 9b f2 3a 77 45 00 80 38 57 00 00 61 7e 16 b9
       0.0018509502 -2.4919e-41 3.1288e-41 -0.00014352195
0000d0 d6 b5 2c 35 c1 53 00 00 30 8b c6 b5 fc 46 00 80
       6.43396e-07 3.0045e-41 -1.4792658e-06 -2.5464e-41
0000e0 da 44 c9 89 68 c7 84 3a 28 42 00 00 a7 0d 00 80
       -4.8453738e-33 0.0010130228 2.3732e-41 -4.898e-42
0000f0 9c 97 67 b9 d5 0a 00 00 90 01 48 a5 95 ac bd 35
       -0.00022086356 3.886e-42 -1.7347764e-16 1.4131825e-06
000100 63 c1 48 b8 fc 15 00 00 9b 36 9c 3a aa 59 62 2c
       -4.786382e-05 7.887e-42 0.0011918129 3.2166305e-12
000110 9d 18 be 9a 14 bc 0c b9 49 47 00 80 55 2b 00 00
       -7.862192e-23 -0.00013421505 -2.5572e-41 1.5545e-41
000120 6b 4a c4 b5 84 ab 0f b2 f5 62 00 80 1a d3 ea 3a
       -1.4624796e-06 -8.362694e-09 -3.5499e-41 0.0017915696
000130 be 8b 51 07 8e 63 61 2e 4e 7a 07 b9 d4 b3 c1 a5
       1.5764479e-34 5.12475e-11 -0.00012920165 -3.360202e-16
000140 4e 15 00 80 c2 5b 0f b6 3c c3 36 af 3a a0 11 bc
       -7.643e-42 -2.136207e-06 -1.6622165e-10 -0.008888299
000150 12 82 05 3b 79 29 00 00 e8 0b 00 80 a5 cc 28 39
       0.0020371717 1.4878e-41 -4.271e-42 0.00016097965
000160 cc 23 00 80 87 0a 90 b7 2d fb 58 b7 08 5e 00 80
       -1.2841e-41 -1.717104e-05 -1.2933085e-05 -3.3732e-41
000170 93 24 1f 35 b9 64 d8 3a 0c 2d 9d 2b 2a 10 3c 36
       5.928534e-07 0.001650951 1.1168024e-12 2.8023592e-06
000180 95 cd 00 b8 10 86 d4 aa dc 46 44 2d 18 cc 09 b5
       -3.070904e-05 -3.775179e-13 1.1157044e-11 -5.133347e-07
000190 d9 22 00 00 93 f4 f1 1f 63 08 2a 3a 69 01 00 00
       1.2501e-41 1.02472084e-19 0.0006486235 5.06e-43
0001a0 9c 19 00 80 39 c3 d5 36 da 24 00 80 30 c5 b1 ac
       -9.187e-42 6.3706216e-06 -1.322e-41 -5.0525348e-12
0001b0 30 f3 35 b4 b5 12 00 80 85 1b 00 80 51 c4 4b 3a
       -1.694541e-07 -6.711e-42 -9.872e-42 0.0007773089
0001c0 1c e7 31 b3 fc 2c 00 80 f5 c2 e9 b9 06 85 40 3a
       -4.1421217e-08 -1.6137e-41 -0.00044586477 0.0007344041
0001d0 66 21 00 80 45 61 34 b6 99 66 00 00 f9 22 00 80
       -1.1981e-41 -2.6878708e-06 3.6805e-41 -1.2546e-41

A_mean f4 [9]
000000 89 2f 00 80 6c 41 00 00 60 2b 00 80 cb 09 00 00
       -1.7052e-41 2.3469e-41 -1.556e-41 3.513e-42
000010 8b 44 00 00 b6 38 00 80 cb 20 00 00 8b 07 00 00
       2.4589e-41 -2.0344e-41 1.1764e-41 2.706e-42
000020 a0 29 00 00
       1.4932e-41

B_mean f4 [120]
000000 03 0e 00 00 41 0f 5b 34 06 04 29 1f 43 13 00 80
       5.026e-42 2.0401514e-07 3.579047e-20 -6.91e-42
000010 f7 83 99 10 16 00 b9 30 ff 3c 00 00 7a 59 ba b7
       6.0551183e-29 1.3460546e-09 2.1881e-41 -2.2214594e-05
000020 26 22 f1 22 d0 2b 00 80 f9 c0 eb 2e 2c a4 94 b2
       6.5359337e-18 -1.5717e-41 1.07208416e-10 -1.7304124e-08
000030 54 29 00 00 3e 5a 61 2b 14 9a 1d 2d b0 25 00 80
       1.4826e-41 8.0061294e-13 8.958629e-12 -1.352e-41
000040 27 d0 2c ae 78 7f bb b8 4a 22 00 80 e3 50 21 36
       -3.929315e-11 -8.940598e-05 -1.23e-41 2.4037952e-06
000050 50 a0 8d ab 8f 13 00 00 f8 43 11 2b 5d ed 24 a9
       -1.0063148e-12 7.016e-42 5.1608674e-13 -3.6621195e-14
000060 a1 1d 00 80 33 5a fd ac f8 6f a8 31 22 21 00 80
       -1.0629e-41 -7.2007066e-12 4.902173e-09 -1.1886e-41
000070 c7 c2 f4 29 e9 29 ea 23 e3 27 00 00 ac bc 8e 31
       1.0869565e-13 2.538808e-17 1.4309e-41 4.1541934e-09
000080 31 fc 22 b1 30 07 00 80 cc a1 72 2e 78 49 ce 2d
       -2.3717457e-09 -2.578e-42 5.5168134e-11 2.3452115e-11
000090 5e 11 00 80 54 39 2a 31 20 a8 93 a5 67 3f 00 00
       -6.23e-42 2.4770843e-09 -2.561436e-16 2.2744e-41
0000a0 08 f8 3d 37 99 9e 19 38 b5 50 00 00 41 0e 19 32
       1.1323027e-05 3.6625748e-05 2.8952e-41 8.909013e-09
0000b0 1b 36 ef 9d 6b 51 00 80 fa 16 b7 9e 92 53 17 22
       -6.3318717e-21 -2.9207e-41 -1.9385382e-20 2.0508558e-18
0000c0 4c 03 00 00 6d 6d 87 83 22 25 a6 1d 5c 0d 00 00
       1.183e-42 -7.95971e-37 4.397823e-21 4.792e-42
0000d0 ea 1a 98 a7 bc 2b a6 9b cd 59 00 80 ce 48 54 8f
       -4.2217655e-15 -2.749066e-22 -3.2214e-41 -1.0466429e-29
0000e0 ca 11 00 80 67 11 00 80 13 25 9c 29 88 ea de 2e
       -6.382e-42 -6.243e-42 6.934223e-14 1.0137052e-10
0000f0 c9 6b 00 00 b4 00 50 aa 08 7c 23 ac 5c 26 00 00
       3.8666e-41 -1.8474355e-13 -2.3232544e-12 1.3761e-41
000100 f2 cf 97 a8 88 1c 08 b1 15 31 00 80 c0 bc 96 a0
       -1.685455e-14 -1.9806823e-09 -1.7607e-41 -2.5535893e-19
000110 b2 1e cc 21 b5 51 00 00 0d 4c 3d 13 7d 85 2c a5
       1.3831703e-18 2.9311e-41 2.389265e-27 -1.496385e-16
000120 e5 00 00 80 9e 5a ac b0 6d 12 26 ad 5c 21 00 80
       -3.21e-43 -1.2540402e-09 -9.440099e-12 -1.1967e-41
000130 86 34 95 23 1b dd db b2 17 49 00 00 ba 52 9d 20
       1.6176857e-17 -2.5595503e-08 2.622e-41 2.6651578e-19
000140 b8 f3 94 b2 04 37 00 80 0f bd 6f 93 48 e2 34 ac
       -1.7340298e-08 -1.9736e-41 -3.0259254e-27 -2.570515e-12
000150 3d 58 00 00 0f 62 ce b6 b3 9c f2 39 b5 28 00 80
       3.1654e-41 -6.150694e-06 0.00046274587 -1.4603e-41
000160 6d 6a 97 2f 00 69 2c b0 c5 1d 00 80 4c 91 cc 32
       2.754236e-10 -6.272245e-10 -1.0679e-41 2.3814799e-08
000170 68 13 3f 23 21 4b 00 80 2a a4 c5 a5 70 cc 25 31
       1.035824e-17 -2.6951e-41 -3.4285294e-16 2.412687e-09
000180 ea 2f 00 00 38 e1 68 a2 ea 6b fd 37 5c 0c 00 80
       1.7188e-41 -3.1561093e-18 3.0210202e-05 -4.434e-42
000190 40 7b 39 18 80 30 24 ad db 2c 00 80 f0 0c 8b a8
       2.3972915e-24 -9.33309e-12 -1.6091e-41 -1.543771e-14
0001a0 8c f1 e6 38 4a 07 00 00 be 6e 4a 26 90 09 aa 36
       0.00011012246 2.615e-42 7.023291e-16 5.067508e-06
0001b0 5a 1f 00 00 0f 35 83 a6 47 8a 54 30 ce 11 00 80
       1.1247e-41 -9.104333e-16 7.7321655e-10 -6.387e-42
0001c0 58 20 90 1c b3 00 d3 99 b1 42 00 00 61 b9 b4 b6
       9.537481e-22 -2.1817171e-23 2.3924e-41 -5.385999e-06
0001d0 cc aa d5 b4 a8 59 00 80 48 31 f8 2b 90 a4 ba 2d
       -3.9798613e-07 -3.2163e-41 1.7635138e-12 2.1218832e-11

A_logvar f4 [9]
000000 6a 1f 96 3e 8d 97 d3 3e 92 8a b2 3e 78 3e e4 be
       0.29320842 0.41326562 0.34871346 -0.4457891
000010 b0 ac a0 be 52 51 89 bd 4a f1 d0 3e c5 e5 6a 3e
       -0.3138175 -0.06704964 0.4080909 0.22939213
000020 bd 95 0c 3e
       0.13728996

B_logvar f4 [120]
000000 ca f6 43 be c9 07 08 b6 b5 2f 8d aa 3e a4 f5 bd
       -0.19137111 -2.027011e-06 -2.5079735e-13 -0.11994217
000010 26 c6 65 21 e6 0f ac b0 89 c5 c4 3c 2f 18 1d 98
       7.7850465e-19 -1.2519166e-09 0.024019973 -2.0303984e-24
000020 8c cc 93 19 fe 22 49 bd d6 80 c6 a3 bc f7 c5 b0
       1.528206e-23 -0.049105637 -2.1521767e-17 -1.4404047e-09
000030 aa 17 7b bd 4c 8e a8 27 f2 83 b1 30 95 e8 11 3e
       -0.061301865 4.6783646e-15 1.2915946e-09 0.14248879
000040 62 51 01 2d ce 75 1a 80 9f a6 59 be c0 5a 0d 20
       7.350872e-12 -2.429983e-39 -0.21254967 1.1973191e-19
000050 a3 dc 2f 99 6e 80 0f be b8 bf f7 2b d8 0b d8 25
       -9.091845e-24 -0.14013836 1.7603618e-12 3.7478053e-16
000060 bb d5 3a 3e 0f 41 4e b7 aa ae cd a7 be 1e 99 be
       0.18245594 -1.22937045e-05 -5.70883e-15 -0.29906267
000070 91 19 02 b9 a2 e6 58 ad c6 f5 0d 3e a9 4d 0c 27
       -0.0001240729 -1.2329389e-11 0.13863286 1.9471003e-15
000080 f0 eb 35 b7 49 d9 6f 3e 10 39 5e b6 ad 56 0e b5
       -1.0843374e-05 0.23422731 -3.3113793e-06 -5.302525e-07
000090 1f 61 62 be 27 1c 1f 09 f8 09 d8 33 42 66 14 be
       -0.22107361 1.9152166e-33 1.0060097e-07 -0.14492133
0000a0 9b 01 fb 2e 20 67 db af 07 ee a9 bd 98 42 71 1e
       1.1414444e-10 -3.9909143e-10 -0.08297353 1.2772205e-20
0000b0 34 74 65 b1 59 1f bc bc 68 0c 91 2e d9 d7 3c 39
       -3.338994e-09 -0.022964166 6.5960404e-11 0.00018009487
0000c0 5d d3 8b bd 0c bc 1a a7 b8 97 7f b5 af b4 35 3e
       -0.06827424 -2.1473734e-15 -9.521568e-07 0.17744707
0000d0 00 5b 93 a5 fb cb 06 9c 67 ee 01 3e a2 c5 ec 30
       -2.55621e-16 -4.460052e-22 0.126886 1.7227431e-09
0000e0 e6 8f 6b 1c 93 db 56 bd 9a 63 5c 19 e4 d5 ce a1
       7.794096e-22 -0.052455496 1.1393848e-23 -1.4015719e-18
0000f0 48 c5 1b 3e 7e 5d f4 b4 f4 7c 8e 82 c7 0e e3 bd
       0.15211976 -4.5516566e-07 -2.0936744e-37 -0.11086803
000100 f4 7e a4 33 8a 96 a3 8c f8 49 a4 3c 00 5f 6f 28
       7.659938e-08 -2.520473e-31 0.020054802 1.3287765e-14
000110 f5 cb 32 1d 02 aa 22 be 20 93 4d 37 a8 d3 8f 8b
       2.3663547e-21 -0.15885165 1.2253207e-05 -5.540006e-32
000120 65 a4 8f bd cc 96 ee b1 61 1d 40 b8 1b dc 02 3e
       -0.07013778 -6.9438553e-09 -4.580373e-05 0.12779276
000130 10 bc e9 26 f8 56 9c 33 7c 2b 84 3e 80 3a 5f 2e
       1.6218597e-15 7.2801356e-08 0.25814426 5.0756288e-11
000140 1c 1d 2e 9e 7d e9 85 3e ba e0 d6 b8 10 54 10 39
       -9.217503e-21 0.261547 -0.00010246174 0.00013764226
000150 b8 f8 dd bd b0 f7 f2 84 e4 1c 0d 38 94 c5 ea bd
       -0.10838455 -5.712139e-36 3.3643926e-05 -0.11463466
000160 9e f6 28 b8 22 99 9c b4 2f 62 cb 3d 60 76 8a ac
       -4.0284e-05 -2.9168683e-07 0.099308364 -3.935338e-12
000170 eb 95 a1 92 5d 29 31 3d 38 59 9a 9e e4 a4 3f a7
       -1.0197486e-27 0.043252338 -1.6342284e-20 -2.6595962e-15
000180 cd cf 23 3e 59 e3 37 b0 12 a2 0a b8 48 5a 40 be
       0.15997238 -6.689809e-10 -3.3052704e-05 -0.1878444
000190 ee 81 8e 2c 65 8f 48 a0 68 cf a1 3d 24 fb 7a ac
       4.050308e-12 -1.6988104e-19 0.07900888 -3.5666548e-12
0001a0 ae 3c 99 a6 fa 46 34 be 08 24 35 9c 48 b9 8b 14
       -1.0632955e-15 -0.176052 -5.9934446e-22 1.4108494e-26
0001b0 de 7d b3 be ae 4f 9a 2b ce a5 3a 35 b9 92 0b 3e
       -0.35056967 1.0964474e-12 6.9531677e-07 0.13630189
0001c0 44 fc d4 b3 a8 a6 de 30 11 d9 f5 3d 70 5b 60 a9
       -9.917906e-08 1.6199992e-09 0.12004293 -4.98173e-14
0001d0 b0 7a 90 ad f5 af 3d 3e 91 2e 6a 35 66 8c 14 b1
       -1.6425389e-11 0.18524154 8.7239556e-07 -2.1616642e-09

ar_gate_lin.weight f4 [1, 64]
000000 71 c8 9b 3c 30 29 5c 3d 5d 59 38 bd af 56 dc 3c
       0.019016476 0.053750217 -0.0450071 0.026896803
000010 d7 dc 8a bd 5e ac cb 3d 31 49 0d 3d 4a 9a 89 bd
       -0.06780403 0.09944986 0.03449363 -0.067188814
000020 62 57 41 3d 30 59 8b bd 6f d3 6c bd 59 cf ee bc
       0.047202475 -0.068041205 -0.057818826 -0.029151605
000030 45 c8 61 bd e3 a4 ee 3c 15 16 47 3c 34 f4 a1 bc
       -0.055122633 0.029131358 0.012151261 -0.019769765
000040 40 57 f6 3c 17 2f aa bd 2e 18 10 be 20 66 e0 3a
       0.0300709 -0.08309763 -0.14071724 0.0017120279
000050 f3 2c 55 bd a6 13 19 bd ad 04 5a bc 03 4d 33 3b
       -0.05204482 -0.037372254 -0.013306779 0.0027359135
000060 bc 4b 30 3c bc 4b 46 3b 7e e5 eb bb a7 30 06 3c
       0.010760244 0.0030257544 -0.0071989885 0.008190311
000070 d3 1a 94 bc d2 3c f9 bc bd 49 7f 3c ac fc 56 3c
       -0.018079197 -0.03042451 0.015581545 0.013121765
000080 c3 23 ed bd e2 0a 68 bc 47 d6 92 3c d5 05 21 3c
       -0.11579087 -0.014162751 0.017924441 0.009828051
000090 59 ff 1a 3d df 52 b0 3d 35 98 1b bd a4 ff 20 39
       0.037841175 0.086095564 -0.037986953 0.00015354023
0000a0 a3 79 7e 3d 3a f6 8a 3b b5 02 30 3d dc 68 d5 bd
       0.06212772 0.0042407783 0.04297133 -0.10420391
0000b0 9b 3b 83 bc 38 70 5c 3d 47 fb c4 bc db 08 88 bd
       -0.016019633 0.053817958 -0.0240456 -0.06642314
0000c0 02 91 d7 bc 47 67 aa 3d 3c 4d d9 3c 8a a4 27 3c
       -0.026314262 0.0832048 0.026526086 0.0102321
0000d0 8a ef e7 3c 3b 32 f9 3c 4e 92 c5 bd 21 4d 0b 3e
       0.028312463 0.03041946 -0.09647046 0.13603641
0000e0 fe 22 4a bd 91 14 66 bc a2 c7 1a 3b ae 6e 1a bc
       -0.049349777 -0.014042989 0.0023617526 -0.009425802
0000f0 13 4d 85 3d a1 28 a7 bc 6e 1b fc bd 51 cb 68 bd
       0.06508841 -0.020405116 -0.12309919 -0.056834523

ar_mean_lin.weight f4 [1, 64]
000000 12 4b 9b bc e0 6d 1c 3d f9 09 ae bc 93 4c 8a 3b
       -0.018956695 0.038190722 -0.02124499 0.004220554
000010 c9 5e 89 3c e9 ec 59 3c 87 0c c6 3c c6 d5 dc bc
       0.01676883 0.013301113 0.024175895 -0.026957404
000020 ee 0b ae 3b e2 11 0e bc e9 a0 1e bd dd 20 0e 3c
       0.0053114807 -0.008671256 -0.038727675 0.008674827
000030 1d 35 c4 bc bd 6b 30 bb b1 37 96 3c fa 1d 8b bc
       -0.023951108 -0.0026919686 0.018337103 -0.016982067
000040 9b 4f 11 3c 29 f9 a6 bc b6 63 a3 bc dd f2 a9 3c
       0.008869077 -0.02038248 -0.019945007 0.020745689
000050 70 33 4a bc df 62 ef bb a9 6b a6 bc e8 68 e7 3c
       -0.012341365 -0.0073054875 -0.020315008 0.028248265
000060 ec 44 d5 ba 03 11 a8 bb d8 3a 03 3d e0 13 91 bc
       -0.0016271151 -0.005128981 0.03203854 -0.017709672
000070 a6 aa 0f 3d 4a 45 b1 bc 73 e3 4b bc 92 32 4b 3c
       0.035074852 -0.021639485 -0.012444365 0.012402194
000080 a0 7e f4 3b 30 8f a0 bb fc cc 04 3c 47 38 f5 bc
       0.007461384 -0.004899882 0.008105513 -0.029934062
000090 7f 88 02 3c 08 6f 4f 3c b9 8c 7c bc be 94 c6 bc
       0.0079671135 0.012660749 -0.01541441 -0.024240848
0000a0 15 ba 4d 3d 5b f2 09 3d 8d 0a 72 bc 16 2c 52 3b
       0.05022629 0.033678394 -0.014773023 0.0032069734
0000b0 d6 86 85 3c b3 ac b6 3c 60 a6 e1 bb 6b 3e ac bc
       0.016299646 0.022299146 -0.0068862885 -0.021025857
0000c0 00 e2 be ba 60 f9 ee 3c 42 1d 00 3d f8 72 6e 3c
       -0.0014563203 0.029171646 0.031277902 0.014553778
0000d0 98 df ee bb 1f 1e c2 3c c4 18 e2 3c f4 d2 af 3c
       -0.007289838 0.023696003 0.0275997 0.021462895
0000e0 73 b5 03 3d 9d 1d 22 bc 6e 7f 60 bb 3e 3c 94 3d
       0.032155465 -0.009894756 -0.0034255642 0.07238053
0000f0 40 81 fa 3c 05 81 8d ba a1 37 5f 3d f7 95 bb 3e
       0.03057921 -0.0010795897 0.05449641 0.36637852

ar_logvar_lin.weight f4 [1, 64]
000000 fb d6 4b be e7 6e 35 3e 92 61 f1 bd 53 b1 7f 3c
       -0.19906227 0.17718087 -0.11786188 0.015606242
000010 c9 62 08 be 03 be 92 bb 46 44 0b 3d 4b f2 06 be
       -0.13318934 -0.0044782176 0.034000657 -0.13178365
000020 82 c6 7b 3d 70 6c 6f bd ae db 30 be d8 aa 46 be
       0.06146861 -0.058453023 -0.17271301 -0.19401109
000030 d0 68 29 be 31 00 a3 bd a4 25 07 3d 3b 9e 18 be
       -0.16543889 -0.07959021 0.03299488 -0.1490411
000040 96 be ab 3d 51 9b 30 be 37 38 6e be 7c 0c d9 bd
       0.08385961 -0.17246749 -0.23263632 -0.10598084
000050 03 6e 79 bd 40 05 30 ba 77 70 1d be 3e 43 63 bd
       -0.06089593 -0.00067146495 -0.15374933 -0.05548405
000060 44 aa 5d 3d 8d c8 4b bc d4 66 60 3d 16 c0 b9 bd
       0.054117456 -0.012437952 0.054785565 -0.090698406
000070 88 18 18 bd 1a c6 74 bc 6b 11 91 bd 07 2d b1 3d
       -0.03713277 -0.014939809 -0.070834 0.086511664
000080 e5 2d 5b 3d dc 7d e9 bd c4 2d a9 bc 67 db f3 bd
       0.053510565 -0.11400959 -0.020651706 -0.11907082
000090 e8 b5 d2 3b b8 dd 8f 3d 3f 7e 33 be ff 7e 1e be
       0.0064303763 0.07024711 -0.17528628 -0.15478133
0000a0 0b 01 56 3e 5e a4 29 bc 51 55 03 bd 17 c0 04 be
       0.20898835 -0.01035413 -0.032063786 -0.12963901
0000b0 6d 1f 81 bd fb af 08 3d 4e 06 b7 bb 3e ef d4 bd
       -0.06304822 0.033370953 -0.0055854684 -0.10397194
0000c0 5a 10 24 be a0 91 07 3e ae f4 43 3d bc 87 b6 bd
       -0.16021863 0.13239145 0.047840767 -0.08912608
0000d0 9c cc 1f bd 56 20 83 3d 79 15 c4 3c c3 de 1a 3c
       -0.03901349 0.06402652 0.02393602 0.009452525
0000e0 7c 4d 0b 3e 7c 73 63 bd 1a 50 b2 3c b0 7f 2f 3e
       0.13603777 -0.055530056 0.021766711 0.17138553
0000f0 24 6d 13 bd 5a e6 ae bc bf 07 3b bd 36 bb f7 3e
       -0.035992756 -0.021350075 -0.045661684 0.48385018
