experiments/konrad/saved_models/online_expanding/hinge/model_step_5.pt (torch, 7434 bytes, 9 tensors)

A_gate f4 [9]
0	0xbb6dc217	-0.0036279017
1	0x3bc2d28c	0.0059455093
2	0xb40c6a0b	-1.3077094e-07
3	0xbb2d897b	-0.002647965
4	0x3c148a43	0.009066167
5	0xb2c7accc	-2.3245228e-08
6	0x3afda80e	0.0019352452
7	0x3c112187	0.008858091
8	0x34b240e4	3.3202298e-07

B_gate f4 [120]
0	0xbb884480	-0.0041585565
1	0x00002873	1.451e-41
2	0x00006199	3.5011e-41
3	0xb379b1c4	-5.8136507e-08
4	0xbabaa304	-0.0014239256
5	0x2da39e6e	1.8601311e-11
6	0xb9fd75d0	-0.00048343698
7	0x00005602	3.0854e-41
8	0x80006269	-3.5303e-41
9	0x3a47d28b	0.0007622621
10	0x00002e4f	1.6612e-41
11	0x80003d81	-2.2063e-41
12	0x3319a229	3.5770572e-08
13	0x80003dd0	-2.2174e-41
14	0x8000445e	-2.4526e-41
15	0xbae41b9e	-0.001740325
16	0x2cab931d	4.876445e-12
17	0x00000a98	3.8e-42
18	0x3975252f	0.00023378873
19	0x115eb61b	1.7568828e-28
20	0x2901165c	2.8663148e-14
21	0x327fbda4	1.4886073e-08
22	0x000034af	1.89e-41
23	0x0fa04c62	1.580664e-29
24	0xbbe75123	-0.007059233
25	0x0394cdf5	8.745944e-37
26	0x8000163b	-7.975e-42
27	0x3ab97367	0.0014148772
28	0x29b61649	8.0862895e-14
29	0x800028dd	-1.4659e-41
30	0x359c46d0	1.1643515e-06
31	0x80005786	-3.1397e-41
32	0x00001c7f	1.0222e-41
33	0xbb2cde41	-0.002637759
34	0xb35003d2	-4.843225e-08
35	0x80003e91	-2.2445e-41
36	0x39833bb9	0.00025030764
37	0x8000588a	-3.1762e-41
38	0x800007a1	-2.737e-42
39	0x32d76a95	2.5077762e-08
40	0x80011b73	-1.01682e-40
41	0x80003106	-1.7586e-41
42	0xbaa7e9c1	-0.0012810753
43	0x0b65bdb1	4.4246504e-32
44	0x000059df	3.224e-41
45	0x39a0ae6c	0.00030647533
46	0xb6cdaaf3	-6.129377e-06
47	0x80005c64	-3.3144e-41
48	0x334a868e	4.7154167e-08
49	0x0000018e	5.58e-43
50	0x36385521	2.7467688e-06
51	0xbb6fc8e1	-0.003658824
52	0x0000023b	8e-43
53	0x000027ff	1.4348e-41
54	0x3b06618b	0.0020504917
55	0x00003b07	2.1175e-41
56	0x80005435	-3.0208e-41
57	0x33558161	4.9710597e-08
58	0x80004535	-2.4827e-41
59	0x00001664	8.032e-42
60	0xbb6b01c7	-0.0035859214
61	0xa3495c52	-1.09157814e-17
62	0x00004f52	2.8455e-41
63	0x397ffc1f	0.00024412617
64	0x2f3f6397	1.740673e-10
65	0x1e9ee07d	1.6821747e-20
66	0x3124e45e	2.3994953e-09
67	0x800018a6	-8.842e-42
68	0x0c735c78	1.8747865e-31
69	0x3a1c9af6	0.0005974019
70	0xb6007e36	-1.914695e-06
71	0xb5306609	-6.571359e-07
72	0x3abc4289	0.0014363091
73	0xaa8ace52	-2.4656888e-13
74	0x129dd0d8	9.959577e-28
75	0x3380a9e8	5.99137e-08
76	0x974aa2a0	-6.547498e-25
77	0x80005289	-2.9608e-41
78	0xbb75e199	-0.00375185
79	0x800061fe	-3.5153e-41
80	0x80001687	-8.081e-42
81	0x3a9f911c	0.0012173983
82	0x220f9da7	1.9463574e-18
83	0xb3bc9dde	-8.783148e-08
84	0x335fb23e	5.2083344e-08
85	0x1f42909b	4.1200713e-20
86	0xad7e6119	-1.4459788e-11
87	0xbb0a06af	-0.0021061113
88	0x000020cf	1.177e-41
89	0x000017b8	8.509e-42
90	0x3b06913c	0.0020533344
91	0x8000624c	-3.5262e-41
92	0xaa9456e6	-2.635038e-13
93	0x337993a3	5.8109105e-08
94	0x800026ee	-1.3965e-41
95	0x35b88864	1.3748763e-06
96	0xbb30dabd	-0.0026985847
97	0xb5ccf1a0	-1.5269507e-06
98	0x0000454f	2.4863e-41
99	0xb8044d7c	-3.1543415e-05
100	0xad2862dd	-9.571646e-12
101	0xb0c421ce	-1.4270485e-09
102	0x3319ca1e	3.5806913e-08
103	0x00005a03	3.229e-41
104	0xb0ac547f	-1.2538662e-09
105	0x3a12d9d4	0.0005601917
106	0xa5b98ab8	-3.2186384e-16
107	0xbac5c658	-0.0015089018
108	0x3a326ad0	0.00068060774
109	0x288954cd	1.5246832e-14
110	0x00001be9	1.0012e-41
111	0x33734b9e	5.664662e-08
112	0x80001d18	-1.0437e-41
113	0x80002ffa	-1.7211e-41
114	0xbb68d05f	-0.003552459
115	0x0f92bfea	1.4470634e-29
116	0x00001527	7.588e-42
117	0x3a0fe4e0	0.0005489122
118	0x2abb0bec	3.3226145e-13
119	0x8000124b	-6.562e-42

A_mean f4 [9]
0	0x8000524b	-2.9521e-41
1	0x80003582	-1.9195e-41
2	0xb0ebd67c	-1.715946e-09
3	0x00001ddf	1.0716e-41
4	0x00002323	1.2605e-41
5	0xb10e40a4	-2.0700464e-09
6	0x00000a4f	3.698e-42
7	0x80000795	-2.72e-42
8	0xb1424f62	-2.827584e-09

B_mean f4 [120]
0	0x8000527e	-2.9593e-41
1	0xaaa45200	-2.918915e-13
2	0x1f87f8b8	5.7586195e-20
3	0x3101c3dd	1.8883306e-09
4	0x36137059	2.1970102e-06
5	0x1f28355c	3.5619522e-20
6	0x00003ac9	2.1088e-41
7	0xad2d5e1a	-9.854806e-12
8	0x3336e408	4.258257e-08
9	0x800018ca	-8.893e-42
10	0x1b5dd440	1.8349273e-22
11	0xaafa09d2	-4.4415735e-13
12	0x309b80c2	1.131433e-09
13	0x96c72458	-3.217312e-25
14	0xa9b1f6de	-7.9032036e-14
15	0x8000095e	-3.36e-42
16	0xb7b28a48	-2.1283646e-05
17	0xb9094d71	-0.00013094187
18	0x00003971	2.0606e-41
19	0xa00b5304	-1.1801226e-19
20	0x9c335600	-5.9337284e-22
21	0x30df5bb0	1.6251445e-09
22	0x26949f80	1.0312796e-15
23	0xb716f24d	-8.997112e-06
24	0x80005560	-3.0627e-41
25	0x90653802	-4.5205434e-29
26	0xb6e06a99	-6.68813e-06
27	0x80001c1b	-1.0082e-41
28	0xabe54cdc	-1.6292761e-12
29	0x3216cf24	8.7782475e-09
30	0xb0f1c440	-1.7590835e-09
31	0x2aa9dfc6	3.0175705e-13
32	0xab9f2f6f	-1.1310795e-12
33	0x0000256b	1.3423e-41
34	0x35032bd8	4.8865104e-07
35	0xaa2cc8cd	-1.5346336e-13
36	0x800032e9	-1.8263e-41
37	0x911d801c	-1.2424593e-28
38	0x2416fada	3.2738545e-17
39	0x30835376	9.555225e-10
40	0x05eb26be	2.2113525e-35
41	0x2f98f52e	2.782285e-10
42	0x80004d85	-2.7809e-41
43	0x2b4c7020	7.2630964e-13
44	0x327c7750	1.4695459e-08
45	0x800032e1	-1.8252e-41
46	0x30323b06	6.48399e-10
47	0x2f591a64	1.9745411e-10
48	0x30bfe14d	1.3961113e-09
49	0x27806b7a	3.5643663e-15
50	0x389384d1	7.034245e-05
51	0x00005fb8	3.4337e-41
52	0xadcb8994	-2.3139525e-11
53	0x12b3338a	1.1309194e-27
54	0x80004ad0	-2.6838e-41
55	0xb3e50d60	-1.06660764e-07
56	0x970572bd	-4.311944e-25
57	0x2ea55ba0	7.519607e-11
58	0x2ec3ab2f	8.897982e-11
59	0xa9c22290	-8.621326e-14
60	0x80006521	-3.6278e-41
61	0x35678eea	8.6262173e-07
62	0x28d98374	2.4148848e-14
63	0x00001c59	1.0169e-41
64	0xa8098ce0	-7.635575e-15
65	0xa305810a	-7.2372695e-18
66	0x311d3a51	2.2879656e-09
67	0x25214bd4	1.3990216e-16
68	0x3389bcab	6.413878e-08
69	0x00001b13	9.712e-42
70	0x347fa0c0	2.3807206e-07
71	0x36e8ea55	6.9414186e-06
72	0x80001866	-8.753e-42
73	0x8dca6733	-1.2474055e-30
74	0xb8872d88	-6.4457825e-05
75	0xb0621e44	-8.226133e-10
76	0x9824eb20	-2.131521e-24
77	0x3435d7be	1.6935425e-07
78	0x00003cd3	2.182e-41
79	0x333ccac6	4.3956582e-08
80	0x2c0f1036	2.0330521e-12
81	0x000006ae	2.396e-42
82	0xa0b163d3	-3.0051024e-19
83	0xa0b52c64	-3.0691968e-19
84	0x3098b8ac	1.1111942e-09
85	0x1e601efc	1.1864869e-20
86	0x9b980ad2	-2.5153283e-22
87	0x00003915	2.0477e-41
88	0x34339ad5	1.6727002e-07
89	0xab17b1a6	-5.3892513e-13
90	0x800033d5	-1.8594e-41
91	0x35c95534	1.5000464e-06
92	0xb1bc8070	-5.486122e-09
93	0x30c63bd0	1.4423396e-09
94	0x10c4d962	7.76433e-29
95	0x9c05cba8	-4.426923e-22
96	0x800012d7	-6.758e-42
97	0x30771a6a	8.9895613e-10
98	0xad45038a	-1.1198939e-11
99	0x800008a6	-3.102e-42
100	0xb4bfd45a	-3.5731028e-07
101	0xb401dd31	-1.209453e-07
102	0x30dafdc4	1.5933712e-09
103	0xb0289f56	-6.1344474e-10
104	0xb98b1900	-0.00026530772
105	0x0000110e	6.118e-42
106	0xaf1fc81e	-1.4532062e-10
107	0xa432b56a	-3.875126e-17
108	0x000054c3	3.0407e-41
109	0x242faa1f	3.8091174e-17
110	0x338db3e3	6.598545e-08
111	0x311217e4	2.1259376e-09
112	0xa5a9f95e	-2.9485805e-16
113	0x1ce81ff1	1.5360729e-21
114	0x80000ee6	-5.345e-42
115	0x36068a63	2.0048108e-06
116	0xb2424a78	-1.13092185e-08
117	0x8000167e	-8.069e-42
118	0x2e689926	5.2886716e-11
119	0x9f432a04	-4.132761e-20

A_logvar f4 [9]
0	0xbeeba396	-0.46023244
1	0xbb754950	-0.003742773
2	0x3dd26a09	0.10274131
3	0x3ec5150b	0.38492617
4	0x3ecb33d7	0.39687988
5	0xbe3eecc0	-0.18645
6	0xbf01dbc9	-0.5072599
7	0x3e07cfc2	0.13262847
8	0xbd22b4fd	-0.039723385

B_logvar f4 [120]
0	0x3e88c6c6	0.26714152
1	0x8cd2dd0a	-3.2488656e-31
2	0x9a6fc2a2	-4.9581265e-23
3	0xbcc48def	-0.02399346
4	0xb1eb70f3	-6.852241e-09
5	0x18b3426c	4.6337484e-24
6	0xbe6d36a5	-0.23165376
7	0x1783938c	8.502923e-25
8	0x26ca51be	1.4038722e-15
9	0x3c374767	0.011186457
10	0x1dd34398	5.5921125e-21
11	0x32348c7f	1.0509324e-08
12	0xbcf55752	-0.029948864
13	0x2a9a3d5f	2.739848e-13
14	0x37d9b28d	2.595156e-05
15	0xbe459308	-0.19294369
16	0xa78ec5bc	-3.96273e-15
17	0x2b0bcf28	4.9670207e-13
18	0x3e350658	0.17678201
19	0x8927403e	-2.01321e-33
20	0x391e4bd4	0.00015096302
21	0xbd0fded1	-0.035124604
22	0x2e860290	6.09407e-11
23	0x239e33b0	1.7152285e-17
24	0xbda1bfcd	-0.07897911
25	0x33a95e38	7.886814e-08
26	0x1c8758ab	8.956471e-22
27	0x3ebb4618	0.36576915
28	0x2807cff1	7.5390955e-15
29	0x07f04c9e	3.6156218e-34
30	0xbdaf2b42	-0.08553173
31	0x279ecf2a	4.4078417e-15
32	0x2d747df5	1.3897762e-11
33	0xbe0411d5	-0.12897427
34	0xb4a25b0c	-3.0241097e-07
35	0x99946c6a	-1.534663e-23
36	0x3e81aed8	0.25328708
37	0xabb4518e	-1.2812405e-12
38	0x32c1d2ae	2.2563963e-08
39	0xbd4c12ea	-0.049822725
40	0xa325c800	-8.9870196e-18
41	0xb13cbc10	-2.7464502e-09
42	0x3dad5d03	0.08465006
43	0xaad9eedc	-3.8712685e-13
44	0x811c76e3	-2.8737972e-38
45	0xbd02cd0b	-0.031933825
46	0x1f9d82f3	6.6708724e-20
47	0x2fbeb9e4	3.4692882e-10
48	0x3b0bccd2	0.00213318
49	0xafc0c6b0	-3.5065773e-10
50	0x15a5c225	6.6949275e-26
51	0xbe1adc48	-0.15123093
52	0x9a5d50e4	-4.5767072e-23
53	0xa3f8bc8f	-2.6968072e-17
54	0xbe29dd15	-0.16588242
55	0x8e2bf940	-2.1197387e-30
56	0x2bb0a5c0	1.2551557e-12
57	0xbbe3c9ce	-0.006951547
58	0xa4df5dca	-9.686972e-17
59	0x3441a375	1.8033991e-07
60	0x3d09e21f	0.03366291
61	0x2ce310c8	6.453591e-12
62	0x35c27ae0	1.4489888e-06
63	0x3e09ef4f	0.13470195
64	0xad14a5c1	-8.449631e-12
65	0xae4383a4	-4.4454787e-11
66	0xbd569e87	-0.052397277
67	0xa14ca37f	-6.9334274e-19
68	0x2e035779	2.9863643e-11
69	0xbe024e3b	-0.12725155
70	0x276faf28	3.3262865e-15
71	0x268bd1bf	9.701914e-16
72	0x3da974ca	0.08274229
73	0x2d7a3541	1.42226795e-11
74	0x1f67eac5	4.911035e-20
75	0x3d0d79e8	0.034540087
76	0xa30bdca4	-7.5819276e-18
77	0x361e698c	2.360527e-06
78	0xbdf19082	-0.11795141
79	0x309b789b	1.1312012e-09
80	0xa6e8b032	-1.6145992e-15
81	0xbe960069	-0.29297188
82	0x2e2d3cae	3.938954e-11
83	0xb579d5fc	-9.3071117e-07
84	0xbd2eede7	-0.04270735
85	0x2ba88400	1.1973755e-12
86	0x2521f3c5	1.4047116e-16
87	0x3d8e3f1a	0.069456294
88	0x35a9e929	1.265934e-06
89	0x35ca6660	1.5079968e-06
90	0xbe3137fd	-0.17306514
91	0xa493f7f4	-6.4171137e-17
92	0xa45d0f4c	-4.7934693e-17
93	0x3c39a64f	0.011331155
94	0x111fe644	1.2613844e-28
95	0x246fe0d6	5.2015307e-17
96	0xbdd49b75	-0.103812136
97	0x9b00ca28	-1.0653232e-22
98	0xb7af3de0	-2.0890438e-05
99	0x3e310bd3	0.17289667
100	0x38af0aa4	8.346632e-05
101	0xb25b5c44	-1.27684565e-08
102	0x3e0dddb5	0.13854106
103	0x35697f6c	8.698469e-07
104	0xaf15c95c	-1.3623008e-10
105	0x3d4d6442	0.05014444
106	0x1418ac68	7.70804e-27
107	0x202050cc	1.357926e-19
108	0x3ecba067	0.39770815
109	0x2b0bb91a	4.96396e-13
110	0x30210b2b	5.858733e-10
111	0x3d8a3750	0.06748831
112	0x350cf56a	5.251119e-07
113	0xb612b897	-2.186314e-06
114	0x3dd4cfbf	0.10391187
115	0xb0f89bc0	-1.8088642e-09
116	0xa52bedf7	-1.4912511e-16
117	0xbe264e9d	-0.16240926
118	0xa72e41f4	-2.4183104e-15
119	0x206ac6be	1.9886329e-19

ar_gate_lin.weight f4 [1, 64]
0	0x3d9f20b6	0.07769911
1	0xbaa3113c	-0.0012441049
2	0x3c1cb277	0.009564034
3	0x3be39a3c	0.0069458764
4	0xbc6738fd	-0.014112708
5	0x3b66c663	0.0035213463
6	0xbc43f97b	-0.011961336
7	0xbd190345	-0.037356634
8	0x3cc6cee6	0.024268579
9	0xbcd48c6c	-0.025945865
10	0xbd065c02	-0.03280259
11	0xbc7ec220	-0.015549213
12	0xbccde3c5	-0.025133023
13	0x3d0fd60e	0.035116248
14	0xbd109c1e	-0.035305135
15	0x3d8c4f33	0.068510436
16	0xbd8b25f9	-0.06794352
17	0xbbd9ac51	-0.006642856
18	0xbd0e68fd	-0.034768093
19	0xbd058bf1	-0.03260416
20	0xbd430455	-0.047611553
21	0xbd276af5	-0.040873487
22	0xbbbfa3e1	-0.0058483933
23	0x3d48b23a	0.048998095
24	0x3cb87781	0.022517921
25	0xb9549fd0	-0.0002027743
26	0xbcce104f	-0.02515426
27	0xbc1abebf	-0.0094448915
28	0x3bf0f514	0.0073534343
29	0x3c854165	0.016266534
30	0x3cfc85cb	0.030825516
31	0xbadca09c	-0.0016832533
32	0xbe30e5bb	-0.17275135
33	0xbcab1f00	-0.020888805
34	0x3c2db19a	0.010601426
35	0x3ce1a25e	0.027543243
36	0xbc9275c8	-0.017878428
37	0xbd30ce7c	-0.04316567
38	0xbd910453	-0.07080903
39	0x3cfb9184	0.030709036
40	0x3d1da6ce	0.038489155
41	0x3c8ef445	0.017450461
42	0xbcd4c11e	-0.025970992
43	0xbd9b2679	-0.075756975
44	0xbbb106d5	-0.005402426
45	0x3b7c4a29	0.0038496351
46	0xbc059a37	-0.008154443
47	0xbc466b44	-0.012110535
48	0x3943dcd7	0.00018678918
49	0x3c7e7959	0.015531861
50	0xbc1e821e	-0.009674577
51	0x3c3398ce	0.010961724
52	0x3d1feecf	0.039046105
53	0xbd772a46	-0.06034305
54	0x3cf277d6	0.029598158
55	0xbda2a85c	-0.07942268
56	0xbc1feb40	-0.009760678
57	0xbcdf3abf	-0.027249692
58	0xbd19225e	-0.03738629
59	0x3dabf724	0.08396748
60	0x3d0fd348	0.035113603
61	0x3cf6be91	0.030120166
62	0xbe056b90	-0.13029313
63	0xbdd889e2	-0.10573174

ar_mean_lin.weight f4 [1, 64]
0	0xbcc89991	-0.024487289
1	0x3ca2ba9e	0.019864377
2	0xbbd9b22a	-0.0066435533
3	0xbb57dd2e	-0.003293823
4	0x3c680daa	0.014163414
5	0xbbbde896	-0.0057955487
6	0x3ad752f8	0.0016427925
7	0xbbde752b	-0.00678887
8	0xbbd36500	-0.006451249
9	0x3cd11a1d	0.025525147
10	0xbd05b66e	-0.03264468
11	0xbbcf0d0c	-0.006318694
12	0xbb977c3c	-0.004622964
13	0xbbb5431a	-0.005531681
14	0x3ca6bbe7	0.02035327
15	0xbb871c3a	-0.004123238
16	0x3a9a82b5	0.0011788221
17	0x3b8d0d42	0.004304559
18	0x3d3f45b2	0.046697326
19	0xbc201905	-0.00977159
20	0x3c5f73d9	0.01363846
21	0xbc894871	-0.016758176
22	0xbb82a9b6	-0.0039875163
23	0x3c545c57	0.012961469
24	0x3cfe797e	0.031063791
25	0x3c8ed803	0.017436987
26	0x3c38e6be	0.011285482
27	0xbc332448	-0.010933943
28	0x3cb70ac1	0.022343995
29	0xbcbdb119	-0.023155736
30	0xbb365370	-0.0027820729
31	0xbbb1234a	-0.005405818
32	0x3c0bd0ae	0.00853364
33	0x3ab5ff6e	0.0013885328
34	0x3b8244ec	0.0039755013
35	0xbc824c75	-0.015905598
36	0xbca24856	-0.019809883
37	0xbc2a1543	-0.010381046
38	0x3c779edd	0.01511356
39	0xbbe5cbe9	-0.0070128334
40	0x3b9152ba	0.0044349106
41	0x3d1e6dd2	0.03867895
42	0xbc22fac8	-0.009947486
43	0x3cd444d9	0.025911735
44	0x3cf0457c	0.029330008
45	0x3c815b4c	0.015790604
46	0xbb318ab2	-0.0027090725
47	0xbc113122	-0.008861812
48	0xbc0b9350	-0.008519009
49	0x3ca767bd	0.020435208
50	0x3c0c32cc	0.008557033
51	0x3cc7aaf5	0.02437351
52	0xbc530ffa	-0.012882227
53	0x3cd209d0	0.025639445
54	0x3c9bc8e1	0.019016685
55	0x3c158afd	0.009127376
56	0x3d00a46e	0.031406812
57	0x3c86c345	0.016450534
58	0xbc819423	-0.015817707
59	0x3d348bc9	0.044078622
60	0x3ade26dd	0.0016948838
61	0x3cf3355d	0.029688532
62	0x3d9b7aa4	0.07591751
63	0x3eb259a7	0.34834024

ar_logvar_lin.weight f4 [1, 64]
0	0xbde92d7d	-0.11385629
1	0x3da70476	0.08155148
2	0x3bfc408f	0.0076981257
3	0xbd265bb0	-0.040614784
4	0x3b8384dc	0.004013641
5	0x3ce1642a	0.027513582
6	0xbcc09b87	-0.023511661
7	0xbd9d35e4	-0.076762944
8	0x3bf4b4cb	0.0074678413
9	0x3bc04553	0.005867639
10	0xbe290409	-0.16505446
11	0xbe2a67f8	-0.16641223
12	0xbdaa00a3	-0.08300903
13	0xbc8e8248	-0.017396107
14	0xbdd37b46	-0.10326247
15	0x3c6056c7	0.013692564
16	0xbe0ecf19	-0.13946189
17	0x3d5cdc92	0.05392129
18	0x3d903fce	0.0704342
19	0xbda25dea	-0.07928069
20	0xbac1e8c8	-0.0014794106
21	0xbe2605bd	-0.16213126
22	0xbd8a492f	-0.0675224
23	0x3bf24941	0.0073939865
24	0x3e5e02b7	0.21680723
25	0xbd58f27c	-0.052965626
26	0xbd74f961	-0.05980814
27	0xbd8140f0	-0.06311214
28	0x3d626a2c	0.055277035
29	0x3cfca45f	0.030840097
30	0x3c8294b0	0.01594004
31	0xbdd514e2	-0.10404374
32	0xbe307a27	-0.17234097
33	0xbd8a6def	-0.067592494
34	0x3d69829c	0.057009324
35	0xbde06eb5	-0.10958616
36	0xbdcb4bbd	-0.09926555
37	0xbe8a5f48	-0.2702582
38	0xbdd6f4bd	-0.10495899
39	0xbdf8ec2b	-0.121544205
40	0x3e0134db	0.12617819
41	0x3d98df92	0.07464518
42	0xbe473583	-0.19454007
43	0xbd9b88d8	-0.0759446
44	0xba4ad710	-0.0007737735
45	0x3ceeeba2	0.029165093
46	0xbda9eaec	-0.08296761
47	0xbda3b0cd	-0.079927064
48	0xbdded3ae	-0.108802184
49	0xbd8e7ea9	-0.06957752
50	0x3d400f90	0.04688984
51	0xbd4c8d65	-0.04993953
52	0x3bf2a79f	0.007405236
53	0xbd7bb412	-0.061451025
54	0x3e0bb42c	0.13642949
55	0xbe4e79ba	-0.20163622
56	0xbc692b9d	-0.01423159
57	0x3cef528c	0.029214166
58	0xbdea55ed	-0.1144217
59	0x3e13f465	0.14448698
60	0xbd02fef6	-0.03198143
61	0x3da6fd8c	0.08153829
62	0x3d240321	0.040042046
63	0x3ed3ece8	0.41391683
