experiments/konrad/saved_models/online_expanding/hinge/model_step_7.pt (torch, 7434 bytes, 9 tensors)

A_gate f4 [9]
00000000: 02bc a735 5fce c515 1642 0635 293e 3e35
00000010: 87ac ef96 8f08 51b6 f3eb 5bb5 28ce 0f97
00000020: 1f26 9936
1.2497187e-06 7.989326e-26 5.001506e-07 7.087097e-07 -3.8721413e-25 -3.1148409e-06 -8.192721e-07 -4.6466e-25
4.564193e-06

B_gate f4 [120]
00000000: a1b9 36b4 65b3 0000 3d23 0080 23f1 20b5
00000010: 224f 0000 ea59 0000 7f7a be95 12f1 0080
00000020: 3d1c 0000 0b49 9db5 9b0a 0080 0cc6 46a1
00000030: b353 ba35 3126 0080 d36f 061f aaa5 1916
00000040: 074d 0080 9271 62b4 278a 5ab4 fc28 0080
00000050: 1943 dc82 fae1 d4b2 6014 0000 ac61 0080
00000060: fc9e 9c96 671a 0080 cd46 0000 9858 0bb5
00000070: 7632 970f f917 0000 0f96 ad35 0515 0080
00000080: cf55 0000 4216 0c95 1a35 0080 c54c 0000
00000090: 5a90 78b4 9507 0080 1d15 0000 ea01 b635
000000a0: a861 f593 a191 0793 8e68 5e96 aa0d 0080
000000b0: 5c01 0080 4f34 37b4 792b 0080 5b53 0000
000000c0: ab05 8635 5759 0000 8e15 0000 be40 0916
000000d0: 0622 0080 651a 0000 d5ff 96b4 bdd8 f218
000000e0: 245c 0080 e3f2 aa35 0cc7 ba36 2b45 0000
000000f0: 6029 3796 1cb8 d834 cadf d996 da01 b2b3
00000100: c51c 0000 8141 0000 6d03 6635 ba91 bf19
00000110: 8f1a 0000 1e79 0f96 2338 0080 f022 0000
00000120: 47a7 06b5 e145 0080 9453 0000 0897 b6b7
00000130: 0807 0080 ad9a ae8c 95f6 5a16 4b20 0000
00000140: c609 0080 6b62 22b5 c469 392a a946 0000
00000150: 442e e737 bfb8 459a 973d 0000 506f 3896
00000160: 9a01 0000 097e ab25 555e c0b4 f342 0000
00000170: 303c 0080 25a0 81b3 2e60 0080 090b 0080
00000180: 627d a016 e316 0000 7826 ea26 6763 0433
00000190: 7493 0480 c21b 0080 b306 8735 861b 0000
000001a0: a938 0080 63ab 5996 be00 0080 836f d31f
000001b0: bae5 d4b3 9027 0080 c71f 0000 5af6 3733
000001c0: d92b 0000 f91e 0000 631d 0397 9223 0080
000001d0: 6009 0080 fc2c 1334 7249 0000 030b 0080
-1.7017602e-07 6.4355e-41 -1.2641e-41 -5.9955545e-07 2.8388e-41 3.2255e-41 -7.6933654e-26 -8.648e-41
1.013e-41 -1.171867e-06 -3.805e-42 -6.734712e-19 1.388244e-06 -1.37e-41 2.8468103e-20 1.2411516e-25
-2.7632e-41 -2.1089207e-07 -2.0353092e-07 -1.4702e-41 -3.2364607e-37 -2.478281e-08 7.309e-42 -3.5038e-41
-2.5303493e-25 -9.471e-42 2.5399e-41 -5.1910456e-07 1.4909186e-29 8.6e-42 1.2933177e-06 -7.54e-42
3.0782e-41 -2.8290333e-26 -1.9049e-41 2.754e-41 -2.3149315e-07 -2.72e-42 7.574e-42 1.3560614e-06
-6.194299e-27 -1.7111196e-27 -1.7966009e-25 -4.902e-42 -4.88e-43 -1.7062233e-07 -1.5595e-41 2.9902e-41
9.985428e-07 3.2049e-41 7.732e-42 1.1087201e-25 -1.2205e-41 9.469e-42 -2.812582e-07 6.2774384e-24
-3.3054e-41 1.2736676e-06 5.566404e-06 2.4813e-41 -1.4795678e-25 4.0367092e-07 -3.5199472e-25 -8.289108e-08
1.032e-41 2.3498e-41 8.568666e-07 1.9807796e-23 9.527e-42 -1.1589666e-25 -2.0138e-41 1.2533e-41
-5.016231e-07 -2.5068e-41 2.9982e-41 -2.176642e-05 -2.522e-42 -2.6902037e-31 1.7687707e-25 1.1585e-41
-3.506e-42 -6.049292e-07 1.6467996e-13 2.5348e-41 2.755889e-05 -4.0887882e-23 2.2094e-41 -1.4898526e-25
5.75e-43 2.9749176e-16 -3.5831422e-07 2.4017e-41 -2.1591e-41 -6.036161e-08 -3.4503e-41 -3.959e-42
2.5928522e-25 8.21e-42 1.6247439e-15 3.082405e-08 -4.20238e-40 -9.958e-42 1.0060234e-06 9.874e-42
-2.0326e-41 -1.75832e-25 -2.66e-43 8.9546457e-20 -9.913806e-08 -1.4192e-41 1.14e-41 4.2832063e-08
1.573e-41 1.1111e-41 -4.2365474e-25 -1.276e-41 -3.363e-42 1.3706807e-07 2.6347e-41 -3.95e-42

A_mean f4 [9]
00000000: 3fd9 3c0b 3d35 0080 ef21 0080 e344 728b
00000010: ca08 0080 6b0a 0080 2e7d 8d0b ed27 0080
00000020: 1001 0080
3.637092e-32 -1.9098e-41 -1.2173e-41 -4.665933e-32 -3.153e-42 -3.737e-42 5.4499574e-32 -1.4323e-41
-3.81e-43

B_mean f4 [120]
00000000: 8090 c78b f81a 361d c0be e81e ba2a 0080
00000010: 900a 262f 2e4c 1594 ed61 0080 0008 6133
00000020: 1459 892a 40d5 3708 503c a038 60f1 28b8
00000030: 762d 0000 343f 7c32 0b89 272d ac4f 0080
00000040: 423e 9937 f3bc 92ac 00d2 f30a 3067 730f
00000050: d6d9 5723 1346 0000 81d7 16ac 0893 3cb9
00000060: 4137 0000 006f 9c2c 5c97 bcb2 de6e c18b
00000070: 0c46 afb9 ec69 d4a7 bd2b 0000 92b5 cc2a
00000080: 0560 ada9 b104 0080 778f 29a2 802e 9cb4
00000090: 506b bc8a 672e f12d 5e55 d61d 9b36 0000
000000a0: 96fe 3db0 13cd 4f16 690e 0000 376b a01c
000000b0: 62de 33ab 1e31 e108 9ead 1cb2 5858 51b1
000000c0: 3c5c 0000 d24b b138 c009 2eaf 4100 0080
000000d0: 9014 da9b a025 83ae c252 9a0b 145a 5c36
000000e0: 708e 1f18 5d34 0000 0368 33ba 45b7 4737
000000f0: 7240 0080 5098 be36 20eb 41ac 284b f509
00000100: 0692 e7a1 086b d734 de0f 0080 be47 eab3
00000110: 7a46 a8a1 0e3f 0080 6059 7b18 68ca 142c
00000120: 7ca3 390b 706e e6b7 c038 dca1 7215 0000
00000130: 6936 4610 7cdf 832e b943 0000 20e0 8c9d
00000140: eabd 06ac 0cd0 810a a22d 2a97 f82d a2b1
00000150: 5e10 0080 fc0a f697 805b 582a 6755 0000
00000160: 882c b1a4 e1db 0227 c0f0 8487 60e2 0613
00000170: 3c2c 8e80 5b0d 0000 ce7c 9c24 0c23 402a
00000180: 2134 0000 c831 8c98 e495 a2a8 daa9 6e8b
00000190: 415b 8837 376b a01c c31a 0080 8e36 0829
000001a0: a60f 7bb7 690a 0080 1af8 099b 78c4 9db3
000001b0: cbe4 4e8c f130 08b3 b28f 7109 1740 0080
000001c0: c0fe ea9f 4838 1bb1 541a 0080 b427 8924
000001d0: 5606 8937 59cd c90a d0ed 111f 28cb 3c31
-7.686943e-32 2.4101442e-21 2.4642848e-20 -1.5327e-41 1.5101365e-10 -7.5376014e-27 -3.5129e-41 5.239417e-08
2.43979e-13 5.5320234e-34 7.6406286e-05 -4.027912e-05 1.6308e-41 1.4682701e-08 9.523281e-12 -2.8581e-41
1.8268012e-05 -4.170547e-12 2.3479042e-32 1.2000698e-29 1.1701302e-17 2.5138e-41 -2.143591e-12 -0.0001798385
1.9821e-41 4.44611e-12 -2.195491e-08 -7.450771e-32 -0.0003343079 -5.895666e-15 1.569e-41 3.636367e-13
-7.6994e-14 -1.683e-42 -2.297972e-18 -2.9091098e-07 -1.8144108e-32 2.7419135e-11 5.6733596e-21 1.9589e-41
-6.911959e-10 1.6786037e-25 5.17e-42 1.0615626e-21 -6.3902193e-13 1.3553242e-33 -9.119871e-09 -3.046372e-09
3.3087e-41 8.45414e-05 -1.5828672e-10 -9.1e-44 -3.6078363e-22 -5.963874e-11 5.944316e-32 3.2834987e-06
2.062218e-24 1.8784e-41 -0.0006843807 1.1903995e-05 -2.3119e-41 5.6801728e-06 -2.755747e-12 5.905228e-33
-1.5691821e-18 4.0124746e-07 -5.692e-42 -1.0909524e-07 -1.1402778e-18 -2.262e-41 3.2486112e-24 2.1144423e-12
3.5752696e-32 -2.7469563e-05 -1.4922801e-18 7.693e-42 3.909053e-29 5.996889e-11 2.4294e-41 -3.728943e-21
-1.9147969e-12 1.2500507e-32 -5.498756e-25 -4.7200466e-09 -5.871e-42 -1.590015e-24 1.9216399e-13 3.0637e-41
-7.683695e-17 1.816032e-15 -2.0002653e-34 1.702479e-27 -1.3056509e-38 4.791e-42 6.786564e-17 1.7065185e-13
1.87e-41 -3.6239418e-24 -1.8050618e-14 -4.5964915e-32 1.6254957e-05 1.0615626e-21 -9.6e-42 3.0245385e-14
-1.4964409e-05 -3.734e-42 -1.141254e-22 -7.34662e-08 -1.5938513e-31 -3.170948e-08 2.9076885e-33 -2.2991e-41
-9.9524303e-20 -2.258746e-09 -9.445e-42 5.948154e-17 1.6334623e-05 1.9432839e-32 3.0901658e-20 2.7473082e-09

A_logvar f4 [9]
00000000: f5b0 c63e 884b 23be 8371 b93e 2743 34be
00000010: 7d99 cfbe cffb 713e 4646 ee3e 6f87 8abe
00000020: c10c a93d
0.38806883 -0.15946782 0.36219415 -0.17603742 -0.4054679 0.23631214 0.4653799 -0.27056453
0.08254386

B_logvar f4 [120]
00000000: be9a 1bbe 038f 8f33 3653 0000 d61c 46be
00000010: ead7 9536 c1be d033 b64a 8c3e 5c9a 0628
00000020: bf24 a5b3 f6bf 58bd 38e6 b42e bbbe f82d
00000030: 0055 57be 0cea 84b9 88ad af35 9a14 633e
00000040: 7493 9e38 b00e a5b2 6679 54be d6cc c4ae
00000050: de51 71b1 bde6 d2bc 8136 861b 40d5 7a99
00000060: 3b6d f73c af81 7626 a39f 489f 1adf 7ebe
00000070: aa96 412d 64df a42f b4dc a73d b38c fab1
00000080: cc42 612e 7d1e 6d3d 78bb aab9 ee99 8e9c
00000090: f355 95be 4f1a 0035 5f8b 3332 5ac9 d4bd
000000a0: 1a1c cdb1 5b22 2da4 f7fb 99bd 9c26 e1af
000000b0: 6cc3 8d1e 7192 c6bd a4bc c9b8 5114 abb8
000000c0: cdb1 ffbd 90fe 0927 516f cbaf 9860 cc3d
000000d0: 442e 0b2e abab edaa 73a8 bdbc 02ee e3b8
000000e0: 4ada 3238 f890 64bd 45f0 0831 802e d128
000000f0: 9897 a4bd 8829 1398 f008 0532 cc52 aabd
00000100: e4e4 c2b6 4a17 c937 b5c1 0bbd a24f 07b7
00000110: 1288 cdaf d7d1 6c3e 0070 5327 b326 f525
00000120: 48a8 15be 9ada 7507 5026 912b 4973 24bd
00000130: 3609 2b39 e82b ce2c 2cd4 c33d 157c f324
00000140: 7a6f 58b9 60a0 9dbb 79e1 2424 a0b8 5cb3
00000150: 0bee 39be 498f b935 70be 8da7 3fea 533d
00000160: 5060 29a3 ac41 9630 6e83 bb3d 7026 342e
00000170: f3c5 969e acf3 7dbd 36a6 29b9 6013 dfac
00000180: 3818 2b3e 4ad5 d723 5443 852c d077 56be
00000190: ed75 6eb0 f862 1ab7 167a 19be 668b 8333
000001a0: fcb6 69b8 aeaa b33d 7eba 6535 f883 441b
000001b0: 3dd6 96be 1e55 f6a8 de9b cd1b 328c 51bd
000001c0: 1cf3 9ab7 5edd d239 6588 06bd 60aa 7937
000001d0: c0a4 3634 8276 7cbd 6072 2d17 2015 0a29
-0.15195748 6.68497e-08 2.985e-41 -0.19346938 4.4656817e-06 9.720453e-08 0.2740075 7.471966e-15
-7.690095e-08 -0.052917443 8.2263474e-11 2.8279037e-11 -0.21028519 -0.0002535138 1.308902e-06 0.22175828
7.5614924e-05 -1.9215207e-08 -0.20749435 -8.949434e-11 -3.5116652e-09 -0.02574479 2.2203663e-22 -1.29677626e-23
0.030203452 8.552415e-16 -4.2483696e-20 -0.24889794 1.1004234e-11 2.9990155e-10 0.08196393 -7.2919533e-09
5.1218405e-11 0.057890404 -0.00032564602 -9.436562e-22 -0.29167137 4.7722e-07 1.0450861e-08 -0.10389967
-5.96948e-09 -3.7542495e-17 -0.075187616 -4.0954695e-10 1.500978e-20 -0.096959 -9.619564e-05 -8.1576996e-05
-0.12485085 1.9150568e-15 -3.700458e-10 0.09979361 3.1646033e-11 -4.2218776e-13 -0.023151612 -0.00010868536
4.2641805e-05 -0.055802315 1.9927182e-09 2.3223827e-14 -0.08036727 -1.9020273e-24 7.743651e-09 -0.083165735
-5.808297e-06 2.3971912e-05 -0.03412028 -8.065168e-06 -3.7385967e-10 0.23126923 2.9342848e-15 4.252695e-16
-0.14614975 1.8495993e-34 1.0313504e-12 -0.040149007 0.00016311262 5.8597467e-12 0.09561953 1.05594654e-16
-0.00020640893 -0.004810378 3.5752814e-17 -5.1390657e-08 -0.18157212 1.3825276e-06 -3.9341834e-15 0.051737066
-9.181903e-18 1.0932601e-09 0.091559276 4.09614e-11 -1.5963738e-20 -0.06199996 -0.00016179014 -6.3401923e-12
0.16708457 2.3400678e-17 3.7875623e-12 -0.20944142 -8.675148e-10 -9.202158e-06 -0.14987978 6.125519e-08
-5.5721946e-05 0.08772789 8.558053e-07 1.6255381e-22 -0.29460326 -2.73484e-14 3.4015132e-22 -0.05115909
-1.8471437e-05 0.00040219253 -0.03284492 1.4881225e-05 1.7010007e-07 -0.061636455 5.6043676e-25 3.066048e-14

ar_gate_lin.weight f4 [1, 64]
00000000: c97b 8cbc 85a5 fe3b ff27 fabb cd94 d03b
00000010: 3017 f7bc ba1c 233d 17f8 18bd 8104 3abc
00000020: 62ea bbbc 5d7c a3bc 5b23 09bd a313 243c
00000030: bf5f d1bc a095 573b 17f2 eebc 9f90 2a3c
00000040: 8269 08bd ac1a 013d 6e53 25bd b64d 67bd
00000050: da78 a1bc af1a f8bc 969d e6bc 6007 b13d
00000060: 5892 a43c 41bf 9c3d eb31 62bc 0947 8e3b
00000070: 2913 ef3b 2f08 4ebb 74a6 833d 217e b93b
00000080: f853 90bd 596a a1bd 8a72 18bd 8869 5a3d
00000090: 945a a2bc 3256 efbc 6a90 2ebd 4acd 2f3d
000000a0: 5283 2d3d a070 2a3d 252d 11bd 0faf adbd
000000b0: 68cf a83c d700 07bd a97a 17bc e267 1c3c
000000c0: b805 cd3a 69db 48bc bf93 b6bd ab35 b23d
000000d0: 74ac 143b 481c 27bc 13ea c23c 7510 f9bc
000000e0: acb1 8abc 8eb9 46bc d17e 78bb a204 4bbc
000000f0: e219 fb3c 098a 503d b881 99bd adfa 52be
-0.01714887 0.0077711963 -0.0076341624 0.0063653947 -0.030162424 0.039822318 -0.037345972 -0.011353613
-0.02293891 -0.019956762 -0.033480983 0.010014447 -0.02555835 0.003289558 -0.029168172 0.010410457
-0.033303745 0.031519577 -0.040362768 -0.056470595 -0.019710947 -0.030286161 -0.028151315 0.08643985
0.020089313 0.07653666 -0.013805847 0.004341964 0.0072959852 -0.0031437983 0.06428233 0.0056607877
-0.07047266 -0.07881612 -0.037218608 0.0533233 -0.019818582 -0.029215906 -0.042618193 0.04292039
0.042361565 0.041611314 -0.035443444 -0.084806554 0.020606712 -0.032959785 -0.009245553 0.009546252
0.0015641963 -0.012259343 -0.08914899 0.087016426 0.0022685798 -0.010199614 0.023793256 -0.030403355
-0.016930424 -0.012129201 -0.0037917385 -0.012391241 0.03065199 0.05091289 -0.07495445 -0.20603438

ar_mean_lin.weight f4 [1, 64]
00000000: 910c 7cbc fdd9 aa3b 1017 caba 062a 4bbc
00000010: 790d ee3c 2636 e6ba c6ea c43b 62c2 42bc
00000020: e9b4 b6bb 8eb7 873c d996 99bc b2ef 43bb
00000030: f802 9ebb bd15 cf3b 4e5c 983b 53cc 41ba
00000040: 0730 3d3b e29c 963a 23d4 313d 5d92 17bc
00000050: 1080 8fba 559e f3bb 92a0 84bc 519a 053d
00000060: f619 b83c 9e76 8a3c e18d 1f3b d48a 48bc
00000070: 549d 953c 8e9b 87bc dbe8 f03a 4ba8 04bc
00000080: 8aab 863a 1851 083c 2ade 4abc 465a 33bc
00000090: f51f 84bc a78f 04bc e196 e63a 189d 35bc
000000a0: fd4d 8c3c 65e1 133d bcf6 cf39 2ada 133c
000000b0: 314c 8a3c 03db b43c 8652 e63b b03c 78bc
000000c0: b61d 353b fb44 8b3c aafd 513b 0724 c83c
000000d0: 5db2 80bb bd0c 043c 0525 cc3a 6ee0 3f3c
000000e0: f5df 0a3d df31 393c 437b 99bb 0a4e c83c
000000f0: 2f25 043c 8b21 8f3c ec01 923d fee7 ad3e
-0.015383855 0.0052139745 -0.001541825 -0.012400156 0.029059159 -0.0017563745 0.0060094325 -0.011887165
-0.0055757654 0.016567018 -0.018748688 -0.0029897508 -0.0048221312 0.00631973 0.0046496755 -0.00073928124
0.0028867738 0.0011490847 0.0434152 -0.009251204 -0.00109482 -0.007434646 -0.016189847 0.03261787
0.022473317 0.016902264 0.002434604 -0.01224013 0.018263496 -0.016553666 0.0018379943 -0.008096765
0.0010274511 0.0083201155 -0.01238207 -0.010946816 -0.01612852 -0.00809089 0.0017592573 -0.011084817
0.017127031 0.036103625 0.00039665948 0.009024182 0.016882034 0.02207709 0.0070288805 -0.015151188
0.0027636117 0.017000666 0.0032042065 0.024431242 -0.0039275126 0.008059678 0.0015574998 0.011711223
0.03390499 0.011303394 -0.0046838834 0.024451274 0.008065506 0.01747205 0.07129273 0.33966058

ar_logvar_lin.weight f4 [1, 64]
00000000: 435c 17be 5331 d23c 4c3f b4bd aa94 14bd
00000010: 434d 9f3d 5e31 1ebd 91b8 0cbe 1e20 11bd
00000020: 4380 c4bd d585 14bd 0593 87bc 6264 e2bd
00000030: 4e5a f9bd 7e4c ebbc afba 93bd b4cf e7bc
00000040: 483c c6bc 6959 933d b91d cf3d 8b46 d8bd
00000050: a56c 483b 1e4f 34be 8f6a 88bd a412 123e
00000060: 651d 233e 9656 843d 517a 45bd ac15 b1bc
00000070: 6e32 cd3d e025 91bc b58a c13c 3967 81bd
00000080: 67e2 083c 8d8d 3abe a19a 88bd feae e1bc
00000090: 8986 44be 6dcf afbd 4dc0 a6bd 54af c7bd
000000a0: 4d48 043e d563 1b3e 8e25 acbd 15f6 97bd
000000b0: 6d30 a3bc 7352 7abd 5447 3abd 657f adbd
000000c0: 00a9 f1bc 3c5a e0bd 9d92 24be e339 533d
000000d0: 7d16 4bbd 8a92 563c dd06 253c 858b 8bbc
000000e0: ea1e 1b3d 5c28 a63c 59f0 adbd eefd 703d
000000f0: c1ac 79bc d58b bf3c 5899 883d 4da9 e33e
-0.14781289 0.025658285 -0.088011354 -0.03627459 0.077784084 -0.0386213 -0.13742281 -0.03543102
-0.095947765 -0.036260445 -0.016549597 -0.11054303 -0.121754274 -0.028722998 -0.072133414 -0.028297283
-0.024198666 0.07194788 0.10113091 -0.1056033 0.0030582335 -0.17608306 -0.066609494 0.14264923
0.15929182 0.064618275 -0.048212353 -0.02161678 0.10019384 -0.017718256 0.023625711 -0.06318516
0.00835476 -0.1821806 -0.06670118 -0.027549263 -0.19191946 -0.08584485 -0.08142147 -0.09750238
0.12918206 0.15174802 -0.084056005 -0.07419983 -0.019920552 -0.061113786 -0.04547818 -0.08471564
-0.02949953 -0.10954711 -0.16071554 0.051568877 -0.049581993 0.013096461 0.010072437 -0.017034302
0.03787128 0.020282917 -0.08493108 0.058835916 -0.015238942 0.023382107 0.06669873 0.44465104
