model.pt (torch, 358871 bytes, 9 tensors)

lstm.model.weight_ih_l0 f4 [256, 10]
-0.13598771 0.012755218 -0.22347495 -0.051345397 -0.26101106 -0.2358008 0.015342742 0.0037315623
-0.09088951 -0.23470433 -0.13231733 -0.068755955 0.037100665 0.21824464 0.16001184 -0.02519242
-0.053314812 0.052442946 0.08120269 0.07770192 0.031764537 -0.026806468 -0.185367 -0.1807596
-0.081660025 -0.096273795 -0.2174421 -0.19694774 -0.16176184 -0.0051769386 -0.038742557 -0.09461428
-0.17017055 -0.19842371 -0.028648742 0.009695003 -0.2027882 -0.031645015 -0.23141962 -0.23027767
-0.15789627 -0.057694536 -0.12025872 -0.03847751 -0.13128673 -0.13269737 -0.25896376 -0.08931813
-0.031734608 -0.21720487 0.073118865 -0.011834522 0.00677886 -0.0922724 0.062388416 -0.21931136
-0.20174956 -0.1687315 -0.13759963 -0.16053785 -0.0775139 0.13337521 -0.01174861 0.014022246
-0.026644342 0.13438387 -0.065293364 0.0152224 0.05680886 -0.08538626 -0.2251753 -0.16015443
-0.07844659 -0.22022292 0.03541348 0.018816784 -0.13836898 0.03905056 -0.18655744 -0.21348406
0.005029704 -0.034798156 0.17873693 0.1902781 0.22680047 -0.048738804 -0.01658442 0.17761162
0.18532448 -0.04192474 -0.105842 -0.14134741 -0.18285841 0.0080781495 -0.030549068 -0.049562447
-0.12724966 -0.22894035 -0.26972497 -0.036250774 -0.014781966 0.09369994 -0.014869251 0.17400435
-0.049922727 0.04170155 0.08005875 -0.019810703 0.18296878 0.17173336 -0.08100519 -0.07562357
-0.20907094 -0.041977096 -0.097218834 -0.12367422 -0.07671656 -0.16359998 -0.08654739 -0.052733354
0.1229675 -0.007400831 0.2036759 -0.014326651 0.18975893 0.083774164 0.23961458 0.020660054
0.10835786 -0.021763254 -0.08027691 -0.065816455 -0.08687928 -0.07591554 -0.082228385 0.008290148
-0.16928285 -0.21146166 0.0025982235 0.0016923036 0.017342806 -0.0054902453 -0.12302488 -0.17953089
-0.1150888 -0.10591723 -0.0401094 -0.11833252 0.016409213 -0.027430268 -0.089769945 -0.17787081
0.013192559 -0.21617879 -0.09782636 -0.10617252 -0.26197976 -0.015455589 -0.072542965 -0.08635748
-0.070455745 -0.17435153 0.057130653 0.016219728 -0.10662624 -0.14052819 -0.16114317 0.04177248
-0.16229324 -0.03984213 -0.19537438 -0.016781611 -0.04229364 -0.009729066 0.060858004 -0.19403458
0.034160197 -0.06417 -0.04199584 0.03701048 -0.1762152 -0.015123673 -0.09099387 0.018984828
-0.046303377 -0.16507368 -0.070290916 0.005508666 0.011528844 -0.011003523 0.016967634 0.114092134
-0.005542148 0.017128699 0.24765597 0.10763709 0.1525616 0.07022636 0.15558124 0.00020265914
-0.2217255 -0.22574033 -0.2414075 -0.051012333 -0.17026938 -0.20407218 -0.10658966 -0.0034966627
-0.016438074 -0.26982895 -0.05689121 -0.17669132 -0.1632939 -0.2444414 -0.24059752 -0.094141774
-0.12933768 -0.09491874 -0.22103497 -0.061221555 0.15176195 0.10144145 0.2031783 -0.04434339
0.087845124 0.083331876 0.10838082 0.13500042 0.2171093 0.15452258 0.022876827 0.032517184
-0.18824998 -0.23125458 -0.11609672 -0.20777771 -0.2650234 0.023982378 -0.064256094 -0.19673249
-0.22237906 -0.062031966 -0.12446874 -0.084695935 -0.24109097 -0.25362676 -0.22297457 -0.22453819
-0.16236345 -0.23145936 -0.11575643 -0.006963228 -0.15735772 -0.11250416 -0.07530311 -0.22195274
00000000: 5d40 0bbe 43fb 503c 9ed6 64be 8d4f 52bd
00000010: 3ea3 85be c475 71be 2060 7b3c 3a8d 743b
00000020: 4824 babd 5556 70be 327e 07be eccf 8cbd
00000030: def6 173d 867b 5f3e 25da 233e 5660 cebc
00000040: a260 5abd 6ace 563d 994d a63d 2f22 9f3d
00000050: 881b 023d 3d99 dbbc d9d0 3dbe 0b19 39be
00000060: 5f3d a7bd 322b c5bd 24a9 5ebe abac 49be
00000070: e5a4 25be 4fa3 a9bb 84b0 1ebd 22c5 c1bd
00000080: 3041 2ebe 962f 4bbe c4b0 eabc cad7 1e3c
00000090: b6a7 4fbe 349e 01bd 44f9 6cbe e9cd 6bbe
000000a0: 8faf 21be 1b51 6cbd 344a f6bd 989a 1dbd
000000b0: 0770 06be d2e1 07be e696 84be 6cec b6bd
000000c0: 26fc 01bd f46a 5ebe 58bf 953d 95e5 41bc
000000d0: 3321 de3b 50f9 bcbd ff8a 7f3d 2893 60be
000000e0: 7097 4ebe f3c7 2cbe ebe6 0cbe 0964 24be
000000f0: 9cbf 9ebd 8393 083e 3e7d 40bc 90bd 653c
00000100: 3c45 dabc ed9b 093e 87b8 85bd 6067 793c
00000110: 68b0 683d fede aebd 5b94 66be 86ff 23be
00000120: 9ba8 a0bd 1e82 61be ba0d 113d a825 9a3c
00000130: 99b0 0dbe 7bf3 1f3d ea08 3fbe 919b 5abe
00000140: 37d0 a43b 8388 0ebd d006 373e 43d8 423e
00000150: 623e 683e 57a2 47bd 0ddc 87bc d2df 353e
00000160: b3c5 3d3e 47b9 2bbd b1c3 d8bd 60bd 10be
00000170: 3c3f 3bbe 375a 043c 0a42 fabc fe01 4bbd
00000180: bc4d 02be 576f 6abe 6419 8abe b17b 14bd
00000190: 0f30 72bc c1e5 bf3d 299e 73bc 322e 323e
000001a0: c67b 4cbd 3fcf 2a3d d8f5 a33d 0e4a a2bc
000001b0: 2b5c 3b3e dfda 2f3e 0de6 a5bd 88e0 9abd
000001c0: b116 56be 2df0 2bbd ab1a c7bd e948 fdbd
000001d0: 921d 9dbd c186 27be c23f b1bd eefe 57bd
000001e0: 62d6 fb3d ac82 f2bb 6a90 503e 54ba 6abc
000001f0: 2a50 423e ca91 ab3d 865d 753e 463f a93c
00000200: baea dd3d da48 b2bc 3868 a4bd c7ca 86bd
00000210: c4ed b1bd 9b79 9bbd 5b67 a8bd 67d3 073c
00000220: 7c58 2dbe 6889 58be f546 2a3b 49d0 dd3a
00000230: 8012 8e3c 84e7 b3bb 78f4 fbbd f2d6 37be
00000240: adb3 ebbd 22eb d8bd c149 24bd 5258 f2bd
00000250: 9d6c 863c 71b5 e0bc 4ed9 b7bd c423 36be
00000260: 9a25 583c f95d 5dbe 3059 c8bd fa70 d9bd
00000270: 3622 86be 7039 7dbc 6891 94bd 31dc b0bd
00000280: 1a4b 90bd 3589 32be d501 6a3d 3cdf 843c
00000290: dc5e dabd 9fe6 0fbe b702 25be 9f19 2b3d
000002a0: 3330 26be 8031 23bd 3910 48be 9779 89bc
000002b0: 193c 2dbd a966 1fbc 3e46 793d 00b1 46be
000002c0: 90eb 0b3d 906b 83bd d403 2cbd 4d98 173d
000002d0: c271 34be 48c9 77bc fe5a babd 1286 9b3c
000002e0: 9ca8 3dbd 1309 29be aff4 8fbd 0a82 b43b
000002f0: 7ae3 3c3c 1f48 34bc b5ff 8a3c 23a9 e93d
00000300: e89a b5bb 7c51 8c3c 8799 7d3e d670 dc3d
00000310: 1c39 1c3e d6d2 8f3d b050 1f3e e680 5439
00000320: 020c 63be 7928 67be 8733 77be 4ff2 50bd
00000330: 195b 2ebe 4cf8 50be ae4b dabd 4428 65bb
00000340: 24a9 86bc 0527 8abe c206 69bd 92ee 34be
00000350: 8436 27be d94e 7abe 325f 76be 67cd c0bd
00000360: 1971 04be c264 c2bd fe56 62be 74c3 7abd
00000370: 7c67 1b3e 89c0 cf3d f90d 503e 6aa1 35bd
00000380: 25e8 b33d e7a9 aa3d c3f6 dd3d 8d3d 0a3e
00000390: e651 5e3e 2b3b 1e3e 2f68 bb3c bd30 053d
000003a0: 9ac4 40be 00ce 6cbe 1ec4 edbd aec3 54be
000003b0: 26b1 87be b176 c43c b398 83bd 3e74 49be
000003c0: 56b7 63be 3b15 7ebd 77e9 febd 1075 adbd
000003d0: 8de0 76be 5edb 81be 7253 64be 57ed 65be
000003e0: 9b42 26be af03 6dbe b511 edbd ca2b e4bb
000003f0: 6222 21be 9568 e6bd 8438 9abd 9447 63be

lstm.model.weight_hh_l0 f4 [256, 64]
0.072779894 0.010722852 0.08853022 0.16326883 0.13808689 -0.08602749 -0.0725324 -0.110913575
-0.046256725 -0.17114943 -0.049622774 0.24986197 0.038374208 0.26046276 0.02871451 0.089990534
-0.116983995 0.13340832 -0.16831954 -0.0319131 0.12913643 -0.013451623 -0.049694873 0.15831397
-0.14147604 -0.10889328 -0.16134255 -0.012207489 0.0791433 -0.17073078 0.03661963 -0.14258477
-0.09719646 0.07328922 -0.100053824 -0.035640344 0.14085093 -0.14137293 -0.0956755 0.09365667
-0.09775081 0.16470355 0.15901913 0.21744624 0.18738014 0.15550855 0.12737325 -0.13730244
-0.18640192 -0.025970418 0.10577902 -0.059589144 0.0046898606 0.12510318 0.011429796 -0.18916601
0.056266256 0.07262663 0.13959938 -0.15231238 0.020926178 -0.051138673 -0.1084012 -0.07126596
-0.08677545 -0.017726816 0.082404196 -0.060760327 0.035196368 0.008488541 -0.014936484 -0.02888833
-0.046319 -0.030767359 -0.04575612 -0.083267376 -0.16626872 0.030107006 -0.14484999 -0.000870809
0.040319413 -0.04501592 -0.06395899 0.108263865 0.0042081657 -0.10858495 -0.032369267 0.024635777
0.0088699665 0.07612374 -0.07338234 -0.020255603 -0.026203439 -0.060625758 -0.032677114 -0.1021249
-0.01019368 -0.050537195 -0.014239683 0.008680447 -0.051539388 -0.026778104 0.07523364 0.016123056
0.045945413 0.07490183 0.016293636 -0.005738877 0.09352523 -0.09893237 0.050440628 0.019986678
0.008256426 -0.054314364 0.006342771 0.043779366 -0.021184258 -0.034717795 -0.057131 -0.06382719
-0.068610296 0.045866102 -0.026882181 -0.05134852 0.10861995 0.03976364 -0.04159114 0.12432139
0.1164396 -0.11774888 0.12595508 0.09658274 0.043781105 -0.13134289 -0.013280862 -0.17446855
-0.06580908 -0.074358284 0.023956241 0.098604344 -0.066985935 0.07627659 0.057024814 0.06973495
-0.11501183 0.054139793 -0.17293525 0.07478265 -0.025740853 -0.11677289 0.034890965 0.08477467
-0.12783305 -0.06938577 -0.124478154 -0.0008145653 0.14421551 -0.087904766 0.1481933 -0.053584218
-0.14302531 0.1084907 -0.1399794 -0.06318351 0.01706413 -0.030342795 -0.22769156 0.08836888
-0.018449724 0.1314597 0.071123086 0.28297845 0.06943677 -0.054111514 -0.024386073 -0.16836925
-0.12355965 0.062028565 0.110005714 -0.056657124 -0.16341455 0.19308673 -0.04350701 -0.15830907
0.044722825 0.12029196 0.038571574 -0.12975931 0.16899197 0.02076537 -0.18652633 0.050925337
0.12920934 0.017687095 0.17815968 0.12992483 0.1037584 -0.11364524 -0.12736246 -0.07713461
-0.0911112 -0.15085986 -0.12456609 0.13066055 -0.025999961 0.07143774 0.043298442 0.2249453
-0.1429309 0.08258274 -0.06884639 0.09379657 0.1324119 -0.08411488 -0.027403146 0.07583287
-0.0821682 -0.10687491 -0.13332126 -0.083712086 0.11634687 -0.09176809 0.19396737 -0.055675924
-0.046800543 0.025638325 -0.10460423 -0.09163991 0.14008616 -0.14843519 -0.17893668 0.0362318
-0.09018194 0.031214215 0.040838055 0.12977806 0.16480106 0.026866263 0.07410332 -0.08105904
-0.13359489 0.2655532 0.110502996 -0.13096467 -0.09793347 0.27855828 -0.12768292 -0.17702292
0.28743428 0.05788706 0.15348817 -0.1482182 0.046711482 0.0036432608 -0.11973522 0.027480394
00000000: a00d 953d e7ae 2f3c 554f b53d f22f 273e
00000010: a666 0d3e 2e2f b0bd de8b 94bd a826 e3bd
00000020: b177 3dbd cc41 2fbe 4041 4bbd d1db 7f3e
00000030: 462e 1d3d 605b 853e b13a eb3c f54c b83d
00000040: 4e95 efbd 319c 083e f55b 2cbe 50b7 02bd
00000050: 573c 043e 3264 5cbc da8c 4bbd 0f1d 223e
00000060: 18df 10be 7103 dfbd fb36 25be ec01 48bc
00000070: e215 a23d 0dd4 2ebe 77fe 153d be01 12be
00000080: f00e c7bd a918 963d 05e9 ccbd 9cfb 11bd
00000090: 3a3b 103e 11c4 10be 84f1 c3bd 11cf bf3d
000000a0: 9431 c8bd 0ca8 283e e9d5 223e 3aaa 5e3e
000000b0: 94e0 3f3e a23d 1f3e 226e 023e 0399 0cbe
000000c0: 25e0 3ebe eabf d4bc aca2 d83d bf13 74bd
000000d0: 67ad 993b 0c1b 003e 0a44 3b3c bcb4 41be
000000e0: 7277 663d 45bd 943d 24f3 0e3e c7f7 1bbe
000000f0: 606d ab3c c976 51bd 7301 debd e3f3 91bd
00000100: 54b7 b1bd d437 91bc 88c3 a83d d2df 78bd
00000110: 112a 103d 8513 0b3c 28b8 74bc 38a7 ecbc
00000120: feb8 3dbd d40b fcbc c56a 3bbd 1688 aabd
00000130: 5942 2abe f8a2 f63c 8e53 14be 0147 64ba
00000140: f825 253d 9d62 38bd eefc 82bd 72b9 dd3d
00000150: a7e4 893b c961 debd a395 04bd f8d0 c93c
00000160: 5653 113c c3e6 9b3d 7b49 96bd 14ef a5bc
00000170: 98a8 d6bc b752 78bd 70d8 05bd dc26 d1bd
00000180: 6503 27bc 1700 4fbd 8f4d 69bc 6f38 0e3c
00000190: f71a 53bd c15d dbbc 1814 9a3d 8014 843c
000001a0: 4231 3c3d 2166 993d 3b7a 853c 310d bcbb
000001b0: 288a bf3d 0e9d cabd d59a 4e3d 1abb a33c
000001c0: f645 073c bd78 5ebd 05d7 cf3b fe51 333d
000001d0: 9c8a adbc 3f34 0ebd 3202 6abd d4b7 82bd
000001e0: 8e83 8cbd 18de 3b3d 0538 dcbc d352 52bd
000001f0: 2374 de3d 33df 223d 795b 2abd 379c fe3d
00000200: e377 ee3d 5326 f1bd 5efa 003e 2ccd c53d
00000210: d153 333d c07e 06be f997 59bc e2a7 32be
00000220: e9c6 86bd 2849 98bd e13f c43c 13f1 c93d
00000230: ec2f 89bd e736 9c3d da92 693d 33d1 8e3d
00000240: 538b ebbd b0c1 5d3d f015 31be a527 993d
00000250: 7bde d2bc a026 efbd d4e9 0e3d 589e ad3d
00000260: abe6 02be 201a 8ebd 67ee febd 8d88 55ba
00000270: 3bad 133e 6a07 b4bd fcbf 173e 207b 5bbd
00000280: 3a75 12be 5f30 de3d c356 0fbe 5b66 81bd
00000290: 13ca 8b3c 7491 f8bc fa27 69be befa b43d
000002a0: e023 97bc 5f9d 063e fba8 913d 8de2 903e
000002b0: de34 8e3d 09a4 5dbd 4dc5 c7bc fd68 2cbe
000002c0: d70c fdbd aa11 7e3d ad4a e13d 4d11 68bd
000002d0: 2556 27be 87b8 453e 6834 32bd c61b 22be
000002e0: 482f 373d a25b f63d 3afd 1d3d a0df 04be
000002f0: 3b0c 2d3e 231c aa3c c200 3fbe 1697 503d
00000300: 744f 043e 87e4 903c 7e6f 363e 040b 053e
00000310: 497f d43d d6be e8bd 4e6b 02be c0f8 9dbd
00000320: 8298 babd 027b 1abe 821c ffbd e1cb 053e
00000330: dffd d4bc f34d 923d b559 313d 1058 663e
00000340: 7a5c 12be 2421 a93d 56ff 8cbd 6b18 c03d
00000350: fc96 073e 6c44 acbd 907c e0bc 444e 9b3d
00000360: cd47 a8bd 3ce1 dabd 5e85 08be 3e71 abbd
00000370: 4547 ee3d e9f0 bbbd 629f 463e 700c 64bd
00000380: edb1 3fbd 7707 d23c be3a d6bd b5ad bbbd
00000390: bf72 0f3e 65ff 17be 2d3b 37be cc67 143d
000003a0: 4fb1 b8bd f4b4 ff3c ce45 273d 8ae4 043e
000003b0: 9cc1 283e a316 dc3c 7bc3 973d 4802 a6bd
000003c0: 19cd 08be 97f6 873e 654f e23d 9a1b 06be
000003d0: 5891 c8bd 319f 8e3e 50bf 02be 7f45 35be
000003e0: 962a 933e fb1a 6d3d 012c 1d3e 83c6 17be
000003f0: 8a54 3f3d c6c3 6e3b bd37 f5bd 901e e13c

lstm.model.weight_ih_l1 f4 [256, 64]
-0.1345902 0.10151926 -0.17115277 -0.22814152 -0.024566926 0.07539136 0.17330037 0.23680961
0.019314647 0.21881518 0.060073536 -0.102394015 -0.077894576 -0.12421531 -0.011712857 -0.22667532
0.2502218 -0.022136884 0.046208736 -0.058420766 -0.2317489 0.098979965 -0.13003595 -0.10727267
0.11434436 0.14634183 -0.03047551 0.09060751 -0.13921946 0.20028767 -0.14184913 0.16223976
0.16143814 -0.23224682 0.23102628 0.060968295 -0.074550934 0.2433949 0.029860906 -0.053448137
0.065567784 -0.19315134 -0.2028428 -0.06222385 -0.23446773 -0.10925742 -0.21692598 0.16689208
0.10291422 0.019703027 -0.019569553 0.073251635 0.106452085 -0.14187452 0.16935322 0.12922475
-0.1516706 -0.2286563 0.028020846 0.08546878 -0.14142877 0.0066161053 0.15991393 0.047308322
0.030615965 -0.009030952 0.17359172 -0.0013575259 0.22362845 -0.06549342 -0.11022342 -0.0013030837
-0.15260173 -0.03642789 0.1307488 0.06056766 0.064324856 -0.0030777464 0.04586056 0.12762295
0.047179755 -0.11345335 -0.03360462 0.14458965 0.15813512 0.0021800832 -0.20543656 0.10175953
-0.05261627 -0.103186354 0.0338818 0.0422729 0.12705122 -0.21176407 0.0013910539 -0.14037277
-0.1494507 0.14950758 -0.16271126 0.0027174803 0.042298097 -0.007398416 -0.09827324 0.057786558
-0.08737674 0.031143853 0.03399276 0.15908961 -0.02244032 0.043190595 -0.040055584 -0.054060936
-0.1889509 0.0333206 0.023449149 -0.10371537 -0.027362779 0.0275292 -0.09779109 -0.20609306
0.1647442 0.040908016 -0.022166427 -0.17340557 0.029726543 -0.11885063 -0.024050629 0.19830692
0.07653574 -0.07768245 0.20586649 0.223647 0.17322178 -0.04088432 -0.03800552 -0.123850256
-0.03274389 0.035535783 -0.17968091 0.2173701 -0.20343232 -0.03180858 0.21345395 0.22027552
-0.035702325 0.0237476 0.009163767 0.15014122 0.20826507 -0.075002566 -0.069014296 0.11411865
-0.1222653 -0.12802957 -0.16122426 -0.1422799 0.15008889 0.04555413 -0.057228476 -0.11720722
-0.08767264 0.22069784 -0.07270986 -0.16033606 0.13069429 -0.00891678 -0.13764748 0.06266202
-0.01816843 -0.011644486 0.050511643 0.013889937 0.12714376 -0.12512164 0.036403053 -0.1017566
-0.12838267 -0.03424568 0.21498322 -0.17700185 0.027441846 0.21917729 -0.20685306 -0.15047958
0.12437522 0.0687511 0.21081023 -0.14868182 0.17904897 -0.16597746 -0.08206852 0.16582356
0.17258652 0.0468216 0.17330669 0.016176239 0.20014359 -0.13128111 -0.072215855 -0.21622688
-0.16813216 -0.10297332 0.049189474 0.035052758 -0.04954292 0.24314816 0.14461015 0.07843548
-0.06207602 0.1616037 -0.012497735 -0.06956639 0.107314326 -0.15289326 -0.19720817 0.14270146
-0.2416721 -0.03212518 -0.089634396 -0.110226154 0.22884415 -0.028972877 0.09014077 -0.18305457
-0.17734094 0.11002211 -0.010231299 -0.17071027 0.17412789 -0.058056165 -0.08865593 0.053549338
-0.23317099 0.1766481 0.13388361 0.098011695 0.21445456 -0.08525521 0.21775626 0.013259738
-0.21066995 0.099943265 0.16897732 0.0072082435 -0.25609615 -0.0040796665 -0.20656477 -0.013864822
0.11017706 0.09604371 0.016871845 -0.10111952 0.14788629 -0.1580075 0.017106893 0.05946126
00000000: 03d2 09be 54e9 cf3d ac42 2fbe ee9d 69be
00000010: 9440 c9bc c966 9a3d a775 313e 387e 723e
00000020: c039 9e3c 1611 603e ab0f 763d f4b3 d1bd
00000030: 3187 9fbd 9964 febd 48e7 3fbc 931d 68be
00000040: 121d 803e 6958 b5bc 5f45 3d3d 9d4a 6fbd
00000050: 954f 6dbe 02b6 ca3d 2528 05be c6b1 dbbd
00000060: 602d ea3d a2da 153e c7a7 f9bc 6e90 b93d
00000070: 8c8f 0ebe 3618 4d3e e640 11be 2e22 263e
00000080: 0a50 253e 1cd2 6dbe 2792 6c3e e4b9 793d
00000090: 29ae 98bd 833c 793e dc9e f43c 6fec 5abd
000000a0: 6748 863d 77c9 45be 06b6 4fbe 70de 7ebd
000000b0: 4f18 70be 5bc2 dfbd d821 5ebe c2e5 2a3e
000000c0: b1c4 d23d 3e68 a13c 5450 a0bc f404 963d
000000d0: 8d03 da3d 8e47 11be ee6a 2d3e 7e53 043e
000000e0: 8a4f 1bbe e124 6abe f98b e53c 410a af3d
000000f0: b4d2 10be eacb d83b 7ac0 233e 5fc6 413d
00000100: 55ce fa3c 8ff6 13bc 07c2 313e 03ef b1ba
00000110: dbfe 643e 6a21 86bd d1bc e1bd 3ccc aaba
00000120: a143 1cbe 6935 15bd 03e3 053e cb15 783d
00000130: c0bc 833d 04b4 49bb 48d8 3b3d 97af 023e
00000140: 8f3f 413d 3b5a e8bd ffa4 09bd 4f0f 143e
00000150: 2cee 213e badf 0e3b f65d 52be 4d67 d03d
00000160: 2884 57bd 5e53 d3bd a4c7 0a3d 5926 2d3d
00000170: b719 023e aed8 58be 0654 b63a e1bd 0fbe
00000180: 9b09 19be 8418 193e c89d 26be c117 323b
00000190: c540 2d3d 696e f2bb 7b43 c9bd 99b1 6c3d
000001a0: 94f2 b2bd 6521 ff3c fe3b 0b3d 63e8 223e
000001b0: c3d4 b7bc 9fe8 303d 5311 24bd 006f 5dbd
000001c0: 587c 41be 2e7b 083d 6e18 c03c b968 d4bd
000001d0: e827 e0bc eb84 e13c b246 c8bd 0f0a 53be
000001e0: b4b2 283e 2a8f 273d 5e96 b5bc 3b91 31be
000001f0: 1485 f33c f667 f3bd d305 c5bc f810 4b3e
00000200: c5be 9c3d fa17 9fbd aace 523e b803 653e
00000210: 0d61 313e 5176 27bd adab 1bbd 34a5 fdbd
00000220: 751e 06bd f88d 113d 46fe 37be 4496 5e3e
00000230: 9050 50be b749 02bd ac93 5a3e e88f 613e
00000240: 9a3c 12bd 548a c23c a023 163c 9fbe 193e
00000250: 7043 553e f29a 99bd 5e57 8dbd 0ab7 e93d
00000260: 3b66 fabd 2f1a 03be f917 25be d2b1 11be
00000270: e7b0 193e f896 3a3d 6868 6abd 570a f0bd
00000280: b78d b3bd 9dfe 613e e8e8 94bd 232f 24be
00000290: b9d4 053e b017 12bc 76f3 0cbe f254 803d
000002a0: f6d5 94bc 84c8 3ebc 4ce5 4e3d 9e92 633c
000002b0: f931 023e e31f 00be 5e1b 153d c465 d0bd
000002c0: bf76 03be 3345 0cbd 9024 5c3e f93f 35be
000002d0: b9cd e03c 0370 603e 4ad1 53be 5217 1abe
000002e0: 6fb8 fe3d 60cd 8c3d a3de 573e 0c40 18be
000002f0: 9d58 373e fff5 29be 8a13 a8bd a7cd 293e
00000300: 85ba 303e 02c8 3f3d 4f77 313e 0884 843c
00000310: 71f2 4c3e 8e6e 06be e8e5 93bd 946a 5dbe
00000320: d62a 2cbe ade3 d2bd e77a 493d 7b93 0f3d
00000330: 84ed 4abd d5fb 783e af14 143e c8a2 a03d
00000340: 6d43 7ebd 717b 253e 4dc3 4cbc d378 8ebd
00000350: 9dc7 db3d 0d90 1cbe f0f0 49be 5520 123e
00000360: e478 77be b195 03bd 3d92 b7bd 40be e1bd
00000370: 1f56 6a3e 8758 edbc b99b b83d a872 3bbe
00000380: dd98 35be 4653 e13d 2ea1 27bc acce 2ebe
00000390: 954e 323e 4dcc 6dbd 3d91 b5bd 8d56 5b3d
000003a0: 60c4 6ebe 3de3 343e c918 093e 5bba c83d
000003b0: fa99 5b3e 499a aebd 7ffb 5e3e 5f3f 593c
000003c0: ddb9 57be 0eaf cc3d 6408 2d3e 2133 ec3b
000003d0: 091f 83be b9ae 85bb b785 53be 4729 63bc
000003e0: 83a4 e13d 91b2 c43d d336 8a3c c017 cfbd
000003f0: 816f 173e b8cc 21be c123 8c3c a68d 733d

lstm.model.weight_hh_l1 f4 [256, 64]
-0.030821525 -0.12160928 0.037054654 0.011610244 -0.19352636 0.08044527 -0.014763612 -0.046951696
-0.027079994 -0.006525426 0.1214284 -0.08149367 0.030201614 0.017196734 -0.08925548 0.08419533
-0.082039505 0.12245112 0.1280667 0.004533218 -0.007697923 -0.014912611 -0.03047613 0.009537691
0.008705863 -0.03947913 0.24984652 0.026048794 -0.051597342 0.032571856 -0.05880311 -0.11745835
-0.089549094 0.033045907 0.0012180776 -0.057039104 0.04901489 0.07083138 0.09338601 0.047577202
-0.07094987 -0.07517652 -0.04818103 0.039592125 0.06501791 0.018011928 -0.0752867 -0.019527135
0.03493336 -0.07022946 0.07388779 -0.0005549083 0.04406128 -0.05140988 0.03082338 0.020296108
0.016482767 -0.05150018 -0.12594843 -0.045096293 0.013780118 0.055615492 0.046546374 0.051350735
-0.105246805 0.118710935 0.1337389 -0.19212253 -0.17705928 0.14211172 -0.1264278 0.011315914
0.013576182 -0.14374945 -0.10465337 -0.06265022 0.11009567 -0.082321145 -0.015502572 -0.07437018
0.03842993 -0.07125174 0.12606105 0.051940955 -0.18207507 0.14226586 -0.24837244 0.03657167
-0.07206473 -0.19318268 0.09357261 0.082951374 -0.054444086 0.0762627 -0.035468277 0.03803232
-0.1118527 -0.05765253 0.054527335 0.1421261 -0.046933006 0.015147158 0.029270623 -0.19186763
0.070762634 0.11037883 -0.108623855 -0.11387534 0.18098739 0.10626563 0.069755025 0.15970811
0.21352795 -0.07931051 -0.03223106 0.044585973 0.104883984 0.067193255 -0.03875099 -0.087717935
-0.22713155 0.014739834 -0.1915065 -0.048291657 -0.06629984 0.13392694 -0.025921797 0.05022723
-0.12544943 0.08501829 0.10024171 -0.08844057 -0.017795373 0.026496693 -0.117769405 -0.086409815
0.11939851 -0.10442023 -0.055407934 -0.1421017 0.14829953 -0.20524324 -0.052707255 -0.014962894
-0.11272704 -0.100766994 0.18035646 0.038559873 -0.042354878 0.12792608 -0.05078815 -0.06892907
-0.15793689 -0.11364836 0.07028049 -0.008453672 -0.02955013 0.15905146 -0.063308105 -0.2021882
-0.10542717 -0.01405793 0.07412736 0.05130662 -0.100160606 -0.06081337 0.08015419 -0.08169454
0.052480858 0.09826894 -0.0438216 -0.01990681 -0.006187906 0.062993184 -0.16327223 0.02161682
0.155122 -0.1845967 0.015782408 0.21116394 0.041414045 0.0017008947 -0.13430919 -0.1475902
-0.040171452 0.114876315 -0.07852916 -0.08434974 -0.06977041 0.12476329 0.027163174 0.101354815
-0.12199496 0.117428824 0.113232054 -0.12612659 0.07731098 0.12677886 -0.09960679 -0.14083724
0.09829153 -0.04150406 -0.12934966 -0.11005238 0.02301595 -0.1410422 -0.05676135 -0.15797244
-0.18101989 -0.01768206 0.064583465 0.15235728 -0.2240824 0.109987214 -0.17089602 -0.11567217
-0.15416847 -0.09032798 -0.044998318 0.10080536 -0.126469 0.0868808 -0.1154133 0.025882281
-0.07912726 -0.11865678 0.19425417 0.09457835 -0.14803044 0.13450927 0.17409053 -0.08275744
0.17128637 -0.002302041 0.010062062 -0.19086833 0.10829638 0.119843364 -0.11808756 0.118365765
0.052595258 -0.17196263 -0.1463756 -0.063098006 0.14794181 -0.016248835 -0.11231118 -0.21402904
-0.20247404 0.23274907 -0.08785318 -0.09047114 -0.10650149 0.020728337 0.17657788 0.20182253
00000000: 6c7d fcbc 490e f9bd 9fc6 173d e538 3e3c
00000010: c62b 46be 7dc0 a43d 14e3 71bc 6c50 40bd
00000020: ddd6 ddbc 3ed3 d5bb 74af f83d 27e6 a6bd
00000030: 6069 f73c 2ae0 8c3c 94cb b6bd 9a6e ac3d
00000040: 5404 a8bd a7c7 fa3d eb23 033e 648b 943b
00000050: dc3e fcbb 0654 74bc 14a9 f9bc fa43 1c3c
00000060: 09a3 0e3c deb4 21bd c4d7 7f3e 4864 d53c
00000070: bc57 53bd 116a 053d 88db 70bd 018e f0bd
00000080: 8465 b7bd 255b 073d e7a7 9f3a d6a1 69bd
00000090: d6c3 483d 0b10 913d 2a41 bf3d 50e0 423d
000000a0: 2a4e 91bd 26f6 99bd 7959 45bd 5a2b 223d
000000b0: 1c28 853d c08d 933c ea2f 9abd 5ff7 9fbc
000000c0: 4816 0f3d 77d4 8fbd 7b52 973d 4477 11ba
000000d0: 9a79 343d 2b93 52bd 5081 fc3c 0644 a63c
000000e0: de06 873c daf1 52bd a0f8 00be e4b6 38bd
000000f0: 01c6 613c 12cd 633d 69a7 3e3d 2655 523d
00000100: a38b d7bd b81e f33d daf2 083e c5bb 44be
00000110: 074f 35be bc85 113e 4a76 01be 6266 393c
00000120: a26e 5e3c 0e33 13be 8254 d6bd c24e 80bd
00000130: d779 e13d fd97 a8bd 80fe 7dbc 654f 98bd
00000140: b468 1d3d 6fec 91bd 2616 013e 0ac0 543d
00000150: e371 3abe 24ae 113e 5855 7ebe 2dcc 153d
00000160: ac96 93bd aed1 45be ffa2 bf3d 69e2 a93d
00000170: c300 5fbd 9e2f 9c3d 2f47 11bd c7c7 1b3d
00000180: 0713 e5bd 0f25 6cbd 0e58 5f3d 8189 113e
00000190: d33c 40bd c92b 783c f2c8 ef3c f378 44be
000001a0: 00ec 903d 4c0e e23d 2f76 debd 7937 e9bd
000001b0: c254 393e cba1 d93d b9db 8e3d 868a 233e
000001c0: 12a7 5a3e 8c6d a2bd b704 04bd c89f 363d
000001d0: 6acd d63d 9e9c 893d 5cb9 1ebd 76a5 b3bd
000001e0: 2c95 68be 587f 713c 481a 44be 79cd 45bd
000001f0: 36c8 87bd 2524 093e f359 d4bc 11bb 4d3d
00000200: d175 00be 121e ae3d 874b cd3d 5420 b5bd
00000210: 9ac7 91bc 980f d93c 1631 f1bd a1f7 b0bd
00000220: 3587 f43d 46da d5bd 6ef3 62bd 1c83 11be
00000230: d5db 173e 492b 52be 90e3 57bd ed26 75bc
00000240: 6fdd e6bd ed5e cebd 5daf 383e f5f0 1d3d
00000250: 4f7c 2dbd 0eff 023e 3c07 50bd af2a 8dbd
00000260: 35ba 21be 79c0 e8bd 38ef 8f3d 4581 0abc
00000270: 1d13 f2bc 63de 223e aea7 81bd 6c0a 4fbe
00000280: 33ea d7bd 3b53 66bc 16d0 973d e426 523d
00000290: 0121 cdbd 7117 79bd e127 a43d 784f a7bd
000002a0: 2bf6 563d 3a41 c93d 477e 33bd 9b13 a3bc
000002b0: ebc3 cabb 9202 813d d630 27be c215 b13c
000002c0: 4dd8 1e3e eb06 3dbe 1c4a 813c 5c3b 583e
000002d0: c6a1 293d 8ef0 de3a 5988 09be e321 17be
000002e0: d28a 24bd 4644 eb3d e5d3 a0bd 8ebf acbd
000002f0: cae3 8ebd e583 ff3d 4e85 de3c 1d93 cf3d
00000300: 7ed8 f9bd 867e f03d 35e6 e73d 5427 01be
00000310: 3855 9e3d 51d2 013e a5fe cbbd a337 10be
00000320: 124d c93d 2900 2abd 3d74 04be 2463 e1bd
00000330: f28b bc3c 5e6d 10be 977e 68bd 87c3 21be
00000340: 475d 39be f8d9 90bc 5644 843d 8c03 1c3e
00000350: db75 65be fa40 e13d 5eff 2ebe 88e5 ecbd
00000360: 57de 1dbe e0fd b8bd 2850 38bd 0a73 ce3d
00000370: 1781 01be 90ee b13d cf5d ecbd 1407 d43c
00000380: 790d a2bd 5302 f3bd 91ea 463e 4bb2 c13d
00000390: 4b95 17be ccbc 093e ca44 323e bc7c a9bd
000003a0: b265 2f3e d7dd 16bb 59db 243c fd72 43be
000003b0: 7eca dd3d 7070 f53d e4d7 f1bd c069 f23d
000003c0: 206e 573d f916 30be 7ce3 15be 8739 81bd
000003d0: 0f7e 173e 471c 85bc 6703 e6bd 6e2a 5bbe
000003e0: 5b55 4fbe c655 6e3e 5eec b3bd ef48 b9bd
000003f0: 741d dabd 79ce a93c d5d0 343e 91aa 4e3e

lstm.model.weight_ih_l2 f4 [256, 64]
0.09508718 0.033438068 0.076464266 -0.07495796 0.11678213 0.0715021 -0.08875817 -0.007319478
-0.003128559 -0.14668147 -0.03333461 -0.09796664 -0.011783129 -0.167427 0.04969482 -0.08076383
-0.20934422 -0.19744225 0.037712608 0.15583622 -0.1703363 -0.06673043 -0.025021276 -0.033560194
0.058798697 0.055894006 -0.023352638 0.15301417 0.032018613 0.007388957 -0.060613867 0.12617335
0.0033606035 -0.22341493 0.21306913 0.04208125 -0.06327513 0.013015928 -0.03074381 0.025171991
0.031303894 0.042386666 -0.011427496 0.009999907 0.044591453 0.19621886 0.14014454 0.15338065
0.0052057155 0.06250983 -0.1441519 -0.107882455 -0.05134142 -0.016391883 -0.12897438 -0.18320908
-0.10894499 -0.03358317 -0.18850191 -0.13379528 -0.07369796 0.1914749 0.09078062 -0.051372197
-0.17152956 0.033804428 0.04386583 -0.18894272 0.08726499 0.07630659 -0.013175374 -0.06279607
-0.18195572 -0.12005726 -0.063753076 -0.20298098 0.17392872 -0.12735127 0.053731784 0.0027464123
-0.05723244 0.015850535 -0.029424233 -0.04188038 -0.17814426 0.21493113 0.015168301 -0.0660347
-0.04377539 -0.12131702 0.01688231 0.17824481 0.010672843 0.07679709 -0.14408673 -0.08818295
-0.2168245 -0.08208525 0.21685015 -0.02325478 -0.12450008 0.046996802 -0.013851088 -0.012536805
0.08403682 0.15240876 -0.037680995 -0.21180841 0.09457999 0.028406536 -0.07407446 0.16336095
-0.04148749 -0.07681 -0.026057288 0.00044055274 0.038583096 0.030640753 -0.0042594546 -0.0036527694
-0.19889341 0.08546169 -0.039306626 0.003303921 -0.14953057 0.0717211 0.20336442 0.15838447
-0.2088879 0.18057516 0.20603138 -0.23490451 -0.07669663 -0.02656361 -0.21189265 -0.053315252
-0.011068209 -0.20971219 -0.043444958 -0.14999932 0.08335064 -0.118876904 -0.07299196 0.033198893
-0.23522843 -0.22381233 0.18516743 0.08691379 -0.06588349 0.1513847 -0.153683 -0.08561704
-0.06719655 -0.15569398 0.21829136 0.16277693 -0.1885948 0.12255296 -0.07704817 0.004010652
-0.06856285 -0.023412907 0.021686004 0.10544976 0.015733972 0.21921022 0.026464213 -0.17137763
-0.021327632 0.22909664 -0.005245629 -0.15650368 0.22453678 0.14264141 -0.12526947 0.08395527
0.031127049 -0.030073369 -0.10507044 0.06675581 0.12101963 0.17051032 -0.17927772 -0.22183414
-0.024252575 -0.016813723 -0.2075276 0.01216211 -0.035698283 0.018022927 0.22393446 0.091688804
-0.14873691 0.21979009 0.054399904 -0.21148649 -0.2407635 0.13399363 0.019260144 -0.18332902
0.14264086 0.055199534 -0.07621041 -0.16884226 0.14753349 -0.06976133 -0.16926412 -0.09372733
-0.06390896 -0.010329557 0.09079995 0.12867868 -0.073380455 0.18587686 -0.07835511 0.026158493
-0.19530688 -0.2376096 0.0065116473 -0.019232437 -0.20944536 0.0799498 0.008933956 -0.076670244
-0.09342285 -0.13256021 0.15370026 0.16102463 -0.14405675 0.10294503 0.18770981 -0.10917837
0.15202552 -0.018773044 -0.16742541 -0.21801583 -0.029263638 0.006483233 -0.06760333 0.2152241
0.18802959 -0.19756718 -0.0027138176 0.11857033 0.09555084 0.14494093 -0.22296442 -0.111256406
0.021103805 0.058840193 0.0021743963 -0.06887987 0.0076636123 -0.0046803425 -0.0327746 0.14457475
00000000: 11bd c23d 5bf6 083d 4c99 9c3d 8f83 99bd
00000010: 782b ef3d b16f 923d d8c6 b5bd 3bd8 efbb
00000020: 8308 4dbb ab33 16be df89 08bd bca2 c8bd
00000030: 060e 41bc fc71 2bbe cc8c 4b3d 8267 a5bd
00000040: 555e 56be 4d2e 4abe 8978 1a3d 8893 1f3e
00000050: a46c 2ebe f7a9 88bd 6bf9 ccbc 6a76 09bd
00000060: e7d6 703d 1df1 643d 084e bfbc bfaf 1c3e
00000070: f325 033d 101f f23b 3f46 78bd 9633 013e
00000080: 923d 5c3b e2c6 64be cb2e 5a3e 645d 2c3d
00000090: 6496 81bd c240 553c 71da fbbc 7e35 ce3c
000000a0: 8338 003d a49d 2d3d 643a 3bbc a6d6 233c
000000b0: 87a5 363d 99ed 483e 0d82 0f3e d10f 1d3e
000000c0: b594 aa3b 2705 803d 8e9c 13be 7af1 dcbd
000000d0: 614b 52bd 4548 86bc dc11 04be 299b 3bbe
000000e0: 8d1e dfbd 828e 09bd a506 41be a101 09be
000000f0: f5ee 96bd ff11 443e 31eb b93d a76b 52bd
00000100: 72a5 2fbe 8376 0a3d a8ac 333d 337a 41be
00000110: fdb7 b23d a146 9c3d 86dd 57bc 3a9b 80bd
00000120: 9a52 3abe 95e0 f5bd f990 82bd 3fda 4fbe
00000130: 5f1a 323e 5f68 02be dc15 5c3d 27fd 333b
00000140: 906c 6abd fbd8 813c 170b f1bc c38a 2bbd
00000150: 736b 36be e816 5c3e 7784 783c 333d 87bd
00000160: d34d 33bd 0f75 f8bd c54c 8a3c cf85 363e
00000170: 26dd 2e3c cb47 9d3d 798b 13be 4399 b4bd
00000180: 3e07 5ebe 501c a8bd f70d 5e3e cf80 bebc
00000190: e6f9 febd b87f 403d acef 62bc 2c67 4dbc
000001a0: 7f1b ac3d 0b11 1c3e 6357 1abd 4ee4 58be
000001b0: 27b3 c13d d3b4 e83c 5ab4 97bd 1848 273e
000001c0: c9ee 29bd 904e 9dbd 1876 d5bc fdf9 e639
000001d0: 4f09 1e3d 5102 fb3c e592 8bbb 4d63 6fbb
000001e0: b7aa 4bbe 8a06 af3d fcff 20bd 9986 583b
000001f0: 8b1e 19be 83e2 923d c33e 503e 8a2f 223e
00000200: b6e6 55be b2e8 383e e4f9 523e cf8a 70be
00000210: 1f13 9dbd ee9b d9bc 63fa 58be 1861 5abd
00000220: 6f57 35bc cbbe 56be 57f3 31bd 6c99 19be
00000230: beb3 aa3d bc75 f3bd cf7c 95bd 90fb 073d
00000240: b9df 70be 0f2f 65be 889c 3d3e dbff b13d
00000250: eced 86bd 9704 1b3e 145f 1dbe fd57 afbd
00000260: 589e 89bd 3e6e 1fbe c587 5f3e ffae 263e
00000270: ff1e 41be 0cfd fa3d 6ecb 9dbd ca6b 833b
00000280: ae6a 8cbd 6dcc bfbc d9a6 b13c 0bf6 d73d
00000290: 88e4 803c a578 603e 7acb d83c 9e7d 2fbe
000002a0: 49b7 aebc 4f98 6a3e 87e3 abbb 8042 20be
000002b0: f8ec 653e 9710 123e a446 00be bef0 ab3d
000002c0: 27fe fe3c 6d5c f6bc 2c2f d7bd 45b7 883d
000002d0: 24d9 f73d 429a 2e3e 9494 37be 7d28 63be
000002e0: 56ad c6bc efbc 89bc 1d82 54be 9643 473c
000002f0: 5d38 12bd d1a4 933c 134f 653e 57c7 bb3d
00000300: 7d4e 18be a710 613e 6fd2 5e3d ea8f 58be
00000310: b58a 76be a035 093e 73c7 9d3c 9aba 3bbe
00000320: 7210 123e e818 623d 3414 9cbd fce4 2cbe
00000330: 0513 173e 07df 8ebd 9353 2dbe 1df4 bfbd
00000340: b3e2 82bd 4d3d 29bc 53f5 b93d 58c4 033e
00000350: 7e48 96bd 8156 3e3e a578 a0bd 564a d63c
00000360: 87fe 47be ee4f 73be a85f d53b 588d 9dbc
00000370: d878 56be b9bc a33d ba5f 123c 4a05 9dbd
00000380: 7b54 bfbd ddbd 07be 9a63 1d3e a4e3 243e
00000390: 9d83 13be d8d4 d23d 0037 403e e998 dfbd
000003a0: 94ac 1b3e edc9 99bc 9171 2bbe 8b3f 5fbe
000003b0: 4cba efbc 4d71 d43b 9d73 8abd b563 5c3e
000003c0: d48a 403e 0d4f 4abe 4eda 31bb 00d5 f23d
000003d0: 29b0 c33d 656b 143e c950 64be 66da e3bd
000003e0: e3e1 ac3c 6a02 713d 5180 0e3b e410 8dbd
000003f0: 0a1f fb3b 8f5d 99bb a93e 06bd 670b 143e

lstm.model.weight_hh_l2 f4 [256, 64]
0.11942871 -0.13834116 -0.07415452 0.00023329283 -0.1001852 -0.19125226 0.0942896 -0.06301043
-0.017602814 0.124021284 -0.17144848 0.023820056 0.032236286 0.06223601 -0.018541 0.1007663
0.031523243 0.035010956 0.16555193 -0.050688896 0.059441615 0.024361344 0.076632954 0.041739367
0.049213268 -0.03436509 -0.07047451 0.078197405 -0.097961634 -0.085852206 0.050160453 0.018326448
0.11722384 0.012495544 0.09123437 0.0645366 -0.098719284 0.15459962 -0.062006064 -0.0683648
0.04045271 0.22622259 0.12197809 0.078016765 -0.10472397 0.064332634 -0.12469151 -0.08767553
-0.06417512 -0.2103029 -0.009895834 0.029749466 -0.10157148 -0.079804294 -0.14712168 0.16796643
0.0634883 -0.095276386 -0.13436332 0.05239892 -0.116978265 -0.058597725 -0.109233856 0.008840291
0.24741988 -0.14980945 0.1448688 -0.08319916 -0.08232238 -0.054109856 0.047901347 -0.025822908
0.012535348 0.081087396 -0.15909815 0.06318682 0.0067460826 0.13558781 0.17402114 0.120551184
-0.091695264 0.02738979 0.061907854 -0.07833923 0.13839822 -0.19256449 0.0043290537 0.099952854
-0.07776273 0.13586654 -0.19365928 0.06737564 -0.10085266 -0.058021817 -0.096193545 0.101622894
0.04317283 -0.11543769 0.04820006 0.022914743 -0.0013609696 0.0992473 -0.011465406 -0.06407973
0.10734935 0.12431881 0.0036251836 0.13953912 -0.08500149 0.068233535 -0.09601211 -0.09606232
-0.23859252 -0.12172662 0.073497206 0.15685739 -0.004707682 -0.10053591 -0.17603937 0.110418215
-0.056458082 -0.05848371 -0.14595002 0.07448122 -0.063170694 0.06875011 -0.07325722 0.08380023
0.07456364 -0.20493765 0.1638566 -0.04830614 -0.15576473 -0.06540057 0.10900107 -0.026305197
-0.068275325 -0.008553485 -0.07094546 0.18425964 0.06681553 0.0646921 0.09061777 0.19406466
0.021349529 0.12070559 0.07955969 0.014875144 0.08379302 0.07471085 -0.0020673012 0.10754996
-0.13353604 0.15264137 -0.18023098 0.11388997 -0.1740287 -0.02113279 -0.22513002 0.16336147
0.03420303 -0.08671565 0.048907854 0.23192927 -0.124931596 0.08316012 -0.13130823 -0.08040575
0.0008370294 0.09762182 0.10715421 -0.073252626 -0.13236631 0.078547835 -0.16004036 0.016958421
0.019234417 -0.12280571 -0.04108138 -0.009761454 -0.108541586 -0.09931527 -0.09427955 0.14122573
0.113562815 0.048236486 -0.07498682 0.07192775 -0.1309816 -0.1724785 -0.12231501 0.14905415
0.10224811 -0.074452005 0.07111526 -0.07982912 -0.17693335 -0.115249574 0.17626724 -0.087232195
0.045389187 0.070053756 -0.11502139 0.12205167 0.18950075 -0.012881865 0.024776265 0.07870398
0.0947935 0.1429009 0.06696856 -0.05421738 0.10054604 -0.123633176 -0.047751233 0.13154498
-0.08569743 0.19314595 -0.23624878 0.03203103 -0.07677895 0.032532465 -0.094445206 0.07773346
0.13136059 0.0190543 0.18694253 0.06756289 -0.06724415 0.114332035 -0.10608786 -0.044850226
0.0507358 0.047603685 -0.03207147 -0.04342241 -0.12388748 0.077984504 -0.03555678 -0.08586908
-0.12037212 -0.062185027 0.07750685 0.16210422 -0.04919187 -0.05097957 -0.17027892 0.14084348
0.17634821 -0.044856675 -0.10468923 0.12443256 -0.082541704 -0.026148051 -0.03399726 0.06212157
00000000: 0a97 f43d 4ea9 0dbe 53de 97bd 11a0 7439
00000010: e62d cdbd a2d7 43be e81a c13d 9d0b 81bd
00000020: c733 90bc dffe fd3d 3190 2fbe 4722 c33c
00000030: 320a 043d 30eb 7e3d 4ce3 97bc 905e ce3d
00000040: 841e 013d a667 0f3d 7286 293e 299f 4fbd
00000050: 0d79 733d 7191 c73c bdf1 9c3d e6f6 2a3d
00000060: da93 493d 69c2 0cbd f154 90bd f625 a03d
00000070: 1ca0 c8bd 48d3 afbd 0c75 4d3d 5921 963c
00000080: 0d13 f03d 1cba 4c3c 16d9 ba3d c42b 843d
00000090: 562d cabd 5d4f 1e3e 12fa 7dbd d802 8cbd
000000a0: beb1 253d e5a6 673e a6cf f93d 41c7 9f3d
000000b0: 8579 d6bd d4c0 833d 435e ffbd 3a8f b3bd
000000c0: 3f6e 83bd a559 57be 2322 22bc 27b5 f33c
000000d0: b504 d0bd 6f70 a3bd 11a7 16be 64ff 2b3e
000000e0: 2706 823d 4420 c3bd 8a96 09be 40a0 563d
000000f0: 4d92 efbd 2b04 70bd 00b6 dfbd ded6 103c
00000100: a35b 7d3e a667 19be 7d58 143e 5264 aabd
00000110: a398 a8bd 4ca2 5dbd 3434 443d 908a d3bc
00000120: 0f61 4d3c 2611 a63d a0ea 22be 1768 813d
00000130: 3e0e dd3b 88d7 0a3e 9932 323e 8ae3 f63d
00000140: baca bbbd 8e60 e03c 1793 7d3d 5170 a0bd
00000150: 43b8 0d3e a02f 45be bcda 8d3b 15b4 cc3d
00000160: 1142 9fbd 9920 0b3e 9e4e 46be 3dfc 893d
00000170: d78b cebd 49a8 6dbd 1f01 c5bd aa1f d03d
00000180: fed5 303d 986a ecbd 6d6d 453d b3b7 bb3c
00000190: 9062 b2ba 2b42 cb3d 66d9 3bbc 3c3c 83bd
000001a0: fad9 db3d dc9a fe3d 7d94 6d3b 58e3 0e3e
000001b0: 4315 aebd 06be 8b3d ffa1 c4bd 52bc c4bd
000001c0: 9951 74be ce4b f9bd b485 963d 399f 203e
000001d0: e642 9abb c5e5 cdbd aa43 34be f222 e23d
000001e0: 9740 67bd 9d8c 6fbd ec73 15be 9c89 983d
000001f0: a35f 81bd dccc 8c3d e207 96bd 749f ab3d
00000200: d2b4 983d 2ddb 51be 06ca 273e a9dc 45bd
00000210: ca80 1fbe bcf0 85bd f43b df3d ff7d d7bc
00000220: efd3 8bbd eb23 0cbc da4b 91bd 8fae 3c3e
00000230: 95d6 883d 4b7d 843d cf95 b93d e3b8 463e
00000240: 35e5 ae3c 7e34 f73d 31f0 a23d e0b6 733c
00000250: ad9b ab3d 0102 993d 8f7b 07bb 2743 dc3d
00000260: acbd 08be 054e 1c3e 788e 38be 253f e93d
00000270: 9434 32be ac1e adbc 7c88 66be 3b48 273e
00000280: 7a18 0c3d fa97 b1bd 9a53 483d de7e 6d3e
00000290: 23dc ffbd da4f aa3d aa75 06be c5ab a4bd
000002a0: 186c 5b3a f3ed c73d ab73 db3d 7905 96bd
000002b0: 098b 07be b0dd a03d 9fe1 23be 63ec 8a3c
000002c0: 7f91 9d3c 8f81 fbbd f344 28bd 81ee 1fbc
000002d0: 0d4b debd ce65 cbbd a315 c1bd 7a9d 103e
000002e0: 9f93 e83d 9f93 453d b192 99bd db4e 933d
000002f0: 0a20 06be 349e 30be 4b80 fabd a7a1 183e
00000300: 7567 d13d 4b7a 98bd e1a4 913d 737d a3bd
00000310: 042e 35be f807 ecbd 667f 343e cba6 b2bd
00000320: 03ea 393d 5878 8f3d 5690 ebbd 3af6 f93d
00000330: 7c0c 423e 750e 53bc 98f7 ca3c 8d2f a13d
00000340: 1823 c23d 9d54 123e d026 893d 0b13 5ebd
00000350: 15eb cd3d 6433 fdbd cc96 43bd bab3 063e
00000360: 2282 afbd 0dc8 453e 33eb 71be f832 033d
00000370: 483e 9dbd c340 053d 7d6c c1bd b832 9f3d
00000380: 6483 063e c317 9c3c dd6d 3f3e 6a5e 8a3d
00000390: 4db7 89bd ea26 ea3d 9844 d9bd dfb4 37bd
000003a0: 58d0 4f3d 15fc 423d 605d 03bd b2db 31bd
000003b0: b8b8 fdbd 57b6 9f3d fca3 11bd 21dc afbd
000003c0: a885 f6bd bab5 7ebd e9bb 9e3d a6fe 253e
000003d0: 6a7d 49bd f4cf 50bd 995d 2ebe 4639 103e
000003e0: a094 343e a2bb 37bd 4f67 d6bd 7fd6 fe3d
000003f0: a00b a9bd 7034 d6bc b640 0bbd 3073 7e3d

lstm.final_layer.1.weight f4 [64, 66]
0.017487673 0.10234415 0.037334807 -0.12911241 0.060011994 0.028418439 -0.08297576 0.016582357
0.11172669 -0.040884927 -0.05738877 -0.0969982 -0.0763713 -0.11346726 -0.12776765 -0.14101225
-0.123600416 -0.18291272 0.0029457617 -0.20525156 -0.08985785 -0.013576362 0.036719866 -0.110509425
-0.060591195 -0.14794694 0.06909468 0.041193366 -0.085124426 0.07919135 0.10024278 0.07143809
-0.13368523 0.13816306 0.06860445 0.012560278 -0.041499007 0.0016315489 -0.107127465 0.024742203
0.016250888 0.033414796 0.1969088 0.07541707 0.12035486 -0.058953248 -0.016825596 -0.08001154
-0.083811045 -0.047666978 -0.034008853 -0.08431062 0.021637287 -0.09489207 -0.01804349 -0.10399364
-0.06555032 0.10170163 0.033342246 -0.0428562 0.08922926 0.08589926 0.039703567 0.22792304
0.80709606 0.1407059 -0.08345778 0.061510712 0.067623615 0.107492656 0.097762406 0.010630391
-0.1323262 0.0018353097 -0.08857096 -0.03792488 0.14242935 -0.027999371 0.008416737 -0.11701761
0.0072163357 -0.044955164 -0.08952774 -0.102939725 0.03302304 -0.1731052 -0.027071035 -0.13118148
0.0906033 0.075544655 -0.07279457 -0.074327275 0.066247776 -0.102294624 -0.05435394 0.06640794
0.086089455 -0.0894864 0.030765822 0.0051790816 0.04792161 -0.026060427 -0.06464783 0.05362994
-0.040446356 -0.07823831 0.009175486 0.020215658 0.18201205 0.08217839 -0.07470251 -0.093732856
0.024214836 0.016437912 0.017856315 -0.011520045 -0.009195603 -0.07739933 0.01583875 0.11195343
0.03683608 -0.03693741 -0.010050344 0.068499014 0.12759386 0.089542806 -0.103232406 0.04157957
0.1251262 0.28626147 0.43964413 0.04624394 -0.1337048 0.16207387 0.029730286 0.12553686
0.11215588 0.032529738 -0.092694454 -0.04415057 0.05317304 0.029891325 0.19033395 -0.16722044
0.1598565 -0.033360627 0.05134725 0.017011145 0.17351061 -0.11568418 0.086720906 0.066251375
0.028709507 -0.08060485 0.033073295 -0.113269135 0.03898764 -0.10240667 0.082098246 -0.12628652
-0.022767246 -0.07024428 0.008302569 -0.13680843 -0.07368703 0.11322073 -0.025533002 -0.03954501
0.11866628 -0.020983653 0.17082015 0.19348668 -0.029577974 -0.097916044 -0.1139901 -0.20277503
0.19308038 0.034766275 0.08057807 0.12074793 0.1634616 0.058959268 0.054245356 -0.12826611
0.055423852 0.16325866 0.16346973 -0.1454501 0.022763042 0.031685565 0.02161493 -0.1352677
-0.0516251 0.0066420534 0.06590547 0.028894303 -0.108212024 -0.025423147 -0.09697862 -0.024329262
-0.13918348 0.016498825 -0.073082484 -0.07990576 -0.067548625 0.12016784 -0.09240802 -0.06559109
-0.058104742 -0.007287451 0.011187146 -0.06349727 -0.005596586 -0.042134155 -0.0752567 -0.09069843
0.08121963 -0.108810626 -0.027413255 0.042736627 -0.000340032 -0.07539667 0.11044316 -0.081317455
-0.014975559 -0.10366616 -0.066112645 0.001120635 0.012137672 -0.14504845 -0.08959231 0.1222199
-0.037269402 -0.09615612 -0.023837324 0.05492556 -0.032814942 0.05801233 0.0007447098 -0.044867292
0.20556638 0.036460005 -0.015529429 0.033304945 0.098317966 -0.11264034 0.116794825 -0.11871364
-0.0052926256 0.10571119 0.03597741 0.1407777 -0.09226516 -0.0101929195 -0.086560145 0.12575507
00000000: 4f42 8f3c cf99 d13d 62ec 183d 0b36 04be
00000010: 23cf 753d c9cd e83c 32ef a9bd b9d7 873c
00000020: f6d0 e43d f476 27bd 7d10 6bbd fea6 c6bd
00000030: 8e68 9cbd 8661 e8bd 86d5 02be 8465 10be
00000040: 3722 fdbd 794d 3bbe ae0d 413b 772d 52be
00000050: 6407 b8bd 646f 5ebc 9267 163d c452 e2bd
00000060: 792e 78bd 677f 17be 8381 8d3d 60ba 283d
00000070: b755 aebd 132f a23d 164c cd3d 224e 923d
00000080: c8e4 08be 9e7a 0d3e 7d80 8c3d a0c9 4d3c
00000090: ddfa 29bd b2d9 d53a a565 dbbd 29b0 ca3c
000000a0: 9520 853c f4dd 083d 76a2 493e 4474 9a3d
000000b0: 9c7c f63d f678 71bd d5d5 89bc 17dd a3bd
000000c0: 20a5 abbd 733e 43bd de4c 0bbd 0cab acbd
000000d0: ae40 b13c c656 c2bd f1cf 93bc 9efa d4bd
000000e0: 3f3f 86bd f248 d03d e191 083d fc89 2fbd
000000f0: d5bd b63d f4eb af3d 35a0 223d a864 693e
00000100: d99d 4e3f 3515 103e eaeb aabd a8f2 7b3d
00000110: 407e 8a3d 1c25 dc3d a837 c83d 172b 2e3c
00000120: 8580 07be c68e f03a b164 b5bd 1e57 1bbd
00000130: 00d9 113e f05e e5bc 5be6 093c eea6 efbd
00000140: 0377 ec3b e822 38bd 525a b7bd 10d2 d2bd
00000150: 2b43 073d 7d42 31be 13c4 ddbc 7054 06be
00000160: 398e b93d 28b7 9a3d 5215 95bd e638 98bd
00000170: eaac 873d d87f d1bd 3da2 5ebd e300 883d
00000180: ab4f b03d a544 b7bd 9b08 fc3c 49b5 a93b
00000190: 7349 443d ad7c d5bc 1566 84bd 11ab 5b3d
000001a0: 14ab 25bd 683b a0bd c754 163c 4f9b a53c
000001b0: 5e61 3a3e 254d a83d a1fd 98bd 03f7 bfbd
000001c0: 315e c63c cda8 863c 6847 923c 92be 3cbc
000001d0: 28a9 16bc 8a83 9ebd 44c0 813c d747 e53d
000001e0: 6ee1 163d ae4b 17bd 33aa 24bc 3649 8c3d
000001f0: f7a7 023e 3862 b73d 836b d3bd 574f 2a3d
00000200: 1521 003e dd90 923e 0919 e13e 496a 3d3d
00000210: e9e9 08be b1f6 253e ee8c f33c bc8c 003e
00000220: fbb1 e53d e73d 053d 97d6 bdbd 3ad7 34bd
00000230: f9cb 593d a7de f43c e7e6 423e d63b 2bbe
00000240: 6cb1 233e 27a5 08bd 7e51 523d f55a 8b3c
00000250: c4ac 313e d4eb ecbd bb9a b13d cdae 873d
00000260: 3330 eb3c 2814 a5bd dd77 073d a6f9 e7bd
00000270: 81b1 1f3d 97ba d1bd 2023 a83d 4151 01be
00000280: 6082 babc 3cdc 8fbd 8007 083c 8217 0cbe
00000290: 3ae9 96bd 45e0 e73d 962a d1bc f3f9 21bd
000002a0: 4e07 f33d e9e5 abbc 7aeb 2e3e 5f21 463e
000002b0: 824d f2bc 3588 c8bd a473 e9bd 42a4 4fbe
000002c0: ddb6 453e 1567 0e3d 1d06 a53d b14a f73d
000002d0: 7a62 273e 467f 713d 6130 5e3d 3158 03be
000002e0: 1f04 633d 472d 273e 9c64 273e dff0 14be
000002f0: 8f79 ba3c b9c8 013d cb11 b13c 9e83 0abe
00000300: d774 53bd 95a5 d93b 72f9 863d bfb3 ec3c
00000310: 449e ddbd 3444 d0bc ba9c c6bd 294e c7bc
00000320: 1d86 0ebe 8b28 873c 45ac 95bd a2a5 a3bd
00000330: ef56 8abd 8e1a f63d 6a40 bdbd 9f54 86bd
00000340: 3dff 6dbd 92cb eebb 4b4a 373c db0a 82bd
00000350: 9163 b7bb dd94 2cbd 2f20 9abd 19c0 b9bd
00000360: 7a56 a63d 1bd8 debd c391 e0bc 9a0c 2f3d
00000370: 5346 b2b9 9269 9abd 0630 e23d c489 a6bd
00000380: 0c5c 75bc ec4e d4bd 1166 87bd 45e2 923a
00000390: 16dd 463c 9587 14be 2c7c b7bd 6d4e fa3d
000003a0: cda7 18bd 80ed c4bd 7e46 c3bc a0f9 603d
000003b0: f668 06bd 569e 6d3d a138 433a c4c6 37bd
000003c0: fe7f 523e 1657 153d 256f 7ebc c46a 083d
000003d0: ee5a c93d fbaf e6bd 2032 ef3d 2320 f3bd
000003e0: c36d adbb 1c7f d83d 0c5d 133d 0828 103e
000003f0: 84f5 bcbd 3400 27bc 7246 b1bd f0c5 003e

lstm.final_layer.1.bias f4 [64]
0.13544658 0.07498783 -0.10099308 -0.084657826 -0.13435675 -0.019079778 -0.05987807 -0.07710161
0.023030771 -0.04190098 -0.03266251 -0.11405232 0.099508345 -0.18810154 -0.0056872736 0.17408901
-0.15568197 -0.060766082 -0.13328478 0.06665098 0.07418165 -0.035674214 0.2856996 -0.042840898
-0.0017430179 0.09299518 -0.030131243 -0.11094881 -0.11626627 -0.0981804 -0.06725634 -0.12351866
0.17074227 0.25811198 0.027923703 -0.16742243 -0.051727343 -0.09060492 0.1606399 -0.15497904
0.3004719 0.032849573 -0.15598838 -0.024049757 -0.11003379 -0.12731078 -0.088897996 -0.055411946
0.12996112 0.0009858509 -0.07021517 -0.033873033 0.07849401 -0.07732051 0.05999093 0.029584957
-0.05190165 -0.09316518 -0.0811553 -0.050977327 -0.11564457 -0.03929891 -0.16906866 0.23386417
00000000: 82b2 0a3e 3893 993d 76d5 cebd 1561 adbd
00000010: d194 09be 324d 9cbc b542 75bd 73e7 9dbd
00000020: 07ab bc3c 5da0 2bbd 20c9 05bd 4394 e9bd
00000030: 08cb cb3d b19d 40be 4f5c babb 6444 323e
00000040: 186b 1fbe dbe5 78bd ce7b 08be 4f80 883d
00000050: 8dec 973d 201f 12bd 3847 923e f079 2fbd
00000060: fa75 e4ba 4274 be3d ccd5 f6bc 2139 e3bd
00000070: 031d eebd ce12 c9bd b1bd 89bd 5af7 fcbd
00000080: 10d7 2e3e 4127 843e 40c0 e43c c970 2bbe
00000090: 0de0 53bd 138f b9bd c97e 243e d3b2 1ebe
000000a0: 74d7 993e 468d 063d 6bbb 1fbe ff03 c5bc
000000b0: 6559 e1bd c25d 02be 2710 b6bd a3f7 62bd
000000c0: 8714 053e ab37 813a f9cc 8fbd 73be 0abd
000000d0: 78c1 a03d 375a 9ebd 0db9 753d 275c f23c
000000e0: d396 54bd 63cd bebd c034 a6bd 9acd 50bd
000000f0: 0fd7 ecbd e5f7 20bd 5620 2dbe 177a 6f3e

lstm.final_layer.3.weight f4 [1, 64]
-0.007969294 -0.007829275 0.0543403 0.0063443487 0.072123 0.03983876 0.015450444 -0.008293685
-0.06098869 0.017647672 0.0055129114 0.0024741015 0.004826191 0.022768663 -0.029122675 -0.1236391
0.053432975 -0.07810395 0.031133467 -0.002212054 -0.041252054 0.012098362 -0.2441736 -0.06426166
0.01791811 -0.00817388 -0.034353327 -0.0070897043 0.037287284 0.031170454 0.043352142 0.052682497
-0.16691776 -0.107653536 -0.0152967395 -0.024659058 0.0010157531 0.008125821 -0.09403603 0.016548483
-0.1885012 -0.038266554 0.042683493 -0.041633103 -0.010854098 0.03659191 -0.009128626 0.0024597954
-0.18282184 0.010162492 -0.015709313 0.011760642 -0.0061493013 0.015409102 -0.056042135 -0.07196356
-0.034851883 0.0547242 -0.018011868 0.042391945 -0.03756634 -0.029220553 0.055736527 -0.106882684
00000000: a491 02bc 5c46 00bc ef93 5e3d 41e4 cf3b
00000010: 39b5 933d f82d 233d dc23 7d3c 3ce2 07bc
00000020: 47cf 79bd da91 903c a7a5 b43b 8924 223b
00000030: 0625 9e3b 5985 ba3c ad92 eebc 7f36 fdbd
00000040: 89dc 5a3d f7f4 9fbd 9d0b ff3c 1cf8 10bb
00000050: eaf7 28bd 3538 463c a508 7abe 9e9b 83bd
00000060: 00c9 923c bdeb 05bc 13b6 0cbd c050 e8bb
00000070: 8dba 183d 2e59 ff3c 0492 313d 9ac9 573d
00000080: 7dec 2abe 7579 dcbd 2d9f 7abc cb01 cabc
00000090: 0523 853a 2a22 053c f695 c0bd af90 873c
000000a0: 7506 41be 64bd 1cbd e3d4 2e3d 7987 2abd
000000b0: 63d5 31bc 66e1 153d 3c90 15bc 8534 213b
000000c0: a635 3bbe 9580 263c d1b0 80bc b5af 403c
000000d0: 1480 c9bb 7576 7c3c 708c 65bd a261 93bd
000000e0: d9c0 0ebd 7c26 603d a08d 93bc 2da3 2d3d
000000f0: 2adf 19bd f15f efbc fc4b 643d 4fe5 dabd
