experiments/konrad/saved_models/online_expanding/normal/model_step_6.pt (torch, 7434 bytes, 9 tensors)

A_gate f4 [9]
0	0xb7d2ed62	-2.514449e-05
1	0x32c83a4f	2.330958e-08
2	0x3938bd3d	0.00017618104
3	0xb81f5566	-3.7988088e-05
4	0xb34b5e78	-4.735054e-08
5	0xb981eda4	-0.00024781853
6	0x380ae64f	3.3116256e-05
7	0xb3adaa22	-8.086887e-08
8	0x399d8e5f	0.00030051448

B_gate f4 [120]
0	0xb64f1290	-3.0856208e-06
1	0x9babd498	-2.8426962e-22
2	0x0d56a7a2	6.614562e-31
3	0xb8a1ce3e	-7.715494e-05
4	0x800044ba	-2.4654e-41
5	0x00005231	2.9485e-41
6	0xb1ad4d8c	-5.0437787e-09
7	0x0a6797d6	1.11508026e-32
8	0xb4cf60a9	-3.8627084e-07
9	0x374e583e	1.2299102e-05
10	0x8d8af639	-8.564183e-31
11	0x34a22095	3.0198558e-07
12	0x38ad13a6	8.252943e-05
13	0x00001e38	1.084e-41
14	0x8000114d	-6.206e-42
15	0x324db248	1.1973107e-08
16	0x3e2f53a5	0.17121752
17	0x00000e82	5.204e-42
18	0x35ae07af	1.2966246e-06
19	0x02f00ed6	3.5273346e-37
20	0x04535da2	2.4845925e-36
21	0xb845e90c	-4.7185502e-05
22	0x14638768	1.14872754e-26
23	0x10200db0	3.156498e-29
24	0x329a014d	1.7928551e-08
25	0x000017d7	8.552e-42
26	0x1e1a9ad5	8.184711e-21
27	0x3792ecc4	1.7514809e-05
28	0x0000192c	9.03e-42
29	0x8e171e3d	-1.8626746e-30
30	0x3916e75c	0.00014391303
31	0x800058ab	-3.1808e-41
32	0x800040ae	-2.3203e-41
33	0xb249865d	-1.17302905e-08
34	0x00005161	2.9193e-41
35	0x8000132f	-6.882e-42
36	0xb6a67e54	-4.961892e-06
37	0xb2c1f956	-2.2581542e-08
38	0x0000176c	8.402e-42
39	0x384760f0	4.7535577e-05
40	0x00006095	3.4647e-41
41	0x1ddacfd3	5.7919005e-21
42	0xafb9a342	-3.3767306e-10
43	0x00000264	8.58e-43
44	0x00004db4	2.7875e-41
45	0x3679260f	3.7126044e-06
46	0x00003be1	2.148e-41
47	0x80001f7a	-1.1292e-41
48	0x38c930a0	9.593484e-05
49	0xba2708a6	-0.0006371833
50	0x92106e6a	-4.5574484e-28
51	0x32585fa2	1.2594599e-08
52	0x800027c7	-1.427e-41
53	0x1980861b	1.3289055e-23
54	0x37843130	1.5758531e-05
55	0x00001f4f	1.1231e-41
56	0x80001ce1	-1.036e-41
57	0x39285e53	0.00016056867
58	0x00002e60	1.6636e-41
59	0x8000007e	-1.77e-43
60	0x3293f5c2	1.722481e-08
61	0x8000220b	-1.2212e-41
62	0x80000b5a	-4.072e-42
63	0xb6e6091c	-6.8555946e-06
64	0x142848d7	8.4961976e-27
65	0x80005a1a	-3.2322e-41
66	0x38f62802	0.00011737646
67	0x800029f7	-1.5054e-41
68	0x00001d28	1.0459e-41
69	0xb2af7ccc	-2.0429432e-08
70	0x931e7645	-2.0000715e-27
71	0x80000be5	-4.267e-42
72	0x38403bf9	4.583222e-05
73	0xb360a282	-5.2301864e-08
74	0x80004b60	-2.704e-41
75	0x38d44834	0.000101223966
76	0x000044c9	2.4675e-41
77	0xad284f19	-9.567258e-12
78	0x31f7b1f6	7.208878e-09
79	0x00003899	2.0303e-41
80	0xa6d9adf9	-1.5104555e-15
81	0x37bbf856	2.2407778e-05
82	0x00001cc9	1.0326e-41
83	0x00003836	2.0165e-41
84	0x394cb44d	0.00019522123
85	0x00000218	7.51e-43
86	0x23070d8d	7.321234e-18
87	0x3299fa66	1.7925412e-08
88	0x80000542	-1.886e-42
89	0x0000525d	2.9546e-41
90	0x37693da8	1.3902238e-05
91	0x8a643a3c	-1.0988753e-32
92	0x358ce60e	1.0497768e-06
93	0x38403a3a	4.5830595e-05
94	0x00002658	1.3755e-41
95	0x00001aaf	9.572e-42
96	0x3472c1a7	2.2608457e-07
97	0x334fab9a	4.8352014e-08
98	0xaaf9cb63	-4.4372413e-13
99	0xb6f7e550	-7.387869e-06
100	0xaeec18d4	-1.0736448e-10
101	0x800059d4	-3.2224e-41
102	0x38133884	3.5100165e-05
103	0x8000619c	-3.5016e-41
104	0x31d36a17	6.1529692e-09
105	0x322cd9dc	1.0061253e-08
106	0x80000daa	-4.902e-42
107	0x8000658c	-3.6428e-41
108	0x36dcedaa	6.5841787e-06
109	0xa1b953ed	-1.2558303e-18
110	0x000014aa	7.413e-42
111	0x389e0947	7.535755e-05
112	0x0000207e	1.1656e-41
113	0x000005ff	2.151e-42
114	0x31b71aca	5.3290465e-09
115	0x80006072	-3.4598e-41
116	0x00000584	1.979e-42
117	0xb6dda42a	-6.6054245e-06
118	0x00005794	3.1417e-41
119	0xb5d66b52	-1.5975477e-06

A_mean f4 [9]
0	0x80003371	-1.8454e-41
1	0x000015d4	7.83e-42
2	0x0240b16c	1.415685e-37
3	0x80003cda	-2.183e-41
4	0x00001a49	9.43e-42
5	0x827b42d0	-1.8459742e-37
6	0x00000713	2.538e-42
7	0x000018fb	8.961e-42
8	0x039760d9	8.8972175e-37

B_mean f4 [120]
0	0x80001615	-7.922e-42
1	0x9ab37ffc	-7.4239435e-23
2	0x153738cb	3.7001357e-26
3	0x83270c54	-4.909104e-37
4	0x3103fc95	1.9206585e-09
5	0xa45f3c52	-4.840651e-17
6	0x0000345b	1.8782e-41
7	0xadbe52e8	-2.1637317e-11
8	0x35e0907c	1.6731351e-06
9	0x80005373	-2.9936e-41
10	0x38061966	3.1971744e-05
11	0xb359dfcc	-5.072779e-08
12	0x82d659a4	-3.1495925e-37
13	0x1d435e44	2.585677e-21
14	0x00005647	3.095e-41
15	0x8000422d	-2.374e-41
16	0x383d41d4	4.512242e-05
17	0x382321f9	3.8893868e-05
18	0x00003bdf	2.1478e-41
19	0x31ac33ba	5.0117395e-09
20	0xb56a6f04	-8.733334e-07
21	0x021f17a4	1.168826e-37
22	0xb718a88a	-9.099147e-06
23	0xb6d398de	-6.306086e-06
24	0x80004156	-2.3438e-41
25	0x3824adcc	3.9262508e-05
26	0x23d72078	2.3324098e-17
27	0x8000205d	-1.161e-41
28	0xabf95cec	-1.7718305e-12
29	0xb7981f1c	-1.8134298e-05
30	0x02759544	1.8042594e-37
31	0x2752e8c0	2.9269528e-15
32	0x1514a474	3.0018093e-26
33	0x00000f28	5.437e-42
34	0x296d6668	5.2713395e-14
35	0xb81a1a6a	-3.674106e-05
36	0x000033ff	1.8653e-41
37	0x31cbb554	5.928692e-09
38	0x1e15b5e0	7.925605e-21
39	0x032626ab	4.8827404e-37
40	0xb4005c7f	-1.1954579e-07
41	0x9c399972	-6.140969e-22
42	0x80001f02	-1.1124e-41
43	0xae65e520	-5.2272076e-11
44	0x23c76f78	2.1622832e-17
45	0x00000338	1.155e-42
46	0xa988c340	-6.073484e-14
47	0xb780b038	-1.5340847e-05
48	0x8313712f	-4.3329346e-37
49	0xa6b340c2	-1.2438173e-15
50	0xaff7fb6a	-4.510768e-10
51	0x0000166a	8.04e-42
52	0x9efddc8c	-2.6878633e-20
53	0xa0e6a302	-3.9071385e-19
54	0x80005813	-3.1595e-41
55	0x3484e2d5	2.4751958e-07
56	0xa14d34f4	-6.9526785e-19
57	0x029a9161	2.271171e-37
58	0xb4d274ab	-3.9200435e-07
59	0xb7901e7b	-1.7180331e-05
60	0x000021a3	1.2067e-41
61	0xa9b3a028	-7.9769795e-14
62	0xb51ac36c	-5.7653847e-07
63	0x800058d0	-3.186e-41
64	0xb809a0f5	-3.281325e-05
65	0xb111ced8	-2.1217854e-09
66	0x02b00c60	2.5867979e-37
67	0x2b78ecda	8.8435997e-13
68	0x2c16d812	2.1436225e-12
69	0x000028a1	1.4575e-41
70	0xa1f04067	-1.628008e-18
71	0xb62c0900	-2.5635236e-06
72	0x800066a7	-3.6825e-41
73	0xa94ec188	-4.590905e-14
74	0x313ec28e	2.775923e-09
75	0x03220d32	4.762267e-37
76	0x19155c60	7.7217744e-24
77	0x375a9830	1.30292465e-05
78	0x00003fdf	2.2913e-41
79	0xaf5ecbaa	-2.0263138e-10
80	0xa0f9c076	-4.23096e-19
81	0x0000083d	2.955e-42
82	0x389eff89	7.581624e-05
83	0x2adddb64	3.940972e-13
84	0x82d7e3be	-3.1722128e-37
85	0xa195c514	-1.0148799e-18
86	0xb1646d67	-3.3240555e-09
87	0x800017eb	-8.58e-42
88	0x2291ac0c	3.948449e-18
89	0xa8b4c1b0	-2.0068013e-14
90	0x8000080b	-2.885e-42
91	0x2ed61ace	9.736355e-11
92	0x168ba8d8	2.2563217e-25
93	0x82a80429	-2.468777e-37
94	0xb60ee0b0	-2.1290434e-06
95	0x2d9a500d	1.7543323e-11
96	0x8000578a	-3.1403e-41
97	0x94b35054	-1.8106065e-26
98	0x2e837d68	5.979467e-11
99	0x00001eaf	1.1007e-41
100	0xa124e52c	-5.586867e-19
101	0x1f26006a	3.515221e-20
102	0x82f6e1bb	-3.6276014e-37
103	0xb9385752	-0.00017580137
104	0x2256253c	2.902212e-18
105	0x8001462e	-1.17011e-40
106	0x969cf8aa	-2.5360088e-25
107	0x338990cc	6.405898e-08
108	0x800017d8	-8.554e-42
109	0xb85f7e37	-5.328489e-05
110	0x340dbc3d	1.3200129e-07
111	0x8363b5a5	-6.691782e-37
112	0x37be0ec9	2.265665e-05
113	0xb7298e90	-1.0106378e-05
114	0x80000958	-3.352e-42
115	0x341ddbb0	1.4701686e-07
116	0x249c14af	6.7689255e-17
117	0x800002a2	-9.44e-43
118	0xb0ea33d0	-1.7040467e-09
119	0xac9a777c	-4.3902087e-12

A_logvar f4 [9]
0	0xbed4efa9	-0.41589096
1	0x3e4f4dd0	0.20244527
2	0xbedf647c	-0.4363135
3	0x3e430163	0.19043498
4	0x3ef17bd6	0.47164792
5	0xbe97c824	-0.29644883
6	0xbeffed4b	-0.49985728
7	0x3eaa8acd	0.33309022
8	0xbdf10d49	-0.11770112

B_logvar f4 [120]
0	0x3e30502d	0.17218085
1	0xb606cf2c	-2.0088146e-06
2	0x358a3d0d	1.0299569e-06
3	0x3e755cf4	0.2396124
4	0xa1cae8c8	-1.3749669e-18
5	0x9ff2e4f2	-1.02869745e-19
6	0xbeaaa21a	-0.333268
7	0x30d5f5a1	1.5567602e-09
8	0xb753b1b4	-1.2617955e-05
9	0x3d714b89	0.058909927
10	0x1ca9238e	1.1192673e-21
11	0x227da364	3.4374392e-18
12	0x3e814edb	0.25255474
13	0x2b49e188	7.172253e-13
14	0xaa610d43	-1.9988616e-13
15	0xbe892826	-0.26788443
16	0x36e4c71a	6.818108e-06
17	0x802302f9	-3.215309e-39
18	0x3e625c6d	0.2210557
19	0xa9002ba8	-2.8459575e-14
20	0x35fb948c	1.874419e-06
21	0x3d13c9a6	0.03608098
22	0x2f16091c	1.3645657e-10
23	0xa690c5ef	-1.0045657e-15
24	0xbd2d53b8	-0.04231617
25	0x2ad1d760	3.7275304e-13
26	0xa52e2000	-1.5102936e-16
27	0x3e8dc507	0.27689382
28	0xa50d9c86	-1.2282833e-16
29	0x15df5a98	9.0211914e-26
30	0xbde14e13	-0.110012196
31	0x34e878f0	4.330136e-07
32	0xb8e7bb72	-0.00011049853
33	0xbdae58cd	-0.08513031
34	0x36617f09	3.3601557e-06
35	0x0026679f	3.526921e-39
36	0x3e9c2615	0.30497804
37	0xb0b2bf1f	-1.3005524e-09
38	0xa15246fe	-7.1244725e-19
39	0x3e029f01	0.12755968
40	0xb6e61fe0	-6.858245e-06
41	0x9a278690	-3.464349e-23
42	0x3da3e2a9	0.08002216
43	0x0fb3a8a0	1.7715715e-29
44	0xad585ae9	-1.2298365e-11
45	0x3dbba150	0.09161627
46	0xa32bc960	-9.312571e-18
47	0xaf3663ba	-1.6588234e-10
48	0x3e2d015c	0.1689505
49	0x20be2e38	3.2217837e-19
50	0xaa6fcff0	-2.1299607e-13
51	0xbe0ac2f2	-0.13550928
52	0x3290ae60	1.6843103e-08
53	0x3408deaa	1.2746992e-07
54	0x3c68e1b8	0.014213972
55	0x36abf659	5.1248758e-06
56	0xb2ed0264	-2.7591518e-08
57	0x3d955c86	0.07293038
58	0xb8a96689	-8.0776466e-05
59	0x327f2739	1.4851872e-08
60	0x3dd2727d	0.10275743
61	0xb534895c	-6.725511e-07
62	0x33b8264d	8.5751346e-08
63	0x3db472e6	0.08810978
64	0xb72049aa	-9.553894e-06
65	0xa9c6e800	-8.833212e-14
66	0x3d2f2f9b	0.04277001
67	0xb956abf9	-0.00020472695
68	0x32eb8120	2.741632e-08
69	0xbe919eb9	-0.28441408
70	0x261c66e0	5.4262794e-16
71	0x29cb55f8	9.029924e-14
72	0x3e1b615c	0.15173858
73	0x961551b5	-1.2061906e-25
74	0x1bafabd6	2.9062368e-22
75	0x3d412d5d	0.047162402
76	0x2594ca47	2.5810976e-16
77	0xadf5ccb4	-2.7944182e-11
78	0xbdd18ee3	-0.102323316
79	0x31351b30	2.635442e-09
80	0x219da48e	1.0682291e-18
81	0xbab18753	-0.0013544358
82	0x2e2fcd88	3.997294e-11
83	0xa5f6762c	-4.2754274e-16
84	0x3e5f7d35	0.21825106
85	0x3695112c	4.442545e-06
86	0x24e3aa3d	9.873395e-17
87	0xbd6d79d8	-0.057977527
88	0x2211b2da	1.9745848e-18
89	0x958ba26a	-5.63979e-26
90	0xbdd3e405	-0.10346226
91	0x123fcb8b	6.051986e-28
92	0x2410da00	3.1409676e-17
93	0x3da32b6e	0.07967268
94	0x978c6d36	-9.074857e-25
95	0xb8cd884a	-9.8005476e-05
96	0xbe464ced	-0.19365282
97	0x3681ca70	3.8680664e-06
98	0x997c6f14	-1.3050527e-23
99	0x3e6d58da	0.23178425
100	0xa8ae6f7a	-1.9366226e-14
101	0xaf36587d	-1.6584241e-10
102	0x3e462099	0.19348373
103	0xb6069476	-2.0053972e-06
104	0x37b57b54	2.163431e-05
105	0xbde06fa4	-0.10958794
106	0xa2b86968	-4.9984903e-18
107	0x2257573f	2.9184121e-18
108	0x3ea7bac3	0.32759675
109	0xb8d90ceb	-0.000103497725
110	0x34ae6390	3.2482467e-07
111	0x3d94aaed	0.07259164
112	0x1b175fa8	1.2521335e-22
113	0xb2576beb	-1.2539185e-08
114	0x3d2fa0ad	0.04287784
115	0x1e2c0970	9.107556e-21
116	0x2b04567e	4.701585e-13
117	0x3d8416e1	0.06449676
118	0x17d71416	1.389912e-24
119	0x2d0c4448	7.97324e-12

ar_gate_lin.weight f4 [1, 64]
0	0x3d3cda69	0.04610673
1	0xbd48bb17	-0.049006548
2	0x3b43c52c	0.0029872162
3	0x3b19c423	0.0023462854
4	0xbcf07998	-0.029354855
5	0x3da57302	0.080785766
6	0x3c704405	0.014664655
7	0xbd572e2a	-0.05253426
8	0xbcfe4448	-0.031038418
9	0xbcd8ece9	-0.026480155
10	0xbd23ae7e	-0.03996133
11	0x3c0aea61	0.008478732
12	0xbd2997dc	-0.04140459
13	0x3d0fd291	0.03511292
14	0xbc9ca8f0	-0.019123524
15	0x3cec3422	0.028833453
16	0xbd9662b7	-0.07343047
17	0xbb898241	-0.0041964357
18	0xbd58a619	-0.052892778
19	0xbd411fea	-0.047149576
20	0xbd834520	-0.06409669
21	0xbca03cf8	-0.019560322
22	0xbcff643b	-0.031175723
23	0x3dcb646d	0.09931264
24	0x3d7cca92	0.061716624
25	0x3ccedfce	0.025253203
26	0xbca756bb	-0.020427098
27	0xbc22902c	-0.009922069
28	0x3b3287d6	0.002724161
29	0x3befa4bd	0.0073133395
30	0x3cee3cfd	0.029081816
31	0x3ba26ee7	0.0049570682
32	0xbdd37e09	-0.10326774
33	0x3d1ed5ff	0.0387783
34	0xbd58da5f	-0.05294263
35	0x3cf0d053	0.029396212
36	0xbcba16a4	-0.022715874
37	0xbd5f8cda	-0.054577686
38	0x3c6a735c	0.01430973
39	0x3d359c86	0.044338726
40	0x3d90fd6c	0.070795864
41	0x3cada345	0.021196017
42	0xbd1ec923	-0.038766038
43	0xbd86b2f5	-0.06577102
44	0x3ca61d68	0.020277694
45	0xbd1165a9	-0.03549734
46	0xba9db022	-0.0012030641
47	0x3aecdf2d	0.0018071883
48	0xbbbe8863	-0.0058145984
49	0xbcf68102	-0.030090813
50	0x3bbcfd08	0.0057674684
51	0x3d4c5def	0.04989427
52	0x3cbecedb	0.023291996
53	0xbcba5dfd	-0.022749895
54	0x3c9cd847	0.019146098
55	0x3c95b042	0.018272523
56	0xbbac6774	-0.005261356
57	0xbd1b8f65	-0.03797855
58	0x3cdeb6be	0.027186748
59	0xbc4702d8	-0.012146674
60	0xbcb8afba	-0.02254473
61	0x3c91b486	0.017786276
62	0xbd6de790	-0.058082163
63	0xbe5499c5	-0.20761783

ar_mean_lin.weight f4 [1, 64]
0	0xbc6f5800	-0.014608383
1	0x3bd3c558	0.006462734
2	0x3bacf62e	0.0052783703
3	0xbc5ece29	-0.013598957
4	0x3ccb32d1	0.024804505
5	0xbb5fe264	-0.003416204
6	0x3bc45f18	0.0059927814
7	0xbc975729	-0.018474178
8	0xbbdf81db	-0.0068209
9	0x3ced4450	0.028963238
10	0xbd0b87d0	-0.034065068
11	0xbb3bcea7	-0.002865711
12	0xbc759ce8	-0.014991023
13	0x39904e62	0.0002752422
14	0x3c4795ee	0.012181742
15	0xbc02c312	-0.007981079
16	0xbb699096	-0.0035639158
17	0x3ca14b89	0.019689338
18	0x3d44e90b	0.04807381
19	0xbc44e60a	-0.012017736
20	0x3c18f4c0	0.009335697
21	0xba9f1813	-0.0012137912
22	0xbcb9297a	-0.022602785
23	0x3d37e606	0.0448971
24	0x3d1d0e0b	0.03834347
25	0x3c53b4c0	0.012921512
26	0x3baf0d9c	0.0053421985
27	0xbb84010c	-0.004028445
28	0x3c72c19a	0.014816666
29	0xbcb80ff6	-0.022468548
30	0xbbc40d6a	-0.0059830444
31	0xbb62c781	-0.0034603777
32	0xbb1c2a82	-0.0023829048
33	0x3c69b05e	0.014263241
34	0xbc8f0f62	-0.01746339
35	0xbcc366b6	-0.023852687
36	0xbc204dc7	-0.009784169
37	0xbc9e7977	-0.019345028
38	0x3d0a0d18	0.033703893
39	0xbc25492a	-0.010088244
40	0x3c3c74f3	0.011502492
41	0x3cd93ebb	0.02651917
42	0xbb7efd1b	-0.0038908187
43	0x3c9f53d0	0.019449145
44	0x3d08682c	0.03330247
45	0x3c90526a	0.017617423
46	0x3be9bcfc	0.0071331244
47	0xbc2ceb48	-0.010554142
48	0xbb874504	-0.0041281004
49	0x3c76086b	0.015016655
50	0x3c542739	0.012948805
51	0x3cca2ccf	0.02467957
52	0xbbeba8d7	-0.007191758
53	0x3bb2a288	0.005451504
54	0x3c1a3108	0.009411104
55	0x3cc4a6ac	0.024005257
56	0x3cfd3983	0.030911213
57	0x3c022db4	0.007945467
58	0x3be5f166	0.0070173023
59	0x3c360f99	0.011112117
60	0xba1a1955	-0.00058784086
61	0x3cd9ec86	0.026602041
62	0x3d68a4d5	0.05679782
63	0x3eb1a7ba	0.34698278

ar_logvar_lin.weight f4 [1, 64]
0	0xbdbfa881	-0.093583114
1	0xbd813b66	-0.063101575
2	0xbd2e4af4	-0.04255195
3	0xbd040b4e	-0.032237343
4	0x3d5790cf	0.052628335
5	0x3da8588f	0.08220016
6	0x3d1c571c	0.03816901
7	0xbe4f2ed3	-0.20232706
8	0xbdf3d9f7	-0.11906808
9	0x3ccb9433	0.02485094
10	0xbe4f98c1	-0.20273115
11	0xbe0bde44	-0.13659006
12	0xbdd7bb53	-0.10533776
13	0xbd170d57	-0.036877956
14	0xbdfbe9de	-0.12300466
15	0xbd6ba9b8	-0.057534903
16	0xbe13df50	-0.14440656
17	0x3d2fb5d4	0.042898014
18	0x3d946917	0.07246607
19	0xbe1258d2	-0.14291695
20	0xbd228a9c	-0.03968297
21	0xbe08bb91	-0.13352801
22	0xbdc2e6c5	-0.09516672
23	0x3e21fabf	0.15818308
24	0x3e60b26b	0.21943061
25	0x3c02b63c	0.007978018
26	0xbd73e68f	-0.05954605
27	0xbd811691	-0.06303132
28	0x3d4449f5	0.047922093
29	0x3c51ec81	0.012812735
30	0xbd3f3a06	-0.046686195
31	0xbd0fb2c8	-0.03508261
32	0xbd943e85	-0.07238487
33	0x3d415d76	0.047208272
34	0xbdf1d2db	-0.118077956
35	0xbd7ca3aa	-0.06167952
36	0xbe460396	-0.19337305
37	0xbe70cc73	-0.23515491
38	0x3e217366	0.15766677
39	0xbda9ea0f	-0.08296596
40	0x3e2fdc28	0.17173827
41	0x3dfa2729	0.122145005
42	0xbe359725	-0.17733438
43	0xbd04dda6	-0.032437943
44	0xbacce7c2	-0.0015633034
45	0xbd74c0a8	-0.059754044
46	0xbcb76b0d	-0.022389913
47	0xbde82de1	-0.11336876
48	0xbdc51011	-0.09622205
49	0xbdb1bc85	-0.08678535
50	0x3d49261c	0.04910861
51	0x3b09a3e7	0.0021002234
52	0xbc52de48	-0.012870379
53	0xbd1d9107	-0.038468387
54	0x3cd14b6a	0.025548656
55	0x3dac750d	0.08420763
56	0x3cfefead	0.031127298
57	0x3bd7f8a8	0.0065909214
58	0x3cc70faf	0.02429947
59	0xbb9b4d01	-0.004739404
60	0xbe5b2ac4	-0.21403033
61	0x3b92ba66	0.004477787
62	0x3d554476	0.052067243
63	0x3ec35a59	0.38154867
