experiments/konrad/saved_models/online_expanding/normal/model_step_7.pt (torch, 7434 bytes, 9 tensors)

A_gate f4 [9]
0	0xbda3e762	-0.08003117
1	0xb049cc8a	-7.341404e-10
2	0x9d9688b8	-3.9846033e-21
3	0xbdc0a9d6	-0.09407394
4	0x2f562b7b	1.9478634e-10
5	0x9d3fad4e	-2.5368236e-21
6	0xbc1fa2cc	-0.009743404
7	0xb086bb38	-9.802994e-10
8	0x9db93249	-4.9021086e-21

B_gate f4 [120]
0	0xbd079fb0	-0.033111274
1	0x00002522	1.3321e-41
2	0x1f5fd33a	4.739681e-20
3	0x9ca92a88	-1.1194476e-21
4	0x0000048a	1.628e-42
5	0x00001d3d	1.0489e-41
6	0xb0774174	-8.995109e-10
7	0x00001eb2	1.1011e-41
8	0x000021ae	1.2082e-41
9	0xbd37a10a	-0.044831313
10	0x0000047e	1.611e-42
11	0x80002de2	-1.646e-41
12	0x9c54e747	-7.0443835e-22
13	0x000037fa	2.008e-41
14	0x00000ccc	4.59e-42
15	0x2e00fafd	2.9326753e-11
16	0x800031aa	-1.7816e-41
17	0x00000b1b	3.984e-42
18	0xbd0d53b0	-0.03450364
19	0x89aaef9b	-4.1151335e-33
20	0x80003dc1	-2.2153e-41
21	0x1b970435	2.4983573e-22
22	0x80000bf8	-4.294e-42
23	0x80008873	-4.8949e-41
24	0xafa97e62	-3.083072e-10
25	0x800560d3	-4.93911e-40
26	0x0000331a	1.8332e-41
27	0xbd3f8ac5	-0.0467632
28	0x00000df6	5.008e-42
29	0x8000120e	-6.477e-42
30	0x1d27e22e	2.2219198e-21
31	0x25ce0fec	3.5746093e-16
32	0xae988c7f	-6.937117e-11
33	0xaf2c55ce	-1.5673793e-10
34	0x801c0864	-2.574404e-39
35	0x800006f3	-2.493e-42
36	0xbc2399b8	-0.00998538
37	0x80000293	-9.23e-43
38	0x00005d41	3.3453e-41
39	0x1e23b981	8.6675095e-21
40	0x00000228	7.74e-43
41	0xacd84fcb	-6.147948e-12
42	0xafce2558	-3.7497716e-10
43	0x00004f26	2.8393e-41
44	0x800026e6	-1.3954e-41
45	0xbccd3e9e	-0.025054272
46	0x000016df	8.205e-42
47	0x80001466	-7.318e-42
48	0x1d79fac1	3.3084512e-21
49	0x80003351	-1.8409e-41
50	0x18eb5ec9	6.0841785e-24
51	0xb0c372f7	-1.4220792e-09
52	0x800021ad	-1.208e-41
53	0x2cd5b6a5	6.0741017e-12
54	0xbd0e7f41	-0.034789328
55	0x800055ac	-3.0733e-41
56	0x800030f6	-1.7564e-41
57	0x9d35152b	-2.3966094e-21
58	0x80000150	-4.71e-43
59	0x0000269d	1.3852e-41
60	0x2fff3073	4.6418655e-10
61	0x80000e8c	-5.218e-42
62	0x80001c22	-1.0092e-41
63	0xbc2ff128	-0.0107386485
64	0x182c5de0	2.2277874e-24
65	0x00005a1d	3.2327e-41
66	0x1c85fd06	8.866607e-22
67	0x8000262b	-1.3692e-41
68	0x00001b7e	9.862e-42
69	0xaf984f7c	-2.7705116e-10
70	0x999d1741	-1.6242812e-23
71	0x00001de0	1.0717e-41
72	0xbd2a8098	-0.041626543
73	0x000036dc	1.968e-41
74	0x80001607	-7.902e-42
75	0x1da38101	4.3279128e-21
76	0x800023a5	-1.2787e-41
77	0x9d7aed8f	-3.321004e-21
78	0x2d07f728	7.728741e-12
79	0x9bc5afd0	-3.2704532e-22
80	0x1447bc60	1.0084083e-26
81	0xbcf33901	-0.029690268
82	0x9f9ac091	-6.554011e-20
83	0x00001452	7.29e-42
84	0x1d519d5f	2.7742279e-21
85	0x80002b3b	-1.5508e-41
86	0x9b7b63c0	-2.0794464e-22
87	0x2fc580dd	3.5925654e-10
88	0x800020cc	-1.1765e-41
89	0x80000341	-1.167e-42
90	0xbd48378d	-0.048881102
91	0x3045d20d	7.196668e-10
92	0x80005065	-2.884e-41
93	0x1d6447f0	3.021274e-21
94	0x8000113a	-6.18e-42
95	0x1fccada8	8.668465e-20
96	0xafe795f8	-4.2125214e-10
97	0x2b34478f	6.4048154e-13
98	0x8000054a	-1.897e-42
99	0xbca0f9b1	-0.019650312
100	0x00002d7f	1.6321e-41
101	0x0db03fec	1.0862226e-30
102	0x1ced91fb	1.5721079e-21
103	0x80000515	-1.823e-42
104	0x80001ae6	-9.65e-42
105	0xae389b80	-4.1974868e-11
106	0xb442c862	-1.8140557e-07
107	0x00000012	2.5e-44
108	0xbd0b3527	-0.033986237
109	0xa99c6c5d	-6.94659e-14
110	0x19ae865e	1.8045449e-23
111	0x1d88add8	3.617865e-21
112	0x11150d4f	1.1758129e-28
113	0x8000325f	-1.807e-41
114	0xaec8dcb3	-9.134151e-11
115	0x80001dab	-1.0643e-41
116	0x8000287d	-1.4524e-41
117	0xbcd33a36	-0.025784593
118	0x88bc95a6	-1.1350021e-33
119	0x80004928	-2.6244e-41

A_mean f4 [9]
0	0xbe5183f5	-0.20460494
1	0xbdc0b42a	-0.094093636
2	0x3dd73625	0.10508374
3	0xbd1629a6	-0.036660813
4	0xbe9f9c60	-0.31173992
5	0x3dfca0b7	0.123353414
6	0xbe0a6173	-0.13513736
7	0xbe43b369	-0.19111408
8	0x3ec0f2bb	0.3768519

B_mean f4 [120]
0	0xbe029fcc	-0.1275627
1	0x33591d48	5.055088e-08
2	0xa7a023d2	-4.4447757e-15
3	0x3d4f6e58	0.05064234
4	0xb1a38b12	-4.759735e-09
5	0xaa30c310	-1.5699616e-13
6	0xbd09fd54	-0.03368886
7	0x2cda8ac8	6.2113405e-12
8	0x31ef6094	6.966795e-09
9	0x3b9e7772	0.0048360163
10	0x000032a7	1.817e-41
11	0xb60479f9	-1.974053e-06
12	0xbb8090ab	-0.0039234958
13	0x2b9dda88	1.1216176e-12
14	0x2b9a8892	1.0980264e-12
15	0xbcf904a5	-0.030397722
16	0x2cc7a65a	5.674389e-12
17	0x33884cbe	6.346953e-08
18	0xbca4fb5e	-0.020139392
19	0xb758bb85	-1.2918264e-05
20	0x2f0132c0	1.1750512e-10
21	0x3e02b1e8	0.12763178
22	0xb23e1fed	-1.1066715e-08
23	0xb0441a40	-7.134169e-10
24	0xbdf01961	-0.11723591
25	0xac650e3c	-3.255076e-12
26	0x2ba789e0	1.1904332e-12
27	0xbd677762	-0.056510337
28	0x2db61d02	2.0703887e-11
29	0x1f8764d2	5.734152e-20
30	0x3d9fd54f	0.07804357
31	0x32a27112	1.89107e-08
32	0xb45173e4	-1.9506803e-07
33	0xbda1cede	-0.07900785
34	0xb4a56e76	-3.0814016e-07
35	0xac3980d8	-2.6361604e-12
36	0xbb5c111c	-0.0033579534
37	0xa3a788ba	-1.8164082e-17
38	0x319bac00	4.530648e-09
39	0x3da549b9	0.08070702
40	0x3921d836	0.00015434701
41	0xad53b5e8	-1.2034353e-11
42	0xbd8dcb00	-0.06923485
43	0xac5e2032	-3.156597e-12
44	0x29603ab8	4.9788922e-14
45	0xbd540260	-0.051760077
46	0x288dd530	1.57466e-14
47	0x3187544d	3.938601e-09
48	0x3cc1c28d	0.02365234
49	0x2b6b4210	8.358045e-13
50	0xb695ce48	-4.4645603e-06
51	0x3ba038fa	0.0048896046
52	0xb8da428b	-0.00010407445
53	0x36c2ed60	5.8092846e-06
54	0xbdda2c77	-0.10653012
55	0x37a3ce4a	1.9527175e-05
56	0xaec6fde0	-9.049095e-11
57	0xbca4def7	-0.02012585
58	0xaa8f4362	-2.544866e-13
59	0x2d23330c	9.276812e-12
60	0xbe3c452e	-0.18385765
61	0x351cdc84	5.843542e-07
62	0xa889a180	-1.5280095e-14
63	0xbd8f1016	-0.0698549
64	0x28192500	8.501229e-15
65	0x34a8e0d8	3.1456034e-07
66	0x3e30dba0	0.1727128
67	0x2e89d660	6.2681194e-11
68	0x3187cefa	3.9525476e-09
69	0xbd01067b	-0.03150032
70	0xb1915b31	-4.2304227e-09
71	0x3288b350	1.5914026e-08
72	0xbdcda9c2	-0.10042144
73	0x30f0ba82	1.7515307e-09
74	0xb8a37715	-7.7946264e-05
75	0x3e274754	0.16335803
76	0xad5ecb44	-1.2664373e-11
77	0xb499d3ac	-2.8652482e-07
78	0xbdceb6f3	-0.100934885
79	0xb583f3ce	-9.831217e-07
80	0x2d7a569c	1.4230086e-11
81	0xbc379779	-0.0112055475
82	0xb6f11c34	-7.185643e-06
83	0x355316d0	7.863682e-07
84	0x3df81e21	0.12115122
85	0x391d9986	0.00015029879
86	0x2bcc5640	1.4519011e-12
87	0xbdd8a7ff	-0.10578918
88	0x30a13c24	1.1731385e-09
89	0x32cf2a8b	2.4117318e-08
90	0x3c88216e	0.016617503
91	0xa4ec107c	-1.0237661e-16
92	0x37425560	1.1583179e-05
93	0x3dfd2e37	0.123623304
94	0x218400ea	8.94491e-19
95	0xa823b620	-9.08781e-15
96	0xbe49ea05	-0.19718178
97	0xaf13af7b	-1.3431915e-10
98	0xb711e308	-8.695533e-06
99	0xbdb5c94a	-0.088762835
100	0xb4be26a4	-3.5418373e-07
101	0xb10b1cce	-2.0243536e-09
102	0x3dd2edaa	0.10299237
103	0xb669877e	-3.4798572e-06
104	0x21a34820	1.1064401e-18
105	0xbe0c6414	-0.13710052
106	0xb301c0be	-3.021045e-08
107	0x1da10d08	4.262982e-21
108	0xbd7af1d3	-0.061265778
109	0x2adc2e04	3.911178e-13
110	0xb5950475	-1.1102662e-06
111	0x3e3caba3	0.18424849
112	0xb1a418ee	-4.7758624e-09
113	0xaad41460	-3.7672903e-13
114	0xbda73ff9	-0.08166499
115	0xb4e6bce3	-4.2978272e-07
116	0xb8d225ad	-0.00010020598
117	0xbce2b07f	-0.02767205
118	0xaa627140	-2.0112124e-13
119	0x365a000a	3.2484554e-06

A_logvar f4 [9]
0	0x3abae62f	0.0014259274
1	0xade35dc0	-2.5848546e-11
2	0x3e4f2acd	0.20231171
3	0x3ac44341	0.0014973657
4	0x2d2a64d0	9.685766e-12
5	0x3e94f713	0.29094753
6	0x3b0422c7	0.002016233
7	0x2d836567	1.4938007e-11
8	0x3e89ebaa	0.2693761

B_logvar f4 [120]
0	0x3a8a4a92	0.0010550788
1	0x233c8003	1.0218608e-17
2	0x34b52994	3.374413e-07
3	0x3dca73c8	0.09885365
4	0xb287e834	-1.5821662e-08
5	0xb5397ed0	-6.9102407e-07
6	0x2e1c8094	3.5584494e-11
7	0xa73a0d1e	-2.5819796e-15
8	0x2e0553a4	3.0314987e-11
9	0x3a384618	0.0007029488
10	0xb5a030b3	-1.1935102e-06
11	0xa6a8fbf0	-1.172563e-15
12	0x3db1c639	0.08680386
13	0xb2218cc0	-9.403436e-09
14	0x31465140	2.8858977e-09
15	0x2cce7962	5.8683483e-12
16	0x2b40ab72	6.845003e-13
17	0xaa59e972	-1.9354464e-13
18	0x3a345b81	0.000688009
19	0xb172b482	-3.5318242e-09
20	0xb3c1589e	-9.003382e-08
21	0x3e116d51	0.14201857
22	0x00004640	2.5201e-41
23	0xb2b202e0	-2.0723235e-08
24	0xad6d6665	-1.3494626e-11
25	0xb63142d8	-2.6413963e-06
26	0x2a166d90	1.3360688e-13
27	0x3a478405	0.000761092
28	0xafbb6dda	-3.4093156e-10
29	0x00005cb9	3.3263e-41
30	0x3e004abd	0.1252851
31	0x283bd300	1.0426339e-14
32	0xaff23080	-4.4054005e-10
33	0x2dd9a069	2.474128e-11
34	0x31cb738c	5.9212137e-09
35	0xaa7fc79c	-2.2717803e-13
36	0x3a45ea31	0.0007549851
37	0x2c9562e7	4.245815e-12
38	0xa2ca9f7c	-5.492107e-18
39	0x3e015702	0.12630847
40	0xa427b09e	-3.6361953e-17
41	0x1fa78d58	7.0961085e-20
42	0x2dd23d53	2.390147e-11
43	0x31960d1d	4.3670654e-09
44	0xab5e196c	-7.8905524e-13
45	0x3a47c96b	0.0007621261
46	0x2b571d9c	7.6424435e-13
47	0x34965ce8	2.8007275e-07
48	0x3ddc2c8d	0.10750685
49	0x313f994c	2.7881297e-09
50	0x37b66726	2.1744123e-05
51	0xae113a64	-3.3021044e-11
52	0x23c078d8	2.0867861e-17
53	0xb2beee44	-2.2227262e-08
54	0x3a4c1233	0.00077846943
55	0x2f0d4280	1.2847501e-10
56	0xb7a08cb2	-1.9139003e-05
57	0x3dd6f9d6	0.10496871
58	0x339d15f4	7.3148755e-08
59	0x3029717c	6.1643113e-10
60	0xade5eac4	-2.6138543e-11
61	0x2e9f86fc	7.254461e-11
62	0xb2bec020	-2.220628e-08
63	0x3a68f212	0.0008886169
64	0x3315c1a9	3.48679e-08
65	0xade04b68	-2.5499339e-11
66	0x3e053355	0.13007863
67	0xb5a2a3d0	-1.2117616e-06
68	0xb1c4941c	-5.721189e-09
69	0x2d786d4b	1.4121436e-11
70	0x2ca582c6	4.704101e-12
71	0x2e520840	4.77558e-11
72	0x3a52d351	0.0008042353
73	0xb4d21eec	-3.9138047e-07
74	0xb5a5f392	-1.2364346e-06
75	0x3e066cf2	0.13127497
76	0xb31e72e5	-3.6891738e-08
77	0xacfdd064	-7.2138285e-12
78	0x2d5f7b00	1.2703394e-11
79	0x3394b2ab	6.9242866e-08
80	0xb365f759	-5.354318e-08
81	0x3a2fba4d	0.0006703481
82	0xab866760	-9.549965e-13
83	0x35bab0ab	1.3909497e-06
84	0x3df2a541	0.11847926
85	0xa49d9628	-6.834227e-17
86	0xb3d2573a	-9.7947535e-08
87	0x2c19b306	2.1841986e-12
88	0x29104ce0	3.20411e-14
89	0xb4245a6c	-1.5306586e-07
90	0x39ffc96e	0.00048787467
91	0x392b6318	0.00016344746
92	0x2981fa88	5.772211e-14
93	0x3e14c1fc	0.14527124
94	0x2fd67b9f	3.901421e-10
95	0x30d83060	1.5729817e-09
96	0x2ce2aea2	6.4426945e-12
97	0xa8a87698	-1.8703179e-14
98	0xadb28a45	-2.0297661e-11
99	0x3a41d606	0.00073942577
100	0xb5003b00	-4.776957e-07
101	0xb5b7fbe4	-1.3707872e-06
102	0x3df524a6	0.11969881
103	0xb02cbec0	-6.284431e-10
104	0xa8b27c48	-1.9815868e-14
105	0x2d39c8f1	1.05606504e-11
106	0x0000044d	1.543e-42
107	0x29845c7b	5.8780204e-14
108	0x3a15ac34	0.0005709559
109	0x3899f48e	7.3411604e-05
110	0xb87b9390	-5.998049e-05
111	0x3e05fb8f	0.13084243
112	0xb06f6750	-8.709451e-10
113	0x318e78d8	4.1464823e-09
114	0xadb4b79c	-2.054517e-11
115	0x2d55dae4	1.2156252e-11
116	0x3545d1e6	7.369366e-07
117	0x39f9c75a	0.0004764151
118	0x23cd8c3c	2.2285536e-17
119	0x32f037c6	2.796504e-08

ar_gate_lin.weight f4 [1, 64]
0	0xbdaecf6c	-0.08535656
1	0x3d2826df	0.041052695
2	0x3d4d8a35	0.050180633
3	0xbcccee8f	-0.025016097
4	0xbc358161	-0.01107821
5	0xbbaddab1	-0.005305611
6	0xbd0e5956	-0.034753166
7	0x3c6a02e3	0.014282915
8	0xba801b56	-0.0009773772
9	0xbc90280d	-0.017597223
10	0xbc38ddbf	-0.011283337
11	0xbcf57ce2	-0.029966775
12	0xbb884eb1	-0.0041597714
13	0xbc366519	-0.011132502
14	0x3d190af6	0.03736397
15	0xbd82f963	-0.06395223
16	0x3cb62d7c	0.022238486
17	0xbd21d3db	-0.03950868
18	0x3d979f04	0.07403377
19	0x3d21c7fb	0.039497357
20	0x3c87b214	0.016564406
21	0x3d35c2f4	0.044375375
22	0xbd2162f5	-0.039401013
23	0x3d70a241	0.058748487
24	0xbc8e7e4c	-0.017394207
25	0x3d0720ac	0.032990143
26	0xbb2cd403	-0.0026371486
27	0x3c7ca105	0.015419249
28	0x3ccc6320	0.02494961
29	0xbd81c1fd	-0.063358285
30	0xbc984e4c	-0.018592022
31	0xbcbc7279	-0.023003804
32	0x3b8c32a8	0.0042784996
33	0xbcb62e6d	-0.022238934
34	0xbb42ea9b	-0.0029741887
35	0xbd4ace45	-0.04951312
36	0xbbc684b7	-0.0060583013
37	0x3c8fb580	0.0175426
38	0x3cd6c935	0.02621899
39	0xbc5c6265	-0.013451193
40	0xbb8c4f61	-0.0042819236
41	0x3d02a99e	0.03190004
42	0xbd3ad9b7	-0.045617785
43	0xbbca4adb	-0.0061734742
44	0x3c69e789	0.014276394
45	0x3d0c75e9	0.034292135
46	0xbbda41bc	-0.006660668
47	0xbc717b89	-0.014738926
48	0x3c8c6882	0.017139677
49	0xbcae21c7	-0.02125634
50	0x3ba414d3	0.0050073653
51	0x3d2bd31b	0.041949373
52	0xbce346f3	-0.027743792
53	0x3d8ec2b3	0.0697073
54	0x3a4c30e7	0.00077892694
55	0x3c62fa07	0.0138535565
56	0x3d86678a	0.06562717
57	0xbc0b6aa7	-0.008509315
58	0x3b2a0600	0.0025943518
59	0x3c040da9	0.008059897
60	0xbc840422	-0.016115252
61	0x3c42adfb	0.0118823005
62	0x3d9faed8	0.07797021
63	0x3ed6c0ac	0.41943872

ar_mean_lin.weight f4 [1, 64]
0	0xbca6ad8c	-0.020346425
1	0xbd4a3390	-0.04936558
2	0xbc7e0e4b	-0.015506337
3	0xbcb1db43	-0.021710997
4	0x3ddbc5a0	0.10731053
5	0xbd5c4822	-0.05377973
6	0x3d57c387	0.052676704
7	0x3c8500c8	0.016235724
8	0x3da8d465	0.08243636
9	0x3e7b0fe5	0.24517782
10	0x3bca2733	0.0061692237
11	0xbded767e	-0.11594866
12	0x3d577ede	0.052611224
13	0xbe151cf6	-0.14561829
14	0xbcf00e97	-0.029303832
15	0x3d848cef	0.064721934
16	0x3de0407f	0.10949802
17	0x3d805fc4	0.06268266
18	0xbd04cbef	-0.03242105
19	0xbc885980	-0.01664424
20	0xbd2c3f56	-0.04205259
21	0xbd0166ba	-0.03159211
22	0x3ce623fa	0.028093327
23	0xbd18cb84	-0.037303463
24	0x3c859e62	0.016310874
25	0x3a8b2d97	0.0010618445
26	0xbcdbec58	-0.026846096
27	0xbc7643b4	-0.01503079
28	0xbd22e0f6	-0.03976532
29	0x3e10133f	0.14069842
30	0xbe08f210	-0.1337359
31	0x3db4143a	0.087929204
32	0x3e21b47a	0.15791503
33	0x3dbf435a	0.09339018
34	0x3d47adc4	0.0487497
35	0xbd3486fb	-0.04407404
36	0xbc767d38	-0.015044503
37	0x3cd70309	0.026246564
38	0xbd5d84ca	-0.054081716
39	0xbd3c466a	-0.04596559
40	0x3b3b96e6	0.0028623878
41	0xbc842f38	-0.016135797
42	0x3d61d631	0.05513591
43	0x3e030301	0.12794115
44	0x39acf655	0.00032989928
45	0xbbcf553e	-0.0063273003
46	0x3c3d4ab1	0.011553452
47	0x3ddf3cd1	0.10900272
48	0xbd82fe9d	-0.0639622
49	0x3d75a988	0.05997613
50	0x3d0359f3	0.032068204
51	0xbd2ce670	-0.04221195
52	0x3d8bc196	0.06824033
53	0xbbd4b524	-0.00649132
54	0xbd0903a1	-0.033450726
55	0x3c349ee3	0.01102421
56	0xbd2a6538	-0.041600436
57	0x3d9ad972	0.07561006
58	0x3d496e72	0.049177594
59	0x3d8f6457	0.0700156
60	0x3d62240e	0.055210166
61	0x3cd0f48a	0.02550723
62	0xbd0dd26f	-0.034624513
63	0x3e1241a0	0.14282846

ar_logvar_lin.weight f4 [1, 64]
0	0xbc1df9b7	-0.009642056
1	0xbdb9fc71	-0.090813525
2	0xbdc5cb85	-0.09657959
3	0xbdae9ee1	-0.085263975
4	0x3d99db78	0.075125635
5	0xbdca5efc	-0.09881398
6	0x3e4f6612	0.2025378
7	0x3d414f87	0.047194984
8	0x3e04f8d6	0.12985548
9	0x3e93deb5	0.2888085
10	0x3dd6defa	0.10491748
11	0x3e949f07	0.29027578
12	0x3e337481	0.17524911
13	0xbd0efb94	-0.034907892
14	0xbd8a6dab	-0.06759199
15	0xbe6e3201	-0.23261262
16	0xbe3d2a3d	-0.18473144
17	0x3dec61cc	0.11542091
18	0xbd7d8083	-0.061890136
19	0xbda143c4	-0.078742534
20	0xbe351c24	-0.17686516
21	0xbdc6bacc	-0.097035974
22	0xbd282f54	-0.04106076
23	0x3c4945d7	0.0122847175
24	0xbd53bf7f	-0.051696297
25	0xbdebb936	-0.115099356
26	0xbde30023	-0.110840105
27	0xbe39c51b	-0.18141596
28	0xbe9700fd	-0.29492941
29	0xbd64e0f9	-0.055878613
30	0xbdd22946	-0.102617785
31	0x3c8d69b3	0.017262315
32	0x3ef690d9	0.48157385
33	0x3d8acff8	0.06777948
34	0x3e7c2237	0.24622427
35	0xbdc345cd	-0.09534798
36	0xbd906753	-0.070509575
37	0x3e532fd5	0.20623715
38	0x3e6bee47	0.23040114
39	0xbe6a36d6	-0.22872481
40	0x3d95b93f	0.073107235
41	0xbe2f5d88	-0.17125523
42	0xbe48b99e	-0.19602057
43	0x3d7cae6e	0.061689787
44	0x3cad8093	0.021179473
45	0xbc86306b	-0.01638051
46	0x3dbbe1b9	0.091739126
47	0x3e91d113	0.28479823
48	0xbe0094e1	-0.12556793
49	0x3d42ec67	0.047588732
50	0xbdb14326	-0.08655386
51	0xbe3993da	-0.18122807
52	0x3e277213	0.1635211
53	0xbd61af84	-0.055099025
54	0xbe25a056	-0.16174445
55	0x3d45f056	0.048324905
56	0xbd9adbca	-0.07561453
57	0x3ced698a	0.028980989
58	0xbd203997	-0.039117422
59	0xbdb97cb8	-0.09056991
60	0x3d066d59	0.032819126
61	0x3d0cee9f	0.034407254
62	0xbe42efac	-0.1903674
63	0x3d8d25b3	0.06891956
