experiments/konrad/saved_models/online_expanding/normal/model_step_9.pt (torch, 7434 bytes, 9 tensors)

A_gate f4 [9]
0	0xa385f84a	-1.4525043e-17
1	0x2d8422a6	1.502205e-11
2	0xb6b36d7d	-5.347362e-06
3	0x252c5b31	1.4949519e-16
4	0x2e2f9cf2	3.992979e-11
5	0xb5838e39	-9.801653e-07
6	0x242ed766	3.7912685e-17
7	0xad83eb03	-1.4997342e-11
8	0xb6ef1e3c	-7.126275e-06

B_gate f4 [120]
0	0x24377b3d	3.9786186e-17
1	0x004a36fa	6.815549e-39
2	0x2424b6d2	3.5716686e-17
3	0xb4d519b4	-3.9693043e-07
4	0x80002b53	-1.5542e-41
5	0x0000322c	1.7998e-41
6	0x2d75f152	1.39802215e-11
7	0x00002d61	1.6279e-41
8	0x338a58cd	6.4422785e-08
9	0x232aeb0d	9.265492e-18
10	0x00002bc8	1.5706e-41
11	0x84d8aed6	-5.0941917e-36
12	0xb6654f95	-3.4169982e-06
13	0x000007bd	2.776e-42
14	0x80001d16	-1.0434e-41
15	0x2d37393f	1.0415057e-11
16	0x800058a2	-3.1795e-41
17	0x80003a10	-2.0829e-41
18	0x241520ba	3.2336945e-17
19	0x8000462e	-2.5176e-41
20	0x80000c57	-4.427e-42
21	0xb5a6a65a	-1.2416378e-06
22	0x800003a7	-1.31e-42
23	0x00000623	2.201e-42
24	0x2d6480cf	1.2988901e-11
25	0x00001103	6.103e-42
26	0x8000126f	-6.613e-42
27	0x23969351	1.6325424e-17
28	0x00000eab	5.262e-42
29	0x800017de	-8.562e-42
30	0xb6888494	-4.06855e-06
31	0x80002cd4	-1.6081e-41
32	0x8000072a	-2.57e-42
33	0x2ce2dfcb	6.4481523e-12
34	0x00001b2f	9.752e-42
35	0x80001366	-6.959e-42
36	0x24a5215b	7.161385e-17
37	0x8000564b	-3.0956e-41
38	0x00003c0b	2.154e-41
39	0xb610aabd	-2.1557055e-06
40	0x0ac67376	1.9110138e-32
41	0x00005ce6	3.3326e-41
42	0xac8c44c4	-3.986674e-12
43	0x193afea8	9.667402e-24
44	0xb6259982	-2.467627e-06
45	0x23e0403d	2.4313335e-17
46	0x00001dd9	1.0707e-41
47	0x8000590b	-3.1943e-41
48	0xb679ae77	-3.7205443e-06
49	0x000017fd	8.605e-42
50	0x00004433	2.4465e-41
51	0x2d11e57e	8.293253e-12
52	0x00002edc	1.681e-41
53	0x8000389d	-2.0309e-41
54	0x232e76e3	9.457734e-18
55	0x0000600a	3.4452e-41
56	0x00000c5f	4.438e-42
57	0xb5aa7283	-1.2699314e-06
58	0x80005cf9	-3.3352e-41
59	0x80000c70	-4.462e-42
60	0x2bd639b8	1.5221635e-12
61	0x00000702	2.514e-42
62	0x000003fa	1.427e-42
63	0x24793b8d	5.404371e-17
64	0x248875b6	5.918001e-17
65	0x000004fa	1.785e-42
66	0xb607bd45	-2.0226737e-06
67	0x00001c88	1.0235e-41
68	0x8308497c	-4.0051164e-37
69	0x2d1dfbdd	8.980342e-12
70	0x00003437	1.8731e-41
71	0x80002af4	-1.5409e-41
72	0xa0f05270	-4.0712134e-19
73	0x00000494	1.642e-42
74	0x80002076	-1.1645e-41
75	0xb6326c98	-2.6587277e-06
76	0x1d641b27	3.0189586e-21
77	0x800006f4	-2.494e-42
78	0xaba2499c	-1.1531223e-12
79	0x00003ae7	2.113e-41
80	0x8000013e	-4.46e-43
81	0x23c07807	2.0867515e-17
82	0x80000270	-8.74e-43
83	0x80003ff1	-2.2938e-41
84	0xb645a599	-2.9451678e-06
85	0x80000375	-1.24e-42
86	0x80000e36	-5.098e-42
87	0xac9054f0	-4.102156e-12
88	0x80000b64	-4.086e-42
89	0x80003e46	-2.234e-41
90	0x239ca672	1.6984046e-17
91	0x00003c87	2.1713e-41
92	0x80001b51	-9.799e-42
93	0xb5b8c2ac	-1.3765725e-06
94	0x9afe5bc6	-1.05200206e-22
95	0x00004771	2.5628e-41
96	0x2d27fe02	9.549252e-12
97	0x0000651f	3.6275e-41
98	0x0000576d	3.1362e-41
99	0x25819cf7	2.2484296e-16
100	0x800009b7	-3.485e-42
101	0x0000192e	9.033e-42
102	0x32282de0	9.789318e-09
103	0x80000032	-7e-44
104	0x800026c5	-1.3908e-41
105	0x2da747ed	1.9017643e-11
106	0x00001d22	1.0451e-41
107	0x049fa717	3.7534168e-36
108	0x2212bdd6	1.9887188e-18
109	0x0000577f	3.1388e-41
110	0x0000265b	1.376e-41
111	0xb50891f6	-5.087635e-07
112	0x000045f3	2.5093e-41
113	0x80000be8	-4.271e-42
114	0x2de3a024	2.5878029e-11
115	0x00003b30	2.1232e-41
116	0x80004c2f	-2.733e-41
117	0xa39f79ba	-1.7290368e-17
118	0x800035cf	-1.9303e-41
119	0x80002223	-1.2246e-41

A_mean f4 [9]
0	0x000005fa	2.144e-42
1	0x0000503f	2.8787e-41
2	0x00002ba1	1.5651e-41
3	0x00006008	3.445e-41
4	0x00005011	2.8722e-41
5	0x00000031	6.9e-44
6	0x00001615	7.922e-42
7	0x00004fcd	2.8627e-41
8	0x80003948	-2.0549e-41

B_mean f4 [120]
0	0x000004d2	1.729e-42
1	0xb70f2c81	-8.533826e-06
2	0xad8f191c	-1.6268369e-11
3	0x80002bc2	-1.5697e-41
4	0x0e07496a	1.6675382e-30
5	0x33aab400	7.948984e-08
6	0x80004258	-2.38e-41
7	0x36aa9823	5.084106e-06
8	0x2b886420	9.691171e-13
9	0x00002f2a	1.6919e-41
10	0x3018af14	5.554608e-10
11	0xa911411a	-3.2252934e-14
12	0x80000088	-1.9e-43
13	0xb04a9f3c	-7.371346e-10
14	0xa1abe319	-1.1647523e-18
15	0x00004639	2.5191e-41
16	0x34af1415	3.2610902e-07
17	0x2f3e9ed7	1.733683e-10
18	0x800026dd	-1.3942e-41
19	0xb49da9a4	-2.936696e-07
20	0xb4db58e0	-4.0856594e-07
21	0x00003d8b	2.2077e-41
22	0x3864fc5e	5.459447e-05
23	0xb8c2c111	-9.286602e-05
24	0x8000084c	-2.976e-42
25	0x38360ab0	4.3402135e-05
26	0xb2324c3b	-1.03782964e-08
27	0x000025db	1.358e-41
28	0x2319e038	8.341627e-18
29	0x240ba1e8	3.027796e-17
30	0x80000cdf	-4.617e-42
31	0x0000173a	8.332e-42
32	0x33956490	6.9566454e-08
33	0x00001bb0	9.932e-42
34	0xa77aecde	-3.4822875e-15
35	0x9714a29d	-4.8026626e-25
36	0x80002fb2	-1.711e-41
37	0xb7c77fac	-2.37821e-05
38	0x9523be44	-3.306768e-26
39	0x800003d0	-1.368e-42
40	0x0eb95e88	4.569705e-30
41	0xae2bd748	-3.9072107e-11
42	0x80002232	-1.2267e-41
43	0x35f53f34	1.8272317e-06
44	0xae9faee3	-7.261549e-11
45	0x00005ac5	3.2562e-41
46	0x2e018700	2.9451108e-11
47	0xab9b9816	-1.1055625e-12
48	0x80006096	-3.4649e-41
49	0x1b51490c	1.7311678e-22
50	0x358f0826	1.0656702e-06
51	0x800040ca	-2.3242e-41
52	0xb70f07dc	-8.525294e-06
53	0xa26b74ee	-3.191034e-18
54	0x800039b5	-2.0701e-41
55	0xa0cca3b4	-3.4667274e-19
56	0xaf9130d8	-2.6410052e-10
57	0x00001b6b	9.836e-42
58	0xb66b3d98	-3.505358e-06
59	0x1433eca8	9.083863e-27
60	0x00001704	8.256e-42
61	0xaf7b62e0	-2.2863444e-10
62	0x284e826c	1.1463578e-14
63	0x000048ed	2.6161e-41
64	0xa08e9848	-2.4156507e-19
65	0xb6aee139	-5.2118235e-06
66	0x0000205d	1.161e-41
67	0x3132cb54	2.6017988e-09
68	0x14cf7bc7	2.095048e-26
69	0x80000c80	-4.484e-42
70	0x189f6b00	4.120858e-24
71	0x3483685e	2.4476589e-07
72	0x00004c15	2.7293e-41
73	0x2d944483	1.6856077e-11
74	0x2d239d40	9.300394e-12
75	0x0000396b	2.0598e-41
76	0x9f7d8680	-5.368609e-20
77	0x27b42e76	5.001041e-15
78	0x80003b1a	-2.1202e-41
79	0xb61b6c27	-2.3159753e-06
80	0xb3bb25a6	-8.714714e-08
81	0x8000483a	-2.591e-41
82	0xaa5f2ee5	-1.9822649e-13
83	0xa482ae7b	-5.6674094e-17
84	0x00000338	1.155e-42
85	0xad2a8ba2	-9.694386e-12
86	0xb5de9566	-1.658377e-06
87	0x00002ed0	1.6793e-41
88	0x25c30ed1	3.3837148e-16
89	0xab3061aa	-6.2663297e-13
90	0x800020a2	-1.1706e-41
91	0x353f50dd	7.1270716e-07
92	0xb93c4962	-0.00017956414
93	0x80001cde	-1.0356e-41
94	0xa095e218	-2.5391198e-19
95	0x30d64630	1.5590498e-09
96	0x00004c64	2.7404e-41
97	0x0dec603a	1.4567789e-30
98	0xb02e5068	-6.3415095e-10
99	0x80001012	-5.765e-42
100	0x10e94430	9.2007355e-29
101	0xa5c0ad34	-3.3424058e-16
102	0x80000f91	-5.584e-42
103	0xad18fe00	-8.696599e-12
104	0x11bdb0e8	2.992797e-28
105	0x000035c7	1.9292e-41
106	0x3300aa34	2.995712e-08
107	0x33e3e8bc	1.06128454e-07
108	0x80000537	-1.871e-42
109	0xb0610db4	-8.1873996e-10
110	0xa79f757d	-4.4258746e-15
111	0x000014b2	7.424e-42
112	0xa61cd820	-5.4416276e-16
113	0x109e4140	6.2420545e-29
114	0x00004431	2.4462e-41
115	0x35aad53f	1.272805e-06
116	0xb3050290	-3.0968806e-08
117	0x00002a7c	1.524e-41
118	0x2c7ba31c	3.575979e-12
119	0xaac6f728	-3.5343365e-13

A_logvar f4 [9]
0	0xbef4498f	-0.4771237
1	0xba3b23dd	-0.0007138828
2	0xbdcf268f	-0.10114776
3	0x3e416c77	0.18889032
4	0xb93c76e4	-0.00017973367
5	0xbd22905b	-0.03968845
6	0xbf46866d	-0.7754887
7	0xba375e68	-0.00069949636
8	0x3b9efd1e	0.0048519513

B_logvar f4 [120]
0	0x3ea33f85	0.318844
1	0xa1df98d0	-1.5151517e-18
2	0x2d4a1aab	1.1488292e-11
3	0x3d3e6172	0.04647965
4	0x351f8c38	5.943616e-07
5	0xab30ebb4	-6.2854865e-13
6	0x3a07b345	0.00051765546
7	0xa204a7ae	-1.7978105e-18
8	0xac105ba0	-2.0514493e-12
9	0x3e3c7f7d	0.18408008
10	0x374fd00d	1.2386602e-05
11	0x2cf28a31	6.893396e-12
12	0x3d90103f	0.07034349
13	0x340d6658	1.3168881e-07
14	0x2790580a	4.006348e-15
15	0x39e019ba	0.00042743777
16	0x36495012	2.999794e-06
17	0xab908101	-1.0267621e-12
18	0x3e96f9e2	0.2948752
19	0xb6f2fe9e	-7.2418034e-06
20	0xac913acf	-4.127677e-12
21	0x3ce99b55	0.02851645
22	0xb4f01178	-4.4716194e-07
23	0xa608e7d4	-4.7498664e-16
24	0xb936d891	-0.0001743755
25	0x347d2265	2.3574974e-07
26	0x37853584	1.5879756e-05
27	0x3ec40282	0.38283163
28	0x2e498c60	4.5826787e-11
29	0xa9123eeb	-3.2473085e-14
30	0x3bca9fe8	0.006183613
31	0x2cbc16e0	5.345821e-12
32	0x290832dc	3.024218e-14
33	0xb904c6be	-0.00012662538
34	0xa43e0330	-4.1202382e-17
35	0x352d3adc	6.4533174e-07
36	0x3ea563a6	0.32302588
37	0xb02e5879	-6.342656e-10
38	0x3508f940	5.1026655e-07
39	0x3ce181f5	0.027527789
40	0x1ae54c00	9.4834965e-23
41	0xac94d82c	-4.230413e-12
42	0xb7daacb9	-2.6068055e-05
43	0x21c2fca6	1.3212827e-18
44	0x9ff41d00	-1.03385996e-19
45	0x3e77272c	0.24136037
46	0x14306139	8.904903e-27
47	0x3404a7ac	1.2354457e-07
48	0x3ca3354a	0.019922871
49	0xb593fb98	-1.1025577e-06
50	0x35cf506c	1.5446108e-06
51	0xb803edd0	-3.1454314e-05
52	0xb7235dd6	-9.737405e-06
53	0x2d8e4140	1.6172508e-11
54	0x3ca2ebbe	0.019887801
55	0xad9bfcbc	-1.7733696e-11
56	0x2c39a4d8	2.6381588e-12
57	0x3ba44be9	0.005013932
58	0xb48bd0d1	-2.6042702e-07
59	0xb198ca08	-4.4467505e-09
60	0xba0aa138	-0.00052883057
61	0x1c689a62	7.6961896e-22
62	0x34be6510	3.546379e-07
63	0x3d84b982	0.06480695
64	0x1e84b0b3	1.4049125e-20
65	0x9ee8ff24	-2.4669479e-20
66	0xbbe1c5b9	-0.0068900255
67	0x98a1ff08	-4.187504e-24
68	0x34e26860	4.2171723e-07
69	0x397e3bb5	0.0002424557
70	0xaa6d98b0	-2.1102803e-13
71	0xaf1ed638	-1.4446122e-10
72	0x3e6dcdef	0.23223089
73	0xaf197c50	-1.3959434e-10
74	0xa3f2d271	-2.6326818e-17
75	0xbb683ce7	-0.0035436691
76	0x34fa9968	4.6677746e-07
77	0xaa7980b6	-2.2160298e-13
78	0xb99756db	-0.00028865677
79	0xa2e90000	-6.3154777e-18
80	0x2d0fb26f	8.168229e-12
81	0xbd3bdaa4	-0.04586281
82	0x257c415c	2.187966e-16
83	0x382738f6	3.986895e-05
84	0x3cee5f57	0.029098196
85	0x2a44145a	1.7415358e-13
86	0xb1dabe0f	-6.366242e-09
87	0x385bad12	5.2374853e-05
88	0x9ae9a76f	-9.6637045e-23
89	0xaaf96584	-4.4301726e-13
90	0x3d97e507	0.074167304
91	0xa252af20	-2.8553017e-18
92	0xb94f97c4	-0.00019797595
93	0xbb95b850	-0.004569091
94	0xb2e13500	-2.6217549e-08
95	0xa884ff9e	-1.47658e-14
96	0x374d798c	1.2247252e-05
97	0x36669692	3.4360314e-06
98	0x8e013528	-1.5926071e-30
99	0x3e602dcf	0.21892475
100	0x1a5a53de	4.514909e-23
101	0xb2221780	-9.434984e-09
102	0x3c1118a2	0.008855971
103	0x33dc8248	1.0268246e-07
104	0xa972cd50	-5.3912875e-14
105	0x38ab909e	8.1808525e-05
106	0x30041c5f	4.806164e-10
107	0x117eea8e	2.0109345e-28
108	0x3ee8cadc	0.4546727
109	0x35f61e0c	1.8337173e-06
110	0x947f7630	-1.2897518e-26
111	0xbb1257a2	-0.0022330065
112	0x366f6dd5	3.5677706e-06
113	0x2b0053dc	4.5591113e-13
114	0xb93db1c6	-0.0001809067
115	0x3509f1b6	5.138821e-07
116	0x2f304206	1.6030563e-10
117	0x3e4fde33	0.20299606
118	0xa60667f0	-4.663145e-16
119	0x32fa3ad4	2.9130582e-08

ar_gate_lin.weight f4 [1, 64]
0	0xbd297384	-0.04136993
1	0xbc86db5c	-0.01646202
2	0xbb214579	-0.002460806
3	0x3c5c4d27	0.013446129
4	0xbc6c6b8a	-0.014429936
5	0x3d826c63	0.063683294
6	0xbb60e2f5	-0.0034314964
7	0xbc2cc843	-0.010545793
8	0xbd025cf6	-0.031826936
9	0x3cc840b9	0.024444925
10	0xbcf755ef	-0.030192344
11	0xbb0a3241	-0.0021087083
12	0xbc89b504	-0.016809948
13	0x3d11a48f	0.035557326
14	0xbc1377f1	-0.009000764
15	0x3b5cd58c	0.003369662
16	0xbd0bd606	-0.034139656
17	0x3c20c3d8	0.009812318
18	0xbd4ac00a	-0.04949955
19	0x3c61b12d	0.013775152
20	0xbd2eaa42	-0.04264284
21	0x3bf0e1f9	0.007351157
22	0x3bd4d5c2	0.0064952085
23	0x3d861b8e	0.065482244
24	0xbb7f3e72	-0.0038947132
25	0x3d5c8ca6	0.05384507
26	0xbbc84d15	-0.0061127045
27	0xbd2bc38d	-0.04193454
28	0x3b6b06dc	0.0035862243
29	0x3c0955f7	0.008382312
30	0x3c2db389	0.010601887
31	0x3b956529	0.0045591784
32	0xbd8a74f7	-0.067605905
33	0x3c9d6c51	0.019216688
34	0xbc73d511	-0.014882342
35	0x3d06929d	0.032854665
36	0xbd0318db	-0.032006126
37	0xbcfaa0b3	-0.030594205
38	0xbcf54329	-0.029939251
39	0x3ce13255	0.02748982
40	0x3d398893	0.045296263
41	0x3bee4767	0.0072716954
42	0xbd23ba73	-0.039972734
43	0xbcf2bab4	-0.029630043
44	0x3c6b2e64	0.014354322
45	0x3d3a597c	0.045495495
46	0xbd0e5d8e	-0.03475719
47	0x3d1cc872	0.038277097
48	0x3c2fb857	0.010725102
49	0xbcb8ac64	-0.02254314
50	0x3cae8514	0.021303691
51	0x3afa0278	0.0019074222
52	0x3d009da8	0.031400353
53	0xbd57e622	-0.052709706
54	0x3aadc628	0.0013257908
55	0xbda360d0	-0.0797745
56	0xbb32cd62	-0.0027283062
57	0xbc3d5387	-0.011555559
58	0xbc71ecf3	-0.014765966
59	0xbb6cd7d4	-0.0036139386
60	0x3d55d44b	0.05220441
61	0x3d67a060	0.05654943
62	0xbdae8ae1	-0.08522583
63	0xbe99a297	-0.3000686

ar_mean_lin.weight f4 [1, 64]
0	0xbc85ce26	-0.01633365
1	0xbc72f072	-0.014827834
2	0x3bc6d184	0.0060674567
3	0xbb094daf	-0.0020950844
4	0x3c9305f5	0.017947176
5	0x3ba933c8	0.0051636435
6	0x3bdcbb09	0.0067361635
7	0xbc01a3e2	-0.007912608
8	0xbb9fc3ea	-0.0048756497
9	0x3c46bc35	0.012129833
10	0xbc3eef49	-0.01165373
11	0xbb2a46ac	-0.0025982065
12	0xbbaa7371	-0.00520175
13	0x3b0dc3ef	0.0021631678
14	0x3be260d8	0.0069085173
15	0x3a30e6f5	0.00067482825
16	0x3bc620de	0.0060463985
17	0xb9009984	-0.0001226422
18	0x3cf5ffe5	0.030029247
19	0x3c48f06b	0.012264351
20	0xbbb2a093	-0.005451271
21	0x3b12cb66	0.0022399067
22	0xbbabeffb	-0.0052471138
23	0x3ce115c9	0.027476208
24	0x3b0ae9ec	0.0021196557
25	0x3c666f23	0.014064583
26	0x3b2e0039	0.0026550426
27	0xbc47297b	-0.012155886
28	0x3c083e6b	0.008315663
29	0xbc439a0e	-0.011938585
30	0xbb9f44cf	-0.0048604975
31	0xba21ece0	-0.000617696
32	0xbc0b9525	-0.008519446
33	0x3be19b1d	0.006884946
34	0xbb34bd98	-0.0027578827
35	0xbbd7f82e	-0.0065908646
36	0xbc06c8db	-0.008226599
37	0xbaa42ab7	-0.0012524937
38	0xbb8bb0c5	-0.004263016
39	0xbc1d215d	-0.009590474
40	0x3c834a33	0.016026592
41	0x3cc6533f	0.024209617
42	0xbb8b3cf2	-0.0042492086
43	0x3c043d24	0.008071218
44	0x3c4d25f2	0.012521254
45	0x3cf858e0	0.030315816
46	0xb927aade	-0.00015990014
47	0xbb284446	-0.002567546
48	0xba64fd21	-0.0008735229
49	0x3cd59a27	0.026074482
50	0x3c711548	0.0147145465
51	0x3c9f5fab	0.019454798
52	0xbb631dcc	-0.0034655211
53	0x3bb5e199	0.005550575
54	0x3bfaa8fe	0.00764954
55	0x3c6f6e0f	0.014613642
56	0x3d188b32	0.037242122
57	0x39db25e3	0.00041799163
58	0xbb481a99	-0.0030533432
59	0x3ccc3717	0.024928613
60	0x3c110847	0.008852071
61	0x3ce3b38d	0.027795577
62	0x3d8062ac	0.0626882
63	0x3e9e928b	0.30971178

ar_logvar_lin.weight f4 [1, 64]
0	0xbe6e4eee	-0.23272297
1	0xbdb8e755	-0.09028498
2	0xbba06b5e	-0.0048956117
3	0xbd4f22c5	-0.05057027
4	0x3d5f56df	0.054526206
5	0x3d0a2820	0.033729672
6	0x3ba761b7	0.005108084
7	0xbcebc84a	-0.028782029
8	0xbdbe0bb4	-0.09279576
9	0x3d787b57	0.0606645
10	0xbd5b2775	-0.053504426
11	0xbda5ac68	-0.080895245
12	0xbda4cee1	-0.080472715
13	0xbd10681c	-0.035255536
14	0x3c92b61f	0.017909108
15	0xbd782769	-0.06058446
16	0x38984cbc	7.262218e-05
17	0x3c0804dd	0.008301941
18	0x3def1a72	0.11674966
19	0x3bbb1b6b	0.0057100556
20	0xbdaf6a67	-0.085652165
21	0x3b72db44	0.0037056962
22	0xbd027778	-0.031852216
23	0x3dda5331	0.10660399
24	0x3d776c0e	0.060405783
25	0x3d507b3d	0.05089878
26	0xbc88cabe	-0.016698238
27	0xbe046915	-0.1293071
28	0x3d0338d9	0.032036636
29	0xbbd727fa	-0.006566045
30	0xbcba3367	-0.022729589
31	0x3c1a8952	0.009432154
32	0xbd38e43d	-0.04513954
33	0x3d318c2a	0.04334656
34	0xbc64c853	-0.013963777
35	0xbd3fc6a7	-0.04682031
36	0xbe0b7f3f	-0.1362276
37	0xbde290ca	-0.110627726
38	0xbdbd5637	-0.0924496
39	0xbda15427	-0.07877379
40	0x3e0ffb9a	0.14060822
41	0x3dd4b5a0	0.10386205
42	0xbe46264a	-0.19350544
43	0x3af873b9	0.0018955386
44	0x3d1bd724	0.03804697
45	0x3e0e3ca9	0.13890328
46	0xbd6d0000	-0.057861328
47	0xbd90fe00	-0.07079697
48	0xbd1dda19	-0.038538072
49	0xbd33dd88	-0.04391244
50	0x3dc00e96	0.09377782
51	0x3bbe2721	0.0058030044
52	0x3cdd1b3a	0.026990522
53	0xbdfeb32f	-0.1243652
54	0x3d69dfd0	0.05709821
55	0xbe283ed9	-0.16430224
56	0x3d5783e9	0.052616034
57	0xbcfe0e30	-0.031012625
58	0xbdb93568	-0.090433896
59	0x3da53b7c	0.08067986
60	0x3cb1c10b	0.021698495
61	0x3dbdfa70	0.09276283
62	0x3c94cc28	0.018163756
63	0x3e922e92	0.28551155
