experiments/konrad/saved_models/online_expanding/normal/model_step_1.pt (torch, 7434 bytes, 9 tensors)

A_gate f4 [9]
000000 4f 4a f6 3d 84 8c 5f 3c 99 af a2 bd 78 4e e6 3d
       0.12025892 0.013644341 -0.07943649 0.112454355
000010 93 2c ed 3b 64 92 80 bb 9a 22 f6 bd 38 c9 8a bb
       0.0072379797 -0.003923701 -0.120183185 -0.004235413
000020 8e 77 76 be
       -0.24069044

B_gate f4 [120]
000000 9c 10 ad ba 0a 57 00 00 4a bf ef 30 21 f4 1c be
       -0.0013203803 3.1224e-41 1.7443906e-09 -0.15327503
000010 bd 97 b0 3d f6 3b 9b 37 25 7b 35 bc 22 9e bc b5
       0.08622692 1.8505361e-05 -0.011076723 -1.4053114e-06
000020 c8 c3 db b9 74 ee ac bb 1b dc d9 b1 b1 3f dd 3a
       -0.00041916803 -0.0052774493 -6.3405543e-09 0.0016879943
000030 59 c0 24 bd 2e d8 00 80 05 2b 96 af 3a 3a 45 3a
       -0.0402225 -7.755e-41 -2.7315408e-10 0.000752363
000040 73 bc 9b 26 24 ae de bb 01 9e ee bb 10 08 c0 37
       1.0806365e-15 -0.0067956615 -0.007282019 2.2891938e-05
000050 13 93 c6 ba fd 42 44 be 7f 8f 67 3d 76 b2 3f 28
       -0.0015150033 -0.19166179 0.056533333 1.06413274e-14
000060 f7 90 b0 3a 04 36 f1 bc f3 f5 fd 32 7e a6 99 bc
       0.0013470937 -0.029444702 2.9564921e-08 -0.018756147
000070 ef 25 00 00 e5 5d c7 3d 91 f4 41 bd 15 31 10 3d
       1.3608e-41 0.09734706 -0.047352377 0.03520306
000080 50 c4 33 36 a7 e4 65 ba ab d1 03 bd c2 00 00 00
       2.6787347e-06 -0.00087697286 -0.032182377 2.72e-43
000090 9c 4a c0 bd e1 6a 00 80 d3 23 6f 36 a8 69 ac bd
       -0.093892306 -3.8341e-41 3.5634628e-06 -0.0841859
0000a0 18 f8 81 3e 61 d1 3b 3a 8c 49 c6 3a c6 72 c5 20
       0.25384593 0.0007164684 0.001512812 3.344905e-19
0000b0 71 0a 00 00 0a ba a2 39 49 d9 b5 3a 2b a1 8f 33
       3.746e-42 0.00031037658 0.001387396 6.688273e-08
0000c0 81 84 ae bd 7d 2f 00 00 8d 75 97 b9 2a 40 b1 b9
       -0.08521367 1.7036e-41 -0.00028888547 -0.00033807877
0000d0 ad ef b4 bc 61 8f 16 80 21 52 59 bc cd 1f 85 3a
       -0.022086943 -2.071816e-39 -0.01326421 0.0010156572
0000e0 33 62 7e b4 4f 28 85 bd 6b ba bf b7 12 29 84 bb
       -2.3691318e-07 -0.06501829 -2.2855782e-05 -0.0040332163
0000f0 bd eb 80 ba 64 10 e0 bb 63 7f ed 2e 15 f0 84 3f
       -0.000983588 -0.0068378914 1.08001406e-10 1.0385767
000100 bf 65 b1 39 ce ca ea 38 0f 91 88 bd 47 45 4b 36
       0.00033835878 0.00011195765 -0.06668293 3.0289682e-06
000110 17 db c7 3d b0 ff 08 3b 00 98 d0 32 82 88 0e b4
       0.09758585 0.0020904355 2.4283509e-08 -1.3274442e-07
000120 c0 44 c5 39 a7 f7 1e 3b 0a b3 b1 ac 5a 18 56 bd
       0.0003762599 0.00242565 -5.05052e-12 -0.052269317
000130 00 33 3d bc 1d 72 d7 3d 3b 88 1d 3b 03 90 16 10
       -0.011547804 0.10519812 0.0024037499 2.9693227e-29
000140 71 33 98 05 1c 7d 8f bd 5b c1 b9 38 ea cb 1a 3c
       1.4312908e-35 -0.070062846 8.857503e-05 0.009448031
000150 2f bc aa bd 3a 1c 00 00 aa 18 39 95 b9 13 a0 3b
       -0.083366744 1.0126e-41 -3.737991e-26 0.0048851636
000160 95 85 0c b8 13 37 00 00 f5 be f1 bc 48 4f 8c b9
       -3.350301e-05 1.9757e-41 -0.02951 -0.0002676195
000170 e1 ff 37 39 dd 05 06 be 99 bb 3c 30 0f a8 05 3b
       0.00017547562 -0.13088174 6.8660594e-10 0.002039436
000180 96 1b bd 3c 9a c9 ce 3c 12 f9 1d a8 b1 d6 6b bc
       0.023084443 0.025242615 -8.769259e-15 -0.014394448
000190 39 0d 00 00 64 3a cd ba e2 17 e2 bc e7 23 7e 3c
       4.743e-42 -0.001565766 -0.027599279 0.0155114895
0001a0 8a 69 9f 3b 0c 7a 9d 3b f8 4b 00 80 cd 2b f4 b5
       0.004864876 0.004805809 -2.7252e-41 -1.8192164e-06
0001b0 4e b0 65 bd 4e 07 00 00 1c 3a 87 3d 4b d0 b8 bc
       -0.05607634 2.62e-42 0.0660288 -0.02256026
0001c0 40 2a 00 80 5f bf 8a 36 29 d5 45 3b 35 9a 3a ab
       -1.5156e-41 4.134999e-06 0.0030186868 -6.629448e-13
0001d0 d3 8a fa b7 64 b1 2b 3c 29 48 00 80 21 89 7c 3c
       -2.9866967e-05 0.010479305 -2.5886e-41 0.015413553

A_mean f4 [9]
000000 b8 40 5f 30 88 1b 5e 99 48 1b 29 14 43 ea 56 30
       8.12189e-10 -1.1482691e-23 8.5377e-27 7.818565e-10
000010 0c a7 a0 1a f8 f4 1e 14 6e 2f 68 2f d5 49 74 9a
       6.644433e-23 8.025273e-27 2.1117127e-10 -5.0517658e-23
000020 f7 ba 17 94
       -7.660424e-27

B_mean f4 [120]
000000 f2 e4 22 2f 00 a3 22 b0 d1 ac e4 a0 b4 d3 47 93
       1.4815152e-10 -5.9166894e-10 -3.8739063e-19 -2.5221709e-27
000010 b8 44 ae 27 30 a9 98 32 0a c2 07 9a 00 8b 25 1d
       4.8369207e-15 1.7772066e-08 -2.807409e-23 2.190943e-21
000020 e5 99 37 1e 1c 39 9c 30 62 95 7b 32 95 11 5c 30
       9.719764e-21 1.1366725e-09 1.4644089e-08 8.006052e-10
000030 16 90 07 14 64 cd ac b2 b0 15 bc b7 dd a6 86 9a
       6.844174e-27 -2.0116836e-08 -2.2421445e-05 -5.5690683e-23
000040 4a 7a 96 38 42 32 8d 2e 55 ef 0c 30 f6 d6 03 b3
       7.1753355e-05 6.420865e-11 5.1271815e-10 -3.069632e-08
000050 98 9b 6a 1f b0 59 5a 93 4e e0 1c 12 78 65 97 26
       4.968013e-20 -2.7559688e-27 4.9501397e-28 1.0505233e-15
000060 0c c6 57 19 20 3f 44 1d 68 fb 4f 38 fc ae 46 af
       1.1155235e-23 2.5973019e-21 4.9586786e-05 -1.8070162e-10
000070 dc 61 6f b7 e0 88 fd 21 a1 79 0a 13 d0 38 94 29
       -1.4268295e-05 1.7180177e-18 1.7478016e-27 6.582376e-14
000080 95 b6 76 34 98 d8 18 9b b2 1b a7 31 c4 4d f0 9d
       2.2976958e-07 -1.264313e-22 4.8634883e-09 -6.360788e-21
000090 57 94 9b b0 8f 6b e4 25 40 3c 15 1e 8a de 4b 13
       -1.1319895e-09 3.962458e-16 7.900454e-21 2.5731922e-27
0000a0 30 62 fb b1 2d f7 a5 25 1e 14 99 1a 90 97 b3 b3
       -7.316224e-09 2.879043e-16 6.331182e-23 -8.362906e-08
0000b0 be a1 1a b6 7c e1 9e 2f 64 51 1d b1 5c d4 23 18
       -2.3041935e-06 2.890025e-10 -2.2892772e-09 2.117447e-24
0000c0 80 fe 1f 93 ba 04 6e 32 54 c3 61 1a 66 95 8d 9a
       -2.01941e-27 1.3854498e-08 4.6686694e-23 -5.85576e-23
0000d0 48 cf 37 b6 fc 3c 65 9d 50 d0 28 af 8e 2a bd 83
       -2.7389779e-06 -3.0339426e-21 -1.5353518e-10 -1.1118192e-36
0000e0 8c 9e 21 b5 0e a5 4a 13 9f d6 71 9d 84 23 c9 34
       -6.020789e-07 2.5577363e-27 -3.200704e-21 3.7465009e-07
0000f0 92 d2 d9 1a 16 8b 71 2f a2 c2 65 02 d7 52 c6 30
       9.008929e-23 2.1968236e-10 1.688012e-37 1.4429941e-09
000100 d5 e3 51 20 e4 6f d3 24 3c 85 67 93 d9 d5 89 30
       1.7778372e-19 9.1696213e-17 -2.9221989e-27 1.0028841e-09
000110 f5 1d f9 97 86 c6 9c 19 47 09 0e 14 8a 36 1f 18
       -1.609881e-24 1.6210205e-23 7.1709975e-27 2.0577804e-24
000120 a7 e0 88 30 ed 92 03 39 6b f4 08 9f 56 19 0f 14
       9.959152e-10 0.00012547868 -2.9001298e-20 7.224652e-27
000130 5d 5e e3 b3 d3 dd 88 b2 63 4e c2 1a f4 35 84 37
       -1.0587676e-07 -1.5933358e-08 8.036316e-23 1.576075e-05
000140 e6 67 6a ae 6b a9 6f 30 52 21 84 82 e4 35 57 b8
       -5.329772e-11 8.718845e-10 -1.9414782e-37 -5.1310184e-05
000150 e0 37 e4 12 03 0d 21 34 d6 a1 77 0c 0a 8e 06 1b
       1.4402597e-27 1.4999027e-07 1.9076889e-31 1.1130116e-22
000160 c6 f2 38 b5 fa 77 75 8f 3a 6a d9 ae 5c c6 ef 91
       -6.8898623e-07 -1.2102539e-29 -9.886887e-11 -3.78298e-28
000170 c6 90 6d b1 ae ef 12 14 e3 8f a9 9c b8 d6 2f a1
       -3.4570333e-09 7.418385e-27 -1.1220676e-21 -5.9576484e-19
000180 26 16 06 1b 12 9d d7 1e e0 8e ee 23 59 4b 42 30
       1.1091377e-22 2.2828973e-20 2.5864522e-17 7.0683864e-10
000190 0a ce 57 16 b9 ed 9e af 98 51 74 12 99 80 26 a0
       1.7432576e-25 -2.8908945e-10 7.7093396e-28 -1.4103296e-19
0001a0 80 3a 00 80 b2 93 9d 1a 1e db bf a2 91 77 80 38
       -2.0986e-41 6.517229e-23 -5.2002653e-18 6.1257866e-05
0001b0 f3 fe 64 30 00 42 47 b5 4e 4f 61 38 be 4e 1c 94
       8.330822e-10 -7.422932e-07 5.371804e-05 -7.8915164e-27
0001c0 c6 19 74 2d 54 37 76 1f 2a f8 00 1b a8 0d f3 a0
       1.3875517e-11 5.2138293e-20 1.0668098e-22 -4.1174838e-19
0001d0 27 f5 7f 26 8d ef c8 2f a4 32 81 91 f1 7e 0c 39
       8.880314e-16 3.655e-10 -2.038382e-28 0.0001339873

A_logvar f4 [9]
000000 ba 5f cb bd d5 b0 05 3e 15 ec c3 3e f1 01 55 bc
       -0.09930368 0.13055737 0.38266054 -0.013000951
000010 1f 37 64 3e ae 8c ea 3e 77 24 8c bd d3 a2 bc 3d
       0.22286652 0.45810455 -0.068428926 0.09210744
000020 65 94 c2 3e
       0.3800384

B_logvar f4 [120]
000000 87 1c a4 bc 37 25 60 a3 d6 96 ef 09 b1 93 f0 3d
       -0.020033134 -1.2150945e-17 5.7679003e-33 0.1174692
000010 20 7a bd 2c 12 bf fc b6 b8 0d 8f 3c 20 83 79 34
       5.3852617e-12 -7.5324288e-06 0.017462596 2.3237635e-07
000020 10 24 fd 2b b1 cf 02 bd bc 71 4e b6 79 81 7c 25
       1.7986741e-12 -0.03193635 -3.0762594e-06 2.1901383e-16
000030 d7 16 8b 3e 26 07 9d 34 44 65 bb 99 95 d6 c4 3c
       0.27165863 2.924873e-07 -1.9376248e-23 0.024028102
000040 7e af b7 94 3e ef dc 8e 88 67 e1 bc 60 af 8c b4
       -1.8547497e-26 -5.446457e-30 -0.027515188 -2.6204634e-07
000050 2a 39 ce 8e 4a 98 1e 3e 64 e6 08 2a aa d8 93 97
       -5.0837968e-30 0.15487781 1.2159159e-13 -9.554346e-25
000060 0b 1e 87 3d e0 93 b1 b5 24 f7 d5 9a 24 d6 25 bd
       0.06597527 -1.3230565e-06 -8.849401e-23 -0.040487424
000070 f2 49 85 ab 20 94 86 29 1f 15 61 3e c0 c6 7c 89
       -9.470742e-13 5.976491e-14 0.21980713 -3.0426848e-33
000080 8d 27 9e 1d 4e 5b f7 3a d4 12 5f 15 48 ff b4 06
       4.1863146e-21 0.0018871815 4.5049344e-26 6.8083577e-35
000090 a0 05 b9 bc d4 95 b6 39 07 3f f5 81 15 52 87 3e
       -0.02258569 0.00034825376 -9.0089226e-38 0.2642981
0000a0 f4 ea cd 1f 19 b4 88 16 a2 74 72 3d c6 00 20 9c
       8.7209574e-20 2.2085643e-25 0.05919326 -5.294056e-22
0000b0 8c 2c 95 b7 dd 41 09 bd a8 9d 51 2f 80 89 1b 2e
       -1.7782928e-05 -0.033510078 1.906445e-10 3.5365044e-11
0000c0 17 d8 f8 3d 73 52 93 90 87 53 e9 26 7f 32 dc 3c
       0.12150591 -5.810831e-29 1.6190263e-15 0.026879547
0000d0 60 d1 a0 a3 f9 97 d4 27 70 74 b1 bc 81 d8 f8 35
       -1.7435909e-17 5.900659e-15 -0.021661967 1.8540451e-06
0000e0 03 c4 51 20 7a 27 17 3e b7 a1 b4 91 ee d0 78 32
       1.7767843e-19 0.14761153 -2.8498657e-28 1.4483005e-08
0000f0 c0 c5 c5 3d cb dc 18 a7 f5 01 1a 20 42 e8 a8 bc
       0.096568584 -2.121393e-15 1.3044955e-19 -0.020618562
000100 c8 72 c9 b4 29 ab 30 1f ef 30 3d 3e c0 3f db 19
       -3.7522682e-07 3.741103e-20 0.18475698 2.2669818e-23
000110 1c 31 00 80 db 0a df bb 3a 47 93 05 b7 45 86 96
       -1.7617e-41 -0.006806714 1.3849978e-35 -2.1692864e-25
000120 96 3e 95 bc 7a 84 d0 36 66 57 76 ac b0 78 24 3e
       -0.01821832 6.2143054e-06 -3.5007218e-12 0.16061664
000130 dd 02 2f 12 61 3d 9e 22 35 5c c0 3d d0 8e 33 1f
       5.5223793e-28 4.2890973e-18 0.09392587 3.8022856e-20
000140 02 2f 1c a2 3e c6 b8 bc 52 fe 80 b5 e4 48 bd b8
       -2.1166828e-18 -0.022555467 -9.61076e-07 -9.025799e-05
000150 21 9d 72 3e f6 53 76 9a e8 25 34 af c8 81 b0 3d
       0.23692752 -5.093943e-23 -1.6384372e-10 0.08618504
000160 46 12 28 9b f0 b6 3b 9c c6 2c aa bc 98 0f 97 b2
       -1.3902539e-22 -6.210955e-22 -0.020773303 -1.7585805e-08
000170 52 c5 80 b7 b5 39 5d 3e 3e ca ae a6 7a 1a 9d 18
       -1.5350673e-05 0.21604045 -1.2128493e-15 4.0610283e-24
000180 87 ca b5 3d 8a b3 40 b6 ac a8 8e b0 8e f3 5c bc
       0.0887652 -2.8714735e-06 -1.0379799e-09 -0.013485802
000190 5c d5 c9 32 1b 21 f6 b7 ce 15 46 3d 40 10 aa 18
       2.3496504e-08 -2.9340901e-05 0.04836064 4.396038e-24
0001a0 6f 6e 95 22 ef 87 93 3d 10 b4 00 a1 b9 09 87 37
       4.0503457e-18 0.07203662 -4.36064e-19 1.6097782e-05
0001b0 ad ef 1c bc e0 7d 0c 0e e9 c4 e2 2a 3f 6d b9 3c
       -0.0095786275 1.7316939e-30 4.0282298e-13 0.0226351
0001c0 91 4c 79 26 81 0b d6 97 29 a7 a9 3d b0 ee 88 ac
       8.6492996e-16 -1.383233e-24 0.082838364 -3.891852e-12
0001d0 20 0d e6 26 8f 55 14 bc 3d 02 43 2c a9 14 85 83
       1.5963014e-15 -0.009053602 2.771241e-12 -7.821781e-37

ar_gate_lin.weight f4 [1, 64]
000000 57 53 4f bd d1 9a 73 bd da 5c 74 bd e3 27 49 bd
       -0.05061659 -0.059473816 -0.059658863 -0.049110305
000010 cf cb 92 bd fd bc b4 3d 85 a2 0a bb d3 41 1b 3c
       -0.0716778 0.08825109 -0.0021153998 0.009476143
000020 7b 04 c9 3c 5d 12 71 bd 6d c6 01 be d2 b3 9a 3d
       0.02453827 -0.058855403 -0.1267335 0.07553829
000030 62 c8 65 3e 31 4d 43 bc fa 6f da bc a1 b9 28 3e
       0.22439721 -0.011920259 -0.026664723 0.16477062
000040 60 31 13 bd fc a0 b0 bd 90 8d 83 3d 1a e2 f5 bd
       -0.03593576 -0.08624455 0.06423485 -0.12006016
000050 84 3e c5 3d 64 8f 80 3d 67 56 ec 3c 59 d8 c1 bc
       0.096310645 0.062773496 0.028849794 -0.023662733
000060 08 e2 a1 3d 3d 25 3a bd 3c 4d da bd b9 cb b0 bd
       0.0790444 -0.04544567 -0.106592625 -0.08632607
000070 e4 b0 00 3e f9 1f 48 bd f6 4e 65 3d 7c 47 5e bd
       0.12567478 -0.048858617 0.055983506 -0.05426739
000080 bb 11 96 bd f1 64 14 3d f4 5a f9 bc e8 2d d9 3d
       -0.073276006 0.036229078 -0.030438878 0.10604459
000090 3c ed c0 bd bb e5 45 bd 36 c7 3e 3d 21 34 65 bd
       -0.09420249 -0.04831479 0.0465767 -0.055957917
0000a0 1b 09 d9 3d 41 fd de 3d 96 d9 9d bd 53 c6 3e bd
       0.1059744 0.10888148 -0.07707517 -0.046575855
0000b0 aa 69 f2 bc 60 64 1d 3e 61 f9 4d bd dc 44 00 be
       -0.0295914 0.15370321 -0.050286654 -0.12526268
0000c0 37 93 93 3d 12 22 52 3d 05 be 44 3d 04 28 03 bd
       0.072058134 0.051302023 0.04803278 -0.032020584
0000d0 c8 99 95 3c be 1e 12 3d 0f 1f a2 bc f5 6a 3d 3d
       0.018261805 0.03567385 -0.0197902 0.04624458
0000e0 04 a3 37 bd ed 48 78 bc f6 fb de bd e4 2c bb bb
       -0.0448332 -0.015154106 -0.108879015 -0.0057121385
0000f0 e5 24 9b 3d cf 83 08 bd 94 0a a4 3c 53 7d 81 bc
       0.075753964 -0.033328827 0.020024575 -0.01580683

ar_mean_lin.weight f4 [1, 64]
000000 30 58 30 bd 26 65 4d 3c 83 b6 97 bb 00 60 08 bc
       -0.043052852 0.012536323 -0.0046299114 -0.008323669
000010 b6 35 5a 3c b2 63 83 3b cf 46 54 3c 6a c3 06 3c
       0.01331847 0.0040096873 0.012956335 0.008225301
000020 ee f8 2f bc a0 92 59 bb 04 a4 24 bd fc 64 6f bc
       -0.010740502 -0.0033198968 -0.04019548 -0.014611479
000030 6a 3e e9 3b bb 01 17 3c 87 32 c0 bb ee e9 1c bc
       0.007118036 0.009216721 -0.0058653983 -0.009577258
000040 36 48 bc 3c 8e 8b 3f 39 53 37 3b 3d 7d 62 a7 bc
       0.022983652 0.00018267168 0.04570706 -0.020432705
000050 0f b5 ed 3c 32 69 f2 3b d6 1c ec bc 28 58 7c 3c
       0.029017 0.007397794 -0.028822344 0.015401877
000060 e4 c7 06 3d 0a b0 46 3b 14 e5 f0 bb 6c 2c 7b bc
       0.032905474 0.003031733 -0.007351527 -0.015330415
000070 1c 84 53 3d cc e9 a7 bc 6c f4 bb bc 85 73 9f 3c
       0.05163966 -0.020497225 -0.022943698 0.019464264
000080 68 55 ce 3c 3a 51 b7 bb d1 23 9f 3c d8 cc e2 bc
       0.02518721 -0.0055943998 0.019426258 -0.027685568
000090 f7 3f cd 3b 40 b6 ea bc f1 97 c7 bc 38 9d 0f bd
       0.0062637287 -0.028651357 -0.024364443 -0.035062045
0000a0 b7 6b a2 3c 1b 37 c0 3c a9 c0 98 3c 1a db 80 3b
       0.019826753 0.023463776 0.018646555 0.003932369
0000b0 79 9f 3b 3c f5 63 23 3d 97 c2 a1 bc 41 1f 08 bd
       0.011451595 0.03989025 -0.019746108 -0.03323293
0000c0 b6 5f db 3c 48 18 0d 3d 44 ae 5c 3c 10 1a b0 3b
       0.026779037 0.034446985 0.013469283 0.0053742006
0000d0 70 ad 2a 3c 14 32 90 3c fc 51 66 3c c7 e8 91 3c
       0.010417327 0.017602004 0.014057633 0.017811192
0000e0 5a 9f c6 3c b1 b0 15 3c ba 74 28 bc ed 10 ca 3c
       0.024245907 0.009136365 -0.010281736 0.024666274
0000f0 a2 ec d3 3c 9d 11 95 bb 8c 5b d8 3d 9f dd d4 3e
       0.025869671 -0.004549219 0.10564336 0.41575333

ar_logvar_lin.weight f4 [1, 64]
000000 cf f0 83 be 19 a5 71 bd e0 76 ee bd e0 5e c5 bd
       -0.2576966 -0.05899534 -0.11643767 -0.096372366
000010 bd c8 35 be 56 b4 74 bc b9 58 3d be 17 dc 10 3e
       -0.17752357 -0.014935574 -0.18490876 0.14146458
000020 6e cf 93 bd c2 53 8f 3c 62 9b 87 bd 16 50 61 3d
       -0.072172984 0.017495994 -0.06621434 0.055008017
000030 1f ef 7b 3c e4 0d 1a 3c 57 76 6e 3c e5 42 1f bc
       0.015376835 0.009402726 0.014554582 -0.009720539
000040 ff ff a9 3c 39 93 27 bd f8 d1 4a 3e cb b4 2a be
       0.020751951 -0.040911887 0.19806659 -0.1667053
000050 6a 9f 1b 3e 64 d6 0d 3e 59 e9 4a 3c fb b4 01 be
       0.1519753 0.13851315 0.012384736 -0.12666695
000060 22 35 89 bb 91 71 c1 bd 83 8b 31 be 0e b7 4b 3d
       -0.004187242 -0.09445489 -0.17338376 0.04973512
000070 c7 56 24 bc c5 4e 40 bd 91 c5 e9 3b ae 9f a2 3d
       -0.010030455 -0.04695012 0.0071341475 0.07940613
000080 b3 aa 12 3e c1 0f 12 3d e3 48 97 bd 1f f3 8d bd
       0.14322929 0.035659555 -0.07386949 -0.06931137
000090 cb aa 37 be eb f5 30 be 27 ed 13 be 9d da 93 bd
       -0.17936246 -0.1728131 -0.14445935 -0.072194315
0000a0 ac 83 b9 3c ac 51 44 3d f0 07 99 bd 4d c4 38 bd
       0.022645794 0.04792945 -0.07472217 -0.045109082
0000b0 5b f4 95 bc d5 7e 05 3d 62 1c 3b bd 45 10 37 be
       -0.018304994 0.03259166 -0.045681365 -0.178773
0000c0 54 be 0e 3d ca 1b 8a 3d fb e8 99 3d aa 81 8c bd
       0.03484948 0.067435816 0.075151406 -0.06860669
0000d0 b3 f4 08 3d e9 a8 19 bd 52 9a 46 3d fb b6 31 bc
       0.03343649 -0.0375146 0.048487015 -0.010846849
0000e0 5d 58 aa 3b c4 63 be 3d 26 2e 07 be 56 df d2 bd
       0.005198522 0.092963725 -0.13201198 -0.10296504
0000f0 93 ad e1 3d 23 12 62 3b e0 96 36 3e b7 41 d5 3e
       0.11019435 0.0034495674 0.17830992 0.416517
