experiments/konrad/saved_models/online_expanding/weibull/model_step_7.pt (torch, 890518 bytes, 15 tensors)

A_gate f4 [9]
00000000: 5231 87be 08e5 9cbd daac f9b7 21fc 80be
00000010: cf5d 5cbd af13 7e3a 5d0e 65bd 0a0d 39bd
00000020: b29c 37ba
-0.26404816 -0.07660872 -2.9763603e-05 -0.2519236 -0.0538004 0.0009692264 -0.0559219 -0.04517845
-0.00070042454

B_gate f4 [120]
00000000: c1ce b3bd 76a0 0080 1ed6 1f29 6f57 8738
00000010: d097 873b d9ec 75ba 5984 acbc 36b9 11a6
00000020: 982b 0000 f582 8ebd b0df 2826 e1a1 69b1
00000030: a2ca 5539 2934 5e35 6215 6235 9c91 8fbc
00000040: 4128 0000 fc56 13b6 0578 95bd 4b3a 9fa5
00000050: 2b39 af1d 61e3 6eb8 2a7c 0000 433e c936
00000060: 5302 efbc f0a4 0080 d41a 0000 3a4f cfbd
00000070: 5e43 0080 c047 0080 c2df 9439 a598 5ca5
00000080: 2e65 0000 502b 7ebc 34bf 609a 8248 0080
00000090: d2f2 9cbd 107a 148f 44f0 6f84 ff97 a939
000000a0: 626c 6f0f b815 bb35 f082 fabc 5b46 0080
000000b0: c267 0000 ee0e 76bd 8240 0000 9f67 6e18
000000c0: f77f 9bb8 dc4a 0080 704e 0080 b647 9abc
000000d0: 2200 0080 931b 0000 d145 e2bd e8ef 17ab
000000e0: 1557 0000 86b7 503a 9670 0080 2825 0080
000000f0: 1afd 92bb d727 0000 e933 0000 7814 ff3c
00000100: 9f3e 329a d86b 0000 9cc5 8a39 469d d0b1
00000110: 7c79 0000 1688 0abd c2c5 d49d d303 0080
00000120: 04a1 35be 5e2f 0080 30c6 532e 6e28 143a
00000130: c09b fe19 1a43 0080 5b25 81bd 2b30 dbba
00000140: f73e 0080 fc32 c0bd cb2a 0000 0756 13ba
00000150: d594 2c39 d9e4 360a e124 0000 4e8f 89bc
00000160: 3a30 0000 0c2c 0000 cb40 aebd 993c 0000
00000170: 2ff6 0830 5459 54b7 f45f 0080 5f0f dd30
00000180: b6a1 efbc d85b 0080 4c20 0080 45eb 53bd
00000190: 88a0 1000 b225 1b1d b716 4ab9 613b 0000
000001a0: caca e11b b2a3 7bbc 0a49 8b2a 6a60 0080
000001b0: fa76 12be a12b 0080 a027 0080 20ea 4eb6
000001c0: 6a16 f1a2 5c71 0080 2083 b7bc 6e1f 0000
000001d0: fd6a 0000 bb00 f8bd 192e 6e23 571a 0080
-0.087796696 -5.7563e-41 3.549081e-14 6.4535874e-05 0.0041379705 -0.00093813014 -0.021059202 -5.055799e-16
1.5638e-41 -0.06958572 5.858986e-16 -3.399798e-09 0.0002038875 8.277735e-07 8.4222677e-07 -0.017525487
1.444e-41 -2.1955339e-06 -0.072982825 -2.7621604e-16 4.6381225e-21 -5.6955385e-05 4.4542e-41 5.997515e-06
-0.029175913 -5.9168e-41 9.624e-42 -0.10122533 -2.4167e-41 -2.5739e-41 0.00028395472 -1.9133676e-16
3.6296e-41 -0.015513256 -4.6476567e-23 -2.6011e-41 -0.07663502 -7.320472e-30 -2.820464e-36 0.00032347438
1.18044835e-29 1.3938907e-06 -0.030580014 -2.5239e-41 3.7221e-41 -0.06007283 2.3141e-41 3.0813094e-24
-7.414811e-05 -2.6854e-41 -2.8138e-41 -0.018833023 -4.8e-44 9.892e-42 -0.11048473 -5.3978913e-13
3.1239e-41 0.00079619174 -4.0388e-41 -1.3329e-41 -0.0044857385 1.4292e-41 1.8622e-41 0.03113769
-3.6860122e-23 3.8687e-41 0.00026468642 -6.0714767e-09 4.358e-41 -0.033821188 -5.632041e-21 -1.372e-42
-0.17737204 -1.6992e-41 4.815187e-11 0.00056517764 2.6325891e-23 -2.4072e-41 -0.06305953 -0.0016722729
-2.2588e-41 -0.093847245 1.5351e-41 -0.0005620424 0.00016458642 8.806023e-33 1.323e-41 -0.016791966
1.73e-41 1.5801e-41 -0.08508452 2.1738e-41 4.982636e-10 -1.2656983e-05 -3.4421e-41 1.6084235e-09
-0.029251914 -3.2947e-41 -1.1586e-41 -0.051738042 1.526956e-39 2.0533567e-21 -0.00019272683 2.1301e-41
3.7354177e-22 -0.015358852 2.474204e-13 -3.4587e-41 -0.14303198 -1.5651e-41 -1.4215e-41 -3.083267e-06
-6.5346913e-18 -4.0666e-41 -0.022401392 1.1275e-41 3.838e-41 -0.12109514 1.2911767e-17 -9.449e-42

ar_gate_lin.weight f4 [1, 64]
00000000: 4cea 99bd 7abd 0e3d 18da 243d 3ba0 85bd
00000010: 3cd6 ae3c 6e98 a0bc 121a 28bc 7ebc d73c
00000020: ed6b 1fbd 5fbe 2cbc cdb0 b7bc 8073 85bc
00000030: b3b3 213c 0686 01bd b1e4 fd3d 2764 16bd
00000040: f0a4 253c f66e ebbc 058c 7e3d 1215 fdbb
00000050: 0173 653d 48fa cb3c 4703 f5bc ba6d f93d
00000060: 364f a83c 5510 bc3c fb54 17bd ac55 c1bc
00000070: 6f5d a3bc 5f30 d53c fd61 bcbc 9a22 e73c
00000080: b64c bdbc cbc9 8e3c 91b2 76bb df47 1ebd
00000090: ae8a c9bb 1e85 6e3c e20e 05bc 3004 81bd
000000a0: d101 a4bc 6aec 793d c9ef 58bb 9e2e 45bc
000000b0: 15cb c23c c1f8 d03c f4fb b53d ae56 abbc
000000c0: 7bec 0f3d bad7 f53b c08b a8b9 94af 323d
000000d0: 16d5 6b3d 8c8a f63c 3d6e fcbb eacd 9d3c
000000e0: b4db 043c 82b5 933d 5417 623d b9e3 80bc
000000f0: 0f78 79bc 9a3b d73a ae61 873d 0dba bc3e
-0.07515392 0.034848668 0.040247053 -0.06524702 0.02134239 -0.019603934 -0.010260122 0.026334997
-0.038921285 -0.010543435 -0.022423172 -0.016290426 0.009869504 -0.031621955 0.12397135 -0.036716606
0.010110125 -0.028739434 0.06214525 -0.007723459 0.05601788 0.024899617 -0.02990879 0.12179132
0.020545583 0.022957006 -0.036946278 -0.023600422 -0.019942014 0.026024042 -0.022995943 0.028214741
-0.023107868 0.017430207 -0.0037643055 -0.03864276 -0.006150565 0.014558105 -0.008121224 -0.06299627
-0.020020397 0.061016478 -0.0033101907 -0.01203504 0.023778478 0.02550924 0.08885947 -0.020915356
0.035137635 0.0075025233 -0.0003214758 0.043624476 0.05757626 0.030095361 -0.007703571 0.019263227
0.008109022 0.07212354 0.05519803 -0.015733587 -0.015226378 0.0016420961 0.06610428 0.36860695

ar_k_net.0.weight f4 [32, 64]
00000000: 92a1 0080 22a1 0080 02b9 0080 3b1b 0000
00000010: c227 0000 242f 0000 4b85 0080 ae5a 0080
00000020: e080 0080 ebb5 0080 606e 0080 273d 0000
00000030: 6f5d 0000 0c52 0080 164e 0080 2f0f 0080
00000040: 8b00 0080 9a50 0000 5109 0000 4433 0000
00000050: 003c 0000 8429 0080 6f49 0000 5443 0080
00000060: be7e 0080 af76 0080 6c00 0080 a77b 0080
00000070: a999 0080 2e8c 0080 850c 0000 0a74 0080
00000080: 24a0 0080 a453 0080 6730 0080 783e 0080
00000090: f2ad 0080 2199 0080 615a 0000 ac95 0080
000000a0: aeb9 0080 3798 0080 8d59 0000 bf0c 0080
000000b0: 915d 0080 5b24 0000 d48f 0080 d776 0080
000000c0: 2fa4 0080 3f87 0080 aa2d 0000 e621 0080
000000d0: 0109 0000 7923 0000 b79c 0080 9b03 0080
000000e0: ba84 0080 ed0a 0080 bb17 0000 8638 0000
000000f0: 3969 0080 291e 0080 625a 0000 1755 0000
00000100: e134 6fbc bb2f 373a 1ef2 f23a 4c55 d6bb
00000110: 3960 4ebc 7023 8bbb 70a5 70bc 3c8e dfbb
00000120: 4a62 53bb 21c0 45bc e6f3 64bc 4107 4cbb
00000130: 8d05 efbb 50b1 a43b 6219 1e3c c61f 50ba
00000140: 6711 20bb 4951 a63b e676 7f3b 2339 07bc
00000150: 212e 143c 3573 e03b a9cf 1a3c 6101 233b
00000160: ab0c 983b d96a 8b3b 57ab d2ba f34b a5bb
00000170: 991e f83b 851e 513b b8a3 cb3a 82dc e93b
00000180: f7cd 6ebc 2357 abbb 545b c5ba 13f9 30bb
00000190: 88cb 89bc dffd e9bb 4f49 6abb 085c 69bb
000001a0: 78da 8b3b 7997 b7bb f5a6 aabb 0ca9 80bc
000001b0: 7b89 bb3a 73e7 1cba 53bd 963a 5640 89bc
000001c0: 8541 b4bb 744e 5cbb 0163 8e3a e329 43bb
000001d0: aaf2 debb 508b cabb 53b2 c53a f698 373c
000001e0: 5e48 9c3b 09b3 8abb 1d8c b13b 007f b93b
000001f0: fd4e b33b ea0d 0c3c 54c2 aeb9 7cbd 5bbc
00000200: dd3a 98bc f9df b03c 78fe 553c dfca debb
00000210: 8795 113c 6204 4d3d b637 24bd 65d0 a63b
00000220: f588 82ba 4981 f3bc 10bf d4bc ac43 b2bc
00000230: 6adb d8bc 62e6 103d a357 013d e615 f43c
00000240: 3f0c 873c dbdb c93c 68a8 453d c6c8 d5bb
00000250: c58b ac3d a9a4 3c3d 900d 0a3d 111d 9b3c
00000260: 5a1f e13c 044e 163d b53a 7a3b c074 893c
00000270: 23ad 9a3d 9d8a 9a3c 2647 0c3d 256e 463d
00000280: fd87 e7bd 4886 ac3c 71b3 c1bb 82c5 863c
00000290: 2ae2 1b3c 130e 55bc 9fb6 853c 35e2 b8ba
000002a0: 9549 363c 9c8a ae3c c0b5 2f3d f4bc aebb
000002b0: 2284 8cbc 6c99 273d 71fc ef3c 795a 31bd
000002c0: 2700 8d3a 198a 7dba a172 033d 1b63 143d
000002d0: 37d9 e83b e151 843c e104 813c cb47 613d
000002e0: 4109 4e3d 5672 913c 4b20 1a3d 2818 cd3c
000002f0: 1a46 c23c d8ad ec3c bb6a cb3c 9c7b ae3c
00000300: 3c52 cbba 30dc 8cbb 225d c4ba f905 8c39
00000310: d4b5 263b e456 5dbb 54b0 063c 2b5b 723b
00000320: 3209 60b9 f824 78ba 59fa 87bb 7849 e13a
00000330: b7e5 943b 07be 03bb fe7c 32bb 7ae0 5cbb
00000340: 3ef7 893c d2dc c03b ad11 1bbb 5f1d 50bb
00000350: 6cba e9bb aecc b1bb 5e0d 413b 0c80 23ba
00000360: 0067 88b9 3184 3fbb 4bee 8fbb 5e8c 89bb
00000370: d93e a6bb 53d7 a2bb 20cd c0bb 6c10 e6ba
00000380: 1a5f b8bb b133 a3bb 87b1 c7bb c2dd 43bb
00000390: ac3f 34bc 7c5b c93c f35e 10bc 979e 0cbb
000003a0: 2283 62bb f85f 84ba 5243 6bba f092 d4bb
000003b0: dffd d1bb 5733 f83b 94cc 35bc b527 cabb
000003c0: 233a 39bc 11ca 193d 35ee 89bb 958f 54bc
000003d0: 7b6c 143c c066 583b 474c d4bb a3a7 bcbb
000003e0: b95d e9bb 3e48 3dbc b19e 103b 038d 663c
000003f0: 46e3 2b3c 94ca 9eba 610b c4bb 7305 f6bb
-5.796e-41 -5.7804e-41 -6.6368e-41 9.768e-42 1.4262e-41 1.6911e-41 -4.7817e-41 -3.253e-41
-4.6232e-41 -6.526e-41 -3.9595e-41 2.1937e-41 3.3518e-41 -2.9433e-41 -2.8012e-41 -5.447e-42
-1.95e-43 2.8914e-41 3.342e-42 1.839e-41 2.1524e-41 -1.4893e-41 2.6343e-41 -2.4153e-41
-4.5467e-41 -4.2576e-41 -1.51e-43 -4.4358e-41 -5.5123e-41 -5.0287e-41 4.491e-42 -4.1627e-41
-5.7448e-41 -3.0005e-41 -1.7363e-41 -2.241e-41 -6.24e-41 -5.4932e-41 3.2422e-41 -5.3692e-41
-6.661e-41 -5.4604e-41 3.2125e-41 -4.572e-42 -3.3565e-41 1.3042e-41 -5.1596e-41 -4.2632e-41
-5.8898e-41 -4.8517e-41 1.6381e-41 -1.216e-41 3.23e-42 1.2725e-41 -5.6219e-41 -1.293e-42
-4.7613e-41 -3.92e-42 8.513e-42 2.0277e-41 -3.7747e-41 -1.082e-41 3.2423e-41 3.0524e-41
-0.01460001 0.00069880084 0.0018535291 -0.00654093 -0.012596183 -0.004246168 -0.014687881 -0.0068223756
-0.003225463 -0.012069733 -0.013974166 -0.0031132253 -0.007294363 0.00502602 0.009649606 -0.0007939305
-0.0024424435 0.005075608 0.003898078 -0.008253369 0.009044201 0.0068496712 0.009448924 0.0024872648
0.004640182 0.0042546806 -0.0016072792 -0.0050444542 0.007572007 0.003190906 0.0015536463 0.0071368823
-0.014575473 -0.0052288934 -0.0015057125 -0.0027003929 -0.016820684 -0.0071408595 -0.0035749262 -0.0035607833
0.004267987 -0.0056027737 -0.005207891 -0.015705608 0.001430794 -0.00059854164 0.0011500515 -0.01675431
-0.0055009746 -0.0033616098 0.0010863246 -0.0029779605 -0.00680383 -0.006181158 0.0015083052 0.011205902
0.004769369 -0.0042327684 0.005418314 0.0056608915 0.0054720626 0.008548239 -0.00033332652 -0.013411876
-0.018582756 0.021591173 0.013061158 -0.0067990865 0.008885748 0.050053008 -0.040092193 0.0050907605
-0.0009959029 -0.029724734 -0.025970012 -0.021760784 -0.026471812 0.03537596 0.031577718 0.029795598
0.016485332 0.024640968 0.048256308 -0.006524178 0.084250964 0.04605547 0.03370434 0.018934758
0.02748077 0.036695495 0.0038181965 0.016779304 0.075525545 0.018864924 0.03424754 0.048444886
-0.113052346 0.021060124 -0.0059112837 0.016451601 0.009514371 -0.013003844 0.016322432 -0.0014105501
0.011125942 0.021306328 0.04289794 -0.0053325836 -0.01715285 0.0409178 0.029295178 -0.043299172
0.0010757492 -0.0009671762 0.03209174 0.036227327 0.007105972 0.016152324 0.015749397 0.055000108
0.050301794 0.017754715 0.037628453 0.025035933 0.023715068 0.028891489 0.024831166 0.021299176
-0.0015512179 -0.0042987093 -0.0014981369 0.0002670733 0.0025437968 -0.0033773715 0.008220751 0.003698061
-0.0002136573 -0.0009465958 -0.004149717 0.0017188033 0.0045439857 -0.0020102279 -0.0027235146 -0.0033703134
0.016841527 0.005885699 -0.0023661659 -0.0031755788 -0.007132819 -0.005426011 0.002945743 -0.0006237037
-0.00026016682 -0.002922308 -0.0043924204 -0.0041976413 -0.00507341 -0.0049695163 -0.005883828 -0.0017552502
-0.0056265714 -0.0049805273 -0.006094161 -0.0029886817 -0.011001509 0.024579756 -0.0088117 -0.0021456832
-0.0034563025 -0.0010099402 -0.000897457 -0.006487243 -0.0064084376 0.0075744796 -0.0110961385 -0.006169284
-0.011305365 0.03754622 -0.0042093047 -0.012973686 0.009059067 0.0033020228 -0.0064788195 -0.0057572885
-0.0071217683 -0.011552868 0.0022067244 0.014071706 0.010491198 -0.0012114816 -0.005982802 -0.007507974

ar_k_net.0.bias f4 [32]
00000000: c272 0080 d874 16bc 4552 52bd 388d 5a3c
00000010: 0146 aabd c8da dcb5 8e2d 31bd 94ca 56bd
00000020: 7bed 4ebd e6c4 84bd 1004 f6b7 5b9c 973d
00000030: 0cd5 34bd ae12 91bc cecb 68b5 5014 48bd
00000040: e96e c83a 6784 dbaf bd11 423d 5aca 8e3b
00000050: 49fa 5c3b 407e 503d a269 c93b afe2 e592
00000060: 033a 0080 6ca1 69bc 3914 69ab 1539 703c
00000070: cd97 073e b0c0 2bb8 55ca 85bd 7628 5bbd
-4.1167e-41 -0.009183131 -0.05134799 0.013339333 -0.083141334 -1.6454951e-06 -0.043256335 -0.052439287
-0.050519448 -0.06482868 -2.9327377e-05 0.07402869 -0.04414849 -0.017709102 -8.672331e-07 -0.048847497
0.0015291843 -3.9929945e-10 0.047380198 0.0043576183 0.0033718518 0.05090165 0.0061466256 -1.4507814e-27
-2.081e-41 -0.014259677 -8.2806293e-13 0.014662047 0.13241501 -4.094903e-05 -0.065327324 -0.053505383

ar_k_net.2.weight f4 [1, 32]
00000000: d101 0000 0d2e 1b3d 9ca9 573e c473 5abd
00000010: 54ae c03e e66b 80b8 4e80 373e 684c 453e
00000020: ee06 473e b745 973e 928a 36ba 0dbb 35be
00000030: 2f87 3d3e bd2d 34be e4fc 8036 76cb 433e
00000040: de89 91bd 5126 a034 034f 79be 8ea4 d8bd
00000050: f173 3bbe 7684 85be 8ee6 39be c210 2e3b
00000060: 8c28 d2b3 0bc0 4e3d 2fe9 422c 92bd c2bd
00000070: ef61 90be 123c cfba 80e0 893e 636d 503e
6.52e-43 0.037885714 0.21060795 -0.05333306 0.37633002 -6.123613e-05 0.17920038 0.19267428
0.19436237 0.29545376 -0.00069633976 -0.17747135 0.185086 -0.17595573 3.8441376e-06 0.19120583
-0.07106374 2.98302e-07 -0.24346547 -0.10578261 -0.18305947 -0.26077622 -0.18154356 0.0026560281
-9.7862625e-08 0.050476115 2.76985e-12 -0.09508814 -0.28199717 -0.0015810749 0.26929092 0.20354228

ar_lam_net.0.weight f4 [32, 64]
00000000: 4ce3 4b3c 4957 0bbd 9038 723d 3f23 623d
00000010: 62df 2c3d 3882 5b39 89c7 33bc 12f1 87bc
00000020: 5814 1c3d 1004 96bc 8761 dc3c 02c4 323c
00000030: c3b9 87ba 5640 42bb bc2d 2a3d 283d 87bc
00000040: 0a51 613c 6e7c 51bc a6f3 5dbd 1116 e7bc
00000050: 1981 8ebc e6f5 3bba 2d00 8fbc 02e5 373d
00000060: 3010 013d aa08 933c c019 21bd 51ed 4e3c
00000070: a92a 3c3c 1b47 8a3d 2040 18bd 08bc e1bc
00000080: 9c08 abbc 913c b43c 2b17 873d f856 953d
00000090: ae59 913d c934 b7bc 2c38 3abc d083 e338
000000a0: 22c0 f0bb ee32 1bbd 3d30 5dbd 857d 37bd
000000b0: 2843 943c f75c 7cbd 3ed1 8cbc 87b0 7abd
000000c0: 6461 523d dd4a 1c3d 6c9d ce3b e418 4bbd
000000d0: 514e 83bc 81b4 67bc d043 d3bc ad0d 033c
000000e0: 71ff 35bd a046 423d 7f29 a23b 9d81 dfbc
000000f0: b588 bb3b 4a1d 2fbd a602 593d 9c35 29bd
00000100: 518f ae8d 3bbb 7aa3 a617 b88d f650 790b
00000110: 9bd7 2d8c cc0f bb8d 98e8 a18a b245 5ea5
00000120: 6d93 078f 8606 058c 594c 5a8c 4705 808d
00000130: d30e 028d fac7 cb8c 7abf b18c 8f52 e98b
00000140: d824 798b 1a80 c40b 7b96 1ab3 6c9c a99d
00000150: 56a8 090c debf 980c c4aa 9caa eadf 7f8e
00000160: b36c 7b0b ff37 9d0d b0c0 e70a cdd2 778c
00000170: f007 278b 3075 570b fb00 a60c 4335 270c
00000180: 40b1 af8c 1682 fe0c ed89 290c 9211 048d
00000190: 698a 020c d9d7 f40b 886d 8e8c 50a1 fb88
000001a0: b4b2 570b 1681 7d8e b86b 330c 7173 c30b
000001b0: 4f03 140d 7b3a fb0d 800d 1b89 5572 548c
000001c0: 2399 100d 8fc3 ae0c 7daa 010d 0914 0f8c
000001d0: c08f 000b c034 d78d 85d5 948f 3346 c00c
000001e0: 34bb 760c 67aa 048d 5e7c 3e0c ae0d 188b
000001f0: 622b 298c 59af 6a8c 9723 5a8c b83e 3c0c
00000200: a733 babc fe7e 8fbc 5c19 febc cd5c 4dbc
00000210: 5203 92bc f588 50bc 35ae c4bc 2e56 71bc
00000220: 1f15 d63b 7efe 80bb 03c7 c3bb 1caf a2bb
00000230: 26cd 45bc 60f5 7cbb ec8d 85bb ecef 32bc
00000240: 6927 b8ba c136 babc fbb5 6cbc 7478 f4bb
00000250: 1f46 9fba 5828 b8bb 04bd 6d3c f4e2 e43c
00000260: 1ac0 fa3b 118e 88bc 411e a5bb eb63 5cbb
00000270: fcac a4bb 36c1 43bc b7d1 85bc 4c83 76bc
00000280: 3588 6a3c 7ccb 40bc 7d4e 6dbc 0d91 97bb
00000290: 64b1 e5bb 7b47 edbb 46d6 f0bc 7dbf c4bc
000002a0: 3404 4cbc c234 3fbc df2f 9abc cc89 88bc
000002b0: 6e26 c0bc 5f79 aebc 2d00 96bc 17e9 3cbc
000002c0: f66b f7bc 9220 423c 73ae 8f3d c01f bd3a
000002d0: 9690 ea3c 87aa 313d d6e4 8a3c 6911 7e3d
000002e0: b5ea a43d 5b1d a53b 0bbd 09bc caa3 bc3b
000002f0: 7394 9dbc 8ab3 5838 729f 6bbc ef76 0b3c
00000300: eb1e 233d 25e7 5b3d f29a 863d 3c03 383d
00000310: c0a8 d33c 1509 163d 4e1c 5d3d 3955 3c3d
00000320: 74ac 3e3d 4e7b fe3c 4b0e 453d 2ed2 5c3d
00000330: e276 3a3d cf02 883d 553f 6b3d b9db ca3c
00000340: 8482 453d 63f3 493d 9c3e a43d 986e 5a3d
00000350: 2b0a a8bc c8c7 d63c fe61 283d 757a 403d
00000360: f201 1c3d 3e5e 193d 0f63 0f3d ca40 0c3d
00000370: 0bbb 2b3d f3d7 413d 7d63 e63c 22e9 963d
00000380: 0b84 7c3d c2da 543d ce92 4b3d 524b 6b3d
00000390: f1c7 523d 65a1 503d 221f 0c3d 9ffc 353d
000003a0: dca9 583d 3e34 653d 2004 ae3c 5aa9 153d
000003b0: 5495 913c f47b a03c 4664 353d 119b 1e3d
000003c0: 6e5f 303d 98b3 693d 189f 2b3d 01f2 523d
000003d0: 58bc 4e3d 1c2c 2a3d 0aa5 4f3d 03d4 203d
000003e0: 45b6 293d 2e9a d63c 7437 4d3d ec12 203d
000003f0: 98dd 853d cdc4 833d 20b8 6d3d c94d 1a3d
0.0124443285 -0.03401879 0.059135973 0.055209395 0.042205222 0.00020933978 -0.010972866 -0.016594443
0.03810534 -0.018312484 0.026901973 0.01091099 -0.0010355044 -0.0029640398 0.041547522 -0.016508654
0.013752231 -0.012786014 -0.05418744 -0.028208764 -0.017395543 -0.00071701256 -0.017456139 0.044896133
0.03150958 0.017948467 -0.039331198 0.012629823 0.01148478 0.067518435 -0.03717053 -0.02755548
-0.020878129 0.022001537 0.06596216 0.072919786 0.07097183 -0.022364037 -0.0113659315 0.000108487555
-0.0073471228 -0.037890367 -0.05400108 -0.04479744 0.018098429 -0.061612096 -0.017189618 -0.061203506
0.05136241 0.038157333 0.0063053872 -0.049584284 -0.016028555 -0.014142157 -0.025789171 0.007998866
-0.04443306 0.047430634 0.0049487944 -0.027283484 0.005723084 -0.04275254 0.05298104 -0.04131089
-1.075808e-30 -1.3592175e-17 -1.1345569e-30 4.8016564e-32 -1.3392317e-31 -1.1528568e-30 -1.5591228e-32 -1.9279044e-16
-6.684407e-30 -1.024791e-31 -1.6817084e-31 -7.8898795e-31 -4.0077187e-31 -3.1397459e-31 -2.7386409e-31 -8.9872556e-32
-4.7983374e-32 7.56892e-32 -3.599278e-08 -4.4895664e-21 1.0604753e-31 2.3534784e-31 -2.782966e-13 -3.1538987e-30
4.8422618e-32 9.689353e-31 2.2316972e-32 -1.9091623e-31 -3.2169002e-32 4.1495656e-32 2.557694e-31 1.288124e-31
-2.7069698e-31 3.921319e-31 1.3060792e-31 -4.069679e-31 1.0056487e-31 9.431015e-32 -2.1944486e-31 -1.5144437e-33
4.1541935e-32 -3.124681e-30 1.3822074e-31 7.5284965e-32 4.5610004e-31 1.5483148e-30 -1.8663794e-33 -1.6366291e-31
4.4557758e-31 2.6926642e-31 3.995641e-31 -1.1022348e-31 2.476005e-32 -1.3263097e-30 -1.4676171e-29 2.9624534e-31
1.9007485e-31 -4.0880755e-31 1.4674493e-31 -2.9284427e-32 -1.3032341e-31 -1.8079471e-31 -1.6804819e-31 1.4501867e-31
-0.022729708 -0.01751661 -0.031017952 -0.012534332 -0.017823849 -0.012727966 -0.02400885 -0.0147300195
0.0065332795 -0.003936588 -0.005974652 -0.0049647223 -0.012072837 -0.0038598403 -0.0040757563 -0.01092146
-0.0014049831 -0.022731187 -0.014447684 -0.007460648 -0.0012151635 -0.0056200437 0.014510397 0.027940251
0.007652295 -0.016669305 -0.005039007 -0.0033628892 -0.005025504 -0.011947921 -0.016335351 -0.015045952
0.014314701 -0.011767264 -0.014484045 -0.0046254457 -0.007009672 -0.007241187 -0.029399049 -0.02401709
-0.012452174 -0.011670293 -0.018821655 -0.01666727 -0.023455825 -0.021298109 -0.01831063 -0.011530182
-0.030202847 0.011848586 0.070156954 0.0014429018 0.028633397 0.04337552 0.01695482 0.062028322
0.08052579 0.0050389 -0.008406888 0.00575683 -0.019235825 5.1665622e-05 -0.014381276 0.008512243
0.039824408 0.053687233 0.06572522 0.04492496 0.025837302 0.036629755 0.05398207 0.045979712
0.046551183 0.031064656 0.048109334 0.05391138 0.04552353 0.06641161 0.057433445 0.024762975
0.048220173 0.049304377 0.08019754 0.053328127 -0.020512661 0.02621831 0.041109078 0.046991784
0.038087793 0.037443392 0.03500658 0.034241475 0.041926425 0.047325086 0.028123612 0.07368685
0.061649363 0.051966436 0.04970055 0.057444878 0.05146021 0.050935168 0.034209378 0.04443037
0.052896366 0.055958025 0.021242201 0.03653846 0.0177714 0.019590355 0.04428508 0.0387221
0.04305976 0.05705604 0.04189977 0.051500324 0.050472587 0.041545972 0.050694503 0.03926469
0.04143359 0.026196565 0.050101712 0.039080545 0.06536406 0.06434021 0.058036923 0.037671838

ar_lam_net.0.bias f4 [32]
00000000: 038d 863c 57ba 0f0b dad0 fabb fdf8 893d
00000010: 16d6 e5bc fca8 81b1 d89c 8ebc c233 0c3c
00000020: 5939 1eba 5f6f 85bb 9d12 1bbd 2952 42b4
00000030: 5b5a bb3c 26b7 88bb e343 933c a305 e6bc
00000040: 16a7 6dbc fc0b cdb7 dc87 9fbc 5f7d 14a8
00000050: 283a 67bc 90a3 0000 2841 13b2 b2e8 9fbc
00000060: a004 c03c 77ed 34b7 c8eb 17b2 1dd7 c7bc
00000070: df0c 40bd ee7e 4cbc a93e 0000 f178 0000
0.016424662 2.7680985e-32 -0.0076542916 0.06736944 -0.028056186 -3.7736054e-09 -0.017408773 0.008557262
-0.0006035767 -0.0040721144 -0.037859548 -1.8097548e-07 0.022870233 -0.0041722236 0.017976707 -0.02807886
-0.014505168 -2.4443485e-05 -0.019473962 -8.242836e-15 -0.014112987 5.8675e-41 -8.571341e-09 -0.019520137
0.023439705 -1.0784125e-05 -8.842967e-09 -0.024394566 -0.046887275 -0.012481434 2.2478e-41 4.3386e-41

ar_lam_net.2.weight f4 [1, 32]
00000000: 2ac1 46be bb47 8539 c32f 033e c3b2 b6bc
00000010: 6501 9f3e 714a 15b9 5105 b43d 2781 bc3c
00000020: e393 8abc 6102 2c3c 604a a43e 5081 293b
00000030: 2b51 bcbe c2b5 0c3d 475b ccbe 3e7d d6be
00000040: 9fcd cd3e 01f1 a93b bf40 90be bebe 19ba
00000050: f50c 25be 99d9 4c2f c437 0ab4 210c 83be
00000060: e458 9ebe cd55 1a3b fd7b 59b1 dc99 81be
00000070: dcf8 933e 9fef 653e 0be5 ce2d 2a02 5dae
-0.19409624 0.0002542118 0.12811188 -0.022302037 0.3105575 -0.00014237479 0.087900765 0.023010803
-0.016916221 0.010498614 0.32087994 0.002586443 -0.36780676 0.034353025 -0.3991339 -0.41892427
0.4019594 0.0051862006 -0.28174397 -0.00058649096 -0.16118224 1.8630998e-10 -1.2872539e-07 -0.2559519
-0.30927193 0.0023549676 -3.1648135e-09 -0.25312698 0.28900802 0.2245469 2.3521204e-11 -5.0251504e-11

feat_k_net.0.weight f4 [100, 1080]
00000000: 41d1 881b 412f 2680 6a25 0000 6d64 5437
00000010: e45f f500 314c 0000 ed26 2d00 221d 0080
00000020: e927 8080 abc7 3c9c 86eb 0580 e7f0 1d25
00000030: 6f20 0080 6612 0080 fa58 0080 e110 1c80
00000040: cb1c 0080 3412 0080 dd57 739b 8721 1800
00000050: e12e 0080 781b 0080 e8a3 22ab 4abf 8223
00000060: cd3e 0000 1107 6a80 ff47 0080 5a87 2c9c
00000070: 4233 0000 b03f 0080 8325 0000 5751 0000
00000080: a509 0080 70a7 4e0e 3c2a 0000 536a 0e80
00000090: 29d1 f49b 269c 20b0 b65d 0080 3e4d 0080
000000a0: 2e2f 0080 20d5 50a8 ed05 0000 abb9 1480
000000b0: cf1c 0980 8ccb 671b d910 0000 db1e 0080
000000c0: a730 0080 871b 0000 b80f 2e34 a92c 0000
000000d0: ff0c 0000 1fa1 2600 fac6 5e1b 022c 6b80
000000e0: 42e9 0f80 5607 3201 0c31 0080 830e 0000
000000f0: e810 31aa 303e 0080 4b4a 0000 7368 061c
00000100: 411e 0000 beb4 1d00 a476 3400 4620 0080
00000110: 80e7 57a8 1b46 0000 5481 0c80 375e 0080
00000120: 8201 0b1c 8f15 0080 77d1 1000 37b6 1d00
00000130: 8f0e 0000 4308 4080 8ae3 8cb3 3d49 0080
00000140: 3e62 0000 f563 019a 6ab7 bab3 4d13 0080
00000150: 03eb 11b9 ae4d 0000 2901 0080 f41b 0080
00000160: 2744 0000 4710 0080 ec77 211b 3c39 0f80
00000170: 034d 0080 24a3 6e02 bf5d 0080 491e 0000
00000180: fc7d c082 6856 0080 bf52 0080 f493 101b
00000190: c555 0000 e00f 0080 72b1 1500 7e4f 0000
000001a0: bd3f 0080 e949 0080 af07 0080 1327 0080
000001b0: 39f4 171b a312 0080 f0a8 a70c 5803 0000
000001c0: 2812 0080 8446 0000 0f29 0000 ee58 d12d
000001d0: 55d1 5780 c11e 5b1c 218a dca6 6f19 0000
000001e0: 7435 0080 9458 0080 9a33 0080 3b35 0000
000001f0: 0861 2e00 60a1 f535 1c15 301a 7125 0080
00000200: 945e a500 192f 0080 208c f597 dfb9 30a9
00000210: 8751 0000 2207 0000 690a 0080 48ca 811b
00000220: 00f3 189c 5a01 a6b5 2813 0080 fa73 2980
00000230: 44b5 9736 147e 0c80 3b64 e136 4fd9 4000
00000240: 8339 d09a dd5a 0000 7fb4 1500 174e 0080
00000250: 561b 0080 6c26 0000 29e4 3481 5e20 0080
00000260: f105 0080 1ba0 911b f4fa 342b f426 120d
00000270: 821f 1880 762c e3ba fd28 22a7 ec41 0080
00000280: 962f 0000 cb3b 0080 1558 cb9b 5a3d 0080
00000290: 4f3e 0000 614f 0000 3e03 0000 eaf2 c8b6
000002a0: 6142 0000 2549 1080 be60 0c80 fe63 911a
000002b0: d960 0080 b841 0080 0f09 0000 6875 18b5
000002c0: 4a26 0000 66f3 29a6 0100 0000 fe61 0080
000002d0: 5501 821b 1703 0e80 af48 0080 f207 0000
000002e0: 62d1 2909 758c 2600 d0d3 1402 2d2a 242c
000002f0: 491d 0000 cad7 a69b 9e57 0000 50f9 c382
00000300: 6ef3 ac01 1d7c 1300 7d0b 0080 9d3f 0080
00000310: fd13 eb30 d706 0080 a166 0c1c fc6a d8a6
00000320: c87b aeb8 4ce8 0980 6b55 0080 d429 0000
00000330: ed44 0080 ac27 4eb8 1894 2a28 a688 0b1c
00000340: d2af 922b a408 3b03 2b11 0080 892a 2d1b
00000350: 4d34 0080 022b 0000 8b50 0000 68d5 921a
00000360: 7c3c a71b f852 0000 2453 0000 9cf3 0f00
00000370: abaf 1d00 6375 959a 5a4a 0080 ce3b 0000
00000380: 986f ed02 3f9a bd9b dfa3 90a2 ed3e 8eae
00000390: 064e 0000 e362 f02e 2abe dcb2 3c02 d310
000003a0: f335 0000 24a2 2cae ac63 3a9b 2515 0000
000003b0: a961 992d 2156 0080 0e56 0080 3f18 0000
000003c0: c543 f41f 6756 0080 1e61 0080 0368 ef9b
000003d0: ea5f 0000 9421 0000 2505 0080 9347 0000
000003e0: e11a 0080 e833 0080 3c19 0000 10c0 0731
000003f0: e0f4 2e1b c708 0080 adf1 5f80 545f c982
2.263454e-22 -3.5067e-39 1.3422e-41 1.2659567e-05 2.2534096e-38 2.7332e-41 4.146561e-39 -1.0451e-41
-1.176926e-38 -6.2462047e-22 -5.43667e-40 1.36992e-16 -1.1635e-41 -6.6e-42 -3.1919e-41 -2.577449e-39
-1.0329e-41 -6.53e-42 -2.0128879e-22 2.216079e-39 -1.6817e-41 -9.854e-42 -5.7781427e-13 1.4175642e-17
2.2529e-41 -9.737098e-39 -2.5827e-41 -5.7084964e-22 1.8388e-41 -2.2847e-41 1.3457e-41 2.9179e-41
-3.46e-42 2.5472079e-30 1.5151e-41 -1.323839e-39 -4.050158e-22 -5.842956e-10 -3.3617e-41 -2.7709e-41
-1.6925e-41 -1.15925336e-14 2.126e-42 -1.903315e-39 -8.36854e-40 1.9173642e-22 6.044e-42 -1.1069e-41
-1.7453e-41 9.875e-42 1.6210731e-07 1.6021e-41 4.662e-42 3.547548e-39 1.8427702e-22 -9.842185e-39
-1.46121e-39 3.26987e-38 -1.7595e-41 5.206e-42 -1.5726624e-13 -2.2309e-41 2.6651e-41 4.447188e-22
1.0853e-41 2.728067e-39 4.818006e-39 -1.1578e-41 -1.1985096e-14 2.5149e-41 -1.14842e-39 -3.3798e-41
4.599319e-22 -7.734e-42 1.54451e-39 2.728596e-39 5.223e-42 -5.880436e-39 -6.560647e-08 -2.6273e-41
3.5243e-41 -2.675732e-23 -8.694663e-08 -6.924e-42 -0.00013915826 2.7866e-41 -4.16e-43 -1.0028e-41
2.4448e-41 -5.839e-42 1.3356357e-22 -1.398064e-39 -2.7627e-41 1.7532298e-37 -3.363e-41 1.0864e-41
-2.8284176e-37 -3.0997e-41 -2.9684e-41 1.1959207e-22 3.0768e-41 -5.695e-42 1.992201e-39 2.8516e-41
-2.2865e-41 -2.6514e-41 -2.756e-42 -1.4017e-41 1.256934e-22 -6.686e-42 2.58321e-31 1.2e-42
-6.513e-42 2.5296e-41 1.4729e-41 2.3800042e-11 -8.064782e-39 7.250077e-22 -1.5303007e-15 9.124e-42
-1.9175e-41 -3.1776e-41 -1.8511e-41 1.9095e-41 4.259241e-39 1.8300889e-06 3.6413e-23 -1.3431e-41
1.5186785e-38 -1.6895e-41 -1.5868126e-24 -3.9241068e-14 2.9247e-41 2.559e-42 -3.734e-42 2.147198e-22
-5.060665e-22 -1.2368357e-06 -6.872e-42 -3.80686e-39 4.521253e-06 -1.147254e-39 6.717191e-06 5.955427e-39
-8.61197e-23 3.2596e-41 1.993295e-39 -2.8013e-41 -9.806e-42 1.3783e-41 -3.3224476e-38 -1.1611e-41
-2.131e-42 2.4091703e-22 6.4297114e-13 4.503661e-31 -2.215355e-39 -0.0017331976 -2.2504236e-15 -2.3648e-41
1.707e-41 -2.145e-41 -3.3640455e-22 -2.2009e-41 2.2352e-41 2.8476e-41 1.163e-42 -5.9887434e-06
2.3812e-41 -1.495607e-39 -1.13673e-39 6.013214e-23 -3.4742e-41 -2.3575e-41 3.25e-42 -5.679526e-07
1.3736e-41 -5.896352e-16 1e-45 -3.5153e-41 2.1507557e-22 -1.286805e-39 -2.6074e-41 2.85e-42
2.0441086e-33 3.540135e-39 1.093411e-37 2.3329214e-12 1.0506e-41 -2.7601847e-22 3.1431e-41 -2.8795773e-37
6.3532126e-38 1.789398e-39 -4.121e-42 -2.282e-41 1.7104181e-09 -2.454e-42 4.645476e-22 -1.5017009e-15
-8.3200226e-05 -9.09852e-40 -3.0642e-41 1.5005e-41 -2.4726e-41 -4.9151175e-05 9.469008e-15 4.6167856e-22
1.0422724e-12 5.496428e-37 -6.159e-42 1.4323968e-22 -1.8762e-41 1.5428e-41 2.8893e-41 6.072896e-23
2.766692e-22 2.9764e-41 2.9825e-41 1.464923e-39 2.726247e-39 -6.1814604e-23 -2.6672e-41 2.1454e-41
3.4888072e-37 -3.1367106e-22 -3.9204783e-18 -6.46859e-11 2.799e-41 1.0931502e-10 -2.5697847e-08 8.322827e-29
1.9353e-41 -3.9252282e-11 -1.5417765e-22 7.585e-42 1.7437456e-11 -3.0897e-41 -3.087e-41 8.698e-42
1.03450135e-19 -3.0995e-41 -3.4839e-41 -3.960645e-22 3.4407e-41 1.2046e-41 -1.846e-42 2.5676e-41
-9.642e-42 -1.862e-41 9.052e-42 1.975426e-09 1.4472066e-22 -3.149e-42 -8.811069e-39 -2.9589011e-37

feat_k_net.0.bias f4 [100]
00000000: 2e67 2f9c da9d 859c 5884 833a e0f7 0400
00000010: 0d4a a13d 1c0f 1fb6 bcf6 df3e bf45 ab3e
00000020: 29e6 141b 79c6 d32a 9a01 c003 4e21 83ba
00000030: c8d3 0400 611d 003e 1760 6a3e fd5b 153e
00000040: 3c39 ca3d e38f 7013 7841 113e 1962 5b1c
00000050: 2f66 932b f711 a73d 2a95 0500 9f0d 0080
00000060: e653 0000 e3a3 0b3e 3e58 0c3e 3a9a fc3d
00000070: db44 d930 0d88 0000 8851 023e d42c 0000
00000080: 4e77 c12d aa79 153e c033 1d3e e762 0000
00000090: 1959 a237 719b 4a2c 4ff0 283e a137 f18f
000000a0: 0609 2110 3ce6 053b 38c4 0500 c8d9 190d
000000b0: df71 ca1e 5203 d32b 70f6 2b3e 0c23 a115
000000c0: d656 2c03 125e 023e ab34 b339 8c54 0338
000000d0: 4880 213e 8913 493d ebc1 673e c6b6 092e
000000e0: e708 4f3e a00f 0000 a8f5 ae39 8078 8c3e
000000f0: 5536 cc3d b070 0b00 7a5c 9c3e 8fc4 073e
00000100: 244d c13d 3d19 123e 5619 c83d 7fbe 1639
00000110: 84f6 3e35 4964 1c3b a6a5 bd3e 5186 b539
00000120: 608d 6616 071d c03e 11fb e83d 024e 423e
00000130: 40b1 6913 4a0c dd3d 24c5 313e 0536 f73e
00000140: 3c87 1126 4723 3f00 8b74 0d25 2ef3 4416
00000150: 910f 0080 4666 3337 9da7 9c3e 939d 293e
00000160: fc22 2b3d 0a25 6937 c1f7 4e2b 5601 133c
00000170: 98d9 3792 f040 df30 832f 0000 46b3 0000
00000180: 97e2 fc3e 89ca 083e 855f f018 7795 a93e
-5.8036e-22 -8.842005e-22 0.0010033948 4.56263e-40 0.07875452 -2.370164e-06 0.4374293 0.3345165
1.2316642e-22 3.7618847e-13 1.12851135e-36 -0.0010004432 4.43315e-40 0.12511207 0.22888218 0.14585872
0.09874198 3.03632e-27 0.1418513 7.258781e-22 1.047334e-12 0.081577234 5.12687e-40 -4.886e-42
3.0097e-41 0.13636737 0.13705537 0.12334104 1.5808398e-09 4.8806e-41 0.12726414 1.6081e-41
2.1994542e-11 0.14597192 0.15351772 3.548e-41 1.9353394e-05 2.8792214e-12 0.1649792 -2.3785862e-29
3.1758603e-29 0.002043142 5.29568e-40 4.740891e-31 2.1434678e-20 1.4993373e-12 0.16793227 6.5082676e-26
5.064594e-37 0.12731197 0.0003418078 3.1311574e-05 0.15771592 0.049090896 0.22632568 3.131253e-11
0.2021824 5.605e-42 0.00033370894 0.27435684 0.099713005 1.050615e-39 0.30539304 0.13258575
0.094385415 0.1426744 0.097704574 0.0001437608 7.1139243e-07 0.0023863486 0.37040442 0.00034623084
1.8623862e-25 0.37522146 0.11376012 0.1897507 2.9496126e-27 0.107933596 0.1736036 0.482834
5.049026e-16 5.798291e-39 1.2269287e-16 1.5909488e-25 -5.584e-42 1.0693044e-05 0.3059663 0.16564016
0.04178141 1.3896506e-05 7.352973e-13 0.0089724865 -5.8012823e-28 1.6243842e-09 1.7044e-41 6.4311e-41
0.49391624 0.13358511 6.2134996e-24 0.33121845

feat_k_net.2.weight f4 [1, 100]
00000000: 0f6c e19c 94aa 321e 33ba b93b eb71 1300
00000010: 0515 0b3e 7946 4db6 9454 2f3f 6064 263f
00000020: eb62 cd1b 1d83 352b 59c3 9e05 31ca 28bb
00000030: 374d 1100 4ac9 603e 9826 e13e 305c ab3e
00000040: 67be 753e 9f88 b814 219b 813e fed2 d41d
00000050: 5d7c 932c 4393 1a3e e303 1500 a78b 0000
00000060: 46e2 0000 b907 713e 5cef 763e 614c 573e
00000070: 29dd 8131 4670 0100 2144 963e 8aac 0000
00000080: e148 682e 47b4 833e b120 b03e 650d 0100
00000090: 9c5d 1f38 3b6d d02c 0107 aa3e 0adb 2e90
000000a0: ceb3 d510 0fed cc3b a2b4 1c00 aad4 f60d
000000b0: a4d3 851f 77fe b02c 1889 993e 1da6 ca94
000000c0: ef93 dc03 e9bc 9b3e a3bc 6c3a 507e 2039
000000d0: 4199 903e bf00 b83d dd5e cf3e bcaa 842f
000000e0: 3e6b ba3e 1282 0000 089d d23a 9512 f13e
000000f0: 4713 793e 74d3 2b00 4536 013f 741c 9c3e
00000100: 0130 2b3e 5769 6f3e ee81 703e b8ad e83a
00000110: a073 e735 9d72 a13b 69e6 2c3f 028f f23a
00000120: 9803 0a17 beb6 243f 4fb5 453e e6d8 a63e
00000130: 429d 1a14 c760 873e 20fe a23e d16a 533f
00000140: f8e1 1b27 4246 ba00 6470 9926 9b9f b616
00000150: debd 0000 4c7d d037 e58d 0a3f 4f01 c23e
00000160: 6381 9c3d 4480 1038 2b96 622c d71b d43c
00000170: c92d dc12 f5c0 0c32 92b7 0000 286e 0000
00000180: 6ef4 5b3f 41fa 9d3e 5c92 fa19 08b2 0a3f
-1.4917184e-21 9.458516e-21 0.0056679486 1.78574e-39 0.13582237 -3.05884e-06 0.6848843 0.6499691
3.397833e-22 6.4486074e-13 1.4930008e-35 -0.002575528 1.588903e-39 0.21951786 0.43974757 0.3346877
0.23998414 1.863314e-26 0.25313666 5.6334094e-21 4.1917984e-12 0.15095238 1.92994e-39 5.0098e-41
8.1172e-41 0.23538102 0.24114746 0.2102523 3.779537e-09 1.32112e-40 0.29348853 6.1895e-41
5.2815422e-11 0.25723478 0.34399942 9.664e-41 3.7995735e-05 5.9238426e-12 0.3320847 -3.448419e-29
8.429072e-29 0.0062538455 2.636193e-39 1.5212118e-30 5.667782e-20 5.030472e-12 0.29987407 -2.0462308e-26
1.2964402e-36 0.30417565 0.00090307946 0.00015305844 0.28241923 0.08984517 0.40502062 2.4131974e-10
0.36409944 4.666e-41 0.0016068527 0.4708449 0.2432376 4.024781e-39 0.50473434 0.30490458
0.16717531 0.23380028 0.23487064 0.0017751968 1.7244492e-06 0.004926993 0.6753908 0.0018505754
4.459474e-25 0.6434134 0.19307445 0.32587355 7.806027e-27 0.26441023 0.31834507 0.82584864
2.163307e-15 1.7106606e-38 1.0646971e-15 2.950441e-25 6.8112e-41 2.4853878e-05 0.54122764 0.37891623
0.07641866 3.4451732e-05 3.2199892e-12 0.025892181 1.3895239e-27 8.192946e-09 6.5853e-41 3.9517e-41
0.85919845 0.3085499 2.5908508e-23 0.54177904

feat_lam_net.0.weight f4 [100, 1080]
00000000: 757f b53b 4bd8 f58d 901c 0000 da33 0080
00000010: 96e9 b12b f1f8 0f2b 8b5a 0080 676a 0700
00000020: f22f 0080 1142 63bb 5cdd b68a 1852 0000
00000030: 8438 2280 a153 0080 2c51 0000 3ede efaa
00000040: 0610 0080 366d 3bb4 8920 103b 943c 0080
00000050: 8910 0000 b51b 0000 26e1 b236 a20c 2900
00000060: ed53 413a 4052 0000 d27b 0a00 aca4 fa3b
00000070: 055c 9022 ee06 d41f 2b0d 0000 1b4c 0000
00000080: 2b25 0080 3836 0000 ea45 0000 fd31 0000
00000090: 5c8d 56bb b32c 0000 bf36 0000 2906 0000
000000a0: f02c 0600 3e32 0000 051c 0080 dd4b 0080
000000b0: 9a41 0080 cafa 8ab9 044f 0000 f78f a731
000000c0: 291a 0080 6727 0000 f036 699d 4afc 048e
000000d0: a557 ffb0 bf24 0080 67d6 87bb 3052 bba2
000000e0: e541 0000 db11 0000 4f24 0980 9d01 0000
000000f0: e5c0 0680 a871 a933 eb15 0000 a31d 2cbc
00000100: 592e 0080 392e 2980 c697 1830 8923 0080
00000110: 0c15 0080 a9e4 05b8 9b01 0080 0346 0000
00000120: 2cd1 11ba c403 749a 182c 1e8c 4a30 0080
00000130: 5e13 0000 0861 0000 0b1b 0a00 4001 0000
00000140: 2d14 0000 4f45 9037 8f56 0080 bc82 1300
00000150: c2d4 ef34 3046 0000 bb59 0080 9a1c 0500
00000160: 152d 0080 5433 0000 e595 26bb 8604 0080
00000170: 1d0f 0000 830c 0000 c31a 0080 e95a 0080
00000180: 1023 24b7 81f4 0680 3c15 0080 ca9b 13bb
00000190: a93e 0080 829f 8aaf 8133 0000 eb13 0000
000001a0: cb51 0080 5305 0080 ffcd 30a9 c444 0080
000001b0: 71a6 e43b 3102 0000 0112 0000 511a 0080
000001c0: 430c 0000 e843 eaa6 de10 0080 468e 1c03
000001d0: c822 0080 d756 613c c9a8 728b 5b03 0000
000001e0: 1d5c 0080 2228 0080 6935 0080 b046 1d1d
000001f0: 8b35 0d00 df4d 0000 be9e 2b3c 0456 0000
00000200: a246 6434 7837 8d1e 1c99 7c8b 0953 0000
00000210: 5b7d db36 d40f 0080 c83d 3d83 33f0 6a3b
00000220: bf98 c8b4 180e 0d23 55f4 2527 3cde f6b0
00000230: ac19 0000 3943 0000 3215 0080 3e10 0000
00000240: 981b 2f3c 853d 0000 8c76 1400 6419 6d00
00000250: 0600 0000 1ece 0600 3210 0000 332c 0000
00000260: 0634 0000 ae13 663a 55db cb94 543f 0080
00000270: e0b8 5d0c b016 0000 b914 0080 493c 0080
00000280: bb28 0080 763f b782 c4dc 78bb aa49 0000
00000290: b585 1f2a 5bdc 2980 c85c a8ac 5943 0080
000002a0: 02c7 f439 46bb b300 d17b 0680 9534 173c
000002b0: 3f3c 1380 d80e 0000 5058 0080 501d 0080
000002c0: 3090 6aae 427d 0880 db58 0080 1c2d 60ac
000002d0: ac2c 1f3c f2f3 3f00 622e 0000 7d3c 0318
000002e0: c719 bf8c d72a 0080 3850 0000 c02a f090
000002f0: dc46 6121 319d 813b c106 0b00 cd10 0080
00000300: 1209 0000 ce13 0000 1a3f 0080 4555 0080
00000310: b88e 9716 c110 0000 6031 b63b 855a 0000
00000320: eb1a ab00 4f29 0080 2909 0000 3211 0000
00000330: 42b2 9688 764d 0d00 83b4 3b00 0de3 4a3b
00000340: 558e c49b d8d2 00a2 cafc 1580 3484 0c00
00000350: 7f3e 0000 a8b1 0783 cc54 0080 922a 0080
00000360: 98c5 fcb8 fb17 0080 d69d 6d2d c02e 0a00
00000370: b75c 0000 e35e 0080 ea27 0000 2478 0500
00000380: 7a55 0000 1e77 4dbb e24b 0000 7329 0080
00000390: 50f8 b72a f802 0000 a86d 9682 6a52 0000
000003a0: 712a 0080 4913 0000 d04f 60b6 b53b 0000
000003b0: 3fa8 3535 1eed 8035 74d2 d28f dc7b 182f
000003c0: a208 0000 da6c 0680 20c9 ecad 7b6c 25bb
000003d0: 2203 0000 5642 0080 98ce 0929 e358 0080
000003e0: 2928 0080 51c7 aeb1 3006 0080 f07d 4937
000003f0: dca3 263a 1a80 ea38 aeab 0a80 22c3 88a1
0.0055388757 -1.5151361e-30 1.0246e-41 -1.8601e-41 1.264144e-12 5.114928e-13 -3.248e-41 6.81018e-40
-1.72e-41 -0.003467683 -1.7609229e-32 2.945e-41 -3.142681e-39 -3e-41 2.9119e-41 -4.260914e-13
-5.748e-42 -1.7455463e-07 0.0021992049 -2.1731e-41 5.932e-42 9.94e-42 5.331024e-06 3.769787e-39
0.00073748716 2.9506e-41 9.62773e-40 0.007649025 3.9128708e-18 8.9796957e-20 4.724e-42 2.7301e-41
-1.3333e-41 1.945e-41 2.508e-41 1.7932e-41 -0.0032738065 1.6035e-41 1.9639e-41 2.21e-42
5.67134e-40 1.8024e-41 -1.0052e-41 -2.7215e-41 -2.3533e-41 -0.00026508264 2.8345e-41 4.8767066e-09
-9.384e-42 1.4135e-41 -3.0865695e-21 -1.6391729e-30 -1.8578602e-09 -1.3182e-41 -0.004145432 -5.077347e-18
2.3639e-41 6.405e-42 -8.39545e-40 5.79e-43 -6.2021e-40 7.89035e-08 7.863e-42 -0.010505113
-1.6626e-41 -3.781837e-39 5.551296e-10 -1.2748e-41 -7.55e-42 -3.1922627e-05 -5.76e-43 2.5115e-41
-0.000556248 -5.046106e-23 -1.2185146e-31 -1.7323e-41 6.948e-42 3.4808e-41 9.28056e-40 4.48e-43
7.238e-42 1.7198412e-05 -3.1051e-41 1.791773e-39 4.467202e-07 2.5179e-41 -3.2189e-41 4.69438e-40
-1.6172e-41 1.8413e-41 -0.0025418934 -1.623e-42 5.422e-42 4.488e-42 -9.6e-42 -3.2612e-41
-9.783325e-06 -6.38724e-40 -7.617e-42 -0.0022523277 -2.2478e-41 -2.521539e-10 1.8476e-41 7.145e-42
-2.9342e-41 -1.91e-42 -3.9258524e-14 -2.4668e-41 0.006977849 7.86e-43 6.459e-42 -9.44e-42
4.399e-42 -1.6255418e-15 -6.051e-42 4.60076e-37 -1.2477e-41 0.013753614 -4.6734484e-32 1.204e-42
-3.3044e-41 -1.4397e-41 -1.916e-41 2.0815322e-21 1.213069e-39 2.7935e-41 0.010474859 3.0857e-41
2.1259851e-07 1.4951897e-20 -4.864862e-32 2.9787e-41 6.541302e-06 -5.678e-42 -5.561303e-37 0.0035848736
-3.736404e-07 7.64661e-18 2.3030803e-15 -1.7962019e-09 9.21e-42 2.4115e-41 -7.603e-42 5.827e-42
0.010687731 2.2069e-41 1.879237e-39 1.0019178e-38 8e-45 6.24954e-40 5.81e-42 1.5856e-41
1.8662e-41 0.0008776736 -2.0584273e-26 -2.2718e-41 1.7080855e-31 8.139e-42 -7.434e-42 -2.1626e-41
-1.4611e-41 -2.6925858e-37 -0.0037973383 2.6426e-41 1.4168426e-13 -3.844304e-39 -4.785148e-12 -2.416e-41
0.0004668758 1.6505735e-38 -5.9543e-40 0.009228845 -1.766487e-39 5.325e-42 -3.168e-41 -1.0515e-41
-5.3333504e-11 -7.79618e-40 -3.1875e-41 -3.1857355e-12 0.00971524 5.873147e-39 1.6639e-41 1.6961892e-24
-2.9443724e-31 -1.5368e-41 2.8777e-41 -9.4729175e-29 7.6326747e-19 0.0039555063 1.012613e-39 -6.027e-42
3.254e-42 7.105e-42 -2.2637e-41 -3.0589e-41 2.4485434e-25 6.01e-42 0.005560085 3.2472e-41
1.5713526e-38 -1.4819e-41 3.286e-42 6.169e-42 -9.069705e-34 1.221649e-39 5.48305e-39 0.0030958087
-3.251746e-22 -1.7458855e-18 -2.019229e-39 1.149451e-39 2.242e-41 -3.9876874e-37 -3.042e-41 -1.5271e-41
-0.00012053101 -8.603e-42 1.3506937e-11 9.35126e-40 3.326e-41 -3.4039e-41 1.4318e-41 5.02276e-40
3.0663e-41 -0.0031351517 2.7222e-41 -1.4869e-41 3.2679632e-13 1.065e-42 -2.2103459e-37 2.9565e-41
-1.5225e-41 6.918e-42 -3.3425058e-06 2.1419e-41 6.7672585e-07 9.605753e-07 -2.0788662e-29 1.3868323e-10
3.097e-42 -5.90062e-40 -2.6919411e-11 -0.0025241661 1.124e-42 -2.3797e-41 3.0599302e-14 -3.1887e-41
-1.4407e-41 -5.086726e-09 -2.22e-42 1.2009856e-05 0.00063568144 0.0001118185 -9.79942e-40 -9.26737e-19

feat_lam_net.0.bias f4 [100]
00000000: 9ce2 dabc f87f 99bd 788b 4dbc 1f58 49bb
00000010: 55d5 80ba ab38 65bd e085 13bd 2abc 39bb
00000020: 2bb8 cebb cf92 c5bd d0df 26bd 8dfb e5ba
00000030: f15e 08be 9cc1 a9bd 480c 7cbb a1dc 853d
00000040: 6c0b ecb5 9284 84ba 9c8a 95bc 8572 1fb7
00000050: 2c1b ebbc 030a 53bd afce 94b8 9aa1 bfb7
00000060: 0d7e d4bb 54f0 c6b4 9746 49be c47c 64b9
00000070: 8af1 98bb 57ce 3bbe 3e23 00bb 73ad 53bd
00000080: 6464 c4b7 88ab bbb7 7561 05bc 1f0c 453d
00000090: d840 c5bb 3e35 a8bd d4b1 d0ba 62f7 83b1
000000a0: abf9 31bd ab65 b5bd 4ea1 b2bc eb85 a0bd
000000b0: 59e3 0dbc 615b 65ba a15b 1db1 1987 d53c
000000c0: b120 67bb 0566 cd3c cbef 10bb bdf8 d6ba
000000d0: fa66 35bd 584a 2dbc 5c8d d8bc c9e2 96bb
000000e0: 16b3 1ebc 3164 ddae 8f49 41bd e516 2ab6
000000f0: 1d16 50ba 2001 abb6 637e cbba c770 15bc
00000100: b8fe 9fbd ac51 ffb9 6e78 5bbd 117b 98b6
00000110: ab69 f1ba 8530 8ebd e0c3 cbb8 64d6 08b5
00000120: 1205 bd38 6004 16ba c4a1 d5bb 6a82 a7bd
00000130: c0eb f4ba 2d03 3cb5 35a1 91b5 0987 40be
00000140: 013f 81bd f253 4ebd 8c6d 18b6 6641 8fba
00000150: ec01 bdb9 6554 14bb 29de cab9 4751 08bd
00000160: 06b8 d0ba 0802 a8ba 7ad5 34b5 c885 87b5
00000170: 4005 42bb 4121 39b9 72b5 44ba 2e03 93b9
00000180: 5060 2bbc e61d b7bb 4c59 9bb8 42bf 14be
-0.026719384 -0.07495111 -0.012545459 -0.003072269 -0.0009829203 -0.055962246 -0.036016345 -0.0028340914
-0.0063085756 -0.09647142 -0.040740788 -0.0017546281 -0.13317467 -0.08288881 -0.0038459469 0.06536222
-1.7586694e-06 -0.001011031 -0.01825457 -9.503802e-06 -0.02869948 -0.05152322 -7.095688e-05 -2.2844226e-05
-0.006484753 -3.7055236e-07 -0.19655834 -0.00021790253 -0.0046674656 -0.18340431 -0.0019552256 -0.051679086
-2.3411769e-05 -2.2372013e-05 -0.008140911 0.048107263 -0.006019693 -0.0821328 -0.0015922138 -3.840726e-09
-0.043450993 -0.08857282 -0.021805432 -0.07838043 -0.008660161 -0.0008749273 -2.2898592e-09 0.026065396
-0.0035267288 0.02507306 -0.0022115584 -0.0016401034 -0.04428766 -0.010576807 -0.026434593 -0.0046046716
-0.009686252 -1.0067714e-10 -0.04718929 -2.53453e-06 -0.00079378654 -5.096328e-06 -0.0015525337 -0.0091211265
-0.078122556 -0.0004869824 -0.053581648 -4.54428e-06 -0.0018418332 -0.06942848 -9.716279e-05 -5.097593e-07
9.013167e-05 -0.0005722698 -0.006519528 -0.081791714 -0.0018685982 -7.004008e-07 -1.0850259e-06 -0.18801512
-0.06310845 -0.050373025 -2.271353e-06 -0.0010929524 -0.0003605032 -0.002263331 -0.00038693965 -0.033280637
-0.0015923984 -0.0012817988 -6.7365875e-07 -1.0097219e-06 -0.002960518 -0.00017655363 -0.0007503844 -0.00028040394
-0.010459974 -0.005588281 -7.407609e-05 -0.14526084

feat_lam_net.2.weight f4 [1, 100]
00000000: 8e73 a6ba 92c3 2dbe 6890 e839 1afd 31b8
00000010: f332 f1b8 95dc 1bbe 6896 8ebd bc10 08b9
00000020: 6f4f ebb9 d516 fd3e 2027 c7bc 9f22 0738
00000030: db47 a0be 236f 6e3e ef1c 4639 3b58 e0be
00000040: 7a27 1c34 05e1 0eb9 6183 08bc 90e4 8b34
00000050: 8978 c1be 90c3 4cbe 0ff5 a536 aa02 20b6
00000060: a693 b03a ba4b 9233 990a 033f 43a5 cb37
00000070: 84a1 39ba 56b9 f93e e269 ba39 8606 3ebe
00000080: b291 a7b5 914d bfb6 e349 4a3e 4136 ffbe
00000090: b9b4 4d3b e75d ecbe 1c01 943b a400 1cb0
000000a0: 820c dabe a0f8 d13e f538 47be 791d debe
000000b0: 3030 1bbb b923 8ab7 d312 9230 7b9d 9dbe
000000c0: 6793 eb38 dde2 54be 17fd 59b9 d334 39b9
000000d0: 631e b43e 4a08 59bb fa37 4abc e9b5 183a
000000e0: 373d e0b8 12e9 8c2c fa2a 8dbe 9e01 6fb5
000000f0: 7857 05b8 9480 3fb5 81a2 f33a 164a 853b
00000100: 4984 ce3e 75d0 683a 20b5 55be 430c 05b3
00000110: 70c0 48b9 562c d6be 45e0 e3b6 8ec2 e2b2
00000120: 056b 273a fc39 6139 e300 b4ba 4838 efbe
00000130: d946 ab38 93cf 33b2 6a0c ff34 4428 133f
00000140: bf9a b73e 0e65 f8bc 3edc 4db3 98c1 2b3a
00000150: 3ced 9ab6 dfb5 1339 0104 b738 600e 71bd
00000160: 9cbd 41ba 45f8 0d38 b9a5 cab3 d247 3c33
00000170: 91ec 0b3b 1b8d 9637 d83e b1b7 a3a7 9836
00000180: c361 ce3a ec5e 5bba cd61 89b7 4a3c bf3e
-0.0012699233 -0.16969135 0.0004435808 -4.2435808e-05 -0.000115012655 -0.15220864 -0.069622815 -0.00012976205
-0.00044881876 0.49431482 -0.024310648 3.221875e-05 -0.3130482 0.23284583 0.0001889353 -0.43817315
1.4542994e-07 -0.00013626002 -0.008332104 2.605707e-07 -0.37787274 -0.19996476 4.9459118e-06 -2.3843409e-06
0.0013471737 6.8124294e-08 0.51188046 2.4276442e-05 -0.00070812576 0.48774213 0.00035555573 -0.18557176
-1.2484873e-06 -5.7012735e-06 0.19754748 -0.4984608 0.0031388237 -0.46165392 0.004516734 -5.675338e-10
-0.42587668 0.41009998 -0.19455321 -0.4338186 -0.0023679845 -1.6467517e-05 1.0628248e-09 -0.3078421
0.00011233129 -0.20789666 -0.00020789016 -0.00017662653 0.35179433 -0.0033116513 -0.012342447 0.00058254466
-0.000106925545 4.0049153e-12 -0.2757185 -8.903679e-07 -3.1791133e-05 -7.134015e-07 0.0018587859 0.0040676696
0.403353 0.000888116 -0.20869875 -3.0977628e-08 -0.00019145175 -0.418307 -6.7912356e-06 -2.6398336e-08
0.00063864916 0.00021479273 -0.0013733174 -0.46722627 8.167112e-05 -1.0466368e-08 4.7506484e-07 0.57483315
0.3586025 -0.030321624 -4.793059e-08 0.000655198 -4.6171754e-06 0.00014086765 8.726866e-05 -0.0588516
-0.000739062 3.384824e-05 -9.436503e-08 4.383748e-08 0.0021350721 1.79471e-05 -2.1129308e-05 4.5494685e-06
0.0015745688 -0.00083683315 -1.6377215e-05 0.37350684
