experiments/konrad/saved_models/online_expanding/weibull/model_step_4.pt (torch, 890518 bytes, 15 tensors)

A_gate f4 [9]
0	0xbccedf54	-0.025252976
1	0x39a4367b	0.0003132111
2	0x3c31a58d	0.010842693
3	0xbcb353be	-0.021890517
4	0xb93dad31	-0.00018088963
5	0x3d0c8610	0.03430754
6	0xbcee9283	-0.029122597
7	0x390211e5	0.00012404432
8	0x3d2c0b34	0.04200287

B_gate f4 [120]
0	0xbc8688ac	-0.016422592
1	0xbbba89d5	-0.0056927004
2	0x00001fc2	1.1393e-41
3	0x3ca9a64e	0.020709183
4	0xb0b40f7f	-1.3101128e-09
5	0x00000f5a	5.507e-42
6	0xb862febe	-5.4119846e-05
7	0xab8856a8	-9.687433e-13
8	0x00000c10	4.327e-42
9	0xbc9aa7f1	-0.018878909
10	0x800035a6	-1.9245e-41
11	0xa0c31881	-3.30505e-19
12	0x3bfa3472	0.0076356465
13	0x097242dd	2.916113e-33
14	0x00002a20	1.5112e-41
15	0x3922cdfe	0.00015526262
16	0x000051aa	2.9296e-41
17	0x3114dff2	2.1664133e-09
18	0xbcd539ac	-0.026028477
19	0x80003569	-1.916e-41
20	0x3416d8a2	1.4048649e-07
21	0xba2a64a2	-0.0006499981
22	0xaa7ce4cd	-2.2461477e-13
23	0x2d9bd201	1.771472e-11
24	0x386b69dd	5.612696e-05
25	0x375e92b3	1.3266387e-05
26	0x000036e5	1.9692e-41
27	0xbc4e13a6	-0.012577927
28	0x3214e3ad	8.666501e-09
29	0x00005923	3.1976e-41
30	0xbb30b69e	-0.0026964317
31	0x000037c7	2.0009e-41
32	0x32d28c7c	2.4511102e-08
33	0xba019b79	-0.00049441267
34	0x2f8506bb	2.419734e-10
35	0xb4009da4	-1.1978278e-07
36	0xbb8e1d82	-0.0043370137
37	0x80005533	-3.0564e-41
38	0x9e698ad5	-1.2363627e-20
39	0xbb82ea97	-0.0039952504
40	0x0032d07c	4.666565e-39
41	0x2bfba984	1.7881673e-12
42	0x3886aeaf	6.422155e-05
43	0x00000fc7	5.66e-42
44	0x8d4ae573	-6.2522245e-31
45	0x3c7485a8	0.014924444
46	0x2e54568e	4.8280095e-11
47	0x000044b4	2.4646e-41
48	0x3c2d83ed	0.010590536
49	0x20bc9402	3.1946382e-19
50	0x800050ea	-2.9026e-41
51	0x385ad9e7	5.2178188e-05
52	0x80001820	-8.654e-42
53	0x00002f6f	1.7016e-41
54	0xbc131856	-0.00897797
55	0x0000263e	1.3719e-41
56	0xb58bad1b	-1.0406687e-06
57	0x3c8ce7ea	0.017200429
58	0x800012f9	-6.806e-42
59	0xb5b7818a	-1.3672263e-06
60	0x375e2508	1.3240853e-05
61	0xb201e6c6	-7.56126e-09
62	0x00000e92	5.227e-42
63	0xbaa62e14	-0.0012678527
64	0x3be53449	0.0069947583
65	0xb33413b5	-4.192744e-08
66	0xbbaf3a0c	-0.005347496
67	0x34ed092e	4.415137e-07
68	0x80002324	-1.2606e-41
69	0x38ea4aac	0.00011171898
70	0x80003558	-1.9136e-41
71	0x0000550a	3.0506e-41
72	0x3b49aadc	0.0030772006
73	0x800011d8	-6.401e-42
74	0x0054d044	7.788893e-39
75	0xbc7b8793	-0.015352148
76	0xafd15923	-3.8080214e-10
77	0x800001ea	-6.87e-43
78	0x381f6fa3	3.8012524e-05
79	0x226c60c4	3.2035191e-18
80	0x386c5091	5.6341818e-05
81	0xbbedc90b	-0.007256632
82	0xba0fb7cb	-0.00054824044
83	0xbcc11d96	-0.023573678
84	0xbbea4b17	-0.0071500647
85	0xb4251259	-1.5373497e-07
86	0x00003c52	2.1639e-41
87	0xb757aa40	-1.2854638e-05
88	0x00001742	8.343e-42
89	0xa3065886	-7.2829e-18
90	0xbc22fb49	-0.009947606
91	0x32e42e29	2.6563685e-08
92	0xaa30e430	-1.5711109e-13
93	0xbb462b06	-0.0030238046
94	0x80005ac5	-3.2562e-41
95	0x800052a6	-2.9649e-41
96	0xb7d0b74c	-2.4880886e-05
97	0x800000ec	-3.31e-43
98	0x00004f27	2.8395e-41
99	0xbc0bf05a	-0.008541191
100	0xa73a50ec	-2.5856553e-15
101	0x800021c5	-1.2114e-41
102	0xbcc54969	-0.024082856
103	0x8000168d	-8.09e-42
104	0x800047fa	-2.582e-41
105	0x38452618	4.7003938e-05
106	0x300c5ef5	5.1066645e-10
107	0x1ccdd65d	1.3621174e-21
108	0xbc4a608b	-0.012352119
109	0x2f1465d8	1.3496704e-10
110	0x895360c4	-2.54437e-33
111	0xbaa2266d	-0.0012371071
112	0x80000293	-9.23e-43
113	0x249808d9	6.593448e-17
114	0x3869fd94	5.5787692e-05
115	0xb16cd438	-3.4463152e-09
116	0x9e8ea598	-1.5103323e-20
117	0xbb6c1a72	-0.0036026505
118	0x3c221d37	0.009894661
119	0x80000395	-1.285e-42

ar_gate_lin.weight f4 [1, 64]
0	0xbd578453	-0.05261643
1	0x3d37d7fe	0.04488372
2	0xbd9c0b35	-0.07619325
3	0xbd3f3251	-0.046678845
4	0x3d488b32	0.048960872
5	0xbbeeaa0e	-0.0072834557
6	0x3d4d791c	0.050164327
7	0xbd0349aa	-0.032052673
8	0xbc60860e	-0.013703836
9	0xbc3f733f	-0.011685192
10	0x3bea1b04	0.007144334
11	0xbc81e117	-0.015854402
12	0x3d2fd31e	0.042925946
13	0xbbe6c0a8	-0.0070420094
14	0x3de97ed7	0.11401146
15	0xbd92596d	-0.07145963
16	0xbd8266e0	-0.06367278
17	0xbc5ce0ac	-0.0134813
18	0xbc6c5cd7	-0.014426432
19	0xbc2c645d	-0.010521975
20	0x3d900bc3	0.07033493
21	0x3b7ed87e	0.0038886364
22	0xbc4ed80b	-0.012624751
23	0x3d08e44e	0.033420853
24	0x3dac8540	0.08423853
25	0x3c9eed98	0.019400403
26	0x3c936367	0.017991735
27	0x3cf37a3b	0.02972137
28	0x3c87a9c9	0.016560452
29	0xbd642b9c	-0.05570565
30	0x3e32c185	0.17456634
31	0xbc91ff22	-0.017821852
32	0xbd28e4fa	-0.041233994
33	0x3d891b19	0.066946216
34	0xbd1055e8	-0.035238177
35	0x3d8275ef	0.0637015
36	0xbd31aadb	-0.04337583
37	0x3d75922c	0.059953853
38	0x3d4f5863	0.0506214
39	0xbcb0f089	-0.021599071
40	0x3dfa738e	0.122290716
41	0x3d0b21f7	0.03396794
42	0xbc96e6c4	-0.018420584
43	0xbd3baf13	-0.04582126
44	0xbd02e540	-0.03195691
45	0x3e009f7f	0.12560843
46	0xbdb4c1c4	-0.0882602
47	0x3cadcefb	0.02121686
48	0x3bf0e00f	0.0073509286
49	0xbd26a050	-0.04068023
50	0xbbefb7ce	-0.0073156124
51	0x3d4ec138	0.050477237
52	0xbd2922be	-0.0412929
53	0x3d634084	0.05548145
54	0xbdc56709	-0.09638793
55	0x3dd054e0	0.101724386
56	0x3c8ca451	0.017168196
57	0xbbe4f70e	-0.006987459
58	0xbd46eab4	-0.048563674
59	0x3d3c8293	0.046022963
60	0xbaafdcea	-0.0013417278
61	0x3d650afb	0.055918675
62	0x3d574b96	0.05256232
63	0x3e1d9688	0.15389454

ar_k_net.0.weight f4 [32, 64]
0	0x2e9d479f	7.152256e-11
1	0xaf39409b	-1.6848604e-10
2	0x2ee81972	1.05546585e-10
3	0xaeda14a1	-9.917157e-11
4	0xaf902d5b	-2.6225674e-10
5	0xafbec8e7	-3.4703548e-10
6	0x303864a6	6.708184e-10
7	0x2f41c29d	1.7622388e-10
8	0xb00b4838	-5.0670534e-10
9	0xae170fb5	-3.4347376e-11
10	0x2f809d4d	2.3394833e-10
11	0x2f987986	2.7734987e-10
12	0xae3f8181	-4.3543395e-11
13	0xafbb49f3	-3.4067646e-10
14	0xaf3df6f2	-1.7277182e-10
15	0xae3ad582	-4.2481137e-11
16	0xafe0312c	-4.07803e-10
17	0xaf6b7b50	-2.1416935e-10
18	0xaf197486	-1.3956666e-10
19	0x3008dec1	4.9793064e-10
20	0xaede0cfd	-1.00976984e-10
21	0x2f1e0e54	1.4375107e-10
22	0x2e3f717e	4.3529173e-11
23	0x2e93fbf9	6.7295454e-11
24	0xb0004a00	-4.667129e-10
25	0xaf719293	-2.1970896e-10
26	0xaf3ff0ec	-1.7456941e-10
27	0xaef316a7	-1.10543845e-10
28	0xaf039d9a	-1.1970372e-10
29	0xaf997d8e	-2.791975e-10
30	0x311a9e0c	2.2499789e-09
31	0x30184f2d	5.5409793e-10
32	0x310b528d	2.0274087e-09
33	0xaf570809	-1.9556991e-10
34	0x301cf3a8	5.7098726e-10
35	0x2efb2463	1.1420622e-10
36	0xaeb1282c	-8.056164e-11
37	0xafbe9cea	-3.4672293e-10
38	0x2fc7e2b5	3.6358974e-10
39	0x2e0663e6	3.05568e-11
40	0xad62b758	-1.2887323e-11
41	0xaf081d48	-1.2379531e-10
42	0xaedf41bc	-1.0152543e-10
43	0x2eb1e429	8.0895575e-11
44	0xaf41444a	-1.7577509e-10
45	0xb00ec969	-5.194552e-10
46	0x2e4b3e7a	4.6212346e-11
47	0x2c527320	2.9906702e-12
48	0xaf663cae	-2.0939936e-10
49	0xafbf90d8	-3.4845615e-10
50	0xafd6eb4a	-3.9093556e-10
51	0xafac7a5f	-3.1373568e-10
52	0xafa08f44	-2.9205627e-10
53	0xafc0415b	-3.4971034e-10
54	0xae043845	-3.0063303e-11
55	0xaf94c9a8	-2.7064329e-10
56	0xaf68888c	-2.1148788e-10
57	0xaf6838de	-2.112048e-10
58	0xaf339c3a	-1.6335458e-10
59	0xafc173a7	-3.5188671e-10
60	0xaf58f5d8	-1.9732427e-10
61	0x2f130a66	1.3373266e-10
62	0x305def7d	8.0739665e-10
63	0xaf526c96	-1.9137966e-10
64	0x3c0df12e	0.008663459
65	0xbd18af1d	-0.037276376
66	0x3bdd4443	0.006752522
67	0x3cf03ca1	0.029325785
68	0x3bf35a1e	0.0074265143
69	0x3d168fc4	0.0367582
70	0x3cf72bba	0.030172218
71	0xbc8fd666	-0.017558288
72	0x3c413330	0.011791989
73	0xbc557e75	-0.013030638
74	0x3c4711a6	0.012150204
75	0xbc83f7eb	-0.016109427
76	0x3d193ecf	0.037413415
77	0x3c718379	0.014740818
78	0x3cde3ec5	0.02712954
79	0x3c7a2b7d	0.0152691575
80	0x3cb914d4	0.02259294
81	0x3d082f35	0.033248145
82	0xbc13b90b	-0.009016286
83	0xbc203aa2	-0.009779604
84	0x3d36e566	0.044652365
85	0xbba5224b	-0.0050394884
86	0x3c93bea3	0.018035239
87	0x3bed19f6	0.007235761
88	0x3cc3968f	0.023875503
89	0x3b295e83	0.0025843687
90	0x3c6759a0	0.014120489
91	0x3cae9db6	0.021315437
92	0x3d1cc7fe	0.038276665
93	0x3d1b2ac1	0.03788257
94	0x3c1a69c7	0.009424633
95	0x3d36d0f8	0.044632882
96	0xbdb72819	-0.08943195
97	0x3c5f20cd	0.01361866
98	0xbd866d3d	-0.06563804
99	0xbb9c4cc4	-0.0047698934
100	0x3cc03e07	0.023467077
101	0x3d3fd340	0.046832323
102	0xbb4e9bf1	-0.0031526054
103	0x3da4baaa	0.08043416
104	0x3cac1b6d	0.021009171
105	0x3d0d9f82	0.034575947
106	0x3d484afb	0.048899632
107	0xbc5234ca	-0.012829969
108	0x3c882631	0.016619774
109	0x3c719563	0.014745089
110	0xbcc80f96	-0.024421494
111	0x3c8623a5	0.016374419
112	0xba2f935a	-0.00066976773
113	0x3d80d490	0.06290543
114	0x3d80a49f	0.06281399
115	0x3ca5b386	0.020227205
116	0x3d2b782b	0.041862648
117	0x3caf6555	0.021410624
118	0x3c4c79a7	0.012480176
119	0x3d273bbf	0.040828463
120	0x3d2ae1f1	0.04171938
121	0x3d096f1d	0.03355323
122	0x3d86ffa9	0.06591732
123	0x3d90eb6c	0.07076153
124	0x3d6e96b4	0.05824919
125	0x3d48b191	0.048997466
126	0xbc07003a	-0.0082398
127	0x3cd4f007	0.02599336
128	0xb6dce32a	-6.5829563e-06
129	0xb69cc7c9	-4.6724203e-06
130	0xb7885765	-1.625316e-05
131	0xb6d31433	-6.2906415e-06
132	0xb78b1cdf	-1.6583535e-05
133	0xb7ac54dd	-2.0543515e-05
134	0xb709dae1	-8.216798e-06
135	0xb71eca6a	-9.464662e-06
136	0xb7a71611	-1.9918227e-05
137	0xb780abc7	-1.533878e-05
138	0xb6df7941	-6.6600337e-06
139	0xb615f7da	-2.2346999e-06
140	0xb67fb9fb	-3.8106216e-06
141	0xb78719b0	-1.6105216e-05
142	0xb80fe85f	-3.431027e-05
143	0xb7bb7356	-2.2345845e-05
144	0xb7c184c3	-2.3069215e-05
145	0xb73e506c	-1.1343607e-05
146	0xb7c5259a	-2.350174e-05
147	0xb74c296e	-1.2168994e-05
148	0xb7dea540	-2.6541413e-05
149	0xb79b2b40	-1.849758e-05
150	0xb7c33247	-2.3269224e-05
151	0xb72fb40a	-1.0472731e-05
152	0xb7f1af62	-2.8811108e-05
153	0xb724df0c	-9.827094e-06
154	0xb7cd928e	-2.450615e-05
155	0xb7d914e0	-2.5878137e-05
156	0xb75ab6da	-1.3036386e-05
157	0xb752a14e	-1.2554532e-05
158	0x38d3bea1	0.000100967714
159	0x37a02627	1.9091252e-05
160	0x38ec36de	0.00011263577
161	0xb7d59e51	-2.54653e-05
162	0x383222fe	4.2471096e-05
163	0x36f20e5c	7.2138337e-06
164	0xb700e5c6	-7.682893e-06
165	0xb7153643	-8.893726e-06
166	0x37f49a4c	2.9158917e-05
167	0x372efb65	1.04297405e-05
168	0x37ac62f0	2.055007e-05
169	0xb7727956	-1.4452575e-05
170	0xb728901a	-1.0047132e-05
171	0x370fba9e	8.566914e-06
172	0xb6da6583	-6.508724e-06
173	0xb79b4b15	-1.8512403e-05
174	0x37fa857c	2.986448e-05
175	0xb73090b4	-1.0524109e-05
176	0xb4a1a54c	-3.0108856e-07
177	0xb755a35b	-1.27338235e-05
178	0xb6ee1b34	-7.0961196e-06
179	0xb6d13816	-6.2352146e-06
180	0xb6c12438	-5.7560646e-06
181	0xb4aa8378	-3.1760624e-07
182	0xb6e82534	-6.91847e-06
183	0xb77760eb	-1.4744913e-05
184	0xb6103ad6	-2.149192e-06
185	0xb72d950b	-1.0346305e-05
186	0xb6ac8b90	-5.1422467e-06
187	0xb601398c	-1.9255995e-06
188	0xb6b8d300	-5.508191e-06
189	0x37af2e85	2.0883288e-05
190	0x38959caf	7.134058e-05
191	0x37751ab3	1.4609354e-05
192	0xbaca605b	-0.0015440093
193	0xbb2de961	-0.002653681
194	0xbb273ef6	-0.0025519705
195	0xba2729d0	-0.0006376775
196	0x3a61beed	0.0008611519
197	0xbb246449	-0.0025084189
198	0xbb1dd287	-0.0024081783
199	0xbb283edc	-0.0025672233
200	0xbb5baf5e	-0.0033521275
201	0xbaa9105d	-0.0012898553
202	0xb907517a	-0.00012904956
203	0x3919d270	0.00014669611
204	0xb8720984	-5.770616e-05
205	0xbb280d40	-0.0025642663
206	0xbb1b3007	-0.002367975
207	0xbadc5427	-0.0016809747
208	0xbab8c90e	-0.0014098005
209	0xbb11d567	-0.0022252442
210	0xba40d766	-0.00073563156
211	0x3b05f582	0.0020440524
212	0xbaf4ed86	-0.001868651
213	0xba84c931	-0.001013076
214	0xbb253066	-0.002520585
215	0x3af18d64	0.0018428979
216	0xbbc6e238	-0.006069448
217	0x3b0fe60d	0.002195719
218	0xbb3d9805	-0.0028929722
219	0xbb7f7e27	-0.0038985105
220	0xbb17bb08	-0.002315225
221	0xbb2ced89	-0.00263867
222	0x3be7383a	0.0070562633
223	0xb794efde	-1.7754672e-05
224	0x3c87e991	0.016590865
225	0xba8a971a	-0.0010573596
226	0x3c00033e	0.007813273
227	0x39cf3620	0.00039522443
228	0xb8e47658	-0.000108939304
229	0xba60cac2	-0.0008575135
230	0x3ba1129e	0.0049155494
231	0x3a128913	0.00055898837
232	0x3b65ddfd	0.0035074942
233	0xba8ac3e9	-0.001058695
234	0xbaccb080	-0.0015616566
235	0x39ee26db	0.00045423847
236	0xbaad483f	-0.0013220384
237	0xbb5a53f4	-0.00333142
238	0x3bcd69c9	0.006268714
239	0x39076ddb	0.00012915528
240	0xba444074	-0.0007486411
241	0xbb046a86	-0.0020205094
242	0xba736432	-0.00092846446
243	0xbaa9cd35	-0.0012954833
244	0xba44bfab	-0.00075053674
245	0x390722d7	0.00012887582
246	0x39c13abe	0.00036855595
247	0xbaaab360	-0.0013023429
248	0x3a010a92	0.00049225346
249	0xb99d6c84	-0.00030026224
250	0xba4c78d7	-0.0007799989
251	0xba1c3320	-0.0005958546
252	0xba1c1748	-0.0005954397
253	0x3b285cc6	0.0025690063
254	0x3c2aeca1	0.010432393
255	0x3b47158c	0.0030377833

ar_k_net.0.bias f4 [32]
0	0x2ffd6ff6	4.6099985e-10
1	0xbe0195e8	-0.12654841
2	0x370a2638	8.2343395e-06
3	0x3b43fcd3	0.0029905334
4	0xbe38ebe3	-0.18058734
5	0xbe241b42	-0.16026023
6	0x800059c3	-3.22e-41
7	0xbde9e4a9	-0.114205666
8	0x3634457c	2.6862535e-06
9	0xbe0dcfd1	-0.13848807
10	0x3df49eb1	0.119443305
11	0xbe5d8fdc	-0.21636909
12	0xbe20b8de	-0.15695521
13	0xbe287990	-0.16452622
14	0xbd9764eb	-0.073922954
15	0x30ccc08d	1.489768e-09
16	0xbe2185d8	-0.15773714
17	0xbde131f5	-0.10995857
18	0xb16e0872	-3.4638359e-09
19	0x3cd16945	0.025562892
20	0x3a61037f	0.000858359
21	0xb0102a63	-5.244713e-10
22	0x9af73a70	-1.02251217e-22
23	0x3866364e	5.488685e-05
24	0x21937338	9.991606e-19
25	0xbe1ecda2	-0.1550813
26	0xb318d3e5	-3.5582975e-08
27	0xbe0ddb97	-0.13853298
28	0x30b4ca76	1.3154267e-09
29	0xb1303290	-2.5640112e-09
30	0xbdb87e65	-0.09008483
31	0x3cc577fa	0.02410506

ar_k_net.2.weight f4 [1, 32]
0	0xb0c6b60c	-1.4458137e-09
1	0x3e87cbfc	0.26522815
2	0xb8e1f26a	-0.00010773989
3	0xbcb4e7a1	-0.022083106
4	0x3eda0ad3	0.42586383
5	0x3eb3e098	0.3513229
6	0x80006225	-3.5208e-41
7	0x3e6d0fae	0.23150513
8	0xb7b9e28b	-2.215921e-05
9	0x3e8e3893	0.27777538
10	0xbe6a7526	-0.22896251
11	0x3ef3e418	0.4763496
12	0x3eb49512	0.35269982
13	0x3ebd63a8	0.36990094
14	0x3e132da8	0.14372885
15	0xb2125622	-8.517903e-09
16	0x3eaf5731	0.3424621
17	0x3e64a901	0.22330095
18	0xb3ce88c4	-9.6175e-08
19	0xbd810edf	-0.063016646
20	0xbc4a10c8	-0.0123331025
21	0x30ae4654	1.2680155e-09
22	0x9bf7e934	-4.1013426e-22
23	0xba88ea9f	-0.0010445899
24	0xa51c5393	-1.3559159e-16
25	0x3eaf16d3	0.341971
26	0xb5032ddb	-4.886803e-07
27	0x3e958e46	0.2921011
28	0x314260c2	2.8285716e-09
29	0xb301c623	-3.0215357e-08
30	0x3e373a02	0.17893222
31	0xbe2e8992	-0.17044666

ar_lam_net.0.weight f4 [32, 64]
0	0xbd86ef6d	-0.065886356
1	0xbd093bb8	-0.033504218
2	0xbc813200	-0.015770912
3	0x3d820428	0.06348449
4	0xbd9666a8	-0.07343799
5	0x3d33665b	0.043798786
6	0x3d33d253	0.043901753
7	0x3d18641f	0.037204858
8	0x3ce4e250	0.027939945
9	0xbde959fd	-0.11394117
10	0x3c81408c	0.015777849
11	0xbdc8188c	-0.09770307
12	0x3d932099	0.07183952
13	0xbdc21c48	-0.094780505
14	0xba41eb01	-0.0007397384
15	0xbcc5550c	-0.024088405
16	0xbce2dc9d	-0.027693087
17	0x3d92eed7	0.07174461
18	0xbcffd24f	-0.031228213
19	0x3d03cac6	0.0321758
20	0xbb306da8	-0.002692083
21	0x3d760d13	0.060071062
22	0x3d3be69a	0.045874216
23	0xbc701fac	-0.014655989
24	0xbca8731e	-0.020562705
25	0x3cc70cd4	0.02429811
26	0x3ccca17d	0.024979347
27	0x3d945b6a	0.07243998
28	0x3dbcf53d	0.09226463
29	0x3caddabe	0.021222468
30	0x3d1497f4	0.036277726
31	0x3d217817	0.039421167
32	0x3e0a9160	0.13532019
33	0xbda5e423	-0.08100154
34	0x3c7268e6	0.014795518
35	0xbd59b480	-0.053150654
36	0xbd826ce2	-0.06368424
37	0x3d40e455	0.047092754
38	0xbe0254e3	-0.12727694
39	0x3cc6f94f	0.024288801
40	0xbd6660e2	-0.05624474
41	0x3bdad0c2	0.006677718
42	0x3dcfdc22	0.10149409
43	0xbcfb2de4	-0.03066153
44	0x3d3fc784	0.046821132
45	0xbc9810b5	-0.018562654
46	0x3dcae670	0.09907234
47	0xbda60c25	-0.08107785
48	0xbd4c8ada	-0.049937107
49	0x3bbbead2	0.00573478
50	0xbd0ff05e	-0.03514134
51	0x3d8254ff	0.06363868
52	0x3cf82dd2	0.030295286
53	0x3d27048b	0.040775817
54	0xbd74ff0a	-0.059813537
55	0xbd37351e	-0.04472839
56	0xbd74059c	-0.059575662
57	0x3c76dc19	0.015067124
58	0x3c86bbea	0.016447026
59	0xbd128143	-0.035767805
60	0x3c882e24	0.016623564
61	0x3c66ffa1	0.014099033
62	0x3ce64f25	0.02811391
63	0x3dffee3b	0.12496611
64	0xab4282fe	-6.9104434e-13
65	0xb1c8c7cf	-5.8434817e-09
66	0xadac20e1	-1.9568737e-11
67	0xadbe3616	-2.1624518e-11
68	0xb1495407	-2.9297114e-09
69	0xb6c584ce	-5.886518e-06
70	0xb3c4de23	-9.167368e-08
71	0xaf1b7bcc	-1.414115e-10
72	0xa9876862	-6.013312e-14
73	0xad8e370a	-1.6167973e-11
74	0xad6f5082	-1.3603453e-11
75	0xa90c7b24	-3.1193052e-14
76	0xaf2566af	-1.5043143e-10
77	0x2a060b1d	1.1905447e-13
78	0xadf6d959	-2.8063484e-11
79	0x2a2ad82c	1.5174033e-13
80	0xa8912187	-1.6112774e-14
81	0x28ee177a	2.643349e-14
82	0xb0ed9ef8	-1.7289201e-09
83	0xb2f26c33	-2.8221711e-08
84	0xb088b91a	-9.947911e-10
85	0x26d9c6a2	1.5111239e-15
86	0xb165bcb1	-3.3431145e-09
87	0xb1183b66	-2.2152675e-09
88	0x2a93985f	2.6218174e-13
89	0xb202911b	-7.599989e-09
90	0xb2079c8e	-7.893631e-09
91	0xb10b94c8	-2.0311735e-09
92	0xac840a88	-3.752835e-12
93	0xb136febc	-2.6629285e-09
94	0xaf5245f8	-1.9124247e-10
95	0xb3897bca	-6.402077e-08
96	0xb0825594	-9.483068e-10
97	0xb231f847	-1.0359208e-08
98	0xa9e40f84	-1.01279255e-13
99	0xa9c3d6d6	-8.697008e-14
100	0xb63b8aff	-2.7946078e-06
101	0xb4367715	-1.6993393e-07
102	0xb08c6eb4	-1.0217804e-09
103	0xb13941c6	-2.695843e-09
104	0xb22c6eeb	-1.00369375e-08
105	0xb67d52ea	-3.77482e-06
106	0xb0bf0c19	-1.3900517e-09
107	0xb02a7703	-6.2014766e-10
108	0xacc60a2c	-5.6286278e-12
109	0x2a61c5ed	2.0052684e-13
110	0x2a6e72e8	2.1178513e-13
111	0x2a6e5ad8	2.1170164e-13
112	0xb1eadb99	-6.8352617e-09
113	0xb23d52a8	-1.1020042e-08
114	0xafea6b41	-4.264056e-10
115	0xb2abae20	-1.9986203e-08
116	0xaff5358d	-4.460329e-10
117	0xaf0aa1df	-1.2608535e-10
118	0xaf223b0e	-1.4754795e-10
119	0xb5e86589	-1.7314898e-06
120	0xb2528462	-1.2253709e-08
121	0xaf71b1d2	-2.1981997e-10
122	0x2a6857f1	2.063625e-13
123	0xa905842f	-2.9646583e-14
124	0xabdbfa12	-1.5630294e-12
125	0xb27633e3	-1.4330882e-08
126	0xab9ae480	-1.100578e-12
127	0xae933c89	-6.695539e-11
128	0x3dca4bc2	0.09877731
129	0x3c5ba97e	0.013407109
130	0xbd8722ab	-0.06598409
131	0x3c35eb91	0.011103527
132	0xbd78925a	-0.060686447
133	0x3dc863bb	0.09784647
134	0x3cc93d66	0.02456541
135	0xbe0287d9	-0.12747134
136	0x3c50ed77	0.0127519285
137	0xbd8cd271	-0.06876076
138	0x3d9dbf2d	0.077024795
139	0xbd147067	-0.036240008
140	0xbcbae63b	-0.02281486
141	0x3d434ece	0.047682576
142	0xbda090bc	-0.07840106
143	0xbde66a39	-0.11250729
144	0x3b540e92	0.0032357317
145	0x3d54354c	0.05180864
146	0x3dd96676	0.10615246
147	0x3e2abb7f	0.16673087
148	0xbd04f02a	-0.0324556
149	0x3d532d42	0.051556833
150	0x3e1dca48	0.15409195
151	0xbd14a2c2	-0.03628803
152	0x3d9337b6	0.071883604
153	0xbdbb9889	-0.09159953
154	0xbd683a9a	-0.05669651
155	0x3e1dfc07	0.15428172
156	0x3db27de5	0.08715419
157	0xbd3f9795	-0.04677542
158	0xbe1feaf3	-0.1561697
159	0xbe40d0ae	-0.18829605
160	0xbdde2cf4	-0.10848418
161	0xbe0e08ed	-0.13870592
162	0x3b79c2b8	0.0038110446
163	0xbd7c30c3	-0.06156994
164	0xbe43b8fe	-0.19113538
165	0x3da9722a	0.08273728
166	0xbd194135	-0.037415702
167	0x3e286426	0.16444454
168	0xbd5e871a	-0.05432806
169	0xbd51c2c7	-0.051211145
170	0x3da4181f	0.08012413
171	0x3d49f7c5	0.049308557
172	0x3c109333	0.0088241575
173	0x3d045948	0.032311708
174	0xbd683d1d	-0.056698907
175	0xbcffe8f5	-0.031239012
176	0x3d06728a	0.032824077
177	0xbd9ba81b	-0.07600423
178	0x3cc24a74	0.023717143
179	0x3e0698b2	0.13144186
180	0x3d65e82b	0.056129616
181	0xbdf4caa5	-0.11952714
182	0x3ce90a56	0.028447311
183	0xbcaf786f	-0.021419732
184	0x3c356058	0.011070333
185	0xbd0568d9	-0.032570694
186	0xbb153aec	-0.0022770716
187	0x3df3a975	0.11897556
188	0xbc3ee30a	-0.01165081
189	0x3e020a08	0.12699139
190	0xbe390e0a	-0.18071762
191	0xbeb833d2	-0.35977036
192	0xbcb7876e	-0.022403445
193	0x3c823c71	0.015897961
194	0x3c3a4af6	0.011370411
195	0x3de95547	0.113932185
196	0x3c78128d	0.015141142
197	0xbce639dd	-0.028103763
198	0xbd4623a0	-0.04837382
199	0xbd8e1a0a	-0.0693856
200	0xbd7e34a8	-0.062061936
201	0xbe343950	-0.17599988
202	0xbdb4fb8a	-0.0883704
203	0xbd3d8791	-0.046271864
204	0xbc42e672	-0.011895763
205	0xbd6b5539	-0.05745432
206	0xbd482577	-0.048863854
207	0xbd955d9c	-0.07293245
208	0xbd5758b0	-0.052574813
209	0xbdc28ca4	-0.09499481
210	0xbd7d9afd	-0.061915386
211	0xbd2c757e	-0.042104237
212	0x3dee0360	0.116217375
213	0x3d53f3ca	0.051746167
214	0x3cf8b029	0.030357437
215	0xbb76a33b	-0.0037633914
216	0xbcc2059d	-0.023684317
217	0xbcc64fdd	-0.024208004
218	0xbc68f445	-0.014218395
219	0x3d2f2453	0.04275925
220	0x3b22ca33	0.0024839758
221	0xbc97df0c	-0.018538974
222	0xbd3adcb1	-0.045620624
223	0xbd87f0f6	-0.066377565
224	0xbce7b8e2	-0.028286401
225	0x3bc9241d	0.0061383382
226	0x3c66c749	0.014085599
227	0x3c949488	0.018137231
228	0xbd51a0ed	-0.05117886
229	0xbbdb1146	-0.0066854088
230	0xbba76071	-0.0051079323
231	0x3d42821a	0.047487356
232	0x3d00038c	0.031253383
233	0xbd22b842	-0.039726503
234	0x3c0e995b	0.008703555
235	0xbd1236e7	-0.03569689
236	0x3c193b44	0.009352509
237	0x3d857024	0.0651553
238	0x3ce29013	0.02765659
239	0xbc0d3506	-0.008618599
240	0xbd2982f2	-0.041384645
241	0xbc438c1e	-0.011935262
242	0xbd1b77e5	-0.037956137
243	0x3a8c4538	0.0010701781
244	0xbd71d579	-0.059041474
245	0x3d7cd77a	0.061728932
246	0x3ca4ac89	0.020101802
247	0xbd60097b	-0.05469654
248	0x3d78d6de	0.06075179
249	0x3daf16dd	0.08549283
250	0x3d9ddbe9	0.0770796
251	0xbcd72222	-0.026261393
252	0xbcaf5931	-0.021404834
253	0x3dd0582c	0.101730675
254	0xbdd18f01	-0.10232354
255	0xbdeefb3c	-0.11669013

ar_lam_net.0.bias f4 [32]
0	0xbde784f0	-0.11304653
1	0xaa0872ba	-1.211903e-13
2	0x3e1ffa70	0.15622878
3	0x3d03f38a	0.03221468
4	0x3be04b69	0.006844927
5	0x3dfc2fd3	0.12313809
6	0x80000e0f	-5.043e-42
7	0xbd249539	-0.040181372
8	0xbdcbb3cd	-0.09946404
9	0xbd8af843	-0.067856334
10	0xbcf32091	-0.029678615
11	0x3db74cf2	0.08950223
12	0xbd18df97	-0.037322607
13	0xbd8f77bb	-0.07005259
14	0x3c9a9620	0.018870413
15	0x3e2acb1a	0.1667904
16	0x80006a77	-3.8192e-41
17	0x3de79815	0.11308304
18	0x3e5aaefb	0.21355812
19	0x3e056e65	0.13030393
20	0x3e5378da	0.2065157
21	0xbd7ef51c	-0.062245473
22	0xbdb80f8b	-0.089873396
23	0xaf28c21a	-1.534847e-10
24	0x80000565	-1.935e-42
25	0xbb7c8e6e	-0.0038537043
26	0xbbf718b2	-0.0075407857
27	0x3e8de96a	0.27717143
28	0x3c9467a0	0.018115819
29	0xbdc4881a	-0.09596272
30	0xbdd46518	-0.103708446
31	0x3da08b99	0.07839126

ar_lam_net.2.weight f4 [1, 32]
0	0x3ec3b8bc	0.3822688
1	0x3a25a41d	0.0006318705
2	0xbed268ce	-0.41095585
3	0xbe3b6f12	-0.18304089
4	0x3eb14051	0.34619382
5	0xbe81a433	-0.25320587
6	0x3a3f08e1	0.0007287395
7	0x3eb6cd3b	0.35703453
8	0x3dcff7e8	0.10154706
9	0x3dbea0e0	0.09308028
10	0x3ed05de0	0.4069662
11	0xbe1d470e	-0.15359136
12	0x3eac3f4d	0.33642045
13	0x3dc1af32	0.09457244
14	0x3ead47dc	0.33843887
15	0xbe6e7386	-0.23286256
16	0x38911cb3	6.9194844e-05
17	0xbe3a871b	-0.18215601
18	0xbea051af	-0.3131232
19	0xbead3840	-0.33831978
20	0xbedf6e18	-0.43638682
21	0x3e50fb91	0.20408465
22	0x3e7c8484	0.24659926
23	0xb6362bda	-2.7145638e-06
24	0x3942f9fe	0.00018594411
25	0x3ec2e595	0.38065782
26	0x3ea730fa	0.32654554
27	0xbe9ac0d0	-0.3022523
28	0x3ef7af42	0.483759
29	0x3e3d38a4	0.18478638
30	0x3ed5f14e	0.41785663
31	0xbe5ae1a5	-0.21375139

feat_k_net.0.weight f4 [100, 1080]
0	0xae0e4054	-3.2344197e-11
1	0x00001867	8.754e-42
2	0x001fb545	2.911928e-39
3	0x80000137	-4.36e-43
4	0x80002ae7	-1.539e-41
5	0x000008f5	3.213e-42
6	0x80001f97	-1.1332e-41
7	0x00001bc5	9.962e-42
8	0x800031a8	-1.7813e-41
9	0xad6831ec	-1.3198758e-11
10	0xadb2bded	-2.0320601e-11
11	0x04b44b20	4.2386788e-36
12	0x80000743	-2.605e-42
13	0x80000b9f	-4.169e-42
14	0x276cf0d0	3.2882124e-15
15	0x826dad00	-1.7461659e-37
16	0x80005c62	-3.3141e-41
17	0x32519f36	1.22016015e-08
18	0x2dc6c830	2.2598895e-11
19	0x0004a383	4.25999e-40
20	0x80001420	-7.22e-42
21	0x800029b5	-1.4962e-41
22	0x800a532b	-9.4819e-40
23	0x80004832	-2.5899e-41
24	0x00024765	2.09283e-40
25	0x00044d45	3.95061e-40
26	0x0000223b	1.228e-41
27	0xae5d911e	-5.0378472e-11
28	0x00004270	2.3833e-41
29	0xa2ed91de	-6.439342e-18
30	0x0018ac98	2.265967e-39
31	0x8000593a	-3.2008e-41
32	0x000029a5	1.4939e-41
33	0x80001048	-5.84e-42
34	0x8001d13d	-1.66896e-40
35	0x8000180b	-8.625e-42
36	0x2d4a1cef	1.1488795e-11
37	0x8983dbc1	-3.174376e-33
38	0x16e0cf8d	3.6320135e-25
39	0x80004c2d	-2.7327e-41
40	0x800049c9	-2.6469e-41
41	0x80006217	-3.5188e-41
42	0x800052c5	-2.9692e-41
43	0x0000187a	8.78e-42
44	0x800004e7	-1.759e-42
45	0xaeb08a1c	-8.0280865e-11
46	0x800029a0	-1.4932e-41
47	0x89eaa62c	-5.6489718e-33
48	0x80003882	-2.0271e-41
49	0x00001343	6.91e-42
50	0x00001602	7.895e-42
51	0x000459ab	3.99509e-40
52	0xa7d27d98	-5.8422878e-15
53	0x80004656	-2.5232e-41
54	0xae5ad0ac	-4.97528e-11
55	0x800043d8	-2.4338e-41
56	0x0006f5de	6.39214e-40
57	0x001ca2e3	2.629827e-39
58	0x80005b29	-3.2702e-41
59	0x80001564	-7.674e-42
60	0x9ecd5eee	-2.1744481e-20
61	0x80004879	-2.5998e-41
62	0x28a2f526	1.809193e-14
63	0xae7d95ff	-5.7658763e-11
64	0x000024a4	1.3144e-41
65	0x800016f9	-8.241e-42
66	0x80005615	-3.088e-41
67	0x80000806	-2.878e-42
68	0x800ae884	-1.001766e-39
69	0x000007be	2.777e-42
70	0x8002de99	-2.63524e-40
71	0x00002fd3	1.7156e-41
72	0xae4df855	-4.6832167e-11
73	0x9ab4db9b	-7.480105e-23
74	0x80004406	-2.4402e-41
75	0x800b5674	-1.041204e-39
76	0x00003e43	2.2335e-41
77	0x8116e014	-2.7711417e-38
78	0x03e3ff21	1.3400436e-36
79	0x80001838	-8.688e-42
80	0x80003e31	-2.231e-41
81	0x2ddcee46	2.5116919e-11
82	0x80005952	-3.2042e-41
83	0x00002432	1.2984e-41
84	0x296af190	5.216796e-14
85	0x800aef25	-1.004144e-39
86	0x80000fa4	-5.611e-42
87	0x00004cd6	2.7564e-41
88	0x000053b1	3.0023e-41
89	0x802af914	-3.946443e-39
90	0xadb9673a	-2.1077907e-11
91	0x80004bc2	-2.7177e-41
92	0x82f73a4f	-3.6326856e-37
93	0x82086702	-1.0021264e-37
94	0x80049c6d	-4.23457e-40
95	0x00002a54	1.5184e-41
96	0x80000aad	-3.83e-42
97	0x000a846d	9.6586e-40
98	0x80001742	-8.343e-42
99	0x2d743d25	1.3883371e-11
100	0x80001db2	-1.0653e-41
101	0x00005ea6	3.3953e-41
102	0x800057d8	-3.1512e-41
103	0x393d8fde	0.0001807804
104	0x0003d6be	3.52541e-40
105	0x8000077d	-2.686e-42
106	0x00003aa0	2.103e-41
107	0x8000137d	-6.991e-42
108	0xadcbc02c	-2.316377e-11
109	0x00044541	3.92186e-40
110	0x32c3e1ca	2.2803665e-08
111	0x801c0d89	-2.57625e-39
112	0x000033d4	1.8592e-41
113	0x00000840	2.96e-42
114	0x000007e9	2.838e-42
115	0x000547af	4.84893e-40
116	0x800035c1	-1.9283e-41
117	0xadb349e8	-2.0382765e-11
118	0x000220c5	1.95426e-40
119	0x0000291b	1.4746e-41
120	0x80001b96	-9.896e-42
121	0x300d065b	5.1304533e-10
122	0xa27f229f	-3.4577273e-18
123	0x8006a4df	-6.10158e-40
124	0x800467ea	-4.0462e-40
125	0x000056e4	3.117e-41
126	0xae302ea1	-4.005918e-11
127	0xa69f3de0	-1.1049613e-15
128	0x00043b6f	3.88663e-40
129	0x00001b0b	9.701e-42
130	0x00003456	1.8775e-41
131	0x00005ae6	3.2608e-41
132	0x00004b9f	2.7128e-41
133	0x000afd1c	1.009153e-39
134	0x2d5f35c0	1.2688017e-11
135	0xae9af4b1	-7.046575e-11
136	0x02ad152f	2.5432224e-37
137	0x00000f0f	5.402e-42
138	0x000038a4	2.0319e-41
139	0x36a72e70	4.982394e-06
140	0x8003cb84	-3.48514e-40
141	0x2d7d8978	1.4411909e-11
142	0x000041ab	2.3557e-41
143	0x91a6f700	-2.6342408e-28
144	0xae79a7fa	-5.676524e-11
145	0x000373a7	3.16995e-40
146	0x00005761	3.1346e-41
147	0x80005070	-2.8856e-41
148	0x00004c53	2.738e-41
149	0x80077fcd	-6.88695e-40
150	0x334ad604	4.7226436e-08
151	0x1808a226	1.7659452e-24
152	0x80002b9e	-1.5647e-41
153	0xae5ef600	-5.0695448e-11
154	0x00000897	3.081e-42
155	0x8000060e	-2.172e-42
156	0x80000ff7	-5.727e-42
157	0x00001845	8.706e-42
158	0x80039f69	-3.32692e-40
159	0x80003dbb	-2.2145e-41
160	0x80005734	-3.1283e-41
161	0x00000315	1.106e-42
162	0xae9904ce	-6.958488e-11
163	0x80002068	-1.1625e-41
164	0x00004f83	2.8523e-41
165	0x000295b2	2.37372e-40
166	0x800012e6	-6.78e-42
167	0x00005543	3.0586e-41
168	0x00048de9	4.1825e-40
169	0x20ad681b	2.937623e-19
170	0x00006409	3.5886e-41
171	0xae241fb8	-3.7317455e-11
172	0x800060ca	-3.4721e-41
173	0x0000178d	8.448e-42
174	0x28890bd0	1.5215178e-14
175	0x0013b4e8	1.809771e-39
176	0x80003d66	-2.2026e-41
177	0x2e13ade6	3.3578383e-11
178	0x00c71f3c	1.8286469e-38
179	0x2e056223	3.0327862e-11
180	0xadb4dbcc	-2.056124e-11
181	0x000017d0	8.542e-42
182	0x000026dc	1.394e-41
183	0x80003670	-1.9528e-41
184	0x800040dc	-2.3267e-41
185	0x013e51ea	3.495626e-38
186	0x80004617	-2.5143e-41
187	0xb21b7e7e	-9.050948e-09
188	0x80023edc	-2.0622e-40
189	0x2db8acda	2.099514e-11
190	0x238778c8	1.4687882e-17
191	0x0000347a	1.8825e-41
192	0x80002d8f	-1.6343e-41
193	0x00002294	1.2404e-41
194	0x00005878	3.1737e-41
195	0x000768df	6.80469e-40
196	0x000044f5	2.4737e-41
197	0x00065503	5.8151e-40
198	0x2e2cc174	3.9280093e-11
199	0x800013a4	-7.046e-42
200	0x80025cc0	-2.16943e-40
201	0x80005d8a	-3.3555e-41
202	0x0004a420	4.26219e-40
203	0x80003ace	-2.1095e-41
204	0x0038314b	5.160471e-39
205	0x800292e4	-2.36365e-40
206	0x80000b11	-3.97e-42
207	0xae847cea	-6.024854e-11
208	0x80003203	-1.7941e-41
209	0x00002e6b	1.6652e-41
210	0x80058093	-5.05301e-40
211	0x80038f02	-3.26808e-40
212	0x0025032f	3.399055e-39
213	0x3595e620	1.116834e-06
214	0x800018d5	-8.908e-42
215	0x352c69ba	6.4228846e-07
216	0xaea91799	-7.689422e-11
217	0x00002af2	1.5406e-41
218	0x0002f1c0	2.70395e-40
219	0x000050ef	2.9034e-41
220	0x00002155	1.1957e-41
221	0x80003097	-1.7431e-41
222	0x00003c48	2.1625e-41
223	0x800048bd	-2.6094e-41
224	0x80048874	-4.16292e-40
225	0xaeaf64ca	-7.9759824e-11
226	0x00001935	9.043e-42
227	0x0022673d	3.159442e-39
228	0x0000388c	2.0285e-41
229	0x000ba3c1	1.068934e-39
230	0x80003bc9	-2.1447e-41
231	0x8000544d	-3.0241e-41
232	0x800050af	-2.8944e-41
233	0x000501c9	4.59818e-40
234	0xae55de14	-4.8627838e-11
235	0x80003101	-1.7579e-41
236	0x8000238d	-1.2753e-41
237	0x80001bef	-1.002e-41
238	0x800058eb	-3.1898e-41
239	0xb917c09d	-0.00014472236
240	0x8009e976	-9.1027e-40
241	0x80001c20	-1.009e-41
242	0x00003d98	2.2096e-41
243	0x2c571c82	3.0569163e-12
244	0x8000106f	-5.895e-42
245	0x97fb71c4	-1.6249213e-24
246	0xab218369	-5.738106e-13
247	0x80001361	-6.952e-42
248	0x000010d0	6.031e-42
249	0xb086afb6	-9.799723e-10
250	0x80005d28	-3.3418e-41
251	0x00075d44	6.76306e-40
252	0xae3490f1	-4.1055995e-11
253	0x83960a4e	-8.8185735e-37
254	0xb6114cfd	-2.1651497e-06
255	0x194176d4	1.0001863e-23

feat_k_net.0.bias f4 [100]
0	0xae9cd7e0	-7.132406e-11
1	0x8eb5611f	-4.471347e-30
2	0x3e2a4117	0.16626392
3	0x3cbe19c3	0.023205644
4	0x2469552c	5.0595965e-17
5	0x3e1ecb3b	0.15507214
6	0x3df2f289	0.11862666
7	0x3de6f84a	0.11277826
8	0x3dfb8097	0.12280386
9	0x3d97a8ac	0.074052185
10	0x3c7e12c4	0.015507404
11	0x3e56b08d	0.20965786
12	0x3e137f06	0.14403924
13	0xb01d02bd	-5.712016e-10
14	0xb5ac952c	-1.2858413e-06
15	0xb706ebda	-8.041936e-06
16	0xadad4714	-1.9699388e-11
17	0x3ddc0ebe	0.10744999
18	0x3e796cdc	0.24357933
19	0x3daaf032	0.08346595
20	0x3dde2a99	0.108479686
21	0xa034f576	-1.5327809e-19
22	0x3dd8e574	0.1059064
23	0xbc2df125	-0.010616575
24	0x2544c444	1.7066787e-16
25	0x359ab52b	1.1526621e-06
26	0x3d8b2134	0.06793442
27	0x3e4350b7	0.19073759
28	0x8d0da457	-4.3646796e-31
29	0x3d5ff9db	0.05468164
30	0x2aae2b16	3.0938506e-13
31	0x969d1edf	-2.53842e-25
32	0x39dcfbbd	0.0004214923
33	0xa7dc06cf	-6.106965e-15
34	0x3a90cfcb	0.0011048255
35	0x3e0c2d5e	0.13689181
36	0xb26cd748	-1.3785957e-08
37	0x3e0026c6	0.12514791
38	0x981bfdc9	-2.016141e-24
39	0x3dbe2f53	0.0928637
40	0x3e56090a	0.20901886
41	0x3e4d88be	0.20071694
42	0x3c98137a	0.018563975
43	0x8ef4daf7	-6.03615e-30
44	0xbcc25a4c	-0.023724698
45	0xbc3316da	-0.010930741
46	0x135d63f0	2.7943395e-27
47	0x3dc3ab62	0.09554173
48	0x2220bac0	2.1782908e-18
49	0x2fc7f226	3.6369946e-10
50	0x3db056b2	0.08610286
51	0x18aafb0a	4.4197455e-24
52	0x3e21fb55	0.15818532
53	0xb47aa4ef	-2.3343067e-07
54	0x3d318ffb	0.0433502
55	0x8e1d2f2a	-1.9374453e-30
56	0x8eb6aa20	-4.503029e-30
57	0x99b4771d	-1.8659673e-23
58	0xbac2363d	-0.001481719
59	0xbc17e799	-0.009271526
60	0xa908658c	-3.0286144e-14
61	0x3df2f577	0.11863225
62	0x3e3049f3	0.1721571
63	0xa286a9ee	-3.6500693e-18
64	0x3b9f9bb8	0.004870858
65	0x39c6eebc	0.00037943374
66	0x3d7af979	0.061273072
67	0x3da75cf8	0.08172029
68	0x9949f2ad	-1.04404644e-23
69	0xb42a0496	-1.5834152e-07
70	0xa418788d	-3.3061857e-17
71	0x2d53d925	1.2042177e-11
72	0xad04482f	-7.519359e-12
73	0xbcdb811e	-0.026794966
74	0x2edd25be	1.0056621e-10
75	0x3d707dfb	0.058713894
76	0x2bf86fb6	1.7652466e-12
77	0x3b0882e4	0.002082997
78	0x3deabfa5	0.114623345
79	0x9e3b0a88	-9.901875e-21
80	0x3e2a9057	0.16656624
81	0x3d988a91	0.074483044
82	0xb624a19b	-2.453197e-06
83	0x12fc57ee	1.5925112e-27
84	0x3e500409	0.2031404
85	0x3d169afb	0.036768895
86	0x3dec3548	0.115336
87	0x3e5fbf14	0.21850234
88	0xb83ca8f3	-4.498004e-05
89	0xa1a79aba	-1.1357316e-18
90	0x9faef739	-7.410086e-20
91	0x940458cc	-6.681809e-27
92	0x96905119	-2.3315635e-25
93	0x9102d4b6	-1.0320738e-28
94	0x9c16bfea	-4.987888e-22
95	0xb1c373a0	-5.688392e-09
96	0x3da433c7	0.08017688
97	0xbbab84ab	-0.005234321
98	0x9d85af42	-3.538602e-21
99	0x8db07fd7	-1.0877614e-30

feat_k_net.2.weight f4 [1, 100]
0	0x2e8a64e7	6.293437e-11
1	0x0ee260d0	5.580653e-30
2	0x3ebeaf36	0.3724305
3	0x3d8511de	0.064975485
4	0x247b3be0	5.4477665e-17
5	0x3edeea79	0.43538263
6	0x3eb84b4b	0.35994944
7	0x3eae92f9	0.34096506
8	0x3eac8159	0.33692434
9	0x3e5842f5	0.21119292
10	0x3d3bb3ec	0.045825884
11	0x3f12f12a	0.5739924
12	0x3ea2b56b	0.31779036
13	0xb118cc2c	-2.223497e-09
14	0xb6a1912a	-4.815073e-06
15	0xb74ae8fb	-1.2094383e-05
16	0x31b1ce98	5.174865e-09
17	0x3eac79e3	0.33686742
18	0x3f05e6d1	0.5230532
19	0x3e5191c6	0.20465764
20	0x3eada641	0.33915904
21	0x221fb57b	2.1644593e-18
22	0x3ea91f27	0.3303158
23	0x3c0d290e	0.008615745
24	0x2781e590	3.6053585e-15
25	0x37674c0b	1.3786378e-05
26	0x3e18bb3c	0.14915174
27	0x3ecf6c48	0.405123
28	0x8cb6ff8a	-2.8195337e-31
29	0x3e15dabd	0.14634223
30	0x2c9134d2	4.127012e-12
31	0x96bc1981	-3.0389133e-25
32	0x3aa8740a	0.0012851965
33	0xa7f06cfa	-6.6731534e-15
34	0x3b7af2ba	0.003829165
35	0x3eeeaf94	0.4661833
36	0x328182e4	1.5077099e-08
37	0x3eac803d	0.33691588
38	0x1845924c	2.5535514e-24
39	0x3e87ab82	0.26498038
40	0x3f0f77e1	0.56042296
41	0x3eda896e	0.42682976
42	0x3d5ef92b	0.054436844
43	0x8fcbbe89	-2.0090737e-29
44	0xbe6bad24	-0.23015267
45	0xbdd907e9	-0.10597212
46	0x15faa83f	1.0123964e-25
47	0x3e930c22	0.28720194
48	0x24f6c9e4	1.0702751e-16
49	0x327154a3	1.404729e-08
50	0x3e5c1a49	0.21494402
51	0x1a5fa19e	4.6245872e-23
52	0x3ee9753c	0.45597255
53	0xb5623005	-8.426144e-07
54	0x3e03d42f	0.1287391
55	0x0f2c2a96	8.4884565e-30
56	0x0f7847a7	1.2241144e-29
57	0x9afe5796	-1.0519344e-22
58	0xbbf8e11c	-0.0075951945
59	0xbdb7e02a	-0.08978303
60	0x28e8efee	2.5861227e-14
61	0x3eb649cb	0.35603175
62	0x3ecedc0d	0.4040226
63	0x23da9ecc	2.370286e-17
64	0x3c7bb1b0	0.015362188
65	0x3ac8a165	0.0015306888
66	0x3e0c572a	0.13705125
67	0x3e809154	0.25110877
68	0x1a405ed3	3.9781268e-23
69	0xb4de3572	-4.138961e-07
70	0x24a75a35	7.257752e-17
71	0x2efb4f39	1.1428231e-10
72	0x2f2ac194	1.5530183e-10
73	0xbe811ac0	-0.2521572
74	0x3081018c	9.386425e-10
75	0x3e1505ad	0.14552946
76	0x2d2e8771	9.920829e-12
77	0x3bc1187e	0.0058928123
78	0x3eb25eee	0.3483805
79	0x1f50f712	4.4250085e-20
80	0x3ed6ee44	0.41978657
81	0x3e57aeeb	0.2106282
82	0xb79c50d4	-1.8634288e-05
83	0x12950cbf	9.406364e-28
84	0x3ee3d66c	0.44499528
85	0x3dc36f32	0.09542693
86	0x3eb8d7c2	0.3610211
87	0x3eea1ef3	0.45726737
88	0x38a385aa	7.7973426e-05
89	0xa24e4398	-2.795399e-18
90	0x20d4b7a2	3.6035715e-19
91	0x93960292	-3.7867858e-27
92	0x18689845	3.0062174e-24
93	0x12b9d67a	1.1728014e-27
94	0x1cec0943	1.5619564e-21
95	0x36529df8	3.1384388e-06
96	0x3e79eac8	0.24405968
97	0x3b1000bf	0.00219731
98	0x1e060415	7.094745e-21
99	0x0dd48f95	1.3100075e-30

feat_lam_net.0.weight f4 [100, 1080]
0	0xb8c27afe	-9.27355e-05
1	0x00005780	3.1389e-41
2	0x80004b96	-2.7115e-41
3	0x80002d8f	-1.6343e-41
4	0x80002944	-1.4803e-41
5	0x80005eaa	-3.3959e-41
6	0x00000bcd	4.233e-42
7	0x80003ee5	-2.2562e-41
8	0x00020d75	1.88498e-40
9	0x37ec1238	2.8141876e-05
10	0x000b1c1f	1.020278e-39
11	0x80000fd4	-5.678e-42
12	0x00002866	1.4492e-41
13	0x80000812	-2.895e-42
14	0x000029cb	1.4992e-41
15	0x800020a7	-1.1713e-41
16	0x80003f3a	-2.2681e-41
17	0x800041a9	-2.3554e-41
18	0xb832cc4c	-4.2628773e-05
19	0x80440990	-6.248244e-39
20	0x000035ae	1.9257e-41
21	0x80000bc4	-4.221e-42
22	0x00a476dd	1.5103661e-38
23	0x80005bad	-3.2887e-41
24	0xaa58f4ea	-1.9269626e-13
25	0x00001fc1	1.1391e-41
26	0x9d85ec86	-3.5449366e-21
27	0x3855e596	5.0996976e-05
28	0x2a1e6c34	1.407076e-13
29	0x01c8b9de	7.3735103e-38
30	0x8abc7a88	-1.8149833e-32
31	0x00005ac2	3.2558e-41
32	0x1fb19ca3	7.522155e-20
33	0x80030d6d	-2.80323e-40
34	0x00002493	1.312e-41
35	0x00021e6c	1.94584e-40
36	0x3828902c	4.018859e-05
37	0x00001707	8.26e-42
38	0x80004045	-2.3056e-41
39	0x000044e0	2.4708e-41
40	0x0000256e	1.3427e-41
41	0x00005893	3.1774e-41
42	0x8000465d	-2.5242e-41
43	0x0844165d	5.9007892e-34
44	0x8000023e	-8.04e-43
45	0x38fd5335	0.000120794786
46	0x800029a6	-1.494e-41
47	0x80002690	-1.3834e-41
48	0x80001fd0	-1.1412e-41
49	0x00003eb8	2.2499e-41
50	0x00000214	7.45e-43
51	0x8006893c	-6.00243e-40
52	0x800bc220	-1.07983e-39
53	0x00002263	1.2336e-41
54	0x38de2125	0.000105919586
55	0x80002987	-1.4897e-41
56	0x000040c7	2.3238e-41
57	0x00003cf5	2.1867e-41
58	0x800019ee	-9.302e-42
59	0x8004ced6	-4.41541e-40
60	0x00000181	5.4e-43
61	0x80285883	-3.705172e-39
62	0x8c4d8813	-1.5833574e-31
63	0x3871929c	5.759542e-05
64	0x8000019c	-5.77e-43
65	0x00001965	9.11e-42
66	0x00002b0e	1.5445e-41
67	0x80001419	-7.21e-42
68	0x00004c8e	2.7463e-41
69	0x000a489e	9.44405e-40
70	0x19afd541	1.8180708e-23
71	0xb67cada8	-3.7652007e-06
72	0x38587e7b	5.1616207e-05
73	0x00005b08	3.2656e-41
74	0x80003840	-2.0179e-41
75	0x8002ac73	-2.45534e-40
76	0x800537b8	-4.79166e-40
77	0x00030379	2.76752e-40
78	0x80069b1f	-6.0666e-40
79	0x80003c57	-2.1646e-41
80	0x80001903	-8.973e-42
81	0x382ca459	4.1161056e-05
82	0x800002f1	-1.055e-42
83	0x80003e30	-2.2309e-41
84	0x80161aca	-2.029991e-39
85	0x8002a9dd	-2.44606e-40
86	0x00000d62	4.801e-42
87	0x00001480	7.354e-42
88	0x0002b2df	2.47838e-40
89	0x800057b1	-3.1458e-41
90	0x381c2269	3.7225345e-05
91	0x8000486b	-2.5979e-41
92	0x80102a89	-1.484627e-39
93	0xb46a3a70	-2.1814208e-07
94	0x000020c4	1.1754e-41
95	0x00405e12	5.911218e-39
96	0x8013c047	-1.81385e-39
97	0x8001e190	-1.72752e-40
98	0x000b4c76	1.03762e-39
99	0x3885d211	6.381062e-05
100	0x00028c55	2.34013e-40
101	0x80127683	-1.695553e-39
102	0x003af781	5.415246e-39
103	0x919684ff	-2.3747792e-28
104	0x80073fd4	-6.65746e-40
105	0x80005baa	-3.2883e-41
106	0x00005348	2.9876e-41
107	0x800021e8	-1.2163e-41
108	0x37faa23a	2.9877865e-05
109	0x800029c7	-1.4987e-41
110	0x000033ce	1.8584e-41
111	0x00177455	2.153948e-39
112	0xa64a3827	-7.015893e-16
113	0x91b9382f	-2.922248e-28
114	0x00001a32	9.397e-42
115	0x801f129a	-2.853573e-39
116	0x00004be3	2.7223e-41
117	0xb63acd88	-2.7835795e-06
118	0x800004c5	-1.711e-42
119	0x0d895498	8.463642e-31
120	0x378f6228	1.7092636e-05
121	0x8000299e	-1.493e-41
122	0x0246b744	1.4599337e-37
123	0x26e209db	1.5684572e-15
124	0x00002802	1.4352e-41
125	0x8004701f	-4.07563e-40
126	0xb856fe15	-5.125821e-05
127	0x00002069	1.1627e-41
128	0x00004005	2.2966e-41
129	0x19522360	1.08638895e-23
130	0x800025b1	-1.3521e-41
131	0x0000397c	2.0622e-41
132	0x3527c174	6.249386e-07
133	0x800055fd	-3.0847e-41
134	0x800025be	-1.354e-41
135	0xb91fe56b	-0.00015248886
136	0x8000451e	-2.4795e-41
137	0x00004979	2.6357e-41
138	0x000270e0	2.24163e-40
139	0x80002faa	-1.7099e-41
140	0x80279be4	-3.637507e-39
141	0x00035850	3.07187e-40
142	0x00032e5a	2.92134e-40
143	0x00000db3	4.914e-42
144	0x381a8921	3.6844172e-05
145	0x00002027	1.1534e-41
146	0x80002658	-1.3755e-41
147	0x80005b50	-3.2757e-41
148	0x80000c27	-4.36e-42
149	0x80001cfe	-1.04e-41
150	0x80004e96	-2.8191e-41
151	0x00000264	8.58e-43
152	0x00002085	1.1666e-41
153	0x38de26e8	0.00010593032
154	0x8002538f	-2.13646e-40
155	0x0000220a	1.2211e-41
156	0x00023f9e	2.06493e-40
157	0x80002e5e	-1.6633e-41
158	0x80001d3c	-1.0487e-41
159	0x0000347b	1.8826e-41
160	0x0003bbd1	3.42882e-40
161	0x800d1b07	-1.203557e-39
162	0x37fb3065	2.9944067e-05
163	0x880fb63f	-4.3246726e-34
164	0xae69f18c	-5.3192603e-11
165	0x00001304	6.822e-42
166	0x80037cdd	-3.20299e-40
167	0x0000167a	8.063e-42
168	0x00000969	3.376e-42
169	0x800036af	-1.9617e-41
170	0x80003fc3	-2.2873e-41
171	0xb84948b5	-4.7989848e-05
172	0x0073986a	1.0615758e-38
173	0x000045c8	2.5033e-41
174	0x8000111d	-6.139e-42
175	0x021df0b6	1.1603619e-37
176	0x8002440f	-2.08086e-40
177	0x80003d86	-2.207e-41
178	0x00001048	5.84e-42
179	0x00004358	2.4158e-41
180	0x37e61612	2.7428414e-05
181	0x8002f55b	-2.71688e-40
182	0x80005e57	-3.3843e-41
183	0x00000a77	3.754e-42
184	0x800030b7	-1.7476e-41
185	0x0000607c	3.4612e-41
186	0x00003657	1.9493e-41
187	0x334d7b98	4.784269e-08
188	0x000c25db	1.115606e-39
189	0x3954ad4c	0.00020282454
190	0x80003002	-1.7222e-41
191	0x80215de4	-3.064253e-39
192	0x00002ad0	1.5358e-41
193	0x8701ed12	-9.77455e-35
194	0x0000279d	1.421e-41
195	0x97e84620	-1.5010351e-24
196	0x0000503c	2.8783e-41
197	0x333d8e37	4.4134335e-08
198	0x382eda37	4.168806e-05
199	0x80034693	-3.00824e-40
200	0x00003ccf	2.1814e-41
201	0x8000112d	-6.162e-42
202	0x00005417	3.0166e-41
203	0x80003d11	-2.1906e-41
204	0x800017bf	-8.518e-42
205	0x000001ba	6.2e-43
206	0x0014c2be	1.90657e-39
207	0x38ef5b22	0.00011413383
208	0xb85f5b84	-5.3252574e-05
209	0x800019e1	-9.284e-42
210	0x0000007b	1.72e-43
211	0xac6c3665	-3.3567812e-12
212	0x0002eec2	2.69321e-40
213	0x80004afc	-2.69e-41
214	0x00004515	2.4782e-41
215	0x80003f18	-2.2634e-41
216	0x37de4df8	2.650077e-05
217	0x80002db9	-1.6402e-41
218	0xac879436	-3.8533855e-12
219	0x2ca12005	4.57945e-12
220	0x000027f5	1.4334e-41
221	0x800004c0	-1.704e-42
222	0x000012dd	6.767e-42
223	0x2a82befc	2.322516e-13
224	0x80001511	-7.557e-42
225	0x38166099	3.585275e-05
226	0x00004775	2.5634e-41
227	0x00000f90	5.583e-42
228	0x03316e40	5.2142186e-37
229	0x30a10004	1.1714296e-09
230	0x2cdd95ac	6.2978147e-12
231	0x80043801	-3.87432e-40
232	0xb0edb063	-1.7294152e-09
233	0x800018d4	-8.907e-42
234	0x379aef1f	1.846958e-05
235	0x80718d4d	-1.04281e-38
236	0x00002afd	1.5421e-41
237	0x800057cd	-3.1497e-41
238	0xb2e843df	-2.7039219e-08
239	0x00001a1e	9.369e-42
240	0x80438bfe	-6.203198e-39
241	0x00005a1d	3.2327e-41
242	0x80eafc14	-2.1579935e-38
243	0x390c8770	0.00013401895
244	0x000038d6	2.0389e-41
245	0x151c7128	3.1593214e-26
246	0x00004fd5	2.8638e-41
247	0x00002d1f	1.6186e-41
248	0x000001f9	7.08e-43
249	0x00002598	1.3486e-41
250	0x00002d5a	1.6269e-41
251	0x000348b1	3.01583e-40
252	0xb5052100	-4.959438e-07
253	0x8003f3a0	-3.62903e-40
254	0x800012c1	-6.728e-42
255	0x8000025c	-8.46e-43

feat_lam_net.0.bias f4 [100]
0	0xb98dbfbc	-0.0002703647
1	0xb935ff3f	-0.00017356592
2	0xb911188c	-0.00013837422
3	0xb071326d	-8.774695e-10
4	0xbbb2c43d	-0.0054555223
5	0xb67ec8fc	-3.7965938e-06
6	0xbdb2d399	-0.08731765
7	0x3dc775df	0.09739279
8	0xb65f35f0	-3.3260985e-06
9	0x3c14417b	0.009048815
10	0x2ff32b4e	4.4232212e-10
11	0x3c272895	0.010202547
12	0xb8185d85	-3.632672e-05
13	0xbbc3756f	-0.005964927
14	0xb65b2efb	-3.266089e-06
15	0x3c8aea8a	0.01695754
16	0xafe0bceb	-4.0879597e-10
17	0x3943d589	0.00018676197
18	0xbd6046b2	-0.05475492
19	0xb5bc4a1b	-1.4028659e-06
20	0xbc4c55cd	-0.012471628
21	0x3c93eb45	0.018056521
22	0xbd2f8498	-0.04285106
23	0xbb3857ee	-0.0028128582
24	0xbc56cb4f	-0.013109996
25	0x31839eb7	3.8306456e-09
26	0xb2b6051b	-2.118991e-08
27	0xb766bf7d	-1.3753653e-05
28	0xb44a776b	-1.885616e-07
29	0xb680e92f	-3.8418434e-06
30	0xbc2ab6ba	-0.010419542
31	0xbc07c23e	-0.008286057
32	0xba2c9edd	-0.0006584952
33	0x3aef1a80	0.001824215
34	0xbaa0b10a	-0.0012259793
35	0xb9861d26	-0.0002558019
36	0x3c2a2be5	0.010386442
37	0xb81add34	-3.6922473e-05
38	0xb359a315	-5.0672572e-08
39	0xb89cdc23	-7.479663e-05
40	0xbd5c7385	-0.053821106
41	0xb9042801	-0.00012603404
42	0xb7b4e302	-2.156338e-05
43	0xbc3a2c6d	-0.011363131
44	0xbdcd9773	-0.10038652
45	0xb51aa5c5	-5.7610697e-07
46	0xb4971f4d	-2.8148716e-07
47	0xb881bf3f	-6.186822e-05
48	0x3b8ece4e	0.0043580895
49	0xba6abb7f	-0.00089543307
50	0xbd781051	-0.060562436
51	0xb4a56370	-3.0805995e-07
52	0xb70d402e	-8.419198e-06
53	0xb72e2ad2	-1.0381178e-05
54	0xb5473fd2	-7.422615e-07
55	0xbbea5580	-0.0071513057
56	0xabed2c13	-1.6852096e-12
57	0xb5599b06	-8.106439e-07
58	0xb22b328c	-9.965003e-09
59	0xbbca80e6	-0.0061799167
60	0xbd947660	-0.07249141
61	0x3b06193f	0.0020461825
62	0xbcd2625c	-0.025681667
63	0x3bf5f05f	0.007505461
64	0xbd177b33	-0.036982726
65	0xbd54bafa	-0.051936127
66	0xb8d4a8a7	-0.00010140362
67	0xb699df86	-4.585777e-06
68	0xafca4296	-3.6790898e-10
69	0x31ac6d2f	5.0182716e-09
70	0xbb5ea365	-0.0033971902
71	0xbca73208	-0.020409599
72	0x3945893b	0.00018838506
73	0xb2172c13	-8.799378e-09
74	0xba0556fa	-0.0005086508
75	0x3c514edb	0.012775148
76	0xbbc8d348	-0.0061287023
77	0xb4f15bb6	-4.4956477e-07
78	0xbcfbb72f	-0.030726997
79	0xb5dc6ea2	-1.6423476e-06
80	0x3d291992	0.04128415
81	0xbc0d07e7	-0.008607841
82	0xb12a4b6a	-2.4781124e-09
83	0xb93e01a1	-0.00018120419
84	0xb695415b	-4.4481544e-06
85	0x3c23c854	0.009996492
86	0xb1b215d0	-5.1829616e-09
87	0xbd192bc2	-0.037395246
88	0xbb0cb555	-0.0021470387
89	0xbc813fb6	-0.01577745
90	0xb8909e51	-6.895944e-05
91	0xbcaf7fd4	-0.021423258
92	0xbbe4852b	-0.0069738827
93	0xbbb25286	-0.0054419665
94	0xb41e749e	-1.4757322e-07
95	0xb2f83211	-2.8893767e-08
96	0xbbc1b73d	-0.0059117363
97	0xb4aee321	-3.2575284e-07
98	0xb1b363c5	-5.220928e-09
99	0xb7a40d5d	-1.9556546e-05

feat_lam_net.2.weight f4 [1, 100]
0	0xb8b504e0	-8.6316606e-05
1	0x3966307b	0.0002195257
2	0x380e637d	3.3948094e-05
3	0x30dbaea6	1.5983985e-09
4	0xbe344abb	-0.17606632
5	0x3752b282	1.25585375e-05
6	0x3e8679c3	0.26264772
7	0xbee47b49	-0.4462531
8	0x35f09069	1.7923422e-06
9	0xbe150848	-0.1455394
10	0x3206a28d	7.836786e-09
11	0xbe644e37	-0.22295462
12	0xb6d7792f	-6.421607e-06
13	0xbdd4bb36	-0.1038727
14	0x358dbab3	1.0559655e-06
15	0xbde0f3ba	-0.10983987
16	0x2ffa2618	4.5501802e-10
17	0xbcb366f2	-0.021899674
18	0x3ed79023	0.42102155
19	0x35197ec0	5.7181387e-07
20	0x3e35201f	0.17688034
21	0xbdeb168b	-0.11478909
22	0x3ec3464b	0.38139567
23	0xbb797054	-0.0038061338
24	0xbb08906c	-0.0020838035
25	0x31d1be60	6.1043437e-09
26	0x31246346	2.3921571e-09
27	0x359ed372	1.1833456e-06
28	0x32e62e55	2.6796593e-08
29	0x3571d8e4	9.0095114e-07
30	0x3b2be049	0.0026226214
31	0xbdb83d94	-0.0899612
32	0x37aa8332	2.0326672e-05
33	0xbdec6e81	-0.115445144
34	0x39728b45	0.000231308
35	0x3c34e24d	0.011040282
36	0xbe06e3ce	-0.13172838
37	0xb5e84e0f	-1.7308065e-06
38	0xb29f9f32	-1.858243e-08
39	0xb7ab4d83	-2.0420883e-05
40	0x3e6ad0dd	0.22931238
41	0x37d459dc	2.5314213e-05
42	0xb58da472	-1.0553179e-06
43	0xbdcc1474	-0.099648386
44	0x3ec10858	0.37701678
45	0x3469daa0	2.1779351e-07
46	0xb2c07606	-2.2405413e-08
47	0x37541f24	1.2643435e-05
48	0xbe0a130b	-0.13483827
49	0xba97d94f	-0.0011585149
50	0x3e1f5714	0.15560561
51	0xb3b18a2d	-8.267339e-08
52	0x367a6026	3.7308869e-06
53	0xb64a4e70	-3.0146002e-06
54	0x35418d53	7.2103757e-07
55	0xbc8b88c0	-0.01703298
56	0xa928e024	-3.7497905e-14
57	0xb3fda103	-1.18105184e-07
58	0xb1790303	-3.623598e-09
59	0x3eb6c9f4	0.35700953
60	0x3e001cdd	0.1251101
61	0xbd05e825	-0.032692093
62	0xbe514125	-0.20435007
63	0xbea240a2	-0.31689936
64	0xbe8c8b32	-0.27449948
65	0x3e4e1203	0.20124058
66	0xb81ddccc	-3.763735e-05
67	0xb503e8c2	-4.914001e-07
68	0x2f26ed03	1.5181816e-10
69	0x31fd27fb	7.3678144e-09
70	0x3b3ee1cf	0.0029126292
71	0xbed8c64e	-0.42338794
72	0xbcc54132	-0.02407894
73	0x31941333	4.3095496e-09
74	0xb70dd00f	-8.452697e-06
75	0x3ee96681	0.45586017
76	0xbd09fdb6	-0.033689223
77	0x3583fa63	9.833133e-07
78	0x3e1293c5	0.14314182
79	0x3578df49	9.271212e-07
80	0xbe884f1c	-0.26622856
81	0x3b8c9905	0.0042907023
82	0x301672c8	5.4732796e-10
83	0xb8c7ac45	-9.521147e-05
84	0x360eab2c	2.1259284e-06
85	0xbe29521f	-0.16535233
86	0x30411319	7.024013e-10
87	0x3deb3e83	0.114865325
88	0xbea02283	-0.3127633
89	0x3c104365	0.008805131
90	0xb7ae0902	-2.0746611e-05
91	0x3d9af067	0.07565384
92	0xbe53bddb	-0.20677893
93	0xbdbf61ec	-0.09344849
94	0x332ba73a	3.996613e-08
95	0xb0ca2416	-1.4707691e-09
96	0xbe2b74cf	-0.16743778
97	0x343654dc	1.6980943e-07
98	0xafd88d43	-3.9390544e-10
99	0xb73ce992	-1.12600555e-05
