experiments/konrad/saved_models/online_expanding/weibull/model_step_9.pt (torch, 890518 bytes, 15 tensors)

A_gate f4 [9]
2.4958402e-10 2.1940014e-20 0.11340957 1.1256282e-10 7.6492816e-20 0.16952516 -2.186202e-10 -3.751449e-20
0.15031631
00000000: d435 892f b337 cf1e 4743 e83d 3c87 f72e
00000010: 129d b41f 0198 2d3e 1e60 70af 3c28 319f
00000020: 85ec 193e

B_gate f4 [120]
6.9309405e-11 4.238e-42 1.3207e-41 -0.04775301 -3.481e-42 -1.1283e-41 -1.0044763e-20 -7.4885705e-12
-1.9237e-41 1.607102e-10 3.2213e-41 2.148e-42 -0.023858313 1.7024898e-15 1.8674e-41 -2.4828194e-20
2.9317097e-11 -2.7644853e-14 4.4472568e-11 -1.6775e-41 9.326e-42 -0.065610506 -2.5501e-41 1.5477e-41
-3.7712905e-21 -1.0326e-41 -2.27e-42 -4.1879566e-11 1.0915e-41 1.3338e-41 -0.079656474 -3.118e-41
-3.8847e-41 -1.3651742e-20 3.0618e-41 2.1336e-41 1.6486616e-11 -1.7552624e-19 -2.7356e-41 -0.060882874
-2.2145e-41 -9.602e-42 -2.2538502e-20 1.5158e-41 9.42e-42 4.9442814e-11 -1.3052e-41 -9.393e-42
-0.043384723 -1.2054763e-36 -9.781e-42 -2.4558315e-20 7.8148696e-11 2.0254e-41 -4.295011e-11 -2.122e-42
1.4915e-41 -0.058795128 -4.2740997e-33 7.895e-42 -1.7301247e-20 3.2705e-41 6.903e-42 -6.2500054e-11
5.507e-42 1.1921e-41 -0.024828168 9.817e-42 -8.137e-42 1.2475711e-20 -3.101725e-33 -2.0134e-41
1.2881083e-11 -5.2337647e-16 -3.0524894e-33 -0.07638201 2.9332e-41 -1.6715e-41 -2.1664765e-20 2.707e-42
5.9e-44 -6.439184e-11 1.9208e-41 3.1074e-41 -0.03385905 -8e-45 1.6495e-41 -1.630525e-20
2.8659708e-10 -1.6003e-41 -1.2484517e-09 6.0520642e-06 6.918e-42 -0.09574407 1.7314e-41 -1.839e-42
-1.2641097e-20 1.1816e-41 -2.9087547e-05 -5.7407287e-11 -2.6599497e-16 2.2948e-41 -0.096385606 -8.22e-42
1.6210222e-08 -3.639841e-20 -2.4734e-41 -5.982e-42 2.5483563e-11 -2.1214e-41 -2.9396e-41 -0.09850438
3.3193e-41 -6.097e-42 -1.9353727e-20 -4.287e-42 6.568e-42 -9.3494976e-11 3.4539194e-12 -2.8577326e-33
00000000: ba69 982e d00b 0000 d124 0000 a998 43bd
00000010: b409 0080 741f 0080 7ebd 3d9e 86bd 03ad
00000020: a035 0080 e6b3 302f cc59 0000 fd05 0000
00000030: 8272 c3bc ca5a f526 0e34 0000 e47e ea9e
00000040: 1ef0 002e b100 f9a8 a997 432e c32e 0080
00000050: ff19 0000 cd5e 86bd 1647 0080 252b 0000
00000060: af79 8e9d c91c 0080 5406 0080 3330 38ae
00000070: 6d1e 0000 2e25 0000 ef22 a3bd eb56 0080
00000080: 4a6c 0080 e3ef 809e 5a55 0000 7a3b 0000
00000090: 8f04 912d 8d39 4fa0 424c 0080 5260 79bd
000000a0: bb3d 0080 c41a 0080 c1de d49e 412a 0000
000000b0: 421a 0000 a973 592e 6224 0080 2f1a 0080
000000c0: 2eb4 31bd e619 cd83 441b 0080 5df2 e79e
000000d0: ced9 ab2e 7638 0000 86e5 3cae ea05 0080
000000e0: 9429 0000 29d3 70bd 068a b189 0216 0000
000000f0: d967 a39e 2b5b 0000 3e13 0000 6770 89ae
00000100: 5a0f 0000 3b21 0000 7164 cbbc 5e1b 0000
00000110: af16 0080 d6a8 6b1e 33d7 8089 2038 0080
00000120: 3e9b 622d 5eda 16a6 4597 7d89 2c6e 9cbd
00000130: c451 0000 982e 0080 309e cc9e 8c07 0000
00000140: 2a00 0000 6299 8dae 8b35 0000 9f56 0000
00000150: caaf 0abd 0600 0080 fb2d 0000 adff 999e
00000160: f48e 9d2f 9c2c 0080 fd95 abb0 d612 cb36
00000170: 4913 0000 7815 c4bd 4430 0000 2005 0080
00000180: 98c8 6e9e f020 0000 0801 f4b7 dc7a 7cae
00000190: ee55 99a5 f83f 0000 d165 c5bd ea16 0080
000001a0: a83e 8b32 fae2 2b9f f344 0080 ad10 0080
000001b0: e227 e02d 233b 0080 f251 0080 aabc c9bd
000001c0: 875c 0000 ff10 0080 71ca b69e f30b 0080
000001d0: 4f12 0000 fe98 cdae 480c 732c 4069 6d89

ar_gate_lin.weight f4 [1, 64]
0.07718729 -0.084858336 0.020278824 -0.115432546 0.0838271 -0.01555399 -0.01252416 -0.015913721
0.04547456 0.05797455 -0.09833676 0.07833222 0.049746603 0.05633179 0.06409921 -0.031223094
-0.012393847 -0.041151688 0.01194195 -0.058363885 0.05163992 -0.02406674 0.05277946 0.09200734
0.19094507 -0.023824252 -0.08387421 0.018676624 -0.038294304 0.070713885 0.016415374 -0.07719815
-0.076668106 0.0396991 -0.057295274 0.027086502 -0.008840087 -0.032828875 0.018429797 0.02221165
-0.04979638 0.06744864 -0.0032213675 -0.067291826 0.016570423 0.0035125676 0.13615498 -0.01625957
0.066107236 -0.020358004 -0.0015448242 0.005494863 0.017371338 0.03591856 -0.04390871 0.026155196
-0.051381174 0.10768353 0.0052356822 0.08514986 -0.0047008153 0.00923774 -0.033419386 0.11003219
00000000: 5f14 9e3d 35ca adbd c71f a63c e667 ecbd
00000010: 8bad ab3d 2ad6 7ebc 2232 4dbc 7e5d 82bc
00000020: 8843 3a3d b976 6d3d c964 c9bd a56c a03d
00000030: 18c3 4b3d 2abc 663d 7246 833d 93c7 ffbc
00000040: 900f 4bbc ac8e 28bd 2ba8 433c f80e 6fbd
00000050: 6184 533d 9d27 c5bc 462f 583d 586e bc3d
00000060: 1b87 433e 142b c3bc 3ec6 abbd b8ff 983c
00000070: 7dda 1cbd 71d2 903d 8979 863c 101a 9ebd
00000080: 2b04 9dbd 869b 223d 73ae 6abd 83e4 dd3c
00000090: 03d6 10bc 9277 06bd 16fa 963c 35f5 b53c
000000a0: 4af7 4bbd 8322 8a3d 941d 53bb 4cd0 89bd
000000b0: b2be 873c 1b33 663b 366c 0b3e ca32 85bc
000000c0: 3b63 873d d4c5 a6bc b37b caba 400e b43b
000000d0: 564e 8e3c 571f 133d 9fd9 33bd 6c43 d63c
000000e0: 1175 52bd 2f89 dc3d 1690 ab3b 0d63 ae3d
000000f0: 4c09 9abb e459 173c c4e2 08bd 8f58 e13d

ar_k_net.0.weight f4 [32, 64]
0.002267529 0.02994849 -0.006001881 -0.007363825 -0.008097016 -0.0048446353 -0.0057817204 0.012583362
-0.002438998 -0.0006865432 -0.0005596592 0.001351134 0.010537092 0.004599197 0.006565041 0.00063950627
0.010408905 0.010568368 0.014366743 0.0064679296 -0.011039389 0.0023037798 -0.0057755336 -0.0014221322
-0.0086993 -0.0014511263 -0.007796407 0.004132365 -0.010983995 -0.009775044 -0.014074621 -0.013851657
0.019065425 0.018439721 0.005074637 -0.0035474868 -0.013045432 -0.012221026 -0.009570692 -0.00898635
0.0051063304 0.022302317 0.0020317219 -0.0112645 -0.0123286275 -0.012944394 -0.011689113 -0.013140727
-0.0084638465 -0.008659424 -0.0063185543 -0.002418441 0.01061136 -0.0011466948 -0.008838215 0.0035896166
0.009950779 -0.008924493 -0.0034041158 -0.010552749 -0.010774913 -0.009781272 -0.010739985 0.0055197636
0.08129223 -0.056765355 0.06953121 0.03581939 0.016148608 0.05476047 -0.00017545145 -0.04471727
0.034275364 0.07389394 0.0056692846 0.012143712 -0.0040812334 0.012906513 0.037470605 -0.010337216
-0.031819746 -0.00010583481 0.018684475 0.050561536 0.060886096 -0.027945593 0.085126236 0.035916515
-0.0016752762 0.08781522 0.055503692 0.05026381 0.059696272 0.057822723 0.1200908 0.006182955
-0.06941127 -0.017541988 0.012855094 0.039666284 0.06227346 -0.08868788 -0.004486965 0.08843021
0.06509615 -0.0037127072 0.034007378 -0.045453012 0.08204758 -0.01090349 0.0377547 0.0703706
0.006765001 0.022271287 0.06847312 0.09660329 0.008453357 0.010156022 0.064711355 0.025915304
0.029382607 0.050514273 0.020373972 0.08914592 0.060331598 0.107520476 0.051292907 -0.008555324
-0.0013070307 0.013316795 -0.004114642 -0.0013983997 0.0007439518 -0.0020329307 0.00012019416 0.0065233815
-0.0007585266 -0.003097012 0.0022037318 0.0036947438 0.004668273 0.0011634118 0.0016150717 0.0017182488
0.0072021927 0.004195578 0.0011470238 -0.0011901499 -0.0043087834 0.004548355 -0.0056323945 0.001961522
-0.0026751233 -0.00275108 -0.0018128313 0.0013495749 -0.0010740743 -0.0040054047 -0.008071406 -0.00024021878
0.009997806 0.006785961 0.0025873606 0.0015031551 -0.0049613076 0.016609577 -0.004358288 -0.009072031
-6.5016975e-06 0.0075427485 -0.00329017 0.003068847 -0.0052268733 0.0028311897 -0.0014623868 -0.003704524
0.0044867694 -0.0074592466 -0.0038651847 -0.004684251 0.004361636 0.005814696 -0.00075937016 -9.6763426e-05
0.0024308946 -0.0036662288 -0.0063980673 -0.008192976 -0.003593812 -0.0046568005 -0.008664933 -0.0004821605
-0.0031551784 -0.0007791589 -0.0012706306 0.0013446648 0.0037584696 0.0003470537 0.002232345 -0.0005874978
-0.00023907918 -0.0008308097 0.0010753112 0.0005458999 -0.0020803914 -0.00015504415 -0.0023458463 -0.00095888245
0.0014854433 -0.0013090097 -0.0015172553 -0.003288539 0.0017123251 0.0073278355 -6.061157e-05 0.0025766913
0.005665625 -0.00081927323 0.0018282365 -0.00020822199 0.0016033779 0.0022662352 -0.0005329206 0.0043904847
-0.0019928063 -0.0023269092 -0.0006261526 0.0018350768 0.00179474 0.013320298 0.0070395125 -0.0019735994
-0.0015728883 -0.0014417649 -0.0005352438 0.0066334675 0.000416236 0.003607221 0.00023993982 0.00061204366
0.0044442853 -0.0029306142 -0.0001987053 -0.0031202517 -0.00027002936 -0.00047726542 -7.5033924e-05 -0.0017348982
-0.0018027946 -0.00038138338 -0.0061566937 -0.0006687115 0.0018643457 -0.0015459271 -0.00075715093 -0.0037137188
00000000: d39a 143b 8956 f53c 6dab c4bb 3e4c f1bb
00000010: 59a9 04bc bfbf 9ebb 9674 bdbb 722a 4e3c
00000020: 99d7 1fbb 22f9 33ba 18b6 12ba 8918 b13a
00000030: c4a3 2c3c dcb4 963b 8e1f d73b 8aa4 273a
00000040: 1d8a 2a3c f326 2d3c 7d62 6b3c edf0 d33b
00000050: 8ede 34bc 03fb 163b b040 bdbb d766 baba
00000060: 8287 0ebc b833 beba 0179 ffbb ca68 873b
00000070: 37f6 33bc 8227 20bc 3d99 66bc 0ff2 62bc
00000080: 182f 9c3c e60e 973c 2449 a63b f47c 68bb
00000090: 82bc 55bc b33a 48bc 64ce 1cbc 7c3b 13bc
000000a0: 0153 a73b 59b3 b63c a326 053b bd8e 38bc
000000b0: 03fe 49bc b914 54bc b283 3fbc 344c 57bc
000000c0: f2ab 0abc 42e0 0dbc e00b cfbb b57e 1ebb
000000d0: 45db 2d3c b14c 96ba 29ce 10bc c63f 6b3b
000000e0: 9808 233c 0938 12bc 9617 5fbb 70e5 2cbc
000000f0: 4389 30bc a141 20bc c3f6 2fbc 22df b43b
00000100: 8a7c a63d ca82 68bd 6166 8e3d 5ab7 123d
00000110: 164a 843c 844c 603d 64f9 37b9 7529 37bd
00000120: 5364 0c3d b555 973d 68c5 b93b 6bf6 463c
00000130: debb 85bb d775 533c c77a 193d 6d5d 29bc
00000140: 6c55 02bd a2f3 ddb8 2f10 993c 9d19 4f3d
00000150: b363 793d 28ee e4bc aa56 ae3d 321d 133d
00000160: f194 dbba 77d8 b33d d757 633d 6de1 4d3d
00000170: 1484 743d 85d7 6c3d 2af2 f53d 639a ca3b
00000180: 7f27 8ebd 37b4 8fbc 2c9e 523c 1d79 223d
00000190: 7512 7f3d fea1 b5bd 6407 93bb e61a b53d
000001a0: 2151 853d e450 73bb 524b 0b3d f02c 3abd
000001b0: 9008 a83d 8da4 32bc aca4 1a3d 761e 903d
000001c0: f1ac dd3b 4672 b63c a33b 8c3d f2d7 c53d
000001d0: f37f 0a3c 7265 263c 6387 843d 554c d43c
000001e0: cbb3 f03c 0ee8 4e3d 51e7 a63c 2392 b63d
000001f0: 441e 773d b233 dc3d 8318 523d a12b 0cbc
00000200: ac50 abba b02e 5a3c 1ed4 86bb 824a b7ba
00000210: c305 433a eb3a 05bb c010 fc38 17c2 d53b
00000220: dcd7 46ba 3df7 4abb 7c6c 103b 8423 723b
00000230: 50f8 983b 9f7d 983a d0b0 d33a dd36 e13a
00000240: 5f00 ec3b 0f7b 893b bb57 963a cefe 9bba
00000250: b230 8dbb 5e0a 953b f38f b8bb e18c 003b
00000260: 1f51 2fbb 774b 34bb 869c edba 38e4 b03a
00000270: f4c7 8cba c53f 83bb ee3d 04bc 3de3 7bb9
00000280: d6cd 233c c45c de3b b590 293b 8405 c53a
00000290: 7792 a2bb cf10 883c f8cf 8ebb dba2 14bc
000002a0: 2829 dab6 2929 f73b e59f 57bb b61e 493b
000002b0: 3146 abbb 7b8b 393b 8fad bfba 99c7 72bb
000002c0: c005 933b b26c f4bb 0a4f 7dbb 587e 99bb
000002d0: 0eec 8e3b 3589 be3b 7810 47ba 78ed cab8
000002e0: a54f 1f3b 1d45 70bb e1a6 d1bb d53b 06bc
000002f0: 2986 6bbb 1398 98bb 5df7 0dbc 7dca fcb9
00000300: 1cc7 4ebb 7840 4cba 4a8b a6ba 773f b03a
00000310: a850 763b c2f4 b539 894c 123b 4f02 1aba
00000320: 54b1 7ab9 b2ca 59ba 75f1 8c3a b91a 0f3a
00000330: 2d57 08bb 5993 22b9 c5bc 19bb 835d 7bba
00000340: 35b3 c23a 1493 abba a4de c6ba 8784 57bb
00000350: 1970 e03a 571e f03b 2d39 7eb8 b5dd 283b
00000360: b5a6 b93b 7fc4 56ba 70a1 ef3a 2a56 5ab9
00000370: 6f28 d23a 1e85 143b b2b3 0bba 0ede 8f3b
00000380: be99 02bb 0f7f 18bb 6424 24ba f686 f03a
00000390: 7b3d eb3a 613d 5a3c b6ab e63b 8157 01bb
000003a0: 6029 ceba 9af9 bcba 9a4f 0cba 8f5d d93b
000003b0: 403a da39 2067 6c3b 5b98 7b39 8e71 203a
000003c0: 5ea1 913b 8c0f 40bb 8c5b 50b9 237d 4cbb
000003d0: ba92 8db9 7b39 fab9 885b 9db8 8665 e3ba
000003e0: c04b ecba 69f4 c7b9 17be c9bb 784c 2fba
000003f0: 105d f43a b5a0 caba 8a7b 46ba dd61 73bb

ar_k_net.0.bias f4 [32]
0.009167774 -0.13709988 0.019308021 0.009038198 -0.08319432 3.5088287e-13 -0.0025440182 -0.12089571
0.0049671773 0.050062303 -2.0618738e-09 0.033258066 -1.3843759e-08 -0.12815154 -0.0012577826 -3.8939035e-10
-1.2321124e-29 -0.120811306 -0.049650833 8.0432133e-10 0.07989193 0.004096201 -0.113375194 0.0059895846
-0.12755118 -0.09124253 0.0021613096 -2.8243599e-06 0.0018448869 -3.9526e-41 4.4245223e-08 -0.12129165
00000000: 6e34 163c e963 0cbe db2b 9e3c f314 143c
00000010: c961 aabd 8d87 c52a 8bb9 26bb 2c98 f7bd
00000020: b4c3 a23b 210e 4d3d deb0 0db1 9c39 083d
00000030: 7fd5 6db2 283a 03be 2edc a4ba d211 d6af
00000040: efe6 798f eb6b f7bd ac5e 4bbd 1517 5d30
00000050: 619e a33d 6d39 863b 4131 e8bd 4744 c43b
00000060: c79c 02be 5ddd babd c2a4 0d3b 228a 3db6
00000070: 22d0 f13a 2f6e 0080 2308 3e33 c267 f8bd

ar_k_net.2.weight f4 [1, 32]
-0.06456891 0.38001063 -0.029038867 -0.017038833 0.27231577 -2.2332105e-11 -0.0049225218 0.39821956
-0.03774032 -0.17805882 -1.6154727e-08 -0.14210418 -9.784664e-08 0.3807248 -0.0006829961 -1.5834205e-09
1.6319296e-07 0.33587646 0.1454515 3.8947544e-08 -0.18385784 -0.04292945 0.29916814 -0.040561683
0.34831864 0.24132606 -0.007943741 -0.00012900539 -0.004789654 4.2944283e-31 -1.9162255e-05 0.32791796
00000000: b43c 84bd c190 c23e ebe2 edbc 0695 8bbc
00000010: f96c 8b3e 6e6f c4ad 1b4d a1bb 6fe3 cb3e
00000020: 9895 1abd 0d55 36be 9fc4 8ab2 c283 11be
00000030: c21f d2b3 5cee c23e 180b 33ba a89f d9b0
00000040: 243a 2f34 00f8 ab3e 3df1 143e 4747 2733
00000050: 3b45 3cbe cad6 2fbd 912c 993e 0224 26bd
00000060: d256 b23e 2e1e 773e 7726 02bc 9f45 07b9
00000070: 88f2 9cbb b75c 0b0d a1be a0b7 dde4 a73e

ar_lam_net.0.weight f4 [32, 64]
0.030525971 0.059792932 0.007584164 0.03147138 -0.095258035 -0.07090597 -0.05164663 -0.06311991
0.027045716 -0.025679471 0.024215488 0.0448816 -0.07716876 0.037339628 0.035814065 -0.008678756
-0.020486988 -0.003305019 0.019826371 0.021385102 0.04191688 0.014554255 0.027370144 0.04785073
0.027696785 0.006048883 -0.03939976 0.07781989 -0.020343663 -0.013231182 -0.018686015 -0.06427693
0.030941226 0.0052412823 -0.023538044 -0.054702293 -0.1102272 -0.021317177 -0.09932441 -0.01350572
-0.100228064 0.05309161 -0.015567012 -0.033906735 0.015684273 0.015527365 0.058154013 0.031721257
-0.024783988 0.029092763 0.05928485 -0.007399193 0.018138489 -0.006247583 0.025584588 0.03417047
-0.012687166 0.03216034 0.03270489 0.09627174 0.05654259 0.077709235 0.025169177 0.05203212
0.016771832 0.019422427 0.014779346 0.010542246 -0.016573848 0.006840178 0.017042419 -0.012545301
-0.017851453 0.004923521 -0.019588873 0.0141963195 0.009709164 0.014270066 -0.049302332 -0.0002815469
-0.038702294 0.055180077 0.06008456 0.029262153 -0.04316749 -0.008875564 0.034564115 -0.030764945
0.019718874 0.0043139565 0.015479133 -0.019042503 -0.002181928 -0.017296286 -0.027323382 -0.0025391644
-0.0023302638 -0.029995527 -0.00217045 -0.0501599 -0.071128376 0.0031130186 0.04014475 0.0021653294
0.0050632353 -0.030426664 0.07465074 -0.014646876 0.020553855 0.038504485 -0.025361678 0.00044419276
-0.0083325235 -0.022416608 -0.034478143 0.01592358 0.0034767475 0.018817544 0.012895681 0.017670564
-0.0020714328 0.014579502 -0.019254081 -0.025612565 -0.056911815 -0.018612243 -0.023319842 -0.048223943
-0.01436585 -0.034687743 0.036266223 0.07068327 0.03676325 0.03220171 0.03885637 0.02985399
0.0051369816 -0.014180688 0.0064498875 0.07580401 -0.0007633675 0.02522065 0.05936004 0.0124703245
0.013952113 0.034348827 0.04925656 0.02494548 -0.014937419 -0.016289646 0.0105930045 -0.062863134
0.057480603 0.022285372 0.061927333 -0.0004844838 0.040125314 0.019808654 -0.019644266 0.021834599
0.05901522 0.005485215 0.054037962 0.06290226 0.061740424 -0.061824817 -0.009633254 0.013609648
0.011148833 -0.02423301 0.014063021 -0.0010606381 -0.0017617241 -0.05190599 -0.076882355 -0.011317005
-0.02546153 0.008625746 0.0382057 -0.01849492 0.0065680905 -0.079696074 -0.013782413 0.0016604394
-0.059874427 0.011453609 -0.010547895 0.030168775 -0.07675087 0.024470275 -0.09508713 -0.20865223
-0.031447645 0.011128951 -0.03274959 0.07848525 -0.09938769 0.014809066 -0.02887048 -0.009788259
0.0072706863 -0.024014672 0.031255774 0.08869796 -0.10575508 0.03662495 -0.014730361 0.0062283524
0.08476665 -0.014694429 0.056093212 -0.07659101 -0.040917303 0.022856373 0.03179542 0.023499828
0.049071997 0.064652756 0.03719622 0.08965194 0.029430918 -0.012837463 0.0146140205 0.04142547
0.065775946 -0.049873915 -0.03048519 -0.034908786 -0.032511212 -0.039805252 -0.16031894 0.018050743
0.04087018 0.038830876 0.026561495 0.04950997 0.06117594 -0.0061492114 0.06504978 -0.03582259
-0.0043655518 0.029963568 -0.067033805 0.0045054546 0.0087336525 0.008350202 -0.04341367 -0.019431747
-0.02668995 0.013545675 -0.036856044 0.06324289 -0.030500993 -0.0074330945 -0.017467782 0.12001925
00000000: 9a11 fa3c 6fe9 743d 9484 f83b 22e8 003d
00000010: a516 c3bd 2637 91bd 6b8b 53bd 0345 81bd
00000020: fa8e dd3c c15d d2bc 8f5f c63c c5d5 373d
00000030: a80a 9ebd 70f1 183d c5b1 123d 5731 0ebc
00000040: 54d4 a7bc 0599 58bb ea6a a23c cf2f af3c
00000050: 09b1 2b3d f874 6e3c 5a37 e03c 21ff 433d
00000060: 5ee4 e23c b535 c63b a561 21bd 0960 9f3d
00000070: c1a7 a6bc 99c7 58bc 6a13 99bc a0a3 83bd
00000080: 7478 fd3c 10bf ab3b dbd2 c0bc 830f 60bd
00000090: ccbe e1bd 5ca1 aebc 996a cbbd 1847 5dbc
000000a0: 5f44 cdbd 9776 593d c80c 7fbc cae1 0abd
000000b0: 4e7c 803c 7d66 7e3c e732 6e3d 26ee 013d
000000c0: ca07 cbbc f253 ee3c acd4 723d ee74 f2bb
000000d0: 2b97 943c 86b8 ccbb c596 d13c 56f6 0b3d
000000e0: d5dd 4fbc 90ba 033d 90f5 053d 1e2a c53d
000000f0: 3499 673d 0526 9f3d 972f ce3c a21f 553d
00000100: 1565 893c c81b 9f3c 1225 723c 62b9 2c3c
00000110: e1c5 87bc 9223 e03b 8b9c 8b3c ce8a 4dbc
00000120: 363d 92bc 7d55 a13b d878 a0bc ae97 683c
00000130: 2f13 1f3c ffcc 693c 3ef1 49bd 969c 93b9
00000140: 4c86 1ebd 8104 623d 3a1b 763d 2fb7 ef3c
00000150: 65d0 30bd d06a 11bc 1a93 0d3d c406 fcbc
00000160: 7a89 a13c 175c 8d3b 319c 7d3c 06ff 9bbc
00000170: adfe 0ebb f1b0 8dbc 49d5 dfbc 1c68 26bb
00000180: 57b7 18bb 2eb9 f5bc 1c3e 0ebb 7874 4dbd
00000190: c1ab 91bd c903 4c3b d26e 243d 33e8 0d3b
000001a0: 7fe9 a53b 5741 f9bc 7de2 983d 73f9 6fbc
000001b0: 8f60 a83c e1b6 1d3d 4bc3 cfbc 8be2 e839
000001c0: 2385 08bc 09a3 b7bc f438 0dbd 2b72 823c
000001d0: 25da 633b 4027 9a3c 6848 533c dcc1 903c
000001e0: e0c0 07bb ddde 6e3c bcba 9dbc 71d1 d1bc
000001f0: 5d1c 69bd b478 98bc 4109 bfbc 7886 45bd
00000200: be5e 6bbc bc14 0ebd e48b 143d 64c2 903d
00000210: 1095 163d f1e5 033d db27 1f3d 5b90 f43c
00000220: 2054 a83b 1e56 68bc 9459 d33b 223f 9b3d
00000230: ba1c 48ba 899b ce3c 8323 733d 5550 4c3c
00000240: 6797 643c 5bb1 0c3d 3fc1 493d 775a cc3c
00000250: 14bc 74bc dd71 85bc 488e 2d3c 63be 80bd
00000260: c870 6b3d d08f b63c 84a7 7d3d 5102 feb9
00000270: 715a 243d c245 a23c 03ed a0bc 79de b23c
00000280: f1b9 713d 52bd b33b e956 5d3d e6d2 803d
00000290: 87e3 7c3d 053c 7dbd ccd4 1dbc 00fb 5e3c
000002a0: 98a9 363c 4e84 c6bc 9668 663c 1c05 8bba
000002b0: a7e9 e6ba 609b 54bd 7f74 9dbd f66a 39bc
000002c0: b394 d0bc 0053 0d3c 957d 1c3d a982 97bc
000002d0: 2339 d73b b237 a3bd a1cf 61bc 1aa3 d93a
000002e0: e33e 75bd eba7 3b3c 14d1 2cbc 8224 f73c
000002f0: 8f2f 9dbd e375 c83c 0bbd c2bd eea8 55be
00000300: 3fcf 00bd 3456 363c 6f24 06bd e0bc a03d
00000310: c68b cbbd baa1 723c c981 ecbc ef5e 20bc
00000320: f03e ee3b 6bba c4bc 0e06 003d 47a7 b53d
00000330: 1f96 d8bd 0b04 163d 9d57 71bc 3517 cc3b
00000340: 239a ad3d e7c0 70bc ffc1 653d bfdb 9cbd
00000350: e798 27bd 4a3d bb3c ea3b 023d b682 c03c
00000360: b8ff 483d aa68 843d 105b 183d 709b b73d
00000370: 1c19 f13c 3954 52bc a56f 6f3c c1ad 293d
00000380: 8ab5 863d 9748 4cbd 14bc f9bc 84fc 0ebd
00000390: 7a2a 05bd d50a 23bd a62a 24be 27df 933c
000003a0: 7d67 273d 200d 1f3d 7e97 d93c f7ca 4a3d
000003b0: 9f93 7a3d 537f c9bb d238 853d b5ba 12bd
000003c0: e70c 8fbb 2876 f53c 0549 89bd 7ea2 933b
000003d0: 9817 0f3c 49cf 083c 88d2 31bd 542f 9fbc
000003e0: e2a4 dabc aeee 5d3c 5df6 16bd 7d85 813d
000003f0: 38dd f9bc 5191 f3bb 9818 8fbc a7cc f53d

ar_lam_net.0.bias f4 [32]
-0.092418596 0.055791922 0.14111878 -0.07938986 0.15391782 -0.1292197 0.15008536 0.14997102
0.059074726 0.052235026 0.20712197 -2.9889417e-30 0.21159017 -1.493141e-18 1.2606041e-15 -0.053996883
-3.296442e-11 -0.05681211 0.24035998 -1.3775956e-25 -0.016494427 0.08820637 -0.14234392 -4.623214e-09
-0.012584894 -0.042359658 -7.24e-43 0.22233182 -0.0038511276 -0.09733426 0.176253 -3.9764965e-09
00000000: f645 bdbd 1286 643d 7181 103e 2797 a2bd
00000010: a29c 1d3e 2b52 04be faaf 193e 0192 193e
00000020: 57f8 713d 65f4 553d c817 543e e47d 728e
00000030: 18ab 583e 4659 dca1 15ac b526 d62b 5dbd
00000040: a3fa 10ae d1b3 68bd ed20 763e bf89 2a96
00000050: 521f 87bc 8ba5 b43d 9bc2 11be 38da 9eb1
00000060: df30 4ebc 5281 2dbd 0502 0080 f4aa 633e
00000070: 3363 7cbb 2f57 c7bd ab7b 343e a2a1 88b1

ar_lam_net.2.weight f4 [1, 32]
0.24683474 -0.09394312 -0.2104057 0.33825296 -0.38838887 0.30721954 -0.16195798 -0.29082796
-0.3846418 0.47012693 -0.3688389 3.0098585e-05 -0.24547645 9.710157e-07 -0.0089152865 0.3838873
-0.00020823702 0.376414 -0.3740013 2.454014e-12 0.4028986 -0.18763351 0.34592277 -1.2200096e-10
-0.0040962673 0.43058276 5.1551386e-05 -0.45312744 -0.0040431693 0.3157939 -0.22357337 -3.2658478e-05
00000000: 3fc2 7c3e 4065 c0bd 9874 57be 7e2f ad3e
00000010: e8da c6be e14b 9d3e 50d8 25be 67e7 94be
00000020: c5ef c4be 7ab4 f03e 74d8 bcbe 387c fc37
00000030: 2e5e 7bbe d853 8235 6c11 12bc e08c c43e
00000040: 335a 5ab9 56b9 c03e 197d bfbe 96af 2c2c
00000050: ba48 ce3e 0023 40be ca1c b13e 3824 06af
00000060: fb39 86bb 5875 dc3e e138 5838 5200 e8be
00000070: 907c 84bb bdaf a13e 6bf0 64be c6fa 08b8

feat_k_net.0.weight f4 [100, 1080]
0.0064187325 2.4519e-41 -4.810249e-22 -1.5629963e-12 -1.9673e-41 -4.4764074e-06 -1.7808e-41 -2.807e-42
-1.1921e-41 0.008056365 -5.984e-42 9.277487e-27 1.6367e-41 -1.0276819e-20 -1.145895e-39 2.411727e-22
-6.091e-42 4.937e-42 0.0088973995 2.7875e-41 2.4e-43 1.152e-42 -2.0528e-41 -3.185e-42
-1.3993e-41 1.381215e-18 -2.0102e-41 -0.0027041067 -1.6212591e-17 -4.505e-42 -8.688e-42 -1.1582e-41
-6.3771324e-05 3.020174e-23 6.845727e-07 8.681e-42 -0.0035380067 -4.410047e-21 5.005e-42 -2.352e-41
2.4385e-41 -5.973763e-08 1.0386e-41 -2.2219843e-30 -3.3272e-41 -0.011238986 3.2496e-41 4.028734e-08
-5.241215e-14 1.004431e-39 6.267138e-39 0.00010580763 -1.2215e-41 -4.672731e-12 0.023578735 2.4970288e-15
-3.66e-42 1.7207832e-15 1.5281e-41 9.3480996e-15 -1.10676815e-07 -2.2114387e-11 1.2243e-41 -0.009876998
-1.4666e-41 -1.2911039e-10 1.006e-42 1.7696272e-30 3.6628336e-08 1.058e-41 -1.1587e-41 -1.315912e-17
0.009891791 2.4967e-41 -1.2278287e-09 -3.9088383e-22 -1.8245288e-12 1.0315e-41 1.1519e-41 -2.7731957e-23
1.2957709e-36 -0.030755933 6.6624634e-05 1.4580847e-09 2.8071e-41 -4.984e-42 -1.9726724e-16 1.3183e-41
2.1649053e-06 4.736866e-21 -0.05003788 -2.2969e-41 5.394372e-28 5.607204e-27 -2.5237e-41 7.37e-43
-3.4460167e-11 -6.233e-42 -2.1412e-41 -0.047310118 4.5684048e-20 -1.2526544e-16 3.342795e-08 3.359474e-20
-3.405e-42 -7.172e-42 -3.3687e-41 1.9297e-41 -0.024230603 -2.5226e-41 -1.719e-41 -2.91e-41
-2.2282e-41 2.1291078e-06 -2.658e-42 -2.7798e-41 -1.201995e-39 -0.08141865 -1.0763e-41 2.17e-43
8.3836814e-14 1.473e-41 -3.403057e-12 -1.767e-42 -3.302926e-19 7.854881e-20 -0.08003455 -1.2839004e-27
-1.3157019e-21 3.2576196e-07 -1.166e-41 -2.175e-42 1.6584058e-16 1.061e-41 3.6628434e-18 -0.04291256
-3.0113e-41 -2.4391e-41 -1.9617e-41 -2.5309e-41 4.064e-42 3.2286e-41 5.2164843e-08 -4.8766037e-23
-0.040619545 -2.185e-42 -4.589e-42 -6.309947e-25 -1.2657e-41 2.1001e-41 1.492e-42 -5.429852e-10
1.7952e-41 -0.046126757 5.112e-42 1.6422158e-36 -1.0964e-41 -1.4875e-41 1.9156e-41 -1.5304493e-37
3.57e-43 -4.2892944e-19 -0.03372492 1.091435e-39 2.2699972e-13 -7.725e-42 -3.9497735e-08 -7.746245e-09
2.4855e-41 -7.50107e-40 4.9978426e-06 0.0080517335 -3.1724e-41 -6.145327e-11 1.306e-42 -2.3037e-41
-2.8954e-41 -2.7251e-41 -8.373992e-11 7.714e-42 -0.062387258 -1.8444e-41 -1.4403452e-07 2.101e-41
9.72304e-33 -2.5824707e-15 9.051e-42 -2.0479e-41 9.245985e-08 -0.04248027 -5.923e-42 2.608e-41
1.3334167e-34 -4.020843e-17 5.8768117e-37 2.9377881e-05 -9.603e-42 5.7946517e-38 -0.10568205 -1.9365631e-34
1.5943e-41 1.2211e-41 3.271e-41 2.6356076e-08 -9.0335e-23 4.325279e-21 -2.2711e-41 -0.10165536
7.030819e-15 1.6959e-41 2.3107e-41 9.362643e-13 6.213398e-11 1.1132e-41 -1.8629e-41 1.817e-42
-0.05451054 2.8048e-41 -8.2084063e-13 9.85551e-40 9.337e-42 -6.117765e-08 2.212966e-12 -3.356e-41
3.1933e-41 -0.051864527 -1.978e-41 1.998868e-15 -8.5720125e-35 -1.2654e-41 -3.0681e-41 2.6127e-41
-2.4639121e-08 9.889355e-07 0.014183383 -1.5036e-41 -8.061076e-12 4.907e-42 2.9314e-41 -9.806632e-08
-9.680947e-30 -3.4514e-41 3.1643e-41 0.014452204 -2.9901e-41 -2.4022779e-27 -1.0843498e-37 2.4255e-41
-7.450684e-24 -2.1939152e-06 -3.527e-42 -5.53354e-39 0.00023721019 -6.03e-42 -1.0458994e-10 -2.84e-43
00000000: 3b54 d23b 5944 0000 8061 119c e0f8 dbab
00000010: d736 0080 0c34 96b6 a431 0080 d307 0080
00000020: 3b21 0080 d8fe 033c ae10 0080 73c2 3714
00000030: a02d 0000 a61f 429e 4a7a 0c80 abc7 911b
00000040: fb10 0080 c30d 0000 66c6 113c b44d 0000
00000050: ab00 0000 3603 0000 3939 0080 e108 0080
00000060: 0227 0080 d4d4 cb21 0938 0080 6237 31bb
00000070: e688 95a3 8f0c 0080 3818 0080 4920 0080
00000080: f8bc 85b8 f10b 121a 7ac3 3735 3318 0000
00000090: e7dd 67bb 5c9b a69d f40d 0000 9041 0080
000000a0: fa43 0000 1c49 80b3 f41c 0000 cf44 348e
000000b0: c05c 0080 b923 38bc 965a 0000 6608 2d33
000000c0: 180b 6ca9 f2ef 0a00 3b3e 4400 0ae5 dd38
000000d0: 0d22 0080 3868 a4ac 3128 c13c 0dee 3327
000000e0: 340a 0080 b2fd f726 992a 0000 8066 2828
000000f0: 39ad edb3 2c85 c2ad 2122 0000 22d3 21bc
00000100: e228 0080 58f5 0daf ce02 0000 b891 0f0e
00000110: 4851 1d33 7e1d 0000 4d20 0080 30be 72a3
00000120: 2e11 223c 9945 0000 62c0 a8b0 5846 ec9b
00000130: ca63 00ac c11c 0000 1c20 0000 801a 069a
00000140: c876 dc03 def3 fbbc d4b8 8b38 cb65 c830
00000150: 404e 0000 e50d 0080 036f 63a5 c024 0000
00000160: ca48 1136 28f4 b21d 85f4 4cbd 0740 0080
00000170: 58f4 2a12 ce1f de13 5a46 0080 0e02 0000
00000180: b38e 17ae 6011 0080 b03b 0080 41c8 41bd
00000190: a0bc 571f d56b 10a5 6b92 0f33 8ca5 1e1f
000001a0: 7e09 0080 fe13 0080 e85d 0080 cb35 0000
000001b0: 427f c6bc 5246 0080 eb2f 0080 1e51 0080
000001c0: 1d3e 0080 cbe1 0e36 6907 0080 7d4d 0080
000001d0: ac16 0d80 d2be a6bd 011e 0080 9b00 0000
000001e0: a2c8 bc29 1029 0000 0678 6fac ed04 0080
000001f0: 68f8 c2a0 d877 b91f 27e9 a3bd 3071 cb92
00000200: c0d2 c69c 62e4 ae34 8120 0080 1006 0080
00000210: 8033 3f25 941d 0000 9422 8722 15c5 2fbd
00000220: f153 0080 fe43 0080 af36 0080 8d46 0080
00000230: 540b 0000 005a 0000 da0b 6033 6ed1 6b9a
00000240: ae60 26bd 1706 0080 cb0c 0080 8d48 4397
00000250: 4823 0080 8b3a 0000 2904 0000 3041 15b0
00000260: 0b32 0000 69ef 3cbd 400e 0000 4bb4 0b04
00000270: 901e 0080 7729 0080 6635 0000 6050 5082
00000280: ff00 0000 fc31 fda0 2423 0abd 7ae2 0b00
00000290: 3794 7f2a 8915 0080 38a4 29b3 5914 05b2
000002a0: 4945 0000 fe2a 0880 24b3 a736 6beb 033c
000002b0: 6f58 0080 1e23 87ae a403 0000 3840 0080
000002c0: b650 0080 f74b 0080 6225 b8ae 8115 0000
000002d0: c889 7fbd 6a33 0080 e8a7 1ab4 913a 0000
000002e0: 8cf0 490a 2d16 3aa7 3b19 0000 1639 0080
000002f0: 578e c633 cbff 2dbd 8310 0080 b348 0000
00000300: d23d 3107 bc6d 39a4 40fa 4703 8570 f637
00000310: c51a 0080 d4be 9d01 d56f d8bd eab4 8087
00000320: 712c 0000 0a22 0000 2f5b 0000 a065 e232
00000330: a86a da9a 8867 a31d 4f3f 0080 af30 d0bd
00000340: dc4f fd27 462f 0000 6a40 0000 7ac4 832b
00000350: 52a2 882e 081f 0000 ee33 0080 1105 0000
00000360: 7246 5fbd 304e 0000 cd0b 67ab 51bb 0a00
00000370: 071a 0000 c560 83b3 40b9 1b2c 8d5d 0080
00000380: 0459 0000 e66f 54bd 2337 0080 9b08 1027
00000390: 18e2 e386 4623 0080 8755 0080 d548 0000
000003a0: 00a6 d3b2 91bb 8435 6c61 683c ea29 0080
000003b0: dccf 0dad ae0d 0000 b751 0000 8898 d2b3
000003c0: 5a5a 448f 3660 0080 3558 0000 f0c8 6c3c
000003d0: 5a53 0080 fc53 3e93 1398 1382 9d43 0000
000003e0: 001e 1099 2d3b 13b6 d509 0080 4241 3c80
000003f0: a0bb 7839 cf10 0080 e7fe e5ae cb00 0080

feat_k_net.0.bias f4 [100]
0.13573912 -2.2344385e-24 0.03570282 0.09653041 2.9714995e-05 0.10965163 2.4017932e-06 -0.0032744172
-0.0030644545 -8.543696e-31 -2.2743804e-22 -3.8949576e-28 0.082681954 -1.0026571e-28 0.09973267 -7.492903e-05
0.011853 0.07520514 0.216125 0.12808292 0.005127996 -1.5803304e-16 2.228648e-21 -3.7811183e-32
0.0947183 0.20022129 -3.465478e-19 -4.049918e-21 5.322705e-30 -2.525491e-10 -1.2505528e-28 0.054492183
-1.2409003e-21 -0.00037147492 0.01855632 -6.7700626e-29 -1.1775061e-27 0.0057098255 -7.756431e-06 0.16389698
-2.0010367e-21 -6.141073e-08 -0.0066050244 0.13121043 -5.689649e-10 0.14991398 -1.1218302e-34 0.00036028243
8.1056094e-20 0.2300612 -7.6339426e-26 -1.4878824e-21 -5.3896307e-35 -1.6492109e-20 -0.010690083 0.072576515
-1.281347e-16 2.3964044e-32 -3.2260538e-25 -8.823888e-23 -2.6045825e-08 4.0526672e-13 0.09592273 0.13294433
-3.3144386e-22 -3.19918e-33 -1.4798252e-14 -6.587978e-17 0.0006292324 1.6971885e-12 2.7882008e-05 -5.7235913e-24
-7.895752e-05 0.014848126 8.379707e-23 -1.3215283e-29 1.0315371e-24 -2.331425e-19 2.3957066e-06 -5.8440394e-15
0.11237611 0.12483411 0.09400405 -9.246412e-24 0.10236515 -0.00065431953 2.0170146e-06 -1.6269948e-27
-2.1436364e-05 -1.6247037e-25 -3.7612406e-28 -1.945045e-05 -9.5985604e-14 1.4733373e-05 0.09849343 -1.8364504e-31
0.14301927 0.10648924 0.0002134679 -1.2522658e-25
00000000: 32ff 0a3e 9de1 2c98 1f3d 123d bcb1 c53d
00000010: 7744 f937 0991 e03d 7e2e 2136 9b97 56bb
00000020: 04d5 48bb 20a1 8a8d 557a 899b 4ddf f691
00000030: 2855 a93d 2b34 fe90 a440 cc3d 3723 9db8
00000040: 1633 423c 2705 9a3d df4f 5d3e 2b28 033e
00000050: c008 a83b 1f33 36a5 5264 281d af53 448b
00000060: abfb c13d cf06 4d3e d390 cca0 6700 999d
00000070: 21ea d70e 20d7 8aaf c286 1e91 3233 5f3d
00000080: 0185 bb9c 85c2 c2b9 6c03 983c 38a4 ab90
00000090: 5295 ba92 7d19 bb3b 9e21 02b7 9cd4 273e
000000a0: ae31 179d e8e0 83b3 f66e d8bb 075c 063e
000000b0: 5865 1cb0 0d83 193e e71d 1587 4ae4 bc39
000000c0: 6763 bf1f 2a95 6b3e dc01 bd95 aad7 e09c
000000d0: ed47 8f86 79c3 9b9e 7525 2fbc ffa2 943d
000000e0: b0ba 13a5 5bdb f80a ddae c796 3959 d59a
000000f0: 60bb dfb2 1725 e42a 2373 c43d 8f22 083e
00000100: 7458 c89b 84e3 8489 724a 85a8 8fe8 97a4
00000110: 12f3 243a a9db ee2b 28e4 e937 b46b dd98
00000120: ff95 a5b8 8e45 733c e09b ca1a d604 868f
00000130: 659f 9f17 809f 89a0 edc5 2036 c08d d2a7
00000140: 7225 e63d 07a9 ff3d 3285 c03d 04da 3299
00000150: d2a4 d13d a486 2bba 0c5c 0736 60e7 0093
00000160: 3ed2 b3b7 ea20 4996 9e65 ee91 8629 a3b7
00000170: ef23 d8a9 5b2f 7737 ecb6 c93d 8862 6e8c
00000180: a573 123e 0817 da3d 5ad6 5f39 e305 1b96

feat_k_net.2.weight f4 [1, 100]
0.38313195 -2.7933567e-24 0.14858063 0.3309109 0.0002721807 0.34007397 -1.1939079e-05 -0.27888286
-0.0018103126 -9.856382e-31 4.9679567e-22 -3.750009e-28 0.30912325 4.8017436e-29 0.22318064 0.0006025309
0.053968813 0.28380194 0.5166304 0.4408398 0.0060222233 2.3191627e-16 -9.601401e-22 5.2067065e-32
0.31492814 0.6082687 -1.4220514e-20 -1.0439872e-20 2.813808e-29 -1.329512e-09 -1.4709599e-28 0.2279356
1.9768e-21 7.076635e-05 0.06942089 -8.367069e-29 2.450881e-27 0.026922572 2.1252636e-06 0.36450064
-4.524735e-21 -2.6733726e-09 -0.089373864 0.43617934 -2.106655e-09 0.43610543 -2.4231705e-34 0.0011202866
-3.1786142e-19 0.6097021 5.568426e-26 -9.345487e-22 3.8691286e-34 -1.9762565e-20 -0.121592805 0.27444416
-5.897926e-17 -2.5739256e-32 6.6301886e-25 -1.9619381e-23 2.3446771e-09 -1.1971388e-11 0.2670034 0.46126565
-4.4410793e-23 -4.5485827e-33 2.0853118e-14 7.6359186e-17 0.0024878294 -1.2215798e-12 0.0001776649 7.830308e-24
1.4802774e-05 -0.28409404 4.508414e-22 -1.1209475e-29 2.8452062e-22 2.1640878e-17 3.926888e-06 2.2984556e-14
0.38735247 0.4536027 0.3212592 -9.647058e-24 0.40750936 -0.00044107923 -0.00020888307 2.3897755e-27
-6.603621e-06 6.6897864e-26 -1.3020996e-28 -0.00015074722 -1.7194982e-13 8.6441585e-05 0.35921648 1.7928017e-29
0.33313715 0.2801704 0.00091133 -2.0255934e-25
00000000: df29 c43e 2120 5898 8525 183e 276d a93e
00000010: 7ab3 8e39 2d1e ae3e f44d 48b7 bcc9 8ebe
00000020: 0348 edba cfed 9f8d b425 161c 60af ed91
00000030: 6745 9e3e 327a 7310 7789 643e 2af3 1d3a
00000040: 670e 5d3d 7d4e 913e e441 043f c1b5 e13e
00000050: 1256 c53b cdb0 8525 9f17 919c 802c 870b
00000060: 433e a13e 7fb7 1b3f 184f 869e 2034 459e
00000070: 51ad 0e10 0bba b6b0 6177 3a91 f367 693e
00000080: df5c 151d 6568 9438 8a2c 8e3d 6221 d490
00000090: c62d 4213 ba8c dc3c c09f 0e36 d49f ba3e
000000a0: 8df0 aa9d 78b6 37b1 a509 b7bd e652 df3e
000000b0: abc4 10b1 3649 df3e 1c0c a187 95d6 923a
000000c0: dca1 bba0 7015 1c3f 18de 8915 9a39 8d9c
000000d0: e892 0008 f3a6 ba9e a605 f9bd f283 8c3e
000000e0: 36ff 87a4 57a5 058b c431 4d17 3cbf bd99
000000f0: ff1f 2131 579a 52ad abb4 883e 032b ec3e
00000100: e6c1 569a d4f0 bc89 04d4 bb28 8212 b024
00000110: da0a 233b 0dec abab 8f4b 3a39 cf75 1719
00000120: 6e59 7837 c674 91be 2a42 081c ec5a 638f
00000130: 6ffb ab1b 149a c723 b6c3 8336 c706 cf28
00000140: 1053 c63e 9d3e e83e 167c a43e eb99 3a99
00000150: 11a5 d03e a740 e7b9 9f07 5bb9 6856 3d13
00000160: ac94 ddb6 8fa1 a515 8c0f 2591 e611 1eb9
00000170: 2999 41aa f947 b538 39eb b73e cbcf b50f
00000180: f490 aa3e 7f72 8f3e 52e6 6e3a 9ec1 7a96

feat_lam_net.0.weight f4 [100, 1080]
1.8562981e-05 -5.48e-43 -2.9298e-41 4.722983e-32 1.2947e-41 -2.818e-41 -1.3525e-41 1.6571158e-07
1.537883e-36 6.8409136e-06 2.092865e-25 -4.2464748e-33 -1.5347767e-25 2.051629e-21 2.4011e-41 2.4656e-41
-2.0287e-41 1.7969e-41 4.7487906e-06 -1.8385042e-05 -2.2318e-41 2.7827e-41 -2.0309e-41 -1.7354845e-14
-1.4913e-41 2.0930836e-20 -6.774449e-08 2.0291713e-05 3.9e-42 2.0224599e-12 -1.14299875e-26 -3.1571e-41
1.4942283e-34 -6.1451017e-27 7.641658e-06 -2.1321e-41 1.7449502e-05 -2.3154e-41 7.047657e-08 1.8557e-41
-1.7596e-41 -9.328e-42 -2.7058e-41 -6.603907e-36 8.920282e-13 -3.2729668e-06 6.428e-42 5.087e-42
4.4091415e-05 -1.1795498e-16 -2.635e-41 4.8535515e-25 1.9639e-41 -3.2143e-41 -2.1258272e-06 3.8786812e-12
-9.6699016e-14 -5.363e-42 3.2572e-41 1.5402e-41 -1.823515e-08 3.4641e-41 1.2895751e-05 -6.419805e-06
1.8672e-41 -8.015073e-08 -5.910653e-21 4.086e-42 6.7777894e-26 -1.3329e-41 -1.4868e-41 -2.794e-41
-8.738564e-06 2.774406e-07 3.0012e-41 -2.3985276e-20 1.0527815e-13 -1.7850515e-12 -8.944861e-32 -2.8819052e-26
-1.0349275e-06 -2.2091634e-05 2.3804384e-38 4.0141565e-08 -1.9275e-41 4.638476e-17 -3.4797e-41 -1.2637716e-32
-2.8253e-41 3.458e-42 -8.502229e-06 2.066e-42 -7.041148e-06 2.5366e-41 -6.786e-42 1.898e-41
-2.4998e-41 1.353399e-39 -7.352615e-17 -2.0039114e-07 -1.5e-42 1.3622e-41 -3.3885e-41 -1.0465e-41
-2.7698e-41 1.8977302e-20 -9.0467346e-18 3.094383e-30 3.7199359e-06 -6.700982e-11 1.8416e-41 2.2379e-41
1.591705e-27 -2.007e-42 -1.5491e-41 3.272e-42 4.7441915e-08 1.5797626e-05 2.739e-41 -3.5021e-41
4.0741212e-12 -2.8696e-41 -2.0758551e-07 2.3414137e-28 -2.8197e-41 2.7112e-41 1.1267351e-05 -3.1539e-41
-1.9448564e-08 3.086e-42 -6.082375e-19 -1.4394e-41 -1.5922394e-07 2.6859e-41 1.0246e-41 3.4510543e-07
-1.645e-41 2.1951e-41 -1.9774e-41 -2.4816e-41 -7.013e-42 1.55e-42 -9.288e-42 -3.2859e-41
-8.958767e-07 -7.597282e-20 -9.642e-42 3.89239e-38 -1.3745e-41 -1.079e-41 -1.0773e-41 -8.374e-42
3.2193e-41 1.1173441e-05 -2.32e-42 5.2356216e-22 3.3752e-41 -2.827836e-14 -1.3223587e-13 4.0322091e-22
6.093237e-21 1.6803e-41 -7.1059644e-06 -1.0871901e-08 -3.5038e-41 -3.3536826e-13 -9.23e-43 1.9533e-41
-2.9311813e-09 -3.0279e-41 1.3492065e-16 -1.5036842e-05 7.159e-42 2.0669986e-23 -2.1923332e-34 1.8022495e-09
-8.022174e-13 -2.7875e-41 -1.85e-41 -4.4302937e-29 -7.311865e-06 4.1512835e-06 -2.0696e-41 1.4646e-41
-3.5995686e-06 -3.0398e-41 8.8210106e-16 1.4517e-41 -5.868125e-14 7.515544e-06 9.04e-42 1.9263345e-13
0.00012115472 8.617e-42 -4.83e-43 1.2291e-41 0.00013241245 -1.2246e-41 4.641583e-06 2.5513e-41
2.119e-42 -3.4605567e-23 4.459e-42 1.6443e-41 -7.41e-42 -5.503e-42 1.5648e-41 1.040088e-05
1.053e-41 9.64664e-36 -7.475064e-05 5.7253535e-10 -1.265e-41 4.3897894e-23 1.0030695e-09 1.5053e-41
2.0770736e-05 -3.1735e-41 -4.824562e-13 2.825e-41 -2.595e-42 -1.554e-41 -1.4666e-41 -2.0956059e-06
-6.879422e-21 -1.0305278e-06 -2.8264e-41 2.1311e-41 1.9722e-41 -3.488e-42 2.4768582e-05 -4.756e-42
-1.7445e-41 -7.779e-42 -2.176274e-05 2.966e-41 -9.001035e-27 1.16836555e-29 -2.4919e-41 -1.441e-41
1.5617e-41 -1.49e-43 -2.183e-41 1.7031771e-06 -1.0082e-41 -6.8905283e-06 4.0533007e-12 3.2182e-41
-2.21e-41 -2.482e-41 -1.1031e-41 2.808e-42 7.276348e-06 -1.9514335e-31 1.5337e-41 1.8169e-41
00000000: b3b7 9b37 8701 0080 ac51 0080 363b 750b
00000010: 1724 0000 8e4e 0080 b425 0080 74ee 3134
00000020: 20d4 0204 008b e536 c58a 8116 4464 b089
00000030: 04ff 3d96 4704 1b1d ef42 0000 bb44 0000
00000040: 8d38 0080 1732 0000 cd57 9f36 9439 9ab7
00000050: 373e 0080 924d 0000 9d38 0080 8c51 9ca8
00000060: 9229 0080 a8af c51e ed7a 91b3 1f38 aa37
00000070: df0a 0000 6651 0e2c ec64 6294 0258 0080
00000080: f49d 4607 bc6e f393 ac34 0037 6f3b 0080
00000090: 8560 9237 8b40 0080 e758 9733 bb33 0000
000000a0: 0d31 0080 011a 0080 6d4b 0080 1773 0c85
000000b0: 6815 7b2b 24a5 5bb6 eb11 0000 2e0e 0000
000000c0: ccee 3838 2afe 07a5 7449 0080 cc35 1617
000000d0: bf36 0000 9a59 0080 6fa9 0eb6 0e78 882c
000000e0: 30bf d9a9 f30e 0080 cc5a 0000 ef2a 0000
000000f0: 85a3 9cb2 9160 0000 d45a 5837 b469 d7b6
00000100: 0d34 0000 541f acb3 544c df9d 640b 0000
00000110: 58cf a715 2825 0080 7229 0080 e34d 0080
00000120: d99b 12b7 25f3 9434 a953 0000 d788 e29e
00000130: b910 ed29 4239 fbab cc38 e88b 7db4 0e95
00000140: d7e7 8ab5 6c51 b9b7 789a 0101 1e68 2c33
00000150: bb35 0080 76e9 5524 0061 0080 d03c 838a
00000160: c24e 0080 a409 0000 cca4 0eb7 c205 0000
00000170: 0043 ecb6 b646 0000 eb12 0080 e934 0000
00000180: af45 0080 babc 0e00 2e8a a9a4 192b 57b4
00000190: 2e04 0080 f925 0000 755e 0080 2c1d 0080
000001a0: 364d 0080 4d3c b31e ffe1 26a3 d20b 7b0e
000001b0: 03a4 7936 2d5b 93ae 5633 0000 623e 0000
000001c0: 3a37 fc12 9805 0080 2f2b 0080 1f09 0000
000001d0: f0c2 4b33 2585 8437 5a4c 0000 a061 0080
000001e0: 6c58 8f2c fe4f 0080 ace4 5eb4 9c67 9411
000001f0: 9a4e 0080 944b 0000 e708 3d37 eb57 0080
00000200: d80f a7b2 9a08 0000 2085 33a1 2028 0080
00000210: 25f7 2ab4 df4a 0000 901c 0000 ee46 b934
00000220: db2d 0080 313d 0000 1f37 0080 2d45 0080
00000230: 8d13 0080 5204 0000 e419 0080 995b 0080
00000240: 2e7c 70b5 c062 b39f e11a 0080 00ec 5301
00000250: 5126 0080 141e 0080 081e 0080 5817 0080
00000260: be59 0000 9075 3b37 7806 0080 a93c 1e1c
00000270: 165e 0000 75b5 fea8 65e2 14aa 6abb f31b
00000280: 2c32 e61d d72e 0000 c56f eeb6 20c7 3ab2
00000290: ac61 0080 a9cb bcaa 9302 0080 7336 0000
000002a0: e36d 49b1 6854 0080 8c8d 1b25 bf46 7cb7
000002b0: f513 0000 68e8 c719 9eb4 9187 04b3 f730
000002c0: dbcd 61ab b44d 0080 9233 0080 80a4 6090
000002d0: 7158 f5b6 414b 8b36 b139 0080 d428 0000
000002e0: 1e90 71b6 bd54 0080 923f 7e26 7828 0000
000002f0: 7023 84a9 082e fc36 3319 0000 d0e2 582a
00000300: 7214 fe38 0518 0000 5901 0080 4322 0000
00000310: 32d8 0a39 2322 0080 e5be 9b36 1f47 0000
00000320: e805 0000 9e57 279a 6e0c 0000 d62d 0000
00000330: a814 0080 570f 0080 9f2b 0000 707f 2e37
00000340: 5a1d 0000 4e29 4d05 72c3 9cb8 9860 1d30
00000350: 4323 0080 f646 541a 5fdc 8930 f629 0000
00000360: d13c ae37 7758 0080 a2cc 07ab c04e 0000
00000370: 3c07 0080 522b 0080 e228 0080 3ca2 0cb6
00000380: d8f2 019e aa50 8ab5 ca4e 0080 683b 0000
00000390: fa36 0000 b909 0080 20c6 cf37 420d 0080
000003a0: a130 0080 af15 0080 218f b6b7 ae52 0000
000003b0: ab48 3294 02f9 6c0f 7745 0080 2b28 0080
000003c0: 892b 0000 6a00 0080 da3c 0080 b898 e435
000003d0: 1b1c 0080 3035 e7b6 e39c 8e2c b659 0000
000003e0: 9b3d 0080 3045 0080 c01e 0080 d407 0000
000003f0: 5a27 f436 804f 7d8c c12a 0000 a632 0000

feat_lam_net.0.bias f4 [100]
-4.1752053e-05 -8.832749e-07 -0.010100453 -0.0005263751 -2.4616555e-05 -0.051387396 -0.022593606 -5.61254e-05
-0.0001972585 -0.0041459925 9.267804e-05 -0.0011122469 -1.586111e-05 -0.0002694818 -0.0036108787 0.053124968
-0.07271345 -0.0015766848 -0.0005600937 -3.9641986e-06 -0.00013367266 -0.00015010146 -0.00024323651 -9.5049927e-07
-0.0029373786 -0.00013610114 -0.0025530872 -0.0018673441 -7.142043e-09 -0.0038807904 -1.0332677e-05 -0.007226908
-0.00047322141 -9.302627e-12 -0.08016598 -0.051887974 -0.0008209074 -0.0025390876 -4.5203903e-09 -0.004620322
-0.0007651632 -0.0024634798 -2.8150236e-05 -2.566091e-05 -0.0757871 -0.050087903 -0.0009888038 -0.0001142296
-5.9899044e-08 0.0044956366 -0.07279592 -1.0924737e-05 -0.0073452857 -0.003978028 -0.019621471 -1.732624e-05
-2.3248994e-08 -3.4155565e-09 -0.0051475065 -0.0072762263 -0.00555394 -0.06998738 -2.6385633e-08 -0.0027767064
-0.0719551 -0.0004487246 -0.020699738 -1.2730765e-06 -2.2684194e-06 -0.0054697376 -0.0030172975 -0.033280432
0.0066258498 -0.08471125 0.012300407 -0.0005854059 -0.00056256563 -1.1661391e-06 -7.1947493e-06 -6.485543e-07
-0.0008715483 -0.002815338 -0.0023891514 -0.005262918 -0.008560399 -0.0016490597 -5.5765904e-05 -6.135234e-05
-6.3539946e-06 -0.0018102067 -7.466901e-06 -0.0001342114 -0.005274426 -3.3638063e-08 -0.00047481147 -1.2013134e-05
-2.1102063e-05 -1.14912675e-08 -0.0122048855 -2.6276796e-06
00000000: ed1e 2fb8 301a 6db5 5f7c 25bc 6ffc 09ba
00000010: a67f ceb7 977b 52bd 3a16 b9bc 3068 6bb8
00000020: 2dd7 4eb9 1bdb 87bb 255c c238 d0c8 91ba
00000030: 790d 85b7 3c49 8db9 7ea4 6cbb 9199 593d
00000040: caea 94bd c3a8 ceba 40d3 12ba 3504 85b6
00000050: 7b2a 0cb9 8e64 1db9 4e0d 7fb9 d025 7fb5
00000060: 0981 40bb 5fb6 0eb9 b251 27bb acc1 f4ba
00000070: 1366 f5b1 dc54 7ebb 835a 2db7 b3cf ecbb
00000080: b41a f8b9 4fa7 23ad 102e a4bd 7c88 54bd
00000090: 2a32 57ba d266 26bb c651 9bb1 1266 97bb
000000a0: 3c95 48ba 5572 21bb 2c24 ecb7 6242 d7b7
000000b0: 4436 9bbd f928 4dbd c09a 81ba 8d8e efb8
000000c0: d9a1 80b3 2250 933b 0716 95bd 6349 37b7
000000d0: b9b0 f0bb 1e5a 82bb 35bd a0bc d157 91b7
000000e0: 14b5 c7b2 1bb7 6ab1 6aac a8bb 696d eebb
000000f0: d3fd b5bb 8b55 8fbd 9fa6 e2b2 67f9 35bb
00000100: 325d 93bd cc42 ebb9 7f92 a9bc 93de aab5
00000110: 263b 18b6 7c3b b3bb dabd 45bb 1051 08bd
00000120: a81d d93b 187d adbd a587 493c ed75 19ba
00000130: 2479 13ba 3c84 9cb5 6d6a f1b6 5018 2eb5
00000140: 9e78 64ba 8981 38bb 4f93 1cbb 8e74 acbb
00000150: ea40 0cbc 4325 d8ba 2fe6 69b8 49aa 80b8
00000160: 6634 d5b6 7544 edba 318c fab6 19bb 0cb9
00000170: 18d5 acbb 7179 10b3 1ef0 f8b9 058c 49b7
00000180: 5604 b1b7 216b 45b2 00f7 47bc 3157 30b6

feat_lam_net.2.weight f4 [1, 100]
-5.5343776e-07 6.4438683e-07 -0.2975675 0.00083648646 9.293646e-06 0.39742014 0.012434628 9.7110766e-05
5.7639267e-05 -0.01692099 -0.0001614799 -0.0011487155 1.1581717e-05 4.6725487e-05 -0.0063263597 -0.4029188
-0.45216835 0.00057373027 -0.00030866198 4.042174e-06 -2.9925848e-06 0.00015788313 -5.907837e-05 2.3434432e-06
-0.02660447 0.00014944244 0.0033976934 -0.009570346 4.1112773e-12 -0.004947925 1.1676486e-05 -0.052562695
-0.00015650554 1.3681469e-11 0.36122197 0.43057162 0.0005327187 -0.0019159571 -4.269092e-09 0.002985121
-0.00013987324 -0.0035771125 -8.358793e-06 1.335253e-05 0.40001172 0.37435544 0.0008991174 0.00017560623
3.031202e-08 -0.09669115 -0.48368633 3.0980368e-06 0.003421376 -0.0094131185 -0.054158792 -3.0664196e-06
1.3598381e-07 6.729248e-10 -0.022366222 -0.2265428 -0.008502281 0.41940334 -1.5527226e-08 -0.017666064
-0.59703016 0.00030049353 0.24471292 2.4889312e-08 -5.0480475e-07 -0.0015394667 -0.0065509467 -0.42794797
-0.36869887 0.4773421 -0.38816994 -0.00045530056 -0.00036425656 2.185244e-06 -4.0392474e-06 6.8636854e-07
0.0012537027 -0.33967152 0.003900034 -0.0047642193 -0.0640856 -0.0008862685 0.000139822 3.157853e-05
4.5184197e-07 -0.008626795 -2.1038618e-06 6.237756e-05 -0.012719992 6.4942505e-08 0.00015843585 -9.016872e-06
9.711675e-06 4.093816e-09 -0.02922158 2.4092005e-06
00000000: f48f 14b5 edf9 2c35 c45a 98be a847 5b3a
00000010: e8eb 1b37 a77a cb3e 9cba 4b3c f2a7 cb38
00000020: b1c1 7138 e39d 8abc ee52 29b9 7f90 96ba
00000030: 194f 4237 1cfb 4338 5a4d cfbb 5f4b cebe
00000040: 9c82 e7be 6366 163a e9d3 a1b9 03a2 8736
00000050: 37d4 48b6 6e8d 2539 ebca 77b8 0c44 1d36
00000060: 9ef1 d9bc a6b3 1c39 d6ab 5e3b f1cc 1cbc
00000070: 18a7 902c 3422 a2bb 20e6 4337 fb4b 57bd
00000080: a31b 24b9 dcaf 702d 16f2 b83e e273 dc3e
00000090: 26a6 0b3a da20 fbba 55af 92b1 05a2 433b
000000a0: f0aa 12b9 fd6d 6abb be3c 0cb7 ae04 6037
000000b0: 56ce cc3e 84ab bf3e bfb2 6b3a f022 3839
000000c0: 6b30 0233 0206 c6bd bca5 f7be dee7 4f36
000000d0: 2a39 603b 7b39 1abc 9cd5 5dbd b0c8 4db6
000000e0: f202 1234 e0f8 3830 5e39 b7bc d6fa 67be
000000f0: 274d 0bbc 09bc d63e bb60 85b2 6cb8 90bc
00000100: f8d6 18bf 8f8b 9d39 0696 7a3e 2dcc d532
00000110: eb81 07b5 eec7 c9ba 53a9 d6bb ff1b dbbe
00000120: 19c6 bcbe 2f66 f43e 36be c6be 68b5 eeb9
00000130: b0f9 beb9 35a6 1236 df88 87b6 e33e 3835
00000140: 4853 a43a 6de9 adbe b697 7f3b 2b1d 9cbb
00000150: 503f 83bd 7954 68ba 2f9d 1239 3073 0438
00000160: b094 f234 6757 0dbc 1230 0db6 b3d0 8238
00000170: 8367 50bc 8576 8b33 cd21 2639 2c47 17b7
00000180: 54ef 2237 96a9 8c31 1862 efbc c0ad 2136
