experiments/v/baseline.pt (torch, 359110 bytes, 9 tensors)

model.weight_ih_l0 f4 [256, 10]
00000000: 931e 543d 31c1 4e3e d72c 0bbd 48dc 0b3e
00000010: 4036 96bd 1d06 40bd 0f1e 503e 6a2a 453e
00000020: 21f1 c73d 7578 41bd a07e 56bd 7666 2b3d
00000030: 2838 e23d c643 6b3e a190 273e 313b 25bc
00000040: 7785 383d 24d2 863d 706f ce3d f7ef a53d
00000050: fa13 493e 5079 0e3e 4819 b1bc 46e9 8dbc
00000060: cf83 a53d 7d4b 8a3d 53be 60bd 7cc4 01bd
00000070: 01cb e83a 17ff 203e 3831 123e f335 b73d
00000080: 5f5b 1c3c 3769 8ebc 9b7a 1b3e e305 433e
00000090: a7f2 c6bc d6e6 163e e20d 50bd a998 4fbd
000000a0: f7da ca3c b8dc 013e 70d6 833d 3ed6 123e
000000b0: 673e 503d e868 4b3d 923f 9ebd 50c1 c23d
000000c0: 4cf8 223e d713 12bd dba0 753e 5c73 1d3e
000000d0: e52d 2d3e 25d3 8b3d a98b 643e 36fe 65bd
000000e0: 53db 2bbd 0adf e0bb 8455 b63c 7cc1 e83a
000000f0: 4176 5dbd 7a74 3d3e a5ef da3b a1f1 8fbc
00000100: 7abb 3dbd ae59 283e bd02 3dbd a53c 4c3d
00000110: 16cf 9e3d 3b81 4fbd 93db 91bd c1d6 03bc
00000120: 0e57 943d 6e1e 8fbd 46a4 3d3e 6721 2c3e
00000130: 1bb4 363c 79f6 443e c7ad 7fbc d340 7bbd
00000140: 1840 1fbd 5785 9cbd 888c 0b3e c26a 183e
00000150: 6396 3e3e 719c bfbd 7f25 71bd 0657 0a3e
00000160: e15f 0c3e 2d43 b3bd b868 8d3d 6fc1 003d
00000170: da4c 13bc b926 3c3e 4598 123e 2229 fc3d
00000180: 35e0 463d e5e7 5abd ae33 c0bd 97f7 0e3e
00000190: 56ee 0dbd 0121 9e3d 537f e9bc 31b2 243e
000001a0: fcf1 7dbd e6e8 fc3c cd02 813d f055 07bd
000001b0: 8e04 2a3e ed59 223e a3fe b23d 5ce1 c23d
000001c0: aa5b 28bd b581 013e a462 8f3d 956e 3b3d
000001d0: 0076 b63d 0f0f 463b 2844 a83d be9c e93d
000001e0: 4d61 623e 34cc c23d b4d4 773e 4d71 173d
000001f0: e3a4 3c3e d6fa a93d c3b2 6d3e c718 b63c
00000200: 8b6f c03d c719 fb3c b8ea cc3d 7238 e53d
00000210: 11a3 ba3d 1fca d43d 2d71 c13d 0cf2 3e3e
00000220: 81b9 023c efe5 02bd 9029 393e df3a 383e
00000230: eee6 3f3e 5469 273e eaea 403d d920 0cbc
00000240: 652a 593d 1841 843d f8cd 033e 5054 4e3d
00000250: b3dc 3e3e 5ffd 113e 1bd1 c73d 217f 2a3c
00000260: 101c 4c3e 2802 f9bc 4e24 b33d 0659 a43d
00000270: 4927 9ebd 9671 2e3e 170a e33d 871d cc3d
00000280: 2a6d 47bd 8767 57bd ec16 3e3e f7dd 133e
00000290: e238 993c cd75 4dbc 014a f9bc 0ce7 323e
000002a0: 98a0 42bd e7ce 1f3d e729 7dbd f0ba 033e
000002b0: 5973 c33d 82ce b93d 6f15 4f3e b164 7cbd
000002c0: 5d06 303e f561 a13d bf3c af3d b084 343e
000002d0: 5037 ffbb 1da4 1c3e 0964 9e3d 5308 3f3e
000002e0: 8ecf f73d 1c25 0d3b b864 c53d e1ad 313e
000002f0: 1ad5 333e b30c 213e 0c97 1fbc 8b65 c63d
00000300: 58aa e8bc f3d4 44bc 972d 6a3e 5d98 bc3d
00000310: 7cf2 013e 0cb1 593d 1b53 023e 10dd 08bd
00000320: 4600 873b babd 8aba e8d5 40bc c4ea 343e
00000330: ab95 643d 3665 ae3c 50c0 f93d 5e59 683e
00000340: cf3a 5a3e e82e 24bd c97a 8b3b 1e41 e3bd
00000350: bb6f c7bd b6b0 30be 6cbc 32be 5ef0 c8bc
00000360: c63e 84bd 7f20 bdbc 4b46 1fbe 2775 5d3b
00000370: 550b 033e 68c6 923d 0f6b 323e 15a1 97bd
00000380: ebee 7a3d 7f9b 883d 69f9 c73d 2f63 013e
00000390: 752f 4f3e 1f58 143e 9491 c93d 3f9c de3d
000003a0: ca27 e0bd 4a7d 15be e666 13bd 3c55 02be
000003b0: 4968 42be 98e3 e93d eea8 53bc f6f8 00be
000003c0: 1e0d 05bd 3d91 033e 3bd7 823d 998f d43d
000003d0: e03b 56bd 967b 7bbd f4e7 0fbd 471e 13bd
000003e0: 8491 d33c 0b00 32bd c5a2 873d b2a1 333e
000003f0: fe10 cb3c 7a55 8e3d 8ab5 d83d aa68 23bd
0.05178697 0.20190884 -0.03397831 0.1365825 -0.07334566 -0.04688083 0.20323966 0.19254461
0.097627886 -0.047234017 -0.052366853 0.04184576 0.11045867 0.22975072 0.16363765 -0.010084913
0.045049157 0.0658305 0.10079849 0.0810241 0.19636527 0.13913465 -0.0216185 -0.017323148
0.08081781 0.067526795 -0.054869007 -0.031681523 0.0017760695 0.15722309 0.14276588 0.08945837
0.009543269 -0.017384155 0.15183489 0.19045214 -0.024285628 0.14736494 -0.05079449 -0.050682697
0.024762614 0.12681854 0.06437385 0.1433954 0.05084076 0.049660593 -0.07726969 0.09509528
0.1591503 -0.035663452 0.23987143 0.15376037 0.16912039 0.06827382 0.22318901 -0.056150638
-0.04195721 -0.006862526 0.022257574 0.0017757858 -0.054067854 0.18501464 0.0066814 -0.017571272
-0.04632137 0.1644046 -0.04614519 0.049862523 0.07754342 -0.050660353 -0.071219586 -0.008046807
0.07243167 -0.06988226 0.18519697 0.16809617 0.011151339 0.19234647 -0.015605397 -0.061341118
-0.038879484 -0.0764262 0.13627827 0.14884475 0.18612055 -0.09356011 -0.05887365 0.1350976
0.1370845 -0.08753047 0.06904739 0.031434473 -0.008990491 0.18374147 0.14315899 0.12312533
0.048553664 -0.053443808 -0.09384857 0.13961636 -0.034651123 0.07721139 -0.028503096 0.160836
-0.061998352 0.030872773 0.06299362 -0.03304094 0.166033 0.15854616 0.08739974 0.0951564
-0.041103043 0.12647136 0.07001236 0.045759756 0.089092255 0.0030221378 0.08216125 0.11406849
0.2210743 0.09511605 0.24202234 0.036973286 0.18422274 0.08299796 0.23212723 0.022228612
0.09396275 0.03065194 0.100057065 0.11192407 0.09113134 0.10390114 0.09445415 0.18647021
0.007978798 -0.031957563 0.18082261 0.17991208 0.18740436 0.16348773 0.04709903 -0.008552753
0.053018946 0.06457728 0.1287154 0.050373375 0.18638878 0.1425681 0.097566806 0.010406286
0.1993258 -0.030396536 0.08747159 0.080247924 -0.07722337 0.17035517 0.11085909 0.099665694
-0.04868809 -0.052588966 0.18563432 0.14440142 0.018703882 -0.012540293 -0.030430796 0.1747095
-0.047516435 0.039015677 -0.06180754 0.1286428 0.09543485 0.09072591 0.2022302 -0.061619464
0.17189927 0.07880012 0.08556508 0.17628741 -0.007788576 0.15296979 0.07733924 0.18655519
0.12100135 0.0021537011 0.09638351 0.17351486 0.1756176 0.157275 -0.009740602 0.096873365
-0.028401539 -0.012013662 0.22868954 0.092087485 0.12690157 0.05314736 0.12727015 -0.033413947
0.0041199056 -0.0010585107 -0.011769749 0.17667681 0.055806797 0.021288496 0.12194884 0.22690341
0.21311496 -0.040083796 0.0042565805 -0.110964045 -0.09738108 -0.1725491 -0.1745469 -0.024528679
-0.064572856 -0.023086784 -0.15554158 0.0033791752 0.12797292 0.07166749 0.17423652 -0.07403771
0.061263006 0.066702835 0.09764368 0.12635492 0.20232947 0.1448674 0.0984222 0.10869645
-0.10945089 -0.14598575 -0.035986803 -0.12727827 -0.18985094 0.11420363 -0.012918694 -0.12594971
-0.032483213 0.12848373 0.06388708 0.103789516 -0.052303195 -0.061397158 -0.035133317 -0.035917547
0.025826223 -0.043457072 0.06622843 0.1754215 0.024788376 0.06949897 0.10581501 -0.039894737

model.weight_hh_l0 f4 [256, 64]
00000000: 2e3f 01be 0582 c63b e3c7 d9bd c286 00bd
00000010: aa1d f03d 2dae d43d 3f20 88bd 05db c0bd
00000020: e6eb d23d e4e1 21be d688 013e 0fae 603d
00000030: cae0 75ba 5eac 933d 7c49 223d edac dcbd
00000040: 27e6 d4bd b0f8 f83d ca91 b03c 39ae dc3b
00000050: dc4f 90bd 7faa 333e 9dc1 ecbd 4636 c93d
00000060: 7c39 7c3d 85cb aa3d bc4b 843b 0332 1a3e
00000070: 7f85 cfbd a862 b43c 9893 07be b882 02be
00000080: d038 babd a5d9 f6bd a5af a8bd d6be 97bb
00000090: 43b0 70bd 811f 7d3d 1699 57bd 80cd d5bd
000000a0: c709 c93d d20f 25bd 6711 33bc 6497 523c
000000b0: e9b7 15bc 48b2 6bbc 678c 73bd fc7b febd
000000c0: 1a22 93ba 1d67 63be b555 ff3d 56da 2cbd
000000d0: 7a2b 453e 5963 b23d 37f6 4c3e 8885 493c
000000e0: d72e 0ebe 3cdf 01be 382c 8b3d 7054 0cbe
000000f0: be5e 26be 4843 013e e483 cabd 17f2 b43d
00000100: 17f6 36be 26f0 5dbd 381a 823a 4650 1abe
00000110: be4d b93d a86c 973d d64c b0bd 1966 a4bd
00000120: 25ad a23d 676f bcbd f627 bd3b 8f77 12be
00000130: 258c 62be baa6 45bd 8af8 9dbd 9efd c5bd
00000140: aa12 68bd e599 a13d 1777 d53c 14ac be3d
00000150: c5ca aebd 2587 1dbd 5614 8fbd 0146 833d
00000160: 1f9c c53d 12cf 283e 2ac0 0fbc aafb 2e3d
00000170: c67b b6bd ec13 d0bb 8ee8 32be aad7 26be
00000180: 32f6 a3bd 96d6 e6bd 79c7 8fbd 1a8c 9dbd
00000190: 728e 0cbe 0f5a 6e3d ebb8 9d3c a0f2 8abd
000001a0: 740e 0d3e 79a3 50bc 385a 61bd 2339 bbbd
000001b0: 9623 343b bac6 cebd 0dd3 51bc 4a36 6cbd
000001c0: e9eb 7e3d eda7 02be 6765 4a3d fb88 3abc
000001d0: 6427 e13c 8fae 353d aa21 a0bb b07c c23c
000001e0: 2a83 1dbe 54b6 36bd caa6 ce3c fe09 e2bd
000001f0: f180 293d 48f5 0e3e af3b ecbd 43bb e83d
00000200: 0db9 8bbd 2129 abbd 5a2f 51bd 14b1 a9bd
00000210: 3b72 383d 0241 143d fa4b bebb 9946 2fbe
00000220: c795 803d 5e21 b9bd 0fab 323e 9e35 92bd
00000230: 0136 b7bd 9f38 b8bd fbd7 953d 2bb5 e3bd
00000240: bdd0 abbd 7128 853d 5822 863b b158 ca3d
00000250: 15df 55be 46c3 703d 6ca4 263b 3e20 753d
00000260: 8150 733d 8e68 d43d b684 723d 70ce 043e
00000270: 5185 82bc 5354 a43d 92cc f73b dbc4 71bd
00000280: 29de f8bd 936c 77bd 809a 13be d5e7 9abd
00000290: 4c02 23be 0325 1d3e e989 57be 10c4 b9bd
000002a0: 8734 243e c8b0 5cbd d320 9dbd fa53 ca3d
000002b0: 1ea6 dbbd 061c 53be 2c23 42be acc0 3cbe
000002c0: b465 213d bac8 e9bd daa7 b13d 4b23 83bd
000002d0: 7b62 0b3b 14d8 4b3e 10a0 f73d 1e82 bb3c
000002e0: fa98 04be d3c8 6dbd 91ee 7e3b 4350 0dbe
000002f0: 1046 063c 7628 343e 2ec3 1dbe 76a3 323e
00000300: 244d 8ebd 15d3 0f3c d541 58bc 4c02 80bd
00000310: dff5 ae3d 9725 8f3d 5923 05be 9993 93bd
00000320: 11b1 853d 16db 1abe bcba 7d3d 504e 70bd
00000330: 08f3 79bd 9ae4 e5bd f339 933d 5152 de3c
00000340: 17c2 08be bc40 9c3d 69c1 f73d da8c f23d
00000350: cde4 82bd aae9 d93d 70fb d2bd f6fb 223d
00000360: 9f93 f73d 5484 b33d c6bd 1e3d 9ad6 a83d
00000370: f30f 6ebd 2d62 c13d b639 b53c 0d78 40bd
00000380: e7e9 61bd b8bb 25be 57cd bfbd 2f8f 8bbd
00000390: a34f 5dbd ccb8 543d 8c54 11be 684d 2bbe
000003a0: 18d7 d43d 2b02 33be 37b1 fabd a618 a2bd
000003b0: 5cb5 c8bc d092 aabd a761 ddbd 83aa 81bd
000003c0: ed18 3f3d 0892 903d c7ca 0f3e 167e f1bd
000003d0: 09aa af3d 00bc 793e 46e0 613d 7112 a73c
000003e0: 6213 ca3d 0d11 0dbe 9d75 d73d 6a74 10be
000003f0: d0cd 05be 7719 343e cbd4 f1bd 2757 473e
-0.12621757 0.00605798 -0.106338285 -0.031378515 0.11724408 0.10384784 -0.066467755 -0.09416775
0.102989 -0.15808827 0.12649855 0.054853495 -0.00093795045 0.07210611 0.03962086 -0.107751705
-0.103954606 0.121568084 0.021553893 0.006734636 -0.07046482 0.17545508 -0.11560366 0.09824805
0.06157826 0.083395995 0.0040373486 0.1505814 -0.10132884 0.0220197 -0.13239896 -0.12745178
-0.090928674 -0.12053231 -0.082366265 -0.0046309037 -0.058761846 0.061797623 -0.05263623 -0.10439587
0.09816318 -0.04029829 -0.010929442 0.012853477 -0.009138086 -0.014385767 -0.05946007 -0.12425992
-0.0011225373 -0.22207303 0.12467519 -0.04220041 0.19254866 0.08710355 0.20015799 0.012299903
-0.13885055 -0.12682813 0.067955434 -0.13704085 -0.16247079 0.12623322 -0.098884374 0.088352375
-0.17867313 -0.0541841 0.0009926027 -0.15069684 0.09048031 0.073937714 -0.08608405 -0.08027286
0.07943181 -0.09200936 0.005772586 -0.1430342 -0.22123773 -0.048254706 -0.07713421 -0.09667514
-0.056658424 0.07890681 0.026057763 0.09310165 -0.08534769 -0.038458962 -0.06986301 0.064098366
0.09648918 0.16485241 -0.008773843 0.042720474 -0.08910327 -0.006350031 -0.17471525 -0.16293207
-0.080059424 -0.11271398 -0.07020468 -0.07692738 -0.13726214 0.058191355 0.019253215 -0.06784558
0.13775045 -0.012734287 -0.05501768 -0.09141757 0.0027487031 -0.10096498 -0.012806666 -0.05766896
0.0622367 -0.12759371 0.04941311 -0.011385198 0.027484603 0.044355925 -0.0048868256 0.023741096
-0.15382066 -0.044607475 0.025226016 -0.11037062 0.041382734 0.13960755 -0.11534821 0.11363842
-0.06822405 -0.08357454 -0.05107055 -0.08285728 0.045030814 0.03619481 -0.005807397 -0.17116775
0.06278568 -0.090395674 0.17448066 -0.07139133 -0.08945847 -0.089951746 0.07316586 -0.111185394
-0.08389423 0.06501854 0.0040934496 0.09880198 -0.2088588 0.058779977 0.0025427593 0.0598452
0.059402946 0.10371505 0.059208594 0.12969375 -0.01593271 0.08023896 0.0075622285 -0.059025627
-0.12151749 -0.06040628 -0.14414406 -0.0756375 -0.15918845 0.1534615 -0.21048702 -0.09070599
0.16035663 -0.05387953 -0.07672276 0.098792985 -0.10725044 -0.20616159 -0.1895873 -0.18432873
0.039403632 -0.11415239 0.08674593 -0.06403216 0.0021268416 0.19906646 0.120910764 0.022889193
-0.12948981 -0.05805285 0.003889952 -0.13800149 0.008195415 0.1759356 -0.15406486 0.17445168
-0.06948307 0.008778353 -0.013199289 -0.06250438 0.0854299 0.069895916 -0.13001765 -0.072058864
0.06527913 -0.15122637 0.061945662 -0.058668435 -0.06102279 -0.11225243 0.07188787 0.02713886
-0.1335529 0.076295346 0.12097437 0.118432716 -0.063912965 0.10640271 -0.10301864 0.03979107
0.12088703 0.08765474 0.0387552 0.08244057 -0.05812068 0.09442554 0.022122245 -0.04698949
-0.055154707 -0.1618489 -0.09365337 -0.068144195 -0.054031026 0.05193405 -0.14192408 -0.16728747
0.103925884 -0.17481296 -0.12240832 -0.079148576 -0.024500541 -0.083287835 -0.10809641 -0.06331351
0.04665463 0.07059103 0.14042197 -0.11791627 0.085773535 0.24388123 0.055145524 0.020394536
0.09866978 -0.13776036 0.1052048 -0.14106908 -0.13066792 0.17587839 -0.11808165 0.1946684

model.weight_ih_l1 f4 [256, 64]
00000000: 8944 ecbd 6239 473c 3c7e 17be 29d3 57be
00000010: 8c34 293e e237 7b3d 7baa a13c 59ac 533d
00000020: 5cc8 1a3d 650a 313d 310a 603d ce91 a5bd
00000030: bb03 efbd 0931 e5bd 5f14 1b3e 4732 4dbe
00000040: 87e1 363d 2578 063e 49d3 823c 1013 03bd
00000050: 1d2c 54be da61 003d bbb1 39be 349c 793d
00000060: 7f8f bc3d 236d 033e c06c a3bd f9ce 663d
00000070: c532 0cbe 5a02 3b3e df88 63be 6641 50bb
00000080: 6288 b43b 2d7a 58be d32e 843d 6b0d e1bd
00000090: 9993 45bd 11a0 573e 9347 1abe 4b0b d5bc
000000a0: a65d 313d e7e9 2dbe 1745 23be ea05 0ebd
000000b0: 8f52 5abe 46bb f5bd d381 52be 32b4 0a3a
000000c0: f0c9 c33d c82c 1c3d 3221 b83d 6441 d5bd
000000d0: de72 c03d e71e 533d 3ac5 1c3e 6b6e ca3d
000000e0: 13d2 03be f818 4cbe 2ad5 393e dfb6 d2bd
000000f0: f0df 06be 9bc9 8d3c 8eff 073d 2798 a33d
00000100: 4318 15be 9401 163d e058 bf3a 00db 35be
00000110: a347 573e e081 d63d 1e92 dabd e09d ffbb
00000120: 6517 17bd 9a36 31bb 748e 183e 328b debd
00000130: 2ba1 9e3c 02c8 32be 6da5 3d3d 4786 5abd
00000140: 8161 d23c e9c2 8b3c 0e72 023e fd76 213e
00000150: 4df9 94bc e834 273e 6dfa 34be c4e9 973d
00000160: 9942 003e fa1f 953d ed49 363e ad48 4c3e
00000170: dd4e 22bd 73a9 38bd adea 0abe 74fe 0fbe
00000180: 047d efbd ec97 b2bc 88c0 1fbe 60b0 b43c
00000190: 567a 08be 26bd 2e3e d0f3 83bd 274f f5bd
000001a0: 44b6 b93d 33d2 17be 3e9c ebbd 9b89 edbc
000001b0: 812b 3bbe 19d1 b93c dbd0 55be f996 0dbd
000001c0: e5f2 cebc 07cf 0abe 6399 61bb 0520 b9bd
000001d0: aa2e 053e 6806 1a3c 83a2 7a3d d7c9 e8bc
000001e0: 3483 3fbc 5c94 0cbe d408 0cbe adb4 32be
000001f0: 148b 10be d27b e53b f654 dfbd 522e 623e
00000200: b945 a53d 08fe e13d fc46 503e e2ee 623e
00000210: 45b0 da3c eef2 0bbd d265 d23d a661 b93c
00000220: e4bb 16bd eb14 423e 11d1 5fbe a834 5c3e
00000230: 8f79 85bd 8ceb 19bd d1f5 353d 268b 663e
00000240: d8ca e23d dcf2 87bc 1659 e83c 4660 a4bc
00000250: d7f2 553e acc4 9fbd b581 c93d 9965 40bc
00000260: 129e febd 1658 02be 8f37 0fbe 47ae 18be
00000270: 28ae 173e d785 503d 4931 8abd 2e65 083d
00000280: 4f32 e03d b26a 5a3e ab06 9d3d 8749 93bb
00000290: 784a 043e e985 18bc 7ae5 163c 8baa 8f3d
000002a0: 98cd 95bc 5540 e2bc da81 223c 252f 8e3c
000002b0: 6f5a fc3d 06da 6a3d 01a4 de3c 2f94 603d
000002c0: 33c1 febd 02b5 f7bc d750 143d 7645 e9bc
000002d0: 17fd 103d d7b8 8b3d c8ef 4abe d9f3 19be
000002e0: 2bd4 f73d 4fed 8b3d 7702 833d 3a42 673b
000002f0: f12f 383e 418f 2fbe 5dae 983d 7ede bb3b
00000300: 3994 d7bc 84a6 fd3c e9c9 f9bc 089f 38be
00000310: 977b 473e a2a5 973d c60f 9abd 4085 47be
00000320: b99d 5abc ce8c d4bd 5cef 183e c9cd 2fbe
00000330: 9d88 d9bd e85e 1a3d 1806 1f3e 4811 04be
00000340: 8579 22bd f4e9 4a3e 590e 353e 3d86 50bd
00000350: 708b b8bd 66e2 b93c 4c5b 5ebe 8dba ee3d
00000360: cc2d 28bd ce2a 203e 08f4 c13d 3b77 723d
00000370: 482a 0a3d f848 353e 62f8 4cbd 77ad 33be
00000380: 9e84 3abe 7328 b7bd b0f3 13bc 04a7 15be
00000390: ff47 d1bc df3f 0d3e ed77 84bd 1d47 09be
000003a0: 5f8d 04bd d011 bbbc 4f03 c8bc 5355 cdbd
000003b0: b874 a23c 7840 12be 88c9 643c 509f f43c
000003c0: fc36 04bc 044f ddbd 65b7 3e3e b1f1 3d3c
000003d0: e8d0 41bd 5627 ccbc 89af 3f3b 30ec 3c3e
000003e0: f235 b4bd 8cc5 cdbd f1b2 d6bc 4752 cbbd
000003f0: b072 4ebd 33b3 a73c 6868 a03a b9d8 9e3d
-0.115365095 0.012159677 -0.14794248 -0.21076645 0.16523951 0.06133259 0.019734612 0.051678035
0.037788734 0.043222804 0.05469722 -0.08084451 -0.116706334 -0.11190993 0.1514449 -0.2003871
0.044648673 0.13131769 0.01596989 -0.0320006 -0.20719953 0.03134332 -0.18134205 0.060939983
0.09207057 0.12834601 -0.07979727 0.05634973 -0.13691242 0.18262616 -0.22220181 -0.0031777262
0.005509422 -0.21140356 0.064542435 -0.109888874 -0.048236463 0.21057154 -0.15066366 -0.026006361
0.0433022 -0.16983758 -0.15944324 -0.03467361 -0.21320556 -0.1199861 -0.20557337 0.00052911334
0.09560001 0.038128644 0.089907065 -0.10412863 0.09396909 0.051543143 0.15309611 0.09884342
-0.12873106 -0.199314 0.18147722 -0.10288786 -0.13171363 0.017308047 0.0332027 0.07988005
-0.14560036 0.0366226 0.001459863 -0.17759323 0.21023421 0.104739904 -0.10672401 -0.0078008026
-0.036887545 -0.0027040602 0.14898092 -0.10866393 0.01936396 -0.1745911 0.04630034 -0.053350713
0.02568126 0.017060714 0.12738821 0.15768047 -0.018185282 0.16328776 -0.17673655 0.07417634
0.12525405 0.0728149 0.17801638 0.19949599 -0.03962599 -0.045083474 -0.13566084 -0.1406191
-0.11693767 -0.021800958 -0.15600789 0.022056758 -0.13327917 0.17064342 -0.06442988 -0.11977988
0.090679675 -0.14826278 -0.1150441 -0.02899628 -0.18278314 0.022682713 -0.20880453 -0.034567807
-0.025262306 -0.13555537 -0.00344237 -0.0903931 0.13006082 0.009400941 0.06119014 -0.028416557
-0.011688996 -0.1372847 -0.13675243 -0.17451735 -0.14115554 0.007003286 -0.10904877 0.22087982
0.08069939 0.11034781 0.20339578 0.22161439 0.02669538 -0.034167223 0.10273327 0.02262957
-0.03680028 0.18953292 -0.21857096 0.21504462 -0.06517326 -0.03757815 0.044423882 0.22514018
0.110738456 -0.016595297 0.028362792 -0.020065438 0.20893417 -0.07801184 0.09839193 -0.011742973
-0.12432493 -0.12728915 -0.13986038 -0.14910232 0.14812529 0.05090889 -0.06747682 0.033299617
0.109470956 0.21329764 0.076672874 -0.004494849 0.12919033 -0.00930927 0.009209985 0.0701495
-0.018286511 -0.027618567 0.009918654 0.017356465 0.12321936 0.05733683 0.027177813 0.05482882
-0.124391936 -0.030237678 0.036209907 -0.028475504 0.035397615 0.06822365 -0.19818032 -0.15034427
0.12101015 0.068323724 0.063969545 0.0035287277 0.17987038 -0.17144491 0.07455132 0.0057333102
-0.026315795 0.03096319 -0.030491786 -0.18029416 0.1948074 0.07404639 -0.0752254 -0.19484425
-0.013343268 -0.10378419 0.14935058 -0.17168345 -0.1062176 0.037688166 0.15529668 -0.12897217
-0.03966667 0.19815809 0.17681254 -0.05090927 -0.090109706 0.022690963 -0.21714514 0.116566755
-0.0410593 0.15641329 0.094703734 0.05919574 0.03373173 0.17703617 -0.050041564 -0.1754664
-0.18214652 -0.08943262 -0.009030268 -0.14614493 -0.025547026 0.13793896 -0.064681865 -0.13406034
-0.032361384 -0.022835642 -0.02441564 -0.1002604 0.019831046 -0.14282405 0.013964064 0.029861122
-0.00806975 -0.10806087 0.18624647 0.011593268 -0.04731837 -0.0249211 0.0029248914 0.18449473
-0.08799352 -0.10047445 -0.026208373 -0.099278025 -0.050402343 0.020471191 0.0012238147 0.0775618

model.weight_hh_l1 f4 [256, 64]
00000000: 6761 ec3d 98b9 07bd 0d9d 233d 8c3d c73d
00000010: b926 55be 8351 203e d9c6 bbbd 190b eabd
00000020: 090a 1fbe 3ab7 033e d9ee 6d3d bbf2 13be
00000030: 3b0a be3d 99b8 903d 65b6 3b3d 713f f63d
00000040: 8a24 2fbe e190 663d 35d8 3a3d 6921 a4bd
00000050: ac86 aabd db52 b8bd 60d4 01bc 29fb 98bd
00000060: f34b 9ebd f9ff d8bd fec9 903e 14d8 cb3d
00000070: 2247 153d 9ae9 42bd f111 1abe a8d7 2fbe
00000080: d173 2bbe fcbe fe3d d786 923d 5c90 0abe
00000090: 0924 e93d 861a 40bc 12fb bd3c f658 d4bc
000000a0: 3acc 16be 2604 23bc 5bf6 2cbd 46a6 003e
000000b0: d96b a33c fc16 703d 73be ec3d 11e5 d03b
000000c0: ffaa e03d f88e 12be 5065 1f3e 2a6b c2bb
000000d0: 84b9 d93d 3b20 993b 0504 ca3d 0d22 19bd
000000e0: e45d ca3d 4ce7 233b 85c3 68bd cb3b b6bc
000000f0: f712 5bbd 1492 a9bb 2dd4 9c3a 223c 00bd
00000100: 2dd4 6d3d 167a d13d f8ce 8fbc 81eb c1bc
00000110: 9d58 1abe 1307 e53d 7aa3 ffbd 9662 473d
00000120: 4f56 01be 69c2 983c ec66 dabd c091 dabc
00000130: 56f8 c23d 4e50 b53d 6aab 0c3e 3813 a23d
00000140: 0549 883d 29e5 89bd c01a 34bd b944 eebd
00000150: 0c3a 41be 85d1 50bc 331b a3bd 6b62 7f3d
00000160: 03a5 0bbd f4b7 20be c334 893d 3ef2 b03d
00000170: 9bc5 e43d d9e8 bcbd 4fad 00bd 5c05 8c3d
00000180: e97b c5bd 7a3e be3d 4766 5b3d 5b30 e5bc
00000190: 0b07 f43d f931 10be 82c3 01be 26d2 1bbe
000001a0: e8c0 a4bd 1081 ef3d 8a3d afbd 055b 5e3d
000001b0: 53a7 913c a60a be3d 1787 5e3e 215c 603d
000001c0: fcdb 5d3e a225 b0bd 5e33 0c3e 743d a33c
000001d0: 34e5 903d 2ba5 5f3d 4829 f63d def1 52bd
000001e0: a8ea 71bd f327 a5bb a68e 9cbc eefb 0a3e
000001f0: e4a9 93bd 5356 83bc 9838 45be 7652 dabd
00000200: 6da6 e7bd 8ae1 b2bd 4b2d d83c ff0d afbd
00000210: 0a22 1a3e bf91 15be 0243 0c3d 278a c63d
00000220: 7c80 033e 228b c3bd 1dc6 b83d 2d2a 263d
00000230: f50f e1bc 3ed8 3ebe 9306 3bbd ade2 35bc
00000240: bb21 473d de64 4e3d 213e 3c3e 75ec fb3c
00000250: 0376 d73d 1ffe e23d 1454 f3bc af50 b43d
00000260: 459d 013d 1b21 8e3d 5016 bdbd 3805 1dbe
00000270: 5fb3 e1bc 02c9 223e e32d b13d fb7a d2bc
00000280: 00bb be3b 89a3 3bbc 45e0 9bbd d119 4b3d
00000290: d7d7 c8bd c530 82bd dee3 a03d 0c25 da3d
000002a0: f87a d43c c10e 45bd 8ee9 da3d 086a b9bc
000002b0: 021c febc 8331 d9bd 6402 2dbe 3fc1 09bd
000002c0: 77ae 2e3c cb85 f7bc b665 7c3c c331 c43d
000002d0: 8a0c 12be 2035 ebbd f141 ddbd f997 c63b
000002e0: cc0f 29bd 0dff 28bc c685 65bd 372f 62bd
000002f0: 9efa 9a3d 4e9a ba3d b9e3 ba3c e3e7 573d
00000300: 161e 203d 92aa 053e d1e7 97bc f1c9 963d
00000310: d9c4 b13d 329d f03d 3a56 adbd b64e 04be
00000320: f5c1 3f3c 1ada 0e3e d7c9 00be bc8e c4bd
00000330: c7ab 343d 441d 443d 5e34 bb3d d9ae 093d
00000340: 3b9d 13be c162 18bc 4cb7 0fbe a283 1fbd
00000350: 7cbc 5abe 7fec a1bd abec 4d3c c2eb 9cbd
00000360: 46d9 11be 8d93 9cbd 15d0 37bd 23ba af3d
00000370: 837a 953d e2d9 dbbd 5b0f a0bd 0890 103d
00000380: c64d b4bd 27e2 9c3d e5f6 3c3e 8ad3 cabd
00000390: e87a 453d f317 75bd 8ab6 bbbc 7905 91bd
000003a0: 1020 ac3b 1318 3ebc 33da fabc 487d 303c
000003b0: 85e4 9cbd 762f 0b3e fbc5 4d3d 802b 103c
000003c0: 8ae2 243d 89ad 28be 44aa 373d c68b 41bd
000003d0: 82ce 083e fb3f 543c 3d35 9d3d 6c97 2cbe
000003e0: cb84 74bc b326 4c3e 3474 c53d 4995 f33d
000003f0: 5db5 babd 4389 17be 994a 4abc 20cb 7f3d
0.115420155 -0.03313598 0.039944697 0.09728536 -0.20815553 0.15656094 -0.091687866 -0.11427898
-0.15531172 0.12862864 0.05808911 -0.14448063 0.09279295 0.07066459 0.04582824 0.12023819
-0.17103782 0.05629051 0.045616347 -0.08014185 -0.08326468 -0.090001784 -0.007924169 -0.0746978
-0.0772933 -0.10595698 0.28279108 0.09953323 0.03644479 -0.04758606 -0.15045907 -0.1717211
-0.16743399 0.12438771 0.07154625 -0.13531631 0.11383826 -0.011725074 0.023191009 -0.025921326
-0.14726344 -0.0099497195 -0.04222713 0.12563428 0.019948887 0.05861567 0.11559763 0.006374963
0.10970115 -0.14312351 0.15565991 -0.005933185 0.106310874 0.0046730316 0.09864048 -0.03738599
0.098811895 0.002500969 -0.056827087 -0.022245308 -0.053484883 -0.0051748846 0.0011965089 -0.031307347
0.058063675 0.10228364 -0.017554745 -0.023671867 -0.15072866 0.1118299 -0.124823526 0.048678003
-0.1263058 0.01864739 -0.10664162 -0.026680827 0.095200226 0.088532075 0.13737264 0.07913822
0.06654552 -0.06733162 -0.043970823 -0.116342016 -0.188698 -0.012745266 -0.07964172 0.062349718
-0.034092914 -0.15695173 0.066995166 0.08639954 0.11170503 -0.092241 -0.03141528 0.0683696
-0.096427746 0.0928926 0.053564336 -0.02797716 0.11915406 -0.14081563 -0.12672237 -0.15216884
-0.080446064 0.116945386 -0.085566595 0.05428602 0.017779982 0.09279375 0.2173122 0.05477536
0.21665949 -0.08600928 0.1369147 0.019926764 0.07074967 0.054600876 0.120195925 -0.051500194
-0.059061676 -0.0050401627 -0.019110989 0.13572666 -0.072101384 -0.016032374 -0.1925987 -0.106602594
-0.1131104 -0.087344244 0.026388785 -0.085475914 0.15052047 -0.14606379 0.03424359 0.09694319
0.12841982 -0.09548022 0.09022162 0.040567566 -0.02747343 -0.18637177 -0.045660567 -0.011101407
0.048616152 0.050389163 0.18383075 0.0307524 0.10520556 0.11083626 -0.029703178 0.08804452
0.031644125 0.06939908 -0.092327714 -0.15334022 -0.027551351 0.15896991 0.0865133 -0.025693407
0.005820632 -0.011452564 -0.076111354 0.049585167 -0.09806793 -0.06356958 0.07855962 0.106515974
0.025937542 -0.048109774 0.10689078 -0.022633567 -0.031019215 -0.10605147 -0.16895443 -0.03363156
0.010661713 -0.030215165 0.015405109 0.09579804 -0.14262596 -0.11484742 -0.10803593 0.006060597
-0.04127483 -0.010314715 -0.05603578 -0.05522081 0.07567333 0.091114625 0.022813665 0.05271138
0.039091192 0.13053349 -0.018543156 0.07362736 0.08680124 0.117487326 -0.08463712 -0.12920651
0.011703958 0.13950387 -0.12576996 -0.09597537 0.044109132 0.047879472 0.091408476 0.033614013
-0.14415447 -0.0093008885 -0.14034766 -0.038943894 -0.21360964 -0.07906436 0.012568633 -0.07662155
-0.1424304 -0.076453306 -0.044876177 0.08580425 0.07298758 -0.10734917 -0.07815429 0.03529361
-0.088038966 0.07660323 0.18453558 -0.09903629 0.048212916 -0.059837293 -0.02291419 -0.07081122
0.0052528456 -0.011602419 -0.030621624 0.010772057 -0.07660774 0.13592324 0.050237637 0.008799434
0.040255107 -0.16472448 0.044840112 -0.04725244 0.13360026 0.012954707 0.0767617 -0.16854638
-0.014924238 0.19936638 0.096413046 0.11893708 -0.091166236 -0.14798455 -0.012346887 0.062449574

model.weight_ih_l2 f4 [256, 64]
00000000: e897 66bd 2d77 acbd 4ad1 023e 9089 03be
00000010: fdc9 823e 0417 6bbd b7af f03d fcbf 003e
00000020: 351f 623e 9bbd 8bbe 4f4c ed3d 3e8f 0e3d
00000030: 4585 f7bd 49ac 5fbe 3375 03be 15b2 63be
00000040: 71e9 093d 36ba f3bc 3d9e f73d b5d2 703e
00000050: d0d1 f8bb 861d 843c 26fe b7bd 64ba 263e
00000060: 7371 533e e8a8 5f3e 2157 7bbe e34c 3dbd
00000070: 8475 96bb 3ccc 6b3c 5b94 093e fb0e 883e
00000080: 141b 4c3e 5f93 92be 1045 993c 7b73 c13d
00000090: bd67 f0bd 4eb7 0b3e 0e46 583d 6c53 383e
000000a0: 1001 a4bb b8e2 02be f7a6 413e f566 91bd
000000b0: 1371 e93d 1eb4 1d3d b8d2 c7bc 2cc4 f03d
000000c0: 515d 2dbe fc4c 683e 839e 54be 1177 a5bd
000000d0: 301c 7abe 299e 6ebe e829 27be 3931 debd
000000e0: 3b70 e8bd 0519 09be 3e44 7ebe 1850 29be
000000f0: 954c 033e 2723 433e 65e0 243e c394 1a3c
00000100: 627d 67bd 11c4 aa3d dc17 29bd b7e2 a3bc
00000110: e52e 543d 34f3 f23d 3808 65bc 1c2a afbd
00000120: e2ba 35be 2273 753b 705c 97bd 227b 54be
00000130: 411f 573e 84d1 df3c 1900 eb3d abdb 0b3e
00000140: eaf1 17bd 10b9 923c eb38 49be 939f 54be
00000150: 5271 39be e4cc 7a3d b4fe 273e 1edd 3fbd
00000160: f17f 82bd 2a40 02be e73a 113c d0ae 353e
00000170: e24c 383e 1957 babd 808f 13be 4319 f1bd
00000180: f62d 52be 5fe7 b33d 4d0c 613e 4013 44be
00000190: 3dc8 393d b2d2 debd 7272 32be 69de d1bc
000001a0: 5367 51bd 3ce7 223e 0e63 42bd eead 30bd
000001b0: c29c 66bd 162b 193d 384f 20bc 4e20 5d3d
000001c0: c06d 1bbd e8ec a1bd 58cf 083e 4804 bc3d
000001d0: af07 243d cc5a d23c f7a2 1d3e eada ba3c
000001e0: 0782 25bd 440e 843d d6f7 e03d c077 353e
000001f0: acf2 17be af7d 9bbd 675e 7b3d 4e06 813d
00000200: 41da 4dbd efe8 273e 3ca2 7d3d 143b 2fbd
00000210: a5f7 84bd 42fc 89bc 5c48 32be c366 34bd
00000220: 55ed 67bd 953a 4dbd 4528 06bd 980f 1cbe
00000230: 6e00 9f3d d510 9a3d f062 b73d 91d2 583e
00000240: a56e 4dbe 3f7f 59be 2c53 463a c0dc f5bd
00000250: 6642 62bd 4561 3bbd 2498 093d fc32 86bd
00000260: 352d 6fbd e941 13be 9423 503e 8e79 163e
00000270: 1d17 8bbb 56a9 87bd 74f4 74bd adae ad3c
00000280: fa01 75bd 5e42 293e b011 473b 9512 a3bd
00000290: 8e14 533e 2a47 50b9 f0de 21be b1e1 24be
000002a0: b78c 3dbe 098f 533e 8c6c 13bd 8438 ed3c
000002b0: f481 a23c ee37 da3d 523f 4cbd 85bf 0abd
000002c0: 1038 ec3b 7484 9fbc fe83 a13d fdc4 e83d
000002d0: b21f d73d f9a8 293e e83b c73c a388 cebd
000002e0: 4fa7 243e d942 1abd edff 9dbb 743c 583e
000002f0: 109f 8fbc 218b 38be 6a14 1f3d 216c 54bd
00000300: 1d92 c7bb c6f4 363e 5ce3 dbbd 0f31 38bd
00000310: 074b 41be 6fd1 bb3d f2ee 513d e934 0ebe
00000320: 0fdb 583d ed4a 393e ac54 34bd 3956 05be
00000330: 87c2 bb3d a2ea ba3d a2ba e2bc 77ea 7b3d
00000340: 8156 67bd 7680 463c 8a69 a3bd d60e 21bd
00000350: 7212 4fbd c424 933c df9c ad3d e1b4 2c3d
00000360: 5a70 17be d781 4abe 4dcd 08bd aa53 45bd
00000370: 562d 24bd 96de b3bd fdf8 353d 9ddc 08bd
00000380: 6fac 7dbd 6cdd 0c3d 80ce fd3d 2334 2abc
00000390: 2b84 813c d92a 81bd ab36 7c3c 1751 81bd
000003a0: d1de 29bc 13b9 5dbd cb78 04be 7dc5 4cbd
000003b0: 1e55 3dbe 9c71 04bd 38ad 083a 8fcb ee3d
000003c0: 3591 233e 9967 33be a8fa 2a3e faca 083e
000003d0: 1f0a 703d 8ef0 ca3d 02e8 85bd 4e02 adbd
000003e0: 926e 443e b926 c43c dd96 283e 7b5a 8c3d
000003f0: adfa 093d cb4d 1fbe 3841 41be 870a 59bd
-0.056297213 -0.084211685 0.1277515 -0.12845445 0.2554473 -0.057394996 0.11752265 0.12573236
0.22082217 -0.27293095 0.1158682 0.034804575 -0.12085966 -0.21843065 -0.12837677 -0.22235902
0.033669893 -0.029751878 0.120907284 0.23517878 -0.007593371 0.01612736 -0.08984022 0.1628204
0.20648746 0.21841776 -0.24544956 -0.046215903 -0.0045916457 0.014391955 0.134355 0.2657393
0.19932204 -0.2862806 0.01870969 0.09445854 -0.117385365 0.13644144 0.052801184 0.18000573
-0.0050050095 -0.12781799 0.18911348 -0.070997156 0.1139852 0.03850185 -0.02439247 0.11756167
-0.16930129 0.22685617 -0.20763592 -0.08079351 -0.24424815 -0.23302521 -0.1632458 -0.10849232
-0.11349531 -0.1338845 -0.2483072 -0.1653446 0.12822182 0.19056378 0.16101225 0.009434882
-0.05651606 0.08338178 -0.04128252 -0.020005567 0.051802535 0.118627936 -0.01397901 -0.085529536
-0.17747071 0.0037452658 -0.07390678 -0.20750096 0.21008016 0.027321585 0.11474628 0.13658015
-0.03709594 0.01791051 -0.19650619 -0.20763998 -0.18109635 0.061230555 0.16405755 -0.046841733
-0.06372059 -0.12719789 0.008864141 0.17742467 0.17998078 -0.09098644 -0.1441021 -0.117723964
-0.20525345 0.08784365 0.21977349 -0.19147968 0.045356978 -0.10880031 -0.1742647 -0.025618749
-0.05112393 0.15908521 -0.047457747 -0.043134622 -0.05630184 0.037394606 -0.009784512 0.053985886
-0.037946463 -0.079065144 0.13360345 0.09180504 0.04004639 0.025678061 0.15394197 0.022809464
-0.040407207 0.064480335 0.10984771 0.17721462 -0.14838666 -0.075923316 0.061369326 0.06300031
-0.05025697 0.16397451 0.061922297 -0.04278095 -0.06492547 -0.016843919 -0.17410415 -0.044043314
-0.05662282 -0.050104696 -0.032753248 -0.15240324 0.07763754 0.07522742 0.08954418 0.21174075
-0.20061739 -0.21239947 0.0007565494 -0.12004995 -0.055239104 -0.04574706 0.03359236 -0.06552693
-0.058392722 -0.14380611 0.20326072 0.14694807 -0.0042446987 -0.06624095 -0.05980344 0.021201456
-0.059816338 0.16529223 0.0030375533 -0.079625286 0.2061331 -0.00019862936 -0.158077 -0.1610172
-0.1851071 0.20660032 -0.03599219 0.028957613 0.019837357 0.10655199 -0.049865074 -0.033874054
0.0072088316 -0.019472338 0.07886504 0.113656975 0.10504092 0.16568364 0.024320558 -0.10084655
0.16079448 -0.037661407 -0.0048217685 0.21116811 -0.017531902 -0.18021823 0.038837828 -0.051860932
-0.006090416 0.17866811 -0.10736725 -0.04496866 -0.18876277 0.09170806 0.051253267 -0.13887371
0.052943286 0.18094988 -0.044026062 -0.13021173 0.091679625 0.09126784 -0.027676884 0.0615029
-0.05647898 0.012115588 -0.07979114 -0.03932079 -0.0505547 0.017961867 0.084771864 0.042164687
-0.14788952 -0.19776092 -0.033398915 -0.04817549 -0.0400823 -0.08782689 0.044426907 -0.03341352
-0.061932024 0.03439085 0.123929024 -0.010388407 0.015810093 -0.06307001 0.015393893 -0.06314295
-0.010368065 -0.05413158 -0.12936704 -0.049993027 -0.18489501 -0.03233491 0.00052138 0.116599195
0.15973361 -0.17519988 0.1669718 0.1335868 0.058603402 0.099091634 -0.065383926 -0.08447705
0.19182804 0.023944246 0.164638 0.06853195 0.03368633 -0.1555702 -0.18872535 -0.052988555

model.weight_hh_l2 f4 [256, 64]
00000000: 026d fcbc 0a7d 993d 96cc 21bd 1b20 28bd
00000010: 6be2 e43d 0651 9e3c 7eb6 b03d 5b5b d8bd
00000020: 96af a4bd 985b 2cbd 25e1 053d 23aa 07be
00000030: 6184 01be ce79 4e3e 2219 54be 542f 23bd
00000040: e2f2 07bd e555 10be b71f 593e 5170 e2bd
00000050: 8207 1abe a102 6b3e d85d 903e 858b 2fbe
00000060: 9509 853e 980d 7cbe 03a7 083e 654a 0abe
00000070: f7b8 c23d f3ba 45be 01c0 163b 8d40 42be
00000080: 0b48 413e 4adf 24bd dd31 e1bd e8e0 0fbe
00000090: 7903 15be ece9 56bd a3b9 dfbd 40a2 2c3e
000000a0: 2b01 0b3e 88be d53d ca2b afbd ac94 2f3e
000000b0: add8 e63d d674 c53d 013e f1bd 296b 003e
000000c0: 8a6e 69bc 993c 30be 353b 60be b41c 3ebe
000000d0: 3fb1 21be ebe9 1b3e 5774 863d 8ba6 633e
000000e0: ea30 ac3d 0da1 1bbe fe19 9d3d 5bd1 e5bc
000000f0: 4f62 e63d 179f ff3d 63a8 c43d efa0 edbc
00000100: dea5 5f3e 048f 07be e2d6 d8bc f2d1 c63d
00000110: e59c 8bbd 0eb8 11bd 9cc4 bcbd 1043 1a3e
00000120: 465d 333e 0c26 a53d bfd9 14be 1d82 f53d
00000130: 61a6 cf3c 906c 043d 30b1 3e3e 9087 e73d
00000140: cad9 b13d 13fa 293d cfbb 9fbd fda6 a53d
00000150: 1128 f93d b693 33be ead1 a63c 2711 a73d
00000160: e6ee 75bd 2637 f33d f890 39be b09e 463d
00000170: 32e5 96bd 9ef3 0e3d 0bd1 a23d 07e6 b13d
00000180: 3af7 ddbd 0ee0 603d 7005 0f3d 76c2 1d3c
00000190: 5fa3 2c3e 9004 af3d b34b 2e3e fa58 d0bc
000001a0: 2f17 06bc a5b2 083e 8c2d 333a 7196 813c
000001b0: 04ad 82bd e992 d5bd 1d53 863c eb29 a4bd
000001c0: 7aba a6bd fd26 b63c 18b9 6e3d 1307 0d3e
000001d0: e227 353e fcb0 80bd 8e2b 22be de0c 53bd
000001e0: d90e 60be cac9 453b 40bd 08be a07e 9fbd
000001f0: e6d6 e3bc 649d a33d 64df 68bd 49c7 1cbd
00000200: fed6 403d e242 46be 0cc7 1ebd 338c 053e
00000210: 7a96 0abe 9173 7fbd a6a3 30bd c1d9 1c3e
00000220: 68f0 ce3d 5fe4 44bc a2d4 6ebd a3be 6d3e
00000230: 452a ec3d 77f0 ebbd 2d61 e23d a86b 373e
00000240: abc2 433e 486d 0e3e 4e03 f6bd c0da 3c3e
00000250: ee20 933d 3068 b03d 1afd 983b 84b1 c83d
00000260: d14e 06be 8806 123e 8ada 39be af30 d23d
00000270: 7851 12be 250d ce3d 146b 3ebd e6ba 1e3e
00000280: 79f3 01be 4149 b13d aaf0 1e3d 3d0a 703e
00000290: 7bfc 523d 47c6 963d e898 673d 2cd3 7abd
000002a0: f010 dfbd 5eae a93d ee35 023e dc09 2fbe
000002b0: 25cf f2bd bedc edbd aa3f f2bc e102 f43c
000002c0: f7e4 643e d7a3 673d 60c9 55bd 8026 b4bc
000002d0: 4350 843d 49d3 b2bd a0ad a5bd 4fe0 01bd
000002e0: 769f a3bd fe37 cf3d 90e5 9bbd ffd7 99bd
000002f0: 6078 fbbd e84a 50be 96ba eabd 8eb5 763d
00000300: 2d9f a63d f30a 5dbd 2e34 a2bd 3bd4 983d
00000310: 448a 1cbe cb28 b3bd dc94 163d e9bc 943d
00000320: 572d 473e 7776 ab3c 5af9 babd c62b e63d
00000330: bd8f fc3d 78e1 30be a55d 093c 44ca 923d
00000340: 5b9e 7c3e 8b7b f03d 31bf ccbd ee3d cb3d
00000350: 6048 a23d a17c cabd dc46 f6bc 9608 de3d
00000360: 9dd2 6bbd be31 2f3e cbf3 55be 0fa5 373c
00000370: 200a b2bc aa97 863c f91d 673d 27ba 7c3d
00000380: 60b1 6fbc d472 3c3e 64c7 293e 71dc 263d
00000390: 220b ad3d 6f33 c13d 6f80 673d 7b13 26bd
000003a0: f4a3 a8bd 8589 5b3c 2037 86bd 7fa7 20be
000003b0: dfdd d5bd ca15 8bbd 2445 bb3c e876 82bd
000003c0: 99b4 d03c f9e5 683d 1fff 653d 0f20 0f3e
000003d0: 74d2 d33d 14c5 3fbd 644c 19be 94d8 27bb
000003e0: b44f 2b3d ff3d c23d de20 92bd 87c8 9abc
000003f0: 025e a6bd c010 903b 9c50 9ebc eae8 f9bc
-0.030813698 0.074945524 -0.03950175 -0.041046243 0.11175998 0.019325744 0.086285576 -0.105643
-0.08041303 -0.042079538 0.032685418 -0.13248496 -0.12648155 0.20163652 -0.20712712 -0.039840057
-0.033190615 -0.14095266 0.21203505 -0.11056579 -0.15041927 0.22950222 0.28196597 -0.17143066
0.25983873 -0.2461456 0.1334496 -0.13504942 0.095079355 -0.19309597 0.0023002627 -0.18969937
0.18875138 -0.040252008 -0.10995839 -0.14050639 -0.14552106 -0.05246918 -0.10924079 0.16858768
0.13574664 0.104367316 -0.08553274 0.17146558 0.112717964 0.09641425 -0.117794044 0.12540878
-0.014247546 -0.17210616 -0.21897586 -0.18565637 -0.1579027 0.15225951 0.06565159 0.222315
0.08407767 -0.15198155 0.07670973 -0.02805393 0.112492196 0.12481516 0.0960243 -0.029007403
0.21840617 -0.1323815 -0.026469652 0.09708013 -0.06817035 -0.03557592 -0.09217188 0.15064645
0.1751605 0.080638975 -0.14536189 0.11987708 0.02534789 0.032330096 0.18622279 0.11305153
0.08684118 0.041498255 -0.077994935 0.08088491 0.12165845 -0.17536816 0.020363767 0.081575684
-0.060042284 0.11875753 -0.18121707 0.04849118 -0.07367934 0.0349003 0.07950028 0.08686452
-0.1083817 0.054901175 0.034917295 0.009628883 0.16859196 0.08545792 0.17021064 -0.025433052
-0.008184238 0.13349397 0.0006835095 0.015818806 -0.06380656 -0.104284115 0.016397053 -0.08015808
-0.08141036 0.022235388 0.058281988 0.1377223 0.17690995 -0.06283757 -0.15836927 -0.051525943
-0.21880664 0.003018009 -0.13353443 -0.07787824 -0.027812432 0.07989004 -0.056853667 -0.03827599
0.047080033 -0.19361451 -0.038764045 0.13041763 -0.13533965 -0.062366072 -0.043124817 0.15317442
0.101044476 -0.012017339 -0.05830825 0.23217253 0.115315 -0.115204744 0.11053691 0.17912161
0.19117229 0.13908875 -0.12012349 0.18442822 0.07184015 0.08613622 0.004668844 0.097994834
-0.13116004 0.14260304 -0.18149772 0.10263192 -0.1428889 0.10061101 -0.046488836 0.15500984
-0.12690534 0.0865655 0.038803734 0.23441406 0.051510315 0.07362037 0.056542307 -0.061236545
-0.108919024 0.08285211 0.12715885 -0.17093605 -0.11855916 -0.11614369 -0.029571373 0.029786529
0.22352968 0.056552734 -0.052194 -0.021991014 0.06460621 -0.08731706 -0.08089757 -0.031708058
-0.07989399 0.101181015 -0.07612145 -0.07511901 -0.12278819 -0.20341074 -0.1146137 0.060231738
0.08135829 -0.05396552 -0.07920109 0.07462355 -0.15287119 -0.08748015 0.036763057 0.07262594
0.1945089 0.020930512 -0.09129591 0.11238818 0.123321034 -0.1727351 0.008384143 0.07167485
0.24669783 0.11742314 -0.09997404 0.099239215 0.07923961 -0.09887052 -0.030063085 0.108414814
-0.057573903 0.17108819 -0.20893781 0.011208787 -0.021733344 0.016429741 0.05642507 0.061700966
-0.014629692 0.18403178 0.16579968 0.040737573 0.08449389 0.09433638 0.05651897 -0.04054592
-0.082343966 0.013399486 -0.06553483 -0.15688895 -0.10442709 -0.06791265 0.022860117 -0.06370336
0.02547674 0.056859944 0.056151506 0.13977073 0.10342875 -0.046818808 -0.14970547 -0.0025611268
0.041824058 0.09484481 -0.07135175 -0.018894447 -0.08123399 0.004396528 -0.019325547 -0.03050657

final_layer.0.weight f4 [64, 66]
00000000: 979c f63d 1ef0 1a3e b5ed c63d 8590 f9bd
00000010: 2926 443d da8f 87bc 1df6 c8bd 8608 053c
00000020: 0702 b83d 4e3b 2fbd 6d0a e7bb 149d 8dbd
00000030: 471b b9bd 3cb8 4bbd 3d6a e6bd 646a 0dbe
00000040: 7455 78bc 88d3 27be 57b6 463d 4fab c0bd
00000050: 552d 88bd 6cfa e13c 9ca2 0d3d fb7d fbbd
00000060: 9be4 65bd 919a 19be 2f50 053d 847c 5c3a
00000070: 5c42 4fbb 29c3 033d 8935 993d 4879 ba3c
00000080: fd7b 8cbd d589 d53d 9d5d 323d e5d4 893d
00000090: 1f34 7cbd 3996 6ebd f7f8 e7bd 7f59 713b
000000a0: 36f8 ca3d aa47 64bc 8c3b 473d a5b5 f73d
000000b0: cffe 093e 7355 5ebd ebf6 b3bd a0d8 a1bc
000000c0: f39c 27be 0cca 02bd b756 6fbd 5ac8 07be
000000d0: 425b 0abc fb15 babd e8a0 d33c 01a7 d8bd
000000e0: e657 05bc e8a3 153e 4c35 bb3c df60 cabd
000000f0: 34ef da3d 0bc5 6c3d bb74 3b3d bf44 053d
00000100: 0237 ae3e 1733 873b 1fee e938 5c59 b63d
00000110: b1ba b03d 601c 063e f51c 843d f6ef 3abd
00000120: 9f3e 29be 166c e03c 0fc7 c8bd 9b04 c8bc
00000130: 7ee7 043e a93c 103d 47f1 a43c 3e3f a9bd
00000140: 2ab1 583d 4dfb 30bd f5ed a93d acfb 94bd
00000150: 4be0 3f3d e0be 7dbc 0210 0fbc 3445 dfbd
00000160: a8e7 833d 7713 b73d ddb0 babd 586f 8bbd
00000170: de47 dc39 b49b b4bd af6d 03bd 09ca 0d3d
00000180: 633e b43d af52 aabd a54d 8a3d e97a 993c
00000190: e27c 573d a0ae 1b3d f391 8dbd dcb3 223c
000001a0: fd12 aabc f0a5 dfbd 9a96 883d e179 e4bc
000001b0: 4a6b 473d 63da b83d 6b89 adbd a567 99bd
000001c0: afad 9ebc 5ac7 2f3d e8bd 25bc 2a8f ee3c
000001d0: ae19 84bb ed39 babd 0e40 e43c 4f76 a23d
000001e0: 8e78 463d d3d4 79bd dec5 f63c 033d d23d
000001f0: 1172 a33d ee05 853d 31f3 ecbd dd1d fbbc
00000200: c78c fc3d 75b9 bb3d 6746 df3e 24e7 f2bc
00000210: 8f59 bbbd fd5a b43d 48b5 b43d 88a2 993c
00000220: d9dc 583d ae91 bdbc ffba 18bd 7c5e cbbd
00000230: f5d5 51bd aa9c b53d 4049 ee3d 5831 e6bd
00000240: 2767 d13d 65ea ca3c 3e17 e13d 9dfd 943d
00000250: 1972 f13d 7b27 65bd 5c7f d63b 1412 203c
00000260: cd37 b13d ef1a f3bd ba2e a63d cda9 6cbd
00000270: 1881 bebb 8ee5 dbbc ccfe c53c 3887 f9bd
00000280: d4ab 0ebd 53f8 1abc 30d2 4dbd 958f edbd
00000290: 93b5 68bc d164 5a3d ea4d 093d 0c10 a43c
000002a0: 85d7 9b3d e28f 3b3d 2024 b33d c912 ea3d
000002b0: ed40 0fbd cf55 22bd 1401 91bd 1d7a f1bd
000002c0: 81ad e93d 7180 bd3d a7d7 cd3c 4884 5b3d
000002d0: 3c1d d13d 589f 3db9 ae2a e53d a24e 94bd
000002e0: 8d27 6f3c 4cca ce3d ece1 cd3d b65b b0bd
000002f0: e07b 953d 1227 cc3d ea89 57bd 85f8 b8bd
00000300: ab6d ddbd 0001 60bd 63b7 2a3c b903 b73d
00000310: 8bfd 34bc 35cf 233d 36a6 d4bd 51c2 c43b
00000320: ed90 b5bd f19b 93bc cdc4 abbd ef54 bfbd
00000330: f40d 5a3c 6002 be3d 38ad 0dbe 07a0 54bd
00000340: 4bbe 90bd de4a 603c c025 b93a 82ce 553c
00000350: 21bf 91bc 04a5 19bd b50c 3f3d 6f24 a1bd
00000360: e7f8 dd3d f432 5e3c 0350 10bc 1e62 733d
00000370: 5d94 7d3c b0b4 82bd a2db 073e cdbe 97bd
00000380: 031f 10bd 4727 babd bcb5 9bbd e887 13bd
00000390: 3871 17bd 7ca0 09be d556 ccbc 53e9 a43d
000003a0: 6847 cbbc 45f9 a2bd f0b2 a1bd a0a3 9b3c
000003b0: 3e5c 74bd cc21 4a3d 7259 ae3d 32a3 37bd
000003c0: 3a52 173d e106 713d 127c e6bc 8637 b43d
000003d0: c2bb 6e3c ea5a b1bd 2637 a23d 4221 0cbe
000003e0: 7982 b63a 8f97 c63d 3cc4 2dbc 374c 033e
000003f0: d62e babd 4557 043c 52df febc 08e7 183d
0.12041586 0.1513066 0.09713308 -0.12185768 0.047887955 -0.016548086 -0.098125674 0.008119708
0.08984762 -0.042781167 -0.0070508034 -0.06914726 -0.09038406 -0.049736246 -0.11250732 -0.13810116
-0.015157092 -0.16389287 0.048513737 -0.094076745 -0.066492714 0.02758523 0.034578905 -0.12279888
-0.05612622 -0.15000369 0.032547172 0.0008410888 -0.0031625247 0.03216854 0.07480914 0.02276291
-0.068595864 0.1042668 0.043546308 0.067300595 -0.061573144 -0.058248732 -0.11326783 0.0036827025
0.09910624 -0.013933102 0.048640773 0.12095193 0.13476108 -0.05428071 -0.0878733 -0.019756615
-0.16368465 -0.03193097 -0.058432307 -0.13260022 -0.008444609 -0.09086224 0.025833562 -0.105787285
-0.008138632 0.14613307 0.022852562 -0.09881758 0.106901556 0.057805102 0.04576562 0.032536265
0.34026343 0.0041259634 0.00011154659 0.08903763 0.086293586 0.13096762 0.064508356 -0.045639
-0.16527794 0.02739529 -0.098035924 -0.024416259 0.12978932 0.0352141 0.020134581 -0.082640156
0.05290333 -0.04320841 0.0829734 -0.07274565 0.04684476 -0.015487403 -0.008731844 -0.10901871
0.06440669 0.089392595 -0.09115765 -0.068083465 0.00042015215 -0.088187605 -0.032087024 0.034616504
0.08800962 -0.08316552 0.06753091 0.018735366 0.052609332 0.038008332 -0.06912603 0.009930577
-0.020761007 -0.10920322 0.0666935 -0.027890148 0.048686303 0.09026029 -0.08473476 -0.07490472
-0.019369928 0.042914726 -0.010116078 0.029121 -0.0040313816 -0.0909308 0.027862575 0.07932722
0.048454814 -0.06099398 0.030123647 0.10265543 0.07980741 0.064952716 -0.115698226 -0.030653888
0.12331539 0.091662325 0.436084 -0.029651232 -0.09147941 0.08806417 0.08823639 0.018754259
0.05294499 -0.023140755 -0.03728771 -0.09930131 -0.051229436 0.08867772 0.11635065 -0.1123988
0.10224753 0.024769971 0.10990761 0.072749354 0.117893405 -0.055945855 0.006545944 0.009769935
0.08653221 -0.118703716 0.08114381 -0.057779122 -0.005813729 -0.026842859 0.024169348 -0.12183994
-0.034831837 -0.009458619 -0.05024928 -0.11599652 -0.014203447 0.053318802 0.03352157 0.020027183
0.076094665 0.045791514 0.08747125 0.11429364 -0.034974027 -0.039632615 -0.07080284 -0.117908694
0.11410046 0.09253014 0.025127245 0.05359295 0.10210654 -0.00018083805 0.11189781 -0.072415605
0.014596832 0.10097179 0.10052857 -0.086112425 0.07299018 0.099683896 -0.05262176 -0.09031776
-0.10811933 -0.054688454 0.010419699 0.08936257 -0.0110467775 0.03999253 -0.10383265 0.0060046096
-0.08865533 -0.018018695 -0.08387146 -0.09342372 0.013308991 0.09277797 -0.13835609 -0.051910426
-0.070675455 0.013689725 0.001412563 0.013049724 -0.017791333 -0.037510887 0.046642978 -0.07868277
0.1083849 0.013561953 -0.008808139 0.059419744 0.015477267 -0.0638212 0.13267377 -0.07409439
-0.035185825 -0.09089523 -0.076030225 -0.036018282 -0.03697321 -0.13440126 -0.024943748 0.080523156
-0.024814323 -0.07957701 -0.07895458 0.01899892 -0.05965828 0.049348637 0.08513154 -0.04483337
0.03694365 0.05884445 -0.028135333 0.08799653 0.014571132 -0.086599186 0.07920675 -0.13684562
0.0013924382 0.09696876 -0.010605868 0.12822042 -0.090909645 0.008077447 -0.031112347 0.037329704

final_layer.0.bias f4 [64]
00000000: 294e f53d ca8c cd3d b691 40bd e4cc acbd
00000010: bf14 a8bd 450e 7fbc 35cd 78bd bbb4 d3bd
00000020: 4d5c a6bd 83bb 69bd 2164 2dbd 8ae3 b9bd
00000030: 24d5 aa3d efce efbd 15e0 cdb9 cc36 203e
00000040: deef 1abe 7693 71bd 9013 f2bd e4c4 9e3d
00000050: 7aec 0c3d 7fbb 24bd bebb 3b3e fd96 99bd
00000060: 8c7c dd3b 365e b13d 2714 c1bc 2139 e3bd
00000070: bdde b9bd 2203 bbbd 81cd bbbc 2def aebd
00000080: 4658 b43d ea8a 353e 79f4 0f3d 7860 e9bd
00000090: 8e2b 84bd 7b51 91bc 6e00 103e aa7e fdbd
000000a0: 165f 6b3e 5ce1 b33c 5714 f4bd fc7b b4bc
000000b0: 2c34 d8bd 77b1 d2bd b7d1 b0bd a134 8ebd
000000c0: ee31 c0bd 0ba8 2e3c 83f0 d3bb 1833 3dbd
000000d0: 2a9f 9f3d 9197 a9bd be2d c5bc 4df7 51bd
000000e0: 73b4 91bd 63cd bebd 70d9 cdbd b6be 85bd
000000f0: d7a1 b4bc 3a23 62bd 7aba 40be 5ab4 463e
0.119777985 0.10036619 -0.04701396 -0.08437517 -0.08207082 -0.015567367 -0.060742576 -0.10337206
-0.08123074 -0.05706359 -0.04233182 -0.09076603 0.083414346 -0.11709391 -0.000392676 0.15645903
-0.15130565 -0.05897852 -0.118201375 0.07752398 0.03440521 -0.040217873 0.18333337 -0.07499502
0.006759232 0.086605474 -0.02356918 -0.11094881 -0.09075687 -0.09131457 -0.02292514 -0.08541713
0.08805899 0.17728773 0.035145257 -0.11395353 -0.0645362 -0.017739048 0.14062664 -0.12377675
0.22985491 0.021958046 -0.11917942 -0.022031777 -0.10556826 -0.10287755 -0.0863375 -0.06943632
-0.09384523 0.010660182 -0.00646788 -0.046191305 0.0779403 -0.08280862 -0.024069663 -0.051261235
-0.07114496 -0.09316518 -0.100512385 -0.06530516 -0.022049828 -0.055209376 -0.18821135 0.19404736

final_layer.2.weight f4 [1, 64]
00000000: 0cfa d23c 5f90 81ba c008 4dbc 89cf 933a
00000010: 0cca fe3d 012f 223d 0e54 ec3b d2a9 453b
00000020: f3e8 b33c b659 ce3c b1d1 ec3b d04c cebc
00000030: c359 ad3c 301f aabd 0e4e 93bc d5a6 26be
00000040: 67c9 6c3d 23c4 04bd d5d6 023c 721d 8cbc
00000050: 3617 8abc a713 813b 9ea7 3dbe fe98 64bd
00000060: 9d94 b13c 7752 cb3c 3591 efbc c050 e8bb
00000070: c15a 803d f3cb 1b3d f873 dbbc 50f5 acbc
00000080: 2f4f 12be bc62 4bbd 4fc6 2ebc d802 ec3c
00000090: ce21 113a 4eff 9b3d bef2 f3bd 6501 503c
000000a0: 48fe 28be 117f 18bd 006d 0c3a 1265 22bd
000000b0: 222d 97bd 6af4 853d a076 113b 470e 1a3d
000000c0: 0f9d 983a adce 313c a856 543d 1ac6 893c
000000d0: 770b a43b 7a7c e4b9 d2ce 4abb 99e3 08bd
000000e0: 0a7a 05bd 7c26 603d 63f8 4dbc 4037 603d
000000f0: 264c cd3d e0e6 1bbb 534f 533d 2536 debd
0.025753997 -0.0009884945 -0.012514293 0.001127706 0.12440881 0.039595608 0.0072121685 0.0030161035
0.021961665 0.025189262 0.0072271456 -0.025183111 0.021160966 -0.0830673 -0.017981555 -0.16274579
0.05780926 -0.032413613 0.00798579 -0.017103884 -0.016856771 0.0039391103 -0.18520972 -0.055809967
0.02167731 0.024819596 -0.029244045 -0.0070897043 0.0626731 0.038036298 -0.026788697 -0.021113068
-0.14288019 -0.049654707 -0.010667398 0.02880995 0.00055363483 0.07617055 -0.11911534 0.012695645
-0.1650325 -0.037230555 0.00053568184 -0.03964717 -0.07381655 0.06540759 0.002219595 0.037611272
0.0011643487 0.010852498 0.051840454 0.016818095 0.0050062495 -0.0004358029 -0.0030946028 -0.03342018
-0.03258709 0.0547242 -0.012571427 0.05474019 0.1002429 -0.0023788735 0.05158932 -0.10850171
