experiments/konrad/saved_models/online_expanding/lognormal/model_step_6.pt (torch, 581082 bytes, 15 tensors)

A_gate f4 [9]
-0.0004563215 0.008186841 -0.035088398 -0.00028079693 -0.011203882 0.04344733 -0.0010873615 -0.023982069
0.16642383
00000000: 6f3e efb9 1a22 063c dab8 0fbd ed37 93b9
00000010: 7d90 37bc d4f5 313d cc85 8eba 0b76 c4bc
00000020: 026b 2a3e

B_gate f4 [120]
-1.0213259e-05 3.2796424e-38 -8.671e-42 -0.0056658196 -2.6071069e-11 -1.462e-42 0.001332922 -3.7676076e-19
-4.375335e-11 0.00040796376 -2.103e-42 3.2395e-41 -0.0075789643 -2.5546e-41 1.11359085e-20 0.0028431076
1.2e-43 -1.6453e-41 0.00038267832 4.104492e-06 2.6937e-41 0.039067227 2.2585e-41 -3.6182783e-22
0.0074997456 3.2101268e-06 -2.096e-42 0.00013887543 -1.8458184e-30 -2.2117e-41 0.07227895 3.3145e-41
-1.6504e-41 -0.0013725855 -1.9719e-41 9.059957e-21 0.000531082 -4.0596103e-12 -6.595e-42 0.003642835
-2.193e-42 3.213511e-20 -0.0114246905 3.135e-41 1.1506e-41 -0.00035909234 2.0544e-41 -9.553e-42
0.02250352 -5.738e-42 2.245e-42 -0.00070394075 5.032e-42 -2.786308e-06 -9.916566e-05 -0.0013345665
7.08e-42 0.0046961526 5.6424767e-30 -3.188e-41 0.0006489732 -1.9306781e-22 2.8099e-41 1.7293036e-05
1.771e-42 -3.2556e-41 0.044189848 -7.487e-42 1.9192e-41 -0.0063481345 -1.978818e-27 -7.972e-42
0.00010918477 1.2467e-41 -1.408e-42 0.081267826 -2.1597e-41 -9.773e-42 0.0053362898 -5.862e-42
4.368e-42 0.0002222852 -2.2495e-41 3.3876e-41 0.074780904 -3.3785e-41 3.917e-42 -0.0060466714
8.3365637e-10 1.2581e-41 0.00015383614 2.1208714e-28 -8.035e-42 0.060789168 9.931e-42 -9.58e-43
0.001667535 -2.654e-42 -8.751e-42 0.00043017263 -2.250327e-14 -4.917e-42 0.023253899 5.404953e-13
1.966e-42 -0.0045226756 3.0998e-41 4.24e-42 0.00020783552 1.1908e-41 -6.474063e-36 0.026646039
2.1172e-41 -2.552e-42 -0.009699877 2.2e-42 -1.2942329e-13 1.2492033e-05 -1.424904e-10 -5.712e-42
00000000: 9d59 2bb7 8b8f 3201 2c18 0080 57a8 b9bb
00000010: d452 e5ad 1304 0080 71b5 ae3a 7a66 dea0
00000020: e56d 40ae f8e3 d539 dd05 0080 4e5a 0000
00000030: f658 f8bb 3647 0080 f359 521e 6e53 3a3b
00000040: 5600 0000 dd2d 0080 37a2 c839 51b9 8936
00000050: 174b 0000 f504 203d f53e 0000 25b6 da9b
00000060: 6dc0 f53b 8f6d 5736 d805 0080 179f 1139
00000070: 26c0 158e a73d 0080 fc06 943d 655c 0000
00000080: 022e 0080 54e8 b3ba f836 0080 4423 2b1e
00000090: 4f38 0b3a b8d5 8eac 6212 0080 a1bc 6e3b
000000a0: 1d06 0080 f7c0 171f a02e 3bbc 6457 0000
000000b0: 1320 0000 8f44 bcb9 4539 0000 a11a 0080
000000c0: 4d59 b83c ff0f 0080 4206 0000 aa88 38ba
000000d0: 070e 0000 68fc 3ab6 29f7 cfb8 9fec aeba
000000e0: bc13 0000 2fe2 993b d4e2 e40e de58 0080
000000f0: db1f 2a3a 9867 699b 544e 0000 8310 9137
00000100: f004 0000 c15a 0080 6a00 353d df14 0080
00000110: 8035 0000 0304 d0bb 32c7 1c93 3916 0080
00000120: 21fa e438 c122 0000 ed03 0080 bf6f a63d
00000130: 343c 0080 3e1b 0080 0bdc ae3b 5710 0080
00000140: 2d0c 0000 3b15 6939 b53e 0080 6f5e 0000
00000150: bb26 993d 2e5e 0080 eb0a 0000 2823 c6bb
00000160: 5a27 6530 1223 0000 134f 2139 1b6d 8611
00000170: 6616 0080 10fe 783d af1b 0000 ac02 0080
00000180: 3191 da3a 6607 0080 6518 0080 cb88 e139
00000190: 02b1 caa8 b50d 0080 f67e be3c ca22 182b
000001a0: 7b05 0000 f432 94bb 6956 0000 d20b 0000
000001b0: 6cee 5939 3221 0000 27b0 0985 cb48 da3c
000001c0: 053b 0000 1d07 0080 3cec 1ebc 2206 0000
000001d0: b9b7 11aa e094 5137 7bab 1caf ec0f 0080

A_mean f4 [9]
1.0980255e-06 -1.1052554e-08 0.24140757 1.102561e-05 -6.9338837e-09 0.29593483 2.6272553e-06 -5.854839e-10
0.35510698
00000000: de5f 9335 a6e1 3db2 8c33 773e a2fa 3837
00000010: 163f eeb1 c584 973e e74f 3036 c4ef 20b0
00000020: 95d0 b53e

B_mean f4 [120]
-1.480805e-06 0.0001843882 9.030362e-16 0.077298686 5.5926726e-13 2.5844853e-05 -1.6502681e-09 -7.162442e-11
-1.254936e-06 -8.0484315e-06 4.7487715e-06 2.7466645e-11 0.15384257 -1.0583248e-05 1.8781519e-05 9.644604e-10
3.0356e-41 2.0332182e-10 5.2451037e-06 -6.567585e-14 -9.73245e-07 0.17467135 6.789432e-07 2.7891571e-12
-3.1060523e-09 1.1411798e-06 1.35662245e-11 -4.4095386e-06 -1.3145441e-06 -7.2449624e-12 0.16441584 -1.3485839e-09
-3.642363e-08 -5.257089e-10 -4.6012465e-12 1.5716474e-09 1.542423e-06 1.2821486e-20 9.311459e-05 0.13056137
-4.5873474e-09 -6.524419e-10 6.876344e-11 3.6837286e-05 -2.4356783e-08 5.4261754e-06 -8.486895e-20 3.0485765e-09
0.1341998 3.6121198e-06 3.4436534e-09 1.00750464e-10 -1.9586609e-10 -2.2698692e-09 -3.5009161e-06 -3.1586113e-15
-5.1331387e-12 0.16426326 1.6660113e-11 4.5325327e-10 1.9273722e-10 7.484362e-12 -3.7921325e-07 -8.802979e-06
-3.818421e-15 0.00015509568 0.16707407 3.0547816e-14 1.4611874e-14 -2.3802633e-09 3.383526e-09 4.4593013e-11
2.4631065e-06 5.4183647e-07 -1.002403e-07 0.14892776 -3.9815546e-08 1.6751605e-06 -4.5674056e-09 2.3064991e-05
5.8457466e-12 -4.359302e-06 -2.9694e-41 -9.114792e-15 0.15176566 -2.722805e-12 -3.8539796e-14 -5.5431624e-09
6.7890596e-06 0.00022665781 -7.074004e-08 4.26075e-05 2.984447e-06 0.16089435 -2.3954284e-18 -2.5669692e-24
-6.9860078e-09 4.2499886e-11 1.03851824e-16 6.5871395e-06 -1.2334748e-18 -4.775385e-08 0.10101034 -4.9386745e-10
-2.7883922e-07 -4.822497e-09 0.00016286079 5.7227816e-12 7.616662e-06 -2.8826099e-18 -2.078858e-09 0.13834862
2.164359e-09 1.1807677e-07 -3.4015787e-10 -5.5771714e-05 4.626161e-15 -1.4424962e-06 -1.4635355e-09 -5.926093e-13
00000000: 13c0 c6b5 5558 4139 2824 8226 c64e 9e3d
00000010: 746b 1d2b 66cd d837 a6cf e2b0 f780 9dae
00000020: 466f a8b5 c007 07b7 a357 9f36 6399 f12d
00000030: e888 1d3e b48e 31b7 018d 9d37 ef8d 8430
00000040: 9f54 0000 018e 5f2f 19ff af36 8de3 93a9
00000050: 72a0 82b5 0cdd 323e 9f40 3635 fd44 442c
00000060: 4072 55b1 a42a 9935 d8a8 6e2d a6f5 93b6
00000070: 646f b0b5 d2e8 feac a05c 283e 1459 b9b0
00000080: 3470 1cb3 7a81 10b0 58e4 a1ac 6d01 d830
00000090: 4005 cf35 e730 721e 8446 c338 e1b1 053e
000000a0: bc9e 9db1 8457 33b0 6036 972e bc81 1a38
000000b0: 2239 d1b2 7e12 b636 2264 c89f 207f 5131
000000c0: ac6b 093e bf67 7236 64a5 6c31 788d dd2e
000000d0: 675b 57af f6fb 1bb1 48f1 6ab6 189a 63a7
000000e0: 349b b4ac a134 283e 3d8b 922d ba2d f92f
000000f0: b4ea 532f 92aa 032d ac96 cbb4 82b0 13b7
00000100: b892 89a7 2ea1 2239 7715 2b3e 3c93 0929
00000110: b09c 8328 0992 23b1 9e83 6831 451f 442e
00000120: d94b 2536 b872 1135 b043 d7b3 8580 183e
00000130: a801 2bb3 14d6 e035 53ef 9cb1 b17b c137
00000140: cead cd2c 1e46 92b6 c652 0080 8f32 24a8
00000150: 7568 1b3e b299 3fac 5c91 2da9 2c76 beb1
00000160: 94cd e336 feaa 6d39 c0e9 97b3 74b5 3238
00000170: 6948 4836 7dc1 243e 5dc0 30a2 109c 4698
00000180: 9309 f0b1 9eea 3a2e 4c77 ef24 1907 dd36
00000190: 5c07 b6a1 ea19 4db3 82de ce3d d5c0 07b0
000001a0: 5fb3 95b4 22b3 a5b1 9cc5 2a39 3c5a c92c
000001b0: a192 ff36 f6b2 54a2 a8db 0eb1 43ab 0d3e
000001c0: cebb 1431 6491 fd33 f700 bbaf 6cec 69b8
000001d0: ceac a627 cb9b c1b5 9425 c9b0 00ce 26ab

A_logvar f4 [9]
1.0002613e-37 2.2593614e-21 7.854436e-28 -1.0498137e-38 8.061032e-21 -3.2936815e-27 7.2982006e-38 5.8724193e-21
2.0288488e-27
00000000: 0526 0802 68b6 2a1d c1ea 7812 8950 7280
00000010: c244 181e e679 8293 09ad c601 8eda dd1d
00000020: f1bd 2013

B_logvar f4 [120]
8.907478e-39 -1.2231831e-06 5.972308e-08 -4.019002e-28 2.801984e-06 -6.189207e-20 -4.265243e-21 -3.178225e-09
1.1738484e-05 7.7916286e-38 -4.5395197e-07 -8.578095e-07 -3.1493367e-27 -1.9507331e-09 -1.798671e-14 -1.7460868e-21
-4.716518e-10 -4.5360106e-05 9.496453e-38 -1.1965024e-06 3.4537424e-16 1.2991786e-27 -5.7258254e-10 -2.0569423e-07
6.0201785e-22 -2.939956e-17 9.203927e-08 -3.1527472e-38 3.2024e-41 1.3801966e-06 -4.4638973e-27 7.164409e-11
-1.2073158e-11 -3.308238e-21 -2.0597042e-15 -3.143483e-17 -6.174542e-38 -3.9534737e-10 -3.744899e-06 -2.3686398e-27
8.369816e-10 -4.6992354e-05 1.0163567e-21 1.0936292e-09 7.435923e-15 4.1137067e-38 -2.5450636e-10 2.61759e-08
-2.308605e-27 1.7340571e-07 -4.0179113e-09 -2.8387536e-21 5.8252205e-08 1.3356929e-13 7.307774e-38 2.7675028e-08
-9.9885176e-05 -1.297051e-27 6.9375747e-06 -0.00013129412 -2.3644037e-22 6.4637393e-12 -2.3114486e-05 -1.4567924e-38
-2.7766367e-15 1.7894294e-12 -6.3162933e-28 3.2748474e-07 -6.035272e-16 -2.2527874e-21 2.2485347e-06 1.7908242e-10
-2.3648492e-38 1.896381e-18 2.5310788e-11 -4.423062e-28 4.1196202e-10 -5.903878e-14 1.8005603e-21 -1.2682736e-14
-1.5741006e-13 -6.626855e-39 -2.8993626e-13 -5.091848e-09 -1.906351e-27 -3.0492e-41 -7.5202256e-10 1.1214667e-21
1.6454256e-10 6.040634e-05 1.037533e-37 2.944814e-05 -2.0570212e-14 -1.5246493e-27 -7.0295506e-13 4.149828e-06
-7.5071634e-22 -2.7227539e-12 0.00023970775 1.1926857e-37 -7.759734e-12 5.115296e-13 -4.160339e-27 -8.085887e-15
-4.7696166e-12 -2.342564e-21 -2.3777268e-08 -2.0938583e-12 8.1598714e-38 -6.1395344e-17 3.3122606e-12 -2.354749e-27
-2.2199611e-13 1.1939841e-12 -1.6141363e-21 -1.0797587e-14 7.3401243e-06 2.1927457e-38 5.514531e-10 -6.887017e-09
00000000: 6dfe 6000 402c a4b5 1c41 8033 09bc fe91
00000010: b809 3c36 7623 929f e622 a19d ed67 5ab1
00000020: 68f0 4437 ba1b d401 afb6 f3b4 3844 66b5
00000030: 2384 7993 a90d 06b1 8802 a2a8 3bee 039d
00000040: 8ba5 01b0 0b41 3eb8 4f42 0102 8297 a0b5
00000050: 3e18 c725 f2dc cd12 ea63 1db0 cddc 5cb4
00000060: e0f2 351c e094 07a4 20a7 c533 e2a6 2b81
00000070: 4559 0000 323f b935 4cd5 b093 0a8c 9d2e
00000080: ab64 54ad a1f6 799d d66a 14a7 b2f7 10a4
00000090: 4716 a881 3258 d9af e050 7bb6 b9a9 3b93
000000a0: 5811 6630 a819 45b8 6596 991c a84e 9630
000000b0: 24f4 0528 b4f8 5f01 96ea 8baf 6ad9 e032
000000c0: 12e8 3693 6631 3a34 ec0d 8ab1 7b7d 569d
000000d0: fa30 7a33 ba62 162a c0ef c601 08ba ed32
000000e0: 7279 d1b8 a486 cd92 50c9 e836 ffab 09b9
000000f0: 60eb 8e9b 306c e32c fbe5 c1b7 72a1 9e80
00000100: e813 48a7 fdd6 fb2b dc2b 4892 29d1 af34
00000110: 72f4 2da6 3f37 2a9d 88e5 1636 38e7 442f
00000120: 30c1 0081 a0ed 0b22 d4a2 de2d 242c 0c92
00000130: 807a e22f 8af1 84a9 e70b 081d cc78 64a8
00000140: 5c3a 31aa fa28 4880 3838 a3aa 5ef4 aeb1
00000150: 6409 1793 0055 0080 e2b6 4eb0 a478 a91c
00000160: 9dea 342f d05c 7d38 c038 0d02 6607 f737
00000170: ae47 b9a8 2097 f192 40dd 45ab c03e 8b36
00000180: dde3 629c c698 3fac 0f5a 7b39 0857 2202
00000190: bc82 08ad 98fb 0f2b dace a493 92a9 11a8
000001a0: e3d0 a7ac c7ff 309d c43e ccb2 9957 13ac
000001b0: 0122 de01 6a91 8da4 6214 692c fc8f 3a93
000001c0: 06f2 79aa d009 a82b e0eb f39c 1583 42a8
000001d0: 304b f636 d4c4 ee00 1095 1730 d8a2 ecb1

ar_gate_lin.weight f4 [1, 64]
0.054917004 -0.08289587 -0.036425836 0.032642666 -0.14021368 -0.0011911379 -0.026940564 0.06775199
0.0021553813 -0.101327874 -0.03921831 -0.017346827 -0.008802251 -0.005619783 -0.023350986 0.06595402
-0.13723083 -0.0061343326 -0.008473874 -0.04133606 -0.067146495 0.01152506 0.08730676 -0.08854145
-0.030844413 0.012625847 -0.09525396 -0.0019776898 -0.044138663 0.0059896163 0.14656422 0.011923536
-0.08472186 0.03324465 -0.061614387 0.0031852564 0.013009438 0.016080592 -0.10865376 0.054873943
0.06893099 -0.13400954 0.05804361 -0.08184127 0.0040825834 0.049810983 -0.07930398 0.008687325
0.012218713 0.0019387781 -0.040495865 0.027881982 -0.028800767 -0.040447935 -0.016421836 0.018630106
-0.120158315 -0.01799292 -0.012651907 -0.070740685 -0.004205713 0.17575808 -0.14393286 -0.4745792
00000000: a7f0 603d 4fc5 a9bd 4233 15bd 51b4 053d
00000010: 2d94 0fbe f51f 9cba 75b2 dcbc 8ec1 8a3d
00000020: 4c41 0d3b fd84 cfbd 61a3 20bd ef1a 8ebc
00000030: 5137 10bc 2826 b8bb 914a bfbc e712 873d
00000040: 3d86 0cbe 8302 c9bb 01d6 0abc 0050 29bd
00000050: 1a84 89bd 9bd3 3c3c e3cd b23d 3855 b5bd
00000060: 6cad fcbc a4dc 4e3c 8214 c3bd 219c 01bb
00000070: beca 34bd 8b44 c43b ee14 163e ef5a 433c
00000080: a882 adbd 8b2b 083d 5e5f 7cbd bcbf 503b
00000090: 8a25 553c 72bb 833c dd85 debd 80c3 603d
000000a0: b12b 8d3d cc39 09be 23bf 6d3d 659c a7bd
000000b0: 31c7 853b 9a06 4c3d 206a a2bd 4855 0e3c
000000c0: ff30 483c 991e fe3a fede 25bd c168 e43c
000000d0: 96ef ebbc bcac 25bd 1687 86bc 2a9e 983c
000000e0: 9015 f6bd e365 93bc f249 4fbc 7ee0 90bd
000000f0: 14d0 89bb edf9 333e 2363 13be 0bfc f2be

ar_mean_lin.weight f4 [1, 64]
-0.014831255 -0.032004945 -0.056972157 -0.054266836 -0.052756857 -0.031363163 -0.007880471 0.06502919
0.019652348 0.022666592 -0.07224771 -0.10527849 -0.043097164 0.014669792 0.03897853 0.025315156
-0.06189467 0.025535455 0.08921624 -0.046203703 0.00059442106 -0.04591133 0.023191024 -0.060214285
0.09652829 0.040505856 -0.084083475 -0.010437543 0.0149846375 -0.030168038 0.015042153 -0.024391059
-0.01213312 0.054965578 -0.09533158 -0.036309082 -0.0007608742 0.03798931 -0.05960906 -0.006424295
0.036538064 0.05789621 -0.038429927 -0.009499186 0.025979236 0.06943607 -0.046847098 0.012341936
-0.01620207 0.06905806 0.0042172186 0.090649605 -0.102432884 0.09279942 -0.030858321 -0.014188199
-0.004130294 -0.0067401445 -0.03802193 0.006505793 0.017127147 0.041993428 0.048041884 0.7134028
00000000: cbfe 72bc 9e17 03bd a35b 69bd e746 5ebd
00000010: 9317 58bd a976 00bd 171d 01bc 062e 853d
00000020: f6fd a03c 4aaf b93c 9bf6 93bd 409c d7bd
00000030: a786 30bd 9159 703c f3a7 1f3d bb61 cf3c
00000040: 4485 7dbd bb2f d13c 01b7 b63d 1840 3dbd
00000050: ecd2 1b3a 850d 3cbd 1afb bd3c 41a3 76bd
00000060: a0b0 c53d 78e9 253d f533 acbd 3a02 2bbc
00000070: 2082 753c f622 f7bc 5d73 763c c2cf c7bc
00000080: fec9 46bc 9623 613d 343d c3bd d5b8 14bd
00000090: 6775 47ba ae9a 1b3d a128 74bd e482 d2bb
000000a0: f0a8 153d 9424 6d3d b368 1dbd 79a2 1bbc
000000b0: 68d2 d43c 8034 8e3d bee2 3fbd d535 4a3c
000000c0: 34ba 84bc 506e 8d3d 9830 8a3b 80a6 b93d
000000d0: 55c8 d1bd 9f0d be3d 97ca fcbc 9f75 68bc
000000e0: 6b57 87bb 6edc dcbb e2bc 1bbd 8c2e d53b
000000f0: 3b4e 8c3c 4d01 2c3d 91c7 443d 91a1 363f

ar_logvar_lin.weight f4 [1, 64]
-0.23330186 -0.08457777 -0.09908103 -0.041053776 -0.14253363 0.03173122 -0.014432863 0.15208691
-0.001245518 0.0131310765 -0.16422176 -0.009002169 0.022142569 0.09857307 -0.04887481 -0.12793241
0.016006112 -0.065371126 0.0001621319 -0.16466545 -0.14499389 0.070162974 -0.034254573 -0.11421846
0.16645451 -0.057209823 -0.108131334 -0.0774654 0.027329443 0.033201605 -0.08187976 -0.10984716
0.009843209 -0.13654195 0.014849024 -0.12000488 -0.075938135 0.13744758 -0.10149152 0.027758924
0.046066955 -0.134347 -0.13882199 0.06569802 -0.036783747 0.034336656 -0.08741752 0.00029345878
-0.07844252 -0.08713691 -0.036740698 0.08241212 -0.14321744 -0.09965737 -0.068203285 -0.033028606
-0.12079135 -0.053170294 -0.110012785 0.14554209 -0.03089556 -0.06393726 -0.13090445 -0.13261041
00000000: afe6 6ebe 1c37 adbd ffea cabd 0128 28bd
00000010: 56f4 11be 99f8 013d d177 6cbc acbc 1b3e
00000020: a640 a3ba ba23 573c c029 28be d57d 13bc
00000030: 5564 b53c ade0 c93d f430 48bd b700 03be
00000040: 401f 833c 4ce1 85bd f301 2a39 0f9e 28be
00000050: 4779 14be 9bb1 8f3d 864e 0cbd 5eeb e9bd
00000060: 0d73 2a3e d954 6abd f673 ddbd 2ea6 9ebd
00000070: ffe1 df3c 68fe 073d 93b0 a7bd 8cf7 e0bd
00000080: 6945 213c a7d1 0bbe 5249 733c 1ec5 f5bd
00000090: 7485 9bbd 0fbf 0c3e c9da cfbd af66 e33c
000000a0: b4b0 3c3d 4392 09be 5a27 0ebe af8c 863d
000000b0: 8eaa 16bd 98a4 0c3d f507 b3bd 5fdb 9939
000000c0: 79a6 a0bd d674 b2bd 6a7d 16bd b0c7 a83d
000000d0: 98a7 12be 2a19 ccbd 2aae 8bbd 0149 07bd
000000e0: 7561 f7bd 18c9 59bd 624e e1bd fc08 153e
000000f0: af18 fdbc 8af1 82bd d10b 06be 06cb 07be

feat_mlp_sigma.0.weight f4 [32, 1080]
8.6033e-40 1.9767e-41 5.34e-43 2.7995504e-17 2.5878e-41 3.4225e-41 9.326e-42 -1.5884e-41
-1.9564e-41 9.65e-42 -3.2119e-41 -1.9468e-41 -3.968e-42 5.447e-42 -1.8723597e-07 -3.4974e-41
1.5033e-41 -1.5616732e-17 -1.5124e-41 3.4818348e-09 2.9489e-41 -5.0721425e-18 1.17e-42 8.07107e-40
-3.2716e-41 3.66012e-39 -2.8273e-41 3.3584e-41 3.4267e-41 6.30318e-40 -1.6797e-41 -2.836592e-12
-1.1903e-41 7.159e-42 -1.4464e-41 -1.9195e-41 2.1853e-41 -2.4102e-41 -1.3793e-41 -4.195e-42
7.1410705e-15 -3.3647e-41 -2.2924e-41 -1.084074e-39 -1.0207877e-06 2.958e-41 -1.8898e-41 1.985427e-39
1.7332511e-18 -1.4387e-41 -5.36472e-40 -3.5961228e-16 -8.26e-42 3.4103e-41 -3.653e-42 -2.9308778e-12
-2.7027e-41 -9.05e-43 -3.506e-41 -5.65903e-40 -8.643431e-14 -8.5124e-40 2.7365e-41 -2.6867e-41
-1.370239e-39 -5.424e-42 3.3558e-41 -2.1586733e-05 6.087e-42 -6.69482e-40 -7.964e-42 -2.427e-41
-1.4442e-41 -3.1292e-41 -1.5644e-41 1.86908e-39 -7.652e-42 -3.2256457e-15 2.1077496e-16 -4.5772458e-15
-1.33135e-39 -2.475e-41 2.1825e-41 -2.1546e-41 3.485e-42 1.5639783e-09 2.4093e-41 1.626e-41
-2.758e-41 2.5599e-41 1.1411e-41 -4.8289493e-12 -6.862872e-13 1.3521e-41 -3.0152e-41 1.0559e-41
1.992663e-08 3.334783e-39 2.277e-42 -2.6053333e-12 -2.6129e-41 -2.2400545e-12 3.6493877e-11 -2.7444e-41
-1.8674e-41 8.45918e-40 7.55497e-40 1.9049e-41 4.870033e-05 -6.0874225e-15 -5.8176033e-13 -2.6081346e-20
-1.9014e-41 4.667063e-07 4.825e-42 1.1404e-41 1.1987e-41 -2.7743e-41 9.832649e-24 -2.5801e-41
-3.119e-41 8.5806215e-25 2.37e-41 -5.14e-43 -2.2698e-41 2.4209e-41 -2.853541e-05 -1.2861066e-05
-8.234e-42 7.72244e-40 6.1204514e-14 -1.164e-42 -1.402413e-18 -1.8665845e-29 -8.01e-42 -2.0875e-41
3.706e-42 3.5549857e-07 3.1816e-41 -5.109736e-25 -3.365201e-05 -2.2692593e-07 -2.8532e-41 5.1514576e-20
-2.094337e-39 -1.1282e-41 2.187e-41 7.98939e-40 -6.274489e-39 -8.888e-42 2.8278e-41 -5.7e-43
-5.13329e-40 1.5840816e-17 4.70123e-40 -7.0809506e-08 2.6581e-41 -4.635e-42 -2.3253e-41 4.28364e-40
8.484308e-09 1.0243286e-38 -1.87e-41 -3.182859e-39 1.8279e-41 -2.7282e-41 -3.073e-42 -9.99776e-09
-2.6017e-41 6.1529337e-10 -3.845735e-06 8.425e-42 -2.8458e-41 -6.65013e-40 2.5449e-41 -6.6690413e-19
-1.5012329e-38 -2.8399e-41 5.57839e-40 -1.7738e-41 4.0827e-40 2.65e-42 -3.2307e-41 -5.21025e-40
-1.8203e-41 1.5564e-41 -2.866613e-19 2.4361963e-38 3.988e-42 -1.93e-42 8.999e-42 -2.0117e-41
-2.465e-41 2.4447e-41 7.297653e-08 4.5673e-40 -7.036e-42 -6.644514e-13 -1.7e-42 1.8804e-41
-2.5298e-41 -1.4836e-41 -1.0802931e-26 2.4185e-41 -2.5565e-41 -1.748302e-12 -1.0139249e-06 -1.0768083e-11
8.798761e-35 -8.944518e-09 -1.5839181e-18 -1.363e-42 -1.0960708e-08 -5.84592e-40 7.9664446e-20 9.555795e-10
1.544185e-39 1.1905e-41 -7.4619784e-08 2.69647e-25 -3.42e-43 -3.431875e-39 -1.3549831e-11 3.2732e-41
1.9757988e-07 -1.371477e-16 3.728571e-05 -4.43905e-40 9.785e-42 -6.95697e-40 -3.1763e-41 -3.0663e-41
-2.8847e-41 -8.46e-43 4.80308e-40 -4.36284e-40 -2.2628e-41 4.0582737e-08 -4.08e-43 -2.7723e-41
-5.269e-42 2.567993e-39 2.2163558e-09 -4.057e-42 -1.2104e-41 -1.2201e-41 -6.08695e-40 -4.4417513e-13
6.805e-42 3.2157454e-21 -0.00021442614 1.8435e-41 -9.151653e-11 3.1674e-41 1.3842e-41 1.323e-41
00000000: 405e 0900 1a37 0000 7d01 0000 421b 0124
00000010: 2348 0000 685f 0000 ff19 0000 472c 0080
00000020: 8936 0080 e61a 0000 8959 0080 4536 0080
00000030: 100b 0080 2f0f 0000 080b 49b4 7e61 0080
00000040: e829 0000 f709 90a3 292a 0080 1645 6f31
00000050: 3452 0000 0821 bba2 4303 0000 e3c9 0800
00000060: 335b 0080 edda 2700 d04e 0080 9e5d 0000
00000070: 865f 0000 12dd 0600 d32e 0080 809b 47ac
00000080: 2e21 0080 f513 0000 5228 0080 8235 0080
00000090: eb3c 0000 3043 0080 7326 0080 b20b 0080
000000a0: 60a4 0028 cb5d 0080 e73f 0080 f5cd 0b80
000000b0: 0002 89b5 7552 0000 ae34 0080 909e 1500
000000c0: 60c8 ff21 1b28 0080 77d7 0580 684d cfa5
000000d0: 0717 0080 115f 0000 2f0a 0080 003e 4eac
000000e0: 574b 0080 8602 0080 bc61 0080 8229 0680
000000f0: fda1 c2a9 e944 0980 484c 0000 e54a 0080
00000100: abeb 0e80 1f0f 0080 8c5d 0000 2815 b5b7
00000110: f810 0000 3e4a 0780 3316 0080 a843 0080
00000120: 4228 0080 3b57 0080 9c2b 0080 3c5a 1400
00000130: 5515 0080 a96e 68a7 ca01 7325 a4e9 a4a7
00000140: 437f 0e80 fe44 0080 d73c 0000 103c 0080
00000150: b709 0000 98f3 d630 2943 0000 542d 0000
00000160: e24c 0080 5c47 0000 cf1f 0000 4fe7 a9ac
00000170: 342c 41ab b125 0000 0d54 0080 6f1d 0000
00000180: 1f2b ab32 0550 2400 5906 0000 8355 37ac
00000190: d648 0080 3ca1 1dac 7480 202e 814c 0080
000001a0: 0e34 0080 1336 0900 053a 0800 1a35 0000
000001b0: 9543 4c38 9052 dba7 40c0 23ab d354 f69e
000001c0: 0135 0080 a08f fa34 730d 0000 ca1f 0000
000001d0: 6a21 0000 564d 0080 eb30 3e19 ec47 0080
000001e0: f256 0080 58c7 8417 1142 0000 6f01 0080
000001f0: 463f 0080 7c43 0000 545f efb7 dcc5 57b7
00000200: f416 0080 b468 0800 00d2 8929 3f03 0080
00000210: aaf5 cea1 4e4b bd8f 5416 0080 313a 0080
00000220: 550a 0000 5adb be34 b158 0000 8023 1e97
00000230: 9225 0db8 eda8 73b4 894f 0080 4d45 731f
00000240: 29ce 1680 731f 0080 f73c 0000 1eb3 0800
00000250: b952 4480 c718 0080 d44e 0000 9701 0080
00000260: f496 0580 121b 9223 831e 0500 f00f 98b3
00000270: 194a 0000 ec0c 0080 d240 0080 1baa 0400
00000280: 62c2 1132 1d8a 6f00 2134 0080 84a8 2280
00000290: f432 0000 0d4c 0080 9108 0080 9dc2 2bb2
000002a0: 8648 0080 6c21 2930 9d0a 81b6 7c17 0000
000002b0: 544f 0080 c93d 0780 f146 0000 dad5 44a1
000002c0: 4478 a380 2a4f 0080 0713 0600 7231 0080
000002d0: 1772 0400 6307 0000 0f5a 0080 68ac 0580
000002e0: be32 0080 632b 0000 0837 a9a0 9fa3 0401
000002f0: 1e0b 0000 6105 0080 1619 0000 1438 0080
00000300: b744 0080 2644 0000 46b7 9c33 2df9 0400
00000310: 9d13 0080 c506 3bab bd04 0080 6b34 0000
00000320: 8546 0080 5b29 0080 5ef9 5594 6b43 0000
00000330: 4447 0080 380d f6ab 3216 88b5 226f 3dad
00000340: 44e9 e906 68aa 19b2 bcbe e9a1 cd03 0080
00000350: b44d 3cb2 9b5d 0680 341a bc1f 7755 8330
00000360: 8fd0 1000 3021 0000 a93e a0b3 46e7 a616
00000370: f400 0080 ac5e 2580 045f 6ead 3e5b 0000
00000380: 5826 5434 db1e 1ea5 3a63 1c38 6dd5 0480
00000390: 471b 0000 5293 0780 8b58 0080 7a55 0080
000003a0: 6a50 0080 5c02 0080 e73a 0500 2fc0 0480
000003b0: 143f 0080 314d 2e33 2301 0080 484d 0080
000003c0: b00e 0080 85f6 1b00 8b4e 1831 4f0b 0080
000003d0: be21 0080 0322 0080 cba0 0680 620c faaa
000003e0: f812 0000 90f9 721d 94d7 60b9 6433 0000
000003f0: 3a3f c9ae 4b58 0000 9626 0000 e124 0000

feat_mlp_sigma.0.bias f4 [32]
-3.101e-42 -8.189e-42 -8.26894e-40 -1.4963e-41 -9.61656e-40 -3.1476e-41 -2.7402e-41 -8.755e-42
-2.053911e-15 -1.61957e-05 1.6528e-41 5.764e-42 -1.437e-41 -1.8228e-41 -3.0248e-41 3.91865e-40
-1.644e-42 -5.72705e-40 1.8175941e-09 -1.0067e-41 -2.7938e-41 1.2348e-41 -1.2643e-41 5.5394107e-06
-4.7913274e-11 2.723412e-39 -1.457434e-39 8.95072e-40 -8.62e-42 1.5475e-41 3.84e-42 -2.2665e-41
00000000: a508 0080 d416 0080 0b01 0980 b629 0080
00000010: b578 0a80 be57 0080 634c 0080 6818 0080
00000020: f8ff 13a7 00dc 87b7 132e 0000 1110 0000
00000030: 0f28 0080 d032 0080 5254 0080 5c44 0400
00000040: 9504 0080 783c 0680 e8ce f930 101c 0080
00000050: e14d 0080 6c22 0000 3e23 0080 2ddf b936
00000060: 8db9 52ae c4a7 1d00 bcde 0f80 19bf 0900
00000070: 0718 0080 232b 0000 b40a 0000 2e3f 0080

feat_mlp_sigma.2.weight f4 [1, 32]
-8.147e-42 6.274e-42 -1.8842e-41 -2.0495e-41 -1.8301e-41 2.8735e-41 2.2665e-41 2.3931e-41
-1.1132e-41 9.434e-42 1.127e-42 9.237e-42 2.2484e-41 -9.58e-43 8.291e-42 -2.326e-42
2.3385e-41 2.6024e-41 -7.9136784e-13 3.3469e-41 1.7354e-41 -9.5e-42 1.8933e-41 -2.2935e-41
-2.5739e-41 -6.247e-42 2.5612e-41 -4.01763e-40 2.8589e-41 9.2e-42 2.6399e-41 -2.5265e-41
00000000: b616 0080 7d11 0000 8634 0080 2239 0080
00000010: 0433 0080 1a50 0000 2e3f 0000 b642 0000
00000020: 081f 0080 4c1a 0000 2403 0000 c019 0000
00000030: ad3e 0000 ac02 0080 1d17 0000 7c06 0080
00000040: 3041 0000 8b48 0000 10c0 5eab 4c5d 0000
00000050: 6030 0000 7b1a 0080 c734 0000 ef3f 0080
00000060: c047 0080 6a11 0080 6547 0000 f45f 0480
00000070: b24f 0000 a519 0000 9749 0000 6e46 0080

feat_mlp_mu.0.weight f4 [100, 1080]
-4.0716434e-11 -3.9192759e-07 -4.6572673e-08 5.6022e-40 -3.198e-41 -3.6365826e-15 -1.5213535e-21 -2.793e-42
8.64918e-12 -1.8248e-41 3.308869e-07 3.24057e-39 -3.5502053e-22 2.895e-42 -2.1664e-41 -2.8989296e-14
-1.25e-42 -0.00024311812 1.09e-42 2.3228634e-22 -9.88019e-40 -3.1602e-41 2.4199752e-14 -1.4325e-41
-2.2854e-41 7.599e-42 6.000531e-39 -2.6918e-41 -3.4238e-41 -1.2889e-41 -7.826269e-07 -1.59198e-39
-8.900474e-10 -2.182e-41 5.93139e-40 1.4899051e-18 1.7515e-41 -1.7946e-41 -4.956e-42 -7.435e-42
-4.969e-42 2.3512e-41 -2.83e-42 -6.75e-42 1.2801e-41 -1.7341806e-13 -1.3388e-41 3.65873e-40
-2.6524e-41 2.2869e-41 1.9823748e-08 -4.29638e-40 -4.878e-42 1.8312e-41 1.2794e-41 1.1987622e-06
0.00013558798 -6.809167e-13 6.410098e-20 1.446168e-39 -1.016896e-39 -3.0266982e-29 -3.1594e-41 5.200249e-09
-3.2842e-41 1.6793e-41 -3.3558e-41 1.5811e-41 1.104834e-39 -6.73e-43 7.31849e-40 2.1234e-41
-4.422e-42 -3.493134e-39 3.0365e-41 -8.144123e-11 -1.0494e-41 2.5024e-41 5.91965e-12 5.6186633e-10
-4.41497e-40 -3.511e-41 2.5156e-41 -4.03993e-40 2.3766e-41 -2.667e-42 2.1625483e-11 2.0663439e-08
-4.1195217e-32 -3.970897e-39 4.807362e-39 7.1486985e-14 -2.1737219e-38 -2.889e-41 5.387174e-39 1.8492e-41
-2.5104347e-07 -4.72e-43 1.7547e-41 -1.2730123e-15 9.75e-43 6.684635e-39 -3.2652597e-15 2.6333e-41
-6.08798e-40 -1.5910198e-06 -7.20494e-40 3.4427e-41 -7.9321426e-17 -3.5278e-41 1.3141e-41 -1.7386e-41
-1.5214e-41 1.6376e-41 2.1901065e-05 -3.1676012e-10 -4.27636e-40 -1.6531418e-20 -1.0702323e-21 2.204e-42
2.144e-42 -1.785e-41 -2.876e-41 -1.309e-41 -7.503e-42 3.3991754e-26 -1.664563e-39 -1.7875205e-11
1.8031216e-13 2.9781006e-08 -1.429e-41 -3.72045e-40 3.1068e-41 2.2218e-41 3.0843e-41 -6.708e-42
-3.426e-42 -4.365e-42 -6.471e-42 -5.26047e-40 4.79398e-40 2.362e-41 -1.625e-41 -1.7603e-41
5.354486e-39 -3.0708e-41 4.8228212e-05 5.321e-42 -3.4116e-41 -3.9298598e-10 -1.7672953e-24 2.978129e-39
-4.912e-42 1.99e-43 -1.3866888e-38 4.1709325e-05 6.710844e-39 2.3929e-41 -2.9786e-41 -6.202e-42
-3.0837e-41 -7.637784e-20 3.1223099e-06 -3.2359e-41 1.311205e-39 1.7127372e-19 2.8179e-41 -4.543846e-12
-1.7671591e-13 -1.4306e-41 -1.8681e-41 5.229328e-39 1.9414e-41 -1.790875e-39 -2.9330868e-06 1.2352e-41
1.742e-42 3.8767975e-09 1.9505e-41 -2.647e-41 3.2348e-41 8.051658e-21 3.2433e-41 -3.202e-41
-1.9058e-41 2.8012e-41 -3.4745e-41 1.5151e-41 -4.45365e-40 -9.790937e-12 1.076e-42 3.2367357e-06
-1.7565e-41 -1.5978e-41 2.2602464e-06 -7.37512e-40 -6.331e-42 1.3143e-41 -2.1286e-41 9.439e-42
-2.9972e-41 2.3941e-41 3.4368e-41 -1.2815354e-17 2.0535e-41 1.21693e-39 -2.8975e-41 -2.7879e-41
1.5654e-41 1.0853e-41 9.6264e-40 4.413e-42 4.0217881e-16 5.052e-42 5.552e-42 -3.1281e-41
-3.64633e-10 3.93667e-40 1.885514e-39 -1.3822e-41 1.2727e-41 6.957e-42 1.0327056e-18 2.9155e-41
-2.3278e-41 -2.1297e-41 1.4002e-41 -2.7507e-41 -2.012078e-39 1.3514e-41 -2.7814e-41 -1.1533e-41
4.4590013e-07 3.508e-41 -6.803617e-26 -1.0423e-41 1.203393e-39 -7.06027e-40 -2.3395e-41 -2.3526e-41
-2.5551e-41 -4.82631e-40 -6.0162947e-18 -1.6474375e-16 2.8511e-41 1.0343e-41 -2.322e-41 -6.35838e-40
-4.98955e-40 -8.8698966e-18 4.32738e-40 -3.3086783e-07 -2.2157e-41 -3.0784e-41 -2.868e-41 -8.151036e-22
00000000: a112 33ae 1e6a d2b4 3207 48b3 aa19 0600
00000010: 2659 0080 8e05 83a7 83e6 e59c c907 0080
00000020: 7228 182d de32 0080 c0a4 b134 6449 2300
00000030: c498 d69b 1208 0000 643c 0080 628e 02a9
00000040: 7c03 0080 86ed 7eb9 0a03 0000 9268 8c1b
00000050: 32c2 0a80 1858 0080 d4f8 d928 ef27 0080
00000060: b53f 0080 2f15 0000 0a57 4100 094b 0080
00000070: 715f 0080 ee23 0080 b615 52b5 cb55 1180
00000080: 85a7 74b0 d33c 0080 6e75 0600 06df db21
00000090: d330 0000 0732 0080 d10d 0080 ba14 0080
000000a0: da0d 0080 8b41 0000 e407 0080 d112 0080
000000b0: af23 0000 5a40 43aa 5225 0080 e8fb 0300
000000c0: f049 0080 c03f 0000 e248 aa32 a8ad 0480
000000d0: 990d 0080 0c33 0000 aa23 0000 28e5 a035
000000e0: 9f2c 0e39 38a9 3fab aa5a 971f 54bf 0f00
000000f0: b112 0b80 ca78 1990 1258 0080 e0ad b231
00000100: 8d5b 0080 d02e 0000 8c5d 0080 132c 0000
00000110: d407 0c00 e001 0080 19f8 0700 313b 0000
00000120: 540c 0080 7009 2680 a554 0000 5617 b3ae
00000130: 411d 0080 c245 0000 7847 d02c d471 1a30
00000140: b7ce 0480 df61 0080 2046 0000 2b66 0480
00000150: 4042 0000 6f07 0080 4238 be2d 627f b132
00000160: d6e5 558b 3f3d 2b80 f858 3400 71f9 a029
00000170: 86b2 ec80 8950 0080 40a9 3a00 8c33 0000
00000180: 27c7 86b4 5101 0080 ea30 0000 dd75 b7a6
00000190: b802 0000 0bca 4800 6949 6ba7 6849 0000
000001a0: 15a1 0680 068b d5b5 72d8 0780 f85f 0000
000001b0: 1be7 b6a4 5762 0080 a224 0000 7730 0080
000001c0: 692a 0080 a62d 0000 2eb8 b737 0624 aeaf
000001d0: 13a8 0480 8422 9c9e 9bba a19c 2506 0000
000001e0: fa05 0000 c231 0080 2c50 0080 7d24 0080
000001f0: ea14 0080 ab51 2815 2020 1280 623b 9dad
00000200: 7103 4b2a 20d1 ff32 d627 0080 1c0d 0480
00000210: 9b56 0000 ef3d 0000 fa55 0000 b312 0080
00000220: 8d09 0080 2b0c 0080 0a12 0080 68ba 0580
00000230: 5e38 0500 d841 0000 4c2d 0080 1231 0080
00000240: 214e 3a00 9a55 0080 a648 4a38 d50e 0000
00000250: 1a5f 0080 dc0b d8af e4bc 0898 d06d 2000
00000260: b10d 0080 8e00 0000 3eff 9680 0cf1 2e38
00000270: 1a13 4900 b442 0000 0853 0080 4a11 0080
00000280: f655 0080 9257 b49f e088 5136 345a 0080
00000290: 1b47 0e00 4e34 4a20 8d4e 0000 54df 9fac
000002a0: e5f6 46aa e127 0080 1334 0080 3df1 3800
000002b0: 1e36 0000 3b80 1380 0cd6 44b6 6f22 0000
000002c0: db04 0000 ac34 8531 5f36 0000 ca49 0080
000002d0: 2c5a 0000 6e17 181e 695a 0000 4259 0080
000002e0: 2035 0080 164e 0000 db60 0080 3c2a 0000
000002f0: 7fd9 0480 763e 2cad 0003 0000 b236 5936
00000300: f730 0080 8a2c 0080 bdae 1736 e207 0880
00000310: a611 0080 a324 0000 563b 0080 501a 0000
00000320: 8d53 0080 bd42 0000 ce5f 0000 cc66 6ca3
00000330: 3e39 0000 4e40 0d00 c550 0080 b74d 0080
00000340: a32b 0000 411e 0000 737b 0a00 4d0c 0000
00000350: 1ed7 e725 150e 0000 7a0f 0000 3357 0080
00000360: 8875 c8af 6249 0400 0c88 1400 8826 0080
00000370: 7a23 0000 6513 0000 8466 9821 4651 0000
00000380: e440 0080 5e3b 0080 0827 0000 ae4c 0080
00000390: dbe8 1580 ac25 0000 894d 0080 2620 0080
000003a0: 0c64 ef34 ca61 0000 0c73 a895 0e1d 0080
000003b0: 921a 0d00 1eb0 0780 3741 0080 9541 0080
000003c0: 3a47 0080 6141 0580 4cf6 dda2 c6ef 3da5
000003d0: 7a4f 0000 d51c 0000 ba40 0080 75ec 0680
000003e0: e26e 0580 e79e 23a3 4cb6 0400 21a2 b1b4
000003f0: c43d 0080 d055 0080 f34f 0080 9659 769c

feat_mlp_mu.0.bias f4 [100]
-2.0075e-41 -3.096018e-39 -3.75454e-40 -2.434531e-13 1.6963e-41 4.29319e-40 4.490187e-19 1.9741e-41
-5.12749e-40 -1.646e-41 -1.0733e-41 1.918e-42 2.7739902e-06 -3.0945318e-20 5.69149e-40 -6.81314e-40
-8.073e-42 -6.372e-42 -1.5208e-41 7.846e-42 -1.3656888e-09 5.256e-42 -1.4624e-41 -2.4025995e-09
-2.5369e-41 -1.5663834e-09 4.2377683e-16 -1.8323e-41 5.3873e-07 8.36098e-07 1.2351e-41 -9.0072394e-13
2.478168e-39 8.4609853e-13 1.7637e-41 -2.3218e-41 2.151e-42 -4.3979643e-08 3.4084e-41 3.482e-41
-3.1365262e-16 -8.1394384e-24 -5.20261e-40 -4.818028e-12 -2.8881e-41 3.67782e-40 6.57328e-40 -2.2897e-41
2.192e-42 1.199817e-39 -5.2774197e-08 2.894058e-39 -1.511469e-39 2.7203e-41 -1.428527e-39 -9.65e-43
-1.3579e-41 1.4209e-41 1.5406e-41 1.7188e-41 -2.578e-41 -6.513e-42 6.85599e-26 -2.8661488e-16
-6.978e-42 -5.261503e-39 6.219e-42 -2.8188764e-23 1.1884e-41 4.266e-42 -5.6460794e-06 -3.0282e-41
-1.2912e-41 3.1664e-41 1.6343e-41 -8.769516e-19 1.795887e-39 -1.9013e-41 3.0962e-41 -1.9952e-41
-2.4643e-41 6.0168e-23 -1.6107707e-14 -6.9632087e-09 2.427e-41 -6.6344846e-13 3.26e-42 -1.3621021e-08
-1.094048e-39 -1.3371e-41 -3.6343587e-12 2.7143e-41 1.8001e-41 -2.515e-42 -1.09317576e-10 -7.549144e-39
1.6471e-41 7.957e-42 1.4597e-41 7.1797837e-07
00000000: f637 0080 70b6 2180 9d16 0480 4a0d 89aa
00000010: 492f 0000 c4ac 0400 e586 0421 0837 0000
00000020: 5695 0580 e22d 0080 eb1d 0080 5905 0000
00000030: ca28 3a36 9822 129f 8e32 0600 3a6b 0780
00000040: 8116 0080 c311 0080 652a 0080 df15 0000
00000050: e7b2 bbb0 a70e 0000 c428 0080 fa1a 25b1
00000060: b846 0080 3748 d7b0 6c4a f425 1433 0080
00000070: 3e9d 1035 3870 6035 6e22 0000 0088 7dab
00000080: 20fc 1a00 d327 6e2b 2a31 0000 b940 0080
00000090: ff05 0000 21e4 3cb3 035f 0000 1061 0000
000000a0: f5ce b4a5 8c70 1d99 47aa 0580 f084 a9ac
000000b0: 8250 0080 3a01 0400 5d28 0700 d43f 0080
000000c0: 1c06 0000 9a10 0d00 d8a9 62b3 7583 1f00
000000d0: 5c75 1080 d54b 0000 278e 0f80 b102 0080
000000e0: da25 0080 9c27 0000 f22a 0000 ea2f 0000
000000f0: dd47 0080 2812 0080 00bf a915 e438 a5a5
00000100: 7413 0080 ee4a 3980 5611 0000 0050 089a
00000110: 2121 0000 e40b 0000 7473 bdb6 6a54 0080
00000120: fe23 0080 4458 0000 8f2d 0000 4b6a 81a1
00000130: 348e 1300 0035 0080 4f56 0000 9e37 0080
00000140: b244 0080 307a 911a d815 91a8 0841 efb1
00000150: a843 0000 80be 3aab 1609 0000 e201 6ab2
00000160: c3e9 0b80 4625 0080 c9be 7fac aa4b 0000
00000170: 2e32 0000 0307 0080 5364 f0ae f133 5280
00000180: ea2d 0000 2e16 0000 b128 0000 19bb 4035

feat_mlp_mu.2.weight f4 [1, 100]
2.3595e-41 1.061e-42 -1.401e-41 -8.154e-42 1.6776e-41 -2.7324e-41 5.436e-42 -2.452e-41
1.6744e-41 3.727e-42 -1.8762e-41 2.9869e-41 -3.199e-41 -1.51e-42 8.666e-42 9.853852e-08
2.4143e-41 -8.99e-42 -8.565e-42 -9.532e-42 1.0067e-41 -2.0383e-41 1.1949e-41 7.954e-42
8.638e-42 7.142e-42 -8.14e-43 -2.536304e-39 9.735e-42 3.411e-42 2.0487978e-08 2.0474e-41
-7.452e-42 2.29e-41 7.752e-42 -2.8563295e-07 -1.9821e-41 4.29e-42 -1.9086e-41 2.9214e-41
1.3922e-41 -2.76145e-39 -5.5343e-40 -6.55564e-40 2.9018e-41 -1.1538e-41 -5.3926304e-23 2.5086145e-22
-4.274e-42 2.4045e-41 2.6815e-41 5.747e-42 1.1842e-41 1.0576e-41 1.0542e-41 2.964752e-18
1.5822e-41 -2.9514e-41 -3.233e-41 8.692677e-09 1.1199e-41 1.7512e-41 -3.5227e-41 -1.219e-39
8.234e-42 6.6e-43 -6.885e-42 -3.8627388e-08 1.0147e-41 -2.7345e-41 2.295134e-39 2.9237e-41
-6.91e-42 2.084e-42 -2.3105e-41 -2.599e-41 -2.157508e-39 -2.667e-41 -5e-43 1.529e-41
-3.0704e-41 1.0105e-41 5.89487e-40 1.6573e-41 1.7698e-41 -2.8602e-41 2.0863e-41 7.047e-42
-2.0516e-41 -3.492e-41 8e-43 6.41e-42 -1.7048e-41 -1.442e-41 2.0479e-41 1.3766e-41
-3.313e-42 3.3955e-41 -1.4494228e-38 -9.696e-42
00000000: c641 0000 f502 0000 0e27 0080 bb16 0080
00000010: c42e 0000 2b4c 0080 270f 0000 5a44 0080
00000020: ad2e 0000 640a 0000 4d34 0080 4353 0000
00000030: 2d59 0080 3604 0080 2818 0000 209c d333
00000040: 4d43 0000 0f19 0080 e017 0080 921a 0080
00000050: 101c 0000 d238 0080 4f21 0000 2c16 0000
00000060: 1418 0000 e913 0000 4502 0080 2f9e 1b80
00000070: 231b 0000 8209 0000 8afd af32 1339 0000
00000080: c614 0080 d63f 0000 9c15 0000 1859 99b4
00000090: 4137 0080 f50b 0000 3435 0080 7051 0000
000000a0: cf26 0000 cd11 1e80 bd06 0680 7223 0780
000000b0: e450 0000 2a20 0080 c462 829a eea2 971b
000000c0: ea0b 0080 0743 0000 c04a 0000 0510 0000
000000d0: 0321 0000 7b1d 0000 631d 0000 95c2 5a22
000000e0: 1b2c 0000 4652 0080 1f5a 0080 cc56 1532
000000f0: 381f 0000 d130 0000 3362 0080 1346 0d80
00000100: f416 0000 d701 0000 3113 0080 43e7 25b3
00000110: 491c 0000 3a4c 0080 e6fd 1800 8051 0000
00000120: 4313 0080 cf05 0000 6840 0080 7348 0080
00000130: 417e 1780 584a 0080 6501 0080 9f2a 0000
00000140: 9755 0080 2b1c 0000 406b 0600 332e 0000
00000150: 5631 0000 bb4f 0080 283a 0000 a513 0000
00000160: 3139 0080 5861 0080 3b02 0000 de11 0000
00000170: 862f 0080 3228 0080 1639 0000 6026 0000
00000180: 3c09 0080 a75e 0000 03d4 9d80 071b 0080
