experiments/konrad/saved_models/online_expanding/inverse_gaussian/model_step_1.pt (torch, 449040 bytes, 12 tensors)

A_gate f4 [9]
-0.098626286 -0.11144361 -0.045631435 0.22646515 -0.18228416 0.03891089 0.10155534 -0.26483217
-0.41948798
00000000: 94fc c9bd 8c3c e4bd 07e8 3abd 7be6 673e
00000010: b3a8 3abe 0761 1f3d 3ffc cf3d 1598 87be
00000020: 21c7 d6be

B_gate f4 [120]
-0.053298183 -2.4084341e-29 2.5114e-41 0.09718274 0.028412858 -0.45213753 0.04111194 0.0013029287
0.0003231898 -0.014767591 1.1804389e-08 -1.587667e-07 0.23768672 4.911488e-19 4.6454884e-06 -0.032576926
-0.008812755 -0.03663722 -0.0063741133 -9.683384e-10 -3.6269868e-17 0.12204456 7.969096e-09 -7.541583e-05
0.060904488 0.010242046 -1.908e-41 0.16545087 1.8552972e-13 6.708214e-30 0.13360284 -0.03874582
-5.5032e-17 0.13374934 -1.8097977e-14 2.5690332e-07 -0.1474366 1.414e-42 -3.756897e-07 0.11369086
-3.231827e-05 7.82524e-14 0.16627455 4.4909516e-13 -6.229159e-13 -0.00963542 -0.00075170054 -2.666763e-39
0.12721924 -0.0013309518 1.5973e-41 0.07581209 -3.6635338e-05 -0.0023633705 0.08897509 -2.1954906e-18
-3.433e-42 0.21850358 4.4113695e-09 1.3532989e-29 0.13230532 -0.0011051443 -2.0686e-41 -0.005858112
2.976e-42 2.7428e-41 0.12773605 4.5124435e-10 -2.474437e-33 0.12127681 1.8064e-41 1.886e-42
0.2289339 -0.005881979 1.16723e-40 0.13703278 0.017528296 2.2225437e-05 -0.0050389166 1.4719e-41
-2.9349e-41 -0.009422091 3.0232273e-16 -8.240353e-31 0.11303904 -1.6170669e-11 2.2299e-41 0.13435149
1.3303377e-05 0.05751719 -0.017678516 -3.338758e-07 4.827107e-10 0.040816884 -2.879e-41 -8.2246e-40
0.066689506 6.7751857e-06 2.8719435e-07 0.040403955 3.8534523e-16 -2.4449326e-05 0.045432407 -2.2014757e-14
-7.482e-42 0.10009368 2.6224e-41 2.0168955e-06 0.006261121 6.2446526e-21 -8.357e-42 0.04914767
-1.7882448e-07 4.120461e-11 0.028292254 -3.5093726e-05 6.0654103e-05 0.07087467 -8.527555e-16 0.34529847
00000000: 324f 5abd 863e f48f 0246 0000 bf07 c73d
00000010: 15c2 e83c 927e e7be fe64 283d 08c7 aa3a
00000020: cd71 a939 c4f3 71bc 40cc 4a32 7579 2ab4
00000030: 2664 733e 27f6 1021 71e0 9b36 626f 05bd
00000040: 6063 10bc e910 16bd f0dd d0bb 6116 85b0
00000050: e743 27a4 80f2 f93d 74e8 0832 9128 9eb8
00000060: fc76 793d 41ce 273c 3035 0080 f46b 293e
00000070: 4de3 502a 0a0f 080f 2fcf 083e f0b3 1ebd
00000080: 51ca 7da4 96f5 083e 1803 a3a8 86ec 8934
00000090: 9ff9 16be f103 0000 66b2 c9b4 c1d6 e83d
000000a0: 7a8d 07b8 7035 b029 e043 2a3e 6fd1 fc2a
000000b0: d255 2fab e1dd 1dbc c50d 45ba da09 1d80
000000c0: c345 023e 5573 aeba 872c 0000 5e43 9b3d
000000d0: e5a8 19b8 c7e2 1abb 9238 b63d a5ff 21a2
000000e0: 9209 0080 67bf 5f3e d192 9731 a63d 890f
000000f0: 0c7b 073e 7dda 90ba aa39 0080 68f5 bfbb
00000100: 4c08 0000 754c 0000 3dcd 023e ff12 f82f
00000110: 7491 4d89 fa5f f83d 5b32 0000 4205 0000
00000120: a66d 6a3e 9ebd c0bb 6045 0100 5252 0c3e
00000130: 8097 8f3c c370 ba37 7f1d a5bb 0829 0000
00000140: d051 0080 1d5f 1abc f646 ae25 16b5 858d
00000150: 0381 e73d 1c3d 8ead 293e 0000 7093 093e
00000160: 9231 5f37 2597 6b3d 89d2 90bc 8a3f b3b4
00000170: bfaf 0430 9b2f 273d 4150 0080 aff4 0880
00000180: 8294 883d 6756 e336 b12f 9a34 9e7e 253d
00000190: eb22 de25 8718 cdb7 5517 3a3d 934a c6a8
000001a0: db14 0080 eafd cc3d 1a49 0000 005a 0736
000001b0: 172a cd3b 93ea eb1d 4c17 0080 114f 493d
000001c0: e602 40b4 4438 352e 28c5 e73c 9a31 13b8
000001d0: d966 7e38 bd26 913d 40ca 75a6 f6ca b03e

A_mean f4 [9]
3.9353177e-05 0.0016209584 -1.0818526e-15 0.00012471275 0.001945986 -1.0481235e-15 -2.208599e-05 0.0015278909
-1.319453e-15
00000000: 270f 2538 5776 d43a 51e9 9ba6 53c5 0239
00000010: 7410 ff3a ef0c 97a6 4d45 b9b7 8343 c83a
00000020: 3927 bea6

B_mean f4 [120]
3.075656e-05 6.641e-42 -2.05877e-40 -6.427932e-17 3.475e-42 -1.287374e-39 0.00028540383 5.0566e-40
-4.493e-42 0.00012905432 3.384e-42 -1.55726e-40 -8.3803084e-16 -1.393e-42 4.4408583e-22 0.0011729033
7.404e-42 -4.884625e-39 0.0001105693 2.55752e-40 -1.49901e-40 -4.588463e-16 4.77795e-40 -6.899e-42
0.0008372889 -1.49241e-40 1.7660459e-06 0.000101922065 2.6524e-41 -1.53399e-40 -6.64502e-16 3.05665e-40
6.362e-42 0.0004968426 -1.974026e-05 -2.15295e-40 0.00010510177 1.7787786e-38 -1.28311e-40 -3.5144874e-16
-2.16239e-40 5.76941e-40 0.0009426134 -1.581e-41 3.136383e-05 8.496055e-05 2.26371e-40 2.03195e-40
-1.2570533e-16 -2.27031e-40 3.034e-42 7.228539e-05 -9.38066e-40 -3.8289e-40 6.73481e-05 1.877e-41
3.0907e-40 -8.583574e-16 -4.036087e-23 -6.32419e-40 0.0017535016 -1.62867e-40 1.9408e-41 -1.6395856e-05
-8.49988e-40 6.988e-42 -3.7825019e-16 -2.0776e-40 2.73547e-40 0.00022586626 1.7735e-40 7.1422745e-17
3.8983646e-05 -7.61609e-40 -6.22e-43 -6.95455e-16 -5.7669e-40 -1.5755506e-07 0.00061069656 2.4238e-41
-4.46e-43 9.163362e-05 1.608e-41 1.4887e-41 -8.2183795e-16 7.2454145e-32 2.886585e-39 0.0009912413
7.8763e-41 9.70368e-40 7.510856e-05 -4.01276e-40 8.2475e-41 -2.9938594e-16 -1.82812e-40 1.18139e-40
0.0010301025 2.90217e-40 9.5709e-41 0.00011212664 1.0258e-41 5.559726e-26 -8.25513e-16 -1.4732e-41
2.0479351e-16 0.0008232991 1.21787e-40 -7.62e-43 0.00026460076 4.5637126e-19 1.5926e-41 -3.870928e-16
2.12486e-40 5.59935e-40 -5.8582405e-05 2.98e-42 -1.1535e-41 0.00016080534 3.1337e-41 1.995051e-39
00000000: 9b00 0138 8312 0000 e73d 0280 d037 94a4
00000010: b009 0000 ad04 0e80 41a2 9539 9381 0500
00000020: 860c 0080 c152 0739 6f09 0000 1ab2 0180
00000030: c38b 71a6 e203 0080 7a37 061c 1bbc 993a
00000040: a414 0000 5930 3580 71e1 e738 efc8 0200
00000050: dda1 0180 e240 04a6 e633 0500 3b13 0080
00000060: 827d 5b3a 06a0 0180 e008 ed35 febe d538
00000070: f049 0000 9dab 0180 9887 3fa6 1254 0300
00000080: bc11 0000 8b3e 023a e397 a5b7 2858 0280
00000090: 156a dc38 1cb1 c100 ae65 0180 ae98 caa5
000000a0: c95a 0280 4748 0600 b719 773a 122c 0080
000000b0: a88c 0338 d92c b238 0877 0200 6d36 0200
000000c0: aaed 10a5 df78 0280 7508 0000 ec97 9738
000000d0: f236 0a80 572b 0480 3c3d 8d38 5334 0000
000000e0: 905d 0300 9967 77a6 562c 439a ede2 0680
000000f0: c0d5 e53a 02c6 0180 1a36 0000 d589 89b7
00000100: 6c41 0980 7b13 0000 e00b daa5 2643 0280
00000110: 8afa 0200 83d6 6c39 61ee 0100 8cb0 a424
00000120: 5f82 2338 0e4b 0880 bc01 0080 8673 48a6
00000130: 9447 0680 682c 29b4 2717 203a 9143 0000
00000140: 3e01 0080 6d2b c038 d32c 0000 8029 0000
00000150: f0e0 6ca6 0a1a bc0b a06e 1f00 8aec 813a
00000160: 8fdb 0000 fe90 0a00 9a83 9d38 985e 0480
00000170: e8e5 0000 9195 aca5 9bfd 0180 5349 0100
00000180: 8104 873a 0229 0300 cc0a 0100 8825 eb38
00000190: 981c 0000 f3a6 8915 1cf0 6da6 1129 0080
000001a0: 601c 6c25 abd2 573a 7e53 0100 2002 0080
000001b0: 1dba 8a39 70b2 0621 652c 0000 d124 dfa5
000001c0: 5350 0200 df18 0600 61b6 75b8 4f08 0000
000001d0: 2820 0080 db9d 2839 5b57 0000 64b9 1500

ar_gate_lin.weight f4 [1, 64]
-0.07429479 0.020886324 -0.0067850016 0.020643061 0.045169447 -0.022983836 -0.018307928 0.016452363
0.004575106 0.10389788 0.03068281 -0.0010004556 -0.077277124 0.02349002 0.021877142 -0.06877459
0.017380847 -0.027973128 0.1372709 -0.017020697 0.01748523 -0.08088906 -0.055836502 -0.01633919
0.07002559 0.06375186 -0.024219979 0.01204956 0.029154882 -0.052206825 -0.05530651 0.022578588
0.023835765 0.019441977 -0.015605653 -0.074646816 -0.014494113 0.0029569387 -0.028114846 0.0017174808
0.08282193 0.06980769 0.0057489853 0.021065038 0.029887974 0.033408213 -0.043646347 -0.033709817
0.0033612768 0.043351196 0.054913487 0.08569614 -0.10600433 0.0508094 0.02615795 -0.004908022
0.097867794 0.0024080232 0.023983147 -0.040830314 0.00105886 0.045011003 0.1804877 0.53374213
00000000: de27 98bd cc19 ab3c b854 debb a31b a93c
00000010: 9903 393d 9948 bcbc 82fa 95bc 1bc7 863c
00000020: c5ea 953b 69c8 d43d 845a fb3c b821 83ba
00000030: 7843 9ebd 246e c03c b137 b33c b1d9 8cbd
00000040: 4762 8e3c e727 e5bc be90 0c3e fd6e 8bbc
00000050: 2f3d 8f3c 2aa9 a5bd d1b4 64bd c4d9 85bc
00000060: 9469 8f3d 5690 823d fa68 c6bc 856b 453c
00000070: 38d6 ee3c d3d6 55bd 1489 62bd bbf6 b83c
00000080: 3943 c33c c844 9f3c daae 7fbc 6ee0 98bd
00000090: b778 6dbc 33c9 413b 1b51 e6bc 181d e13a
000000a0: 8b9e a93d 56f7 8e3d fc61 bc3b 9690 ac3c
000000b0: a0d7 f43c 0dd7 083d 83c6 32bd 4e13 0abd
000000c0: de48 5c3b 0691 313d f7ec 603d 7581 af3d
000000d0: cc18 d9bd 841d 503d 3249 d63c 79d3 a0bb
000000e0: e96e c83d edcf 1d3b 4e78 c43c b03d 27bd
000000f0: 72c9 8a3a 755d 383d c5d1 383e 53a3 083f

ar_mean_lin.weight f4 [1, 64]
-0.07238634 0.021900807 0.064916216 -0.023351809 -0.023550564 -0.016147057 -0.013404733 0.030278945
-0.017029215 -0.0477182 0.06542078 -0.11056771 -0.017856501 -0.0019609858 -0.008308501 -0.022928735
0.06591831 0.011349448 0.056371782 0.049077448 -0.029184733 0.030079119 -0.021143652 0.019806169
0.00804599 -0.0694993 0.08613779 -0.03395827 0.033594344 -0.01204345 -0.080927774 0.040646035
0.09878831 -0.028155647 0.029458439 -0.08237149 0.068872705 -0.038574327 -0.06622952 -0.05624735
-0.03130924 0.03544379 0.0041015283 0.00833301 0.05885358 -0.0278815 -0.0037967896 0.11205301
-0.0636161 0.039569676 -0.015131918 0.0037614384 0.06448218 0.04643136 -0.0019682378 0.045122597
-0.0013640956 0.04011928 0.013743111 0.04228147 0.03396866 0.052425947 0.10078524 0.5063634
00000000: 4a3f 94bd 5269 b33c cbf2 843d 4b4c bfbc
00000010: 1ded c0bc d546 84bc 869f 5bbc 8d0b f83c
00000020: da80 8bbc 2974 43bd 54fb 853d 5371 e2bd
00000030: cc47 92bc e283 00bb 6120 08bc 0bd5 bbbc
00000040: 2e00 873d 09f3 393c 19e6 663d 6f05 493d
00000050: d214 efbc 7c68 f63c 7435 adbc 8c40 a23c
00000060: 54d3 033c a655 8ebd 0269 b03d d417 0bbd
00000070: 399a 093d e451 45bc 76bd a5bd 757c 263d
00000080: 8751 ca3d aca6 e6bc d352 f13c 62b2 a8bd
00000090: 220d 8d3d 1d00 1ebd 58a3 87bd 9f63 66bd
000000a0: 1e3e 00bd 822d 113d 1d66 863b 2d87 083c
000000b0: 7410 713d be67 e4bc 8fd3 78bb 0c7c e53d
000000c0: 2849 82bd d013 223d ddeb 77bc 7782 763b
000000d0: 3c0f 843d cf2e 3e3d 8dfd 00bb 79d2 383d
000000e0: 74cb b2ba 1d54 243d c92a 613c 562f 2d3d
000000f0: b922 0b3d 97bc 563d 7e68 ce3d 08a1 013f

ar_lambda_lin.0.weight f4 [32, 64]
0.02749199 0.0054944158 -0.033111095 0.06303081 0.006468334 0.042265367 0.05866743 -0.005593298
0.038098864 -0.035359886 -0.06717579 0.025555369 0.06589771 0.057048198 0.0004901135 0.054632798
0.015540202 -0.020024724 -0.01222117 0.006852659 0.081661865 0.056136448 0.034195375 0.060403783
0.019669188 -0.004864025 -0.07766726 0.012356579 0.072675414 -0.03350498 0.009748282 0.023404066
-0.01592934 0.00074710324 0.046420127 0.07296166 -0.08128425 0.03531242 0.058374673 0.0143745905
0.07423956 0.042735297 -0.00075549853 0.0046545244 0.0018404867 0.07269909 0.0088642975 -0.12800379
-0.00079786865 0.019288955 0.028370986 0.056699976 0.059956234 0.049958467 -0.021768719 0.048610773
0.005756672 -0.014832617 -0.04094771 0.04931959 0.084979065 0.024487868 0.01074694 0.08096133
-4.2333668e-23 -1.9843094e-22 -1.0831771e-22 2.4581632e-23 1.4777854e-22 8.9476845e-23 7.873918e-23 1.1652394e-22
7.037296e-23 5.888302e-23 -6.402241e-23 1.2830465e-22 1.0912478e-22 6.50501e-23 5.031007e-23 1.5097768e-22
2.421332e-22 1.9902663e-22 9.170788e-23 1.8785007e-22 2.5046634e-22 2.5428814e-22 1.9378191e-22 9.463102e-23
2.038275e-22 1.312836e-22 -1.6224582e-22 1.2884092e-22 1.6603884e-22 -1.7374598e-23 -8.537911e-24 -4.37714e-24
1.7824549e-24 1.5302355e-22 3.8673376e-23 5.0823815e-23 -4.3053787e-22 -2.9183294e-24 -1.3758301e-22 -5.521523e-23
1.7953753e-22 2.3410398e-22 1.4322517e-22 9.3024955e-24 -3.0048335e-22 9.797141e-23 1.0064839e-22 1.2240448e-22
3.0120837e-22 2.4396123e-22 1.607506e-22 2.239154e-22 3.7481205e-22 2.897936e-22 3.6366778e-22 1.7773108e-22
-3.0867698e-23 1.4051744e-23 1.1257746e-22 2.4033514e-23 1.1141339e-22 1.0433673e-23 1.2596333e-22 7.3265766e-23
0.033340205 0.0063043386 -0.04288984 0.08223251 0.010070717 0.05395257 0.07471852 -0.00777892
0.04832355 -0.04262399 -0.09049042 0.03192062 0.08380483 0.07274402 0.0009346763 0.07218047
0.02251425 -0.024688736 -0.013458394 0.008328337 0.10548438 0.06926415 0.043395 0.07928742
0.028436223 -0.008161305 -0.10129856 0.013516473 0.093889154 -0.047404803 0.010469892 0.0306485
-0.02081405 0.0013090215 0.06046263 0.09336631 -0.10491068 0.046421442 0.07347678 0.020785047
0.0976854 0.058097184 0.0009873908 0.0075414544 0.000456494 0.09576324 0.016918441 -0.16759971
-0.0018503172 0.027914325 0.037859228 0.07315753 0.07497023 0.06383691 -0.026114019 0.062055103
0.007406845 -0.020256987 -0.0505648 0.06170471 0.11131741 0.033074647 0.02001799 0.114779696
-1.2092653e-25 -2.1845656e-25 4.022143e-26 -2.4357703e-25 1.5446844e-26 1.1321816e-25 4.8103387e-25 -2.617007e-25
7.3570524e-27 5.185558e-26 1.444506e-25 -6.684287e-26 -6.751754e-25 5.2945327e-25 9.815396e-25 9.234992e-26
-2.7299907e-25 -2.1385822e-25 -3.9161106e-25 -5.0861146e-25 1.6049474e-26 1.586727e-25 -1.2990144e-25 1.0180447e-26
1.3540202e-24 4.66575e-26 -6.6297e-25 3.422579e-25 2.1245518e-25 -1.3729621e-25 2.441461e-25 -1.204633e-25
-1.6916685e-25 1.4395417e-25 1.6328324e-25 -7.316343e-26 1.4611686e-25 3.3981327e-25 4.1231288e-26 2.6582239e-25
2.0700363e-25 -1.7741964e-25 -2.533037e-25 -5.778334e-26 -6.5482136e-26 -6.919402e-26 -3.7916927e-25 -7.3461445e-26
6.378455e-25 4.681281e-26 -1.6926216e-25 -1.2825885e-25 4.115978e-25 -3.265014e-25 -3.2164922e-26 3.277684e-26
3.3443815e-25 3.5893926e-25 -1.6454057e-25 2.4150296e-25 4.427857e-26 -4.886918e-26 -3.4760978e-25 1.2622202e-24
00000000: e236 e13c 800a b43b 809f 07bd 4c16 813d
00000010: 51f4 d33b 731e 2d3d 424d 703d fc47 b7bb
00000020: 8e0d 1c3d 87d5 10bd 7693 89bd 7e59 d13c
00000030: 61f5 863d 5fab 693d f67a 003a a4c6 5f3d
00000040: 559c 7e3c e40a a4bc 4d3b 48bc 458c e03b
00000050: 563e a73d 55ef 653d 7310 0c3d f569 773d
00000060: 4721 a13c 6662 9fbb 0310 9fbd 4073 4a3c
00000070: d9d6 943d 853c 09bd 42b7 1f3c e2b9 bf3c
00000080: 3f7e 82bc 40d9 433a 0823 3e3d ec6c 953d
00000090: 5b78 a6bd c2a3 103d 481a 6f3d 6783 6b3c
000000a0: e90a 983d 350b 2f3d a60c 46ba fb84 983b
000000b0: 7c3c f13a 43e3 943d 8f3b 113c 6d13 03be
000000c0: 0f28 51ba df03 9e3c 456a e83c 3c3e 683d
000000d0: ab94 753d 40a1 4c3d 5054 b2bc 171c 473d
000000e0: 77a2 bc3b 8104 73bc c9b8 27bd 5703 4a3d
000000f0: 8109 ae3d c89a c83c ef13 303c 0ecf a53d
00000100: 8bb6 4c9a 67e3 6f9b b5f2 029b 2cbd ed19
00000110: 3ea7 321b 7c57 d81a 3161 be1a 6ade 0c1b
00000120: c126 aa1a d35e 8e1a f4cb 9a9a 5e1c 1b1b
00000130: 7cec 031b 1048 9d1a da48 731a 5485 361b
00000140: 4c5c 921b c29b 701b 6ebc dd1a c818 631b
00000150: ca65 971b 2fb5 991b 9944 6a1b c4cd e41a
00000160: 8e69 761b 4eb6 1e1b a624 449b 55c2 1b1b
00000170: 88ba 481b 6c09 a899 b025 2599 1855 a998
00000180: 28e9 0918 7ffe 381b 5203 3b1a d6c4 751a
00000190: 411f 029c 78cb 6198 e153 269b 9280 859a
000001a0: 2d0c 591b d681 8d1b 0b26 2d1b baef 3319
000001b0: 8ca1 b59b 5ee1 ec1a 565a f31a 5afa 131b
000001c0: bd11 b61b 2c77 931b e755 421b 3b59 871b
000001d0: 5b8f e21b 632b af1b ddd2 db1b 1bdd 561b
000001e0: 5c44 159a 6fe6 8719 0919 081b 1970 e819
000001f0: c6b0 061b 0cd1 4919 c347 181b 5025 b11a
00000200: bd8f 083d a094 ce3b 42ad 2fbd 8569 a83d
00000210: a6ff 243c 5ffd 5c3d 0606 993d 4fe6 febb
00000220: eaee 453d 7e96 2ebd 0b53 b9bd 32bf 023d
00000230: dea1 ab3d d1fa 943d 1105 753a 5bd3 933d
00000240: ce6f b83c 0840 cabc 9980 5cbc 9473 083c
00000250: 3208 d83d 5dda 8d3d f5be 313d 7161 a23d
00000260: 15f3 e83c ffb6 05bc 9f75 cfbd 3274 5d3c
00000270: f548 c03d 8a2b 42bd e989 2b3c 9012 fb3c
00000280: 3a82 aabc 7993 ab3a aaa7 773d d636 bf3d
00000290: 69db d6bd 6924 3e3d fe7a 963d 6745 aa3c
000002a0: 480f c83d 50f7 6d3d 566b 813a 4e1e f73b
000002b0: 9655 ef39 841f c43d 8b98 8a3c 429f 2bbe
000002c0: 5886 f2ba 95ac e43c 4712 1b3d 9dd3 953d
000002d0: fe89 993d edbc 823d 11ed d5bc 7e2d 7e3d
000002e0: 1fb5 f23b fbf1 a5bc 091d 4fbd 14be 7c3d
000002f0: 62fa e33d 4879 073d c5fc a33c 9e11 eb3d
00000300: 26b3 1596 d337 8796 b82a 4715 52c4 9696
00000310: 67fa 9814 4428 0c16 6edf 1417 22fc a196
00000320: b0b8 1114 6163 8015 39d2 3216 b47e a595
00000330: e8f4 5097 9cdb 2317 cae2 9717 b7a5 e415
00000340: 6efa a896 305f 8496 4065 f296 5a68 1d97
00000350: 40f2 9e14 636d 4416 69cf 2096 00a5 4914
00000360: 4486 d117 6809 6715 e52d 4d97 eed8 d316
00000370: de80 8316 e8f6 2996 7e1e 9716 5820 1596
00000380: 1d6b 5196 e634 3216 8622 4a16 d524 b595
00000390: 48e2 3416 9055 d216 de2a 4c15 3d89 a416
000003a0: 0921 8016 87a2 5b96 93c9 9c96 8b10 8f95
000003b0: 3c20 a295 ec50 ab95 c5b1 ea96 b9e1 b595
000003c0: 5467 4517 49ce 6715 5289 5196 dac6 1e96
000003d0: 46c4 fe16 3618 ca96 e245 1f95 954d 2215
000003e0: d701 cf16 322c de16 fdb0 4b96 ac7b 9516
000003f0: c141 5b15 0cfd 7195 f828 d796 b251 c317

ar_lambda_lin.0.bias f4 [32]
0.0068826196 1.1416085e-22 0.006998686 2.2947384e-25 -2.1589736e-14 5.0249758e-23 0.008169766 0.0076715574
3.8068763e-26 0.0073936777 3.2993274e-23 0.0075739776 0.0065401504 -5.1646823e-16 0.0072301147 0.0028938719
6.848495e-21 -7.187079e-19 1.5218097e-20 0.0062544113 6.3264396e-24 -6.592622e-31 0.0069357925 3.5519216e-24
0.0060569113 -2.7227015e-17 0.0074992985 0.007244099 0.0016900973 0.0074911243 0.006856177 0.007055891
00000000: 9987 e13b 1203 0a1b 3c55 e53b 9509 8e16
00000010: 8b76 c2a8 30fe 721a 7bda 053c b061 fb3b
00000020: e481 3c15 aa46 f23b b28b 1f1a 212f f83b
00000030: c24e d63b a1dc 14a6 99ea ec3b 1da7 3d3b
00000040: 4a5d 011e 0920 54a1 1abb 8f1e cef1 cc3b
00000050: 06be f418 5cf1 558d a545 e33b 8768 8918
00000060: 0e79 c63b f91f fba3 adbc f53b e85f ed3b
00000070: 4186 dd3a 1b78 f53b c8a9 e03b 1b35 e73b

ar_lambda_lin.2.weight f4 [1, 32]
0.33665597 7.9167016e-22 0.4436887 5.779117e-25 -1.7235022e-12 2.6309597e-22 -0.19454388 -0.17816058
1.3317088e-25 0.35863367 1.5749503e-22 0.3571995 0.23653793 2.3610997e-15 0.3205486 -0.07852601
-2.6369057e-20 -1.126507e-15 1.03211616e-19 0.22292751 5.2843722e-23 9.190024e-30 0.2765797 1.2844199e-23
0.1770478 2.670236e-17 0.36227953 0.3666034 -0.048696686 0.3457576 -0.15990445 0.3082795
00000000: 2c5e ac3e 8344 6f1c 2a2b e33e e2da 3217
00000010: b68f f2ab 2108 9f1b 8336 47be ba6f 36be
00000020: 89db 2416 d59e b73e 5a66 3e1b dae2 b63e
00000030: 0037 723e 9a22 2a27 f21e a43e 3fd2 a0bd
00000040: 780c f99e c658 a2a6 98b3 f31f 1c47 643e
00000050: 5c89 7f1a 5565 3a0f db9b 8d3e 6571 7819
00000060: 054c 353e 2a49 f623 b47c b93e 71b3 bb3e
00000070: 2d76 47bd 2407 b13e febd 23be d0d6 9d3e

feat_lambda_net.0.weight f4 [100, 1080]
-1.8246696e-16 -1.37996e-40 1.76628e-40 3.062e-42 2.978202e-39 2.7374e-41 -1.2222e-41 -7.423184e-09
7.954043e-39 -9.495636e-15 4.40888e-40 -1.069908e-39 -3.437e-41 9.40194e-40 1.009e-42 4.902e-42
-1.089092e-39 2.908e-42 -2.6928196e-15 -2.2065e-41 2.0958e-41 -6.71e-42 8.077e-42 -3.2285e-41
5.8248247e-08 1.69972e-40 1.7909862e-12 -8.915902e-15 -8.48045e-40 7.8009e-41 1.0920212e-20 -9.2413e-41
8.443e-42 -2.5652e-41 3.066e-42 -1.6866e-41 4.8704934e-16 -1.007856e-39 1.8358e-41 -1.5749e-41
-5.8245206e-28 -1.54158e-40 -2.0352e-41 1.383e-41 2.2925e-41 -1.3114836e-14 -1.72997e-40 5.68e-43
-1.67926e-40 -1.978e-41 -1.8683e-40 9.7146e-41 2.62e-43 -2.819e-41 -6.255822e-15 -1.729e-42
-3.1801e-41 -2.69e-43 3.2258e-41 -1.7338e-41 -1.1439e-41 1.0605e-41 8.90284e-40 -5.5808794e-15
-1.6496e-41 -1.7478e-41 1.28004e-40 -1.4524e-41 -5.985e-42 3.363258e-39 2.0619e-41 6.23e-42
-1.2535914e-14 5.574e-42 1.06572e-40 -1.881479e-39 5.73933e-40 1.92878e-40 -4.11072e-40 -1.771e-41
-1.11337e-40 -1.9562805e-14 3.238e-42 -1.55212e-40 -1.5399e-41 3.26267e-40 -3.55006e-40 -7.46968e-40
8.214e-42 -1.8539e-41 3.2730575e-15 -1.659e-42 1.31517e-40 5.478172e-13 1.5278e-41 1.70119e-40
-2.45408e-40 -9.1781e-41 6.459e-42 -7.771619e-15 7.7104e-41 -1.6798636e-18 1.6111e-41 -1.36093e-40
1.729693e-39 8.06e-42 3.4127e-40 5.96582e-40 -1.30621256e-14 -1.18659e-39 -6.813e-42 -1.9403156e-17
-3.33477e-40 -2.327e-41 1.441e-41 -2.3466e-41 8.621e-42 -2.5336626e-14 9.96683e-40 -1.7348e-41
-2.05276e-40 -2.123e-42 1.59227e-40 -5.30473e-40 1.37424e-40 8.0279e-41 -2.699041e-14 1.7529e-41
-2.4831e-41 -3.19e-41 1.8908e-41 -4.076e-42 -1.2816e-41 -3.72643e-40 -1.02064e-40 -1.6323951e-14
2.17e-41 8.481002e-17 -3.64483e-40 4.10978e-40 6.4553e-40 -1.4647e-40 -3.3310549e-18 3.4024e-41
-1.3621308e-14 -9.44336e-40 0.00024893114 1.8712e-41 2.696e-41 -7.72e-43 3.3031e-41 -4.027e-42
-1.6185e-41 -6.248391e-15 7.371e-42 -1.8475e-41 -2.4032e-41 6.9813e-41 -2.1436e-41 -1.35039e-40
-2.597e-42 3.2887e-41 9.907516e-16 -1.6765e-41 2.2121e-41 -3.0226e-41 3.93536e-40 4.047e-42
-2.2051603e-17 -9.30934e-40 -2.5777e-41 -7.1181735e-15 1.8061e-41 3.79885e-40 -1.4765e-41 -8.6321e-41
3.0009e-41 3.4426e-41 1.1123066e-07 -1.0272e-41 -1.31522685e-14 -2.7959e-41 -2.699e-42 -2.7145e-41
1.17792e-40 1.5716e-41 2.90795e-40 1.73489e-40 1.795086e-39 -1.0518616e-14 3.1777e-41 -1.5234e-41
9.759e-42 9.927e-42 2.89e-42 -1.62659e-40 -1.115585e-39 8.1414e-41 -1.4509215e-14 -1.02506e-39
1.9315e-41 2.0427e-41 3.447e-42 -1.5717329e-18 -1.122459e-19 -3.523e-41 3.1320773e-12 -8.270172e-15
-2.7568e-41 -2.0514e-41 1.143001e-39 1.9324e-41 -2.57584e-40 3.53657e-40 -4.4347005e-11 1.11815e-40
-1.6283902e-14 1.08058e-40 2.506e-41 1.7796e-41 -8.277e-42 -1.523485e-39 -6.21336e-40 2.3646e-41
2.55207e-40 -8.8889e-15 2.9493e-41 2.8969e-41 -1.43967e-40 1.2068e-41 1.39524e-40 -6.181795e-39
2.738e-42 3.58163e-08 2.154475e-15 2.7656e-41 -2.030773e-10 -1.66498e-40 1.3928e-41 -1.7327e-41
-3.0711e-41 1.58165e-40 1.3968e-41 -1.4498363e-14 -1.729e-41 2.8445e-41 1.9903e-41 1.80798e-40
-1.2816e-41 5.408e-42 -3.2562e-41 3.0834e-41 -4.4451667e-15 -2.05907e-40 -4.132774e-06 -1.122577e-39
00000000: be5e 52a5 ad80 0180 5eec 0100 8908 0000
00000010: 046e 2000 4f4c 0000 1222 0080 040f ffb1
00000020: a39c 5600 e40e 2ba8 04cd 0400 78a6 0b80
00000030: cf5f 0080 e13c 0a00 d002 0000 aa0d 0000
00000040: f2db 0b80 1b08 0000 c109 42a7 823d 0080
00000050: 6c3a 0000 b412 0080 8416 0000 ff59 0080
00000060: a02c 7a33 d0d9 0100 140f fc2b 579d 20a8
00000070: 013c 0980 75d9 0000 e846 4e1e 9c01 0180
00000080: 8917 0000 8247 0080 8c08 0000 042f 0080
00000090: e661 0c26 7ef9 0a80 2d33 0000 e72b 0080
000000a0: 2096 3892 bbad 0180 bc38 0080 8d26 0000
000000b0: e83f 0000 8141 6ca8 3fe2 0180 9501 0000
000000c0: 1cd4 0180 2337 0080 ce08 0280 ce0e 0100
000000d0: bb00 0000 954e 0080 c663 e1a7 d204 0080
000000e0: a658 0080 c000 0080 ec59 0000 5530 0080
000000f0: e31f 0080 901d 0000 c0b1 0900 8712 c9a7
00000100: fc2d 0080 b930 0080 d364 0100 7d28 0080
00000110: af10 0080 659f 2400 7a39 0000 5e11 0000
00000120: b3d3 61a8 8a0f 0000 1429 0100 cc7c 1480
00000130: e43f 0600 aa19 0200 e779 0480 5e31 0080
00000140: 5d36 0180 c234 b0a8 0709 0000 abb0 0180
00000150: ed2a 0080 808d 0300 9ddd 0380 3e22 0880
00000160: e616 0000 ae33 0080 41d9 6b27 a004 0080
00000170: 9e6e 0100 6432 1a2b 972a 0000 39da 0100
00000180: 19ac 0280 d9ff 0080 0112 0000 4400 0ca8
00000190: efd6 0000 74e7 f7a1 e92c 0000 5f7b 0180
000001a0: aed5 1200 7816 0000 52b7 0300 077f 0600
000001b0: 6c4e 6ba8 bbeb 0c80 fe12 0080 68f6 b2a3
000001c0: 99a1 0380 de40 0080 2b28 0000 6a41 0080
000001d0: 0818 0000 4836 e4a8 59da 0a00 5c30 0080
000001e0: 3a3c 0280 eb05 0080 dcbb 0100 bec6 0580
000001f0: 157f 0100 c9df 0000 a61b f3a8 dd30 0000
00000200: 3845 0080 ed58 0080 b534 0000 5d0b 0080
00000210: ba23 0080 c70e 0480 831c 0180 7808 93a8
00000220: 7e3c 0000 008f c324 08f8 0380 a479 0400
00000230: 7a07 0700 4c98 0180 d9c9 75a2 d85e 0000
00000240: 3261 75a8 6d48 0a80 f982 8239 2934 0000
00000250: 274b 0000 2702 0080 145c 0000 3a0b 0080
00000260: 1e2d 0080 3c1f e1a7 8c14 0000 8033 0080
00000270: fe42 0080 9cc2 0000 c13b 0080 6f78 0180
00000280: 3d07 0080 ad5b 0000 48c8 8e26 bc2e 0080
00000290: aa3d 0000 4254 0080 0549 0400 480b 0000
000002a0: e063 cba3 1123 0a80 db47 0080 c83a 00a8
000002b0: 5932 0000 f722 0400 2929 0080 a1f0 0080
000002c0: a753 0000 f75f 0000 b4dd ee33 a21c 0080
000002d0: 22ee 6ca8 f04d 0080 8607 0080 ab4b 0080
000002e0: 5b48 0100 cf2b 0000 9e2a 0300 9ee3 0100
000002f0: f88b 1300 8e7c 3da8 9558 0000 772a 0080
00000300: 341b 0000 ac1b 0000 0e08 0000 6dc5 0180
00000310: cc25 0c80 f3e2 0000 f9af 82a8 7329 0b80
00000320: d835 0000 f138 0000 9c09 0000 64f2 e7a1
00000330: 3e84 04a0 3562 0080 7d66 5c2c 70fb 14a8
00000340: d94c 0080 2f39 0080 3972 0c00 de35 0000
00000350: 0ace 0280 dad9 0300 4a0a 43ae b237 0100
00000360: 1fac 92a8 392d 0100 db45 0000 9c31 0000
00000370: 1317 0080 db96 1080 08c4 0680 ea41 0000
00000380: 6ac7 0200 d120 20a8 3752 0000 c150 0000
00000390: 5291 0180 a421 0000 f084 0100 5450 4380
000003a0: a207 0000 70d4 1933 0d3f 1b27 184d 0000
000003b0: 2e49 5faf 21d0 0180 d326 0000 4d30 0080
000003c0: 9c55 0080 e6b8 0100 f026 0000 f396 82a8
000003d0: 3330 0080 4b4f 0000 7b37 0000 fef7 0100
000003e0: ba23 0080 130f 0000 c55a 0080 f455 0000
000003f0: 6d27 a0a7 fc3d 0280 42ac 8ab6 4a39 0c80

feat_lambda_net.0.bias f4 [100]
7.605588e-15 1.3910265e-15 3.1144612e-19 -1.1475852e-05 -3.9408377e-16 0.0010274037 1.8878847e-19 -1.0543458e-10
0.14451809 0.14625463 -1.6114797e-07 0.13222566 -0.0021998489 -0.0013256312 6.021124e-08 -2.2726936e-14
0.0011776781 -1.3446831e-06 6.2112e-05 7.992322e-16 6.597023e-08 -5.3859937e-20 0.063309416 -2.4284523e-06
4.5082966e-14 7.648818e-21 1.2888891e-14 4.3440096e-09 0.00063265755 0.16954294 0.00058674614 0.18023273
-2.0927136e-08 0.03583785 0.005333412 0.03819764 -0.0040214956 -1.7677868e-11 -1.1813625e-17 5.6580454e-21
0.03274389 0.13869277 -3.346458e-14 -0.000454033 -3.1229487e-13 1.8423212e-12 -6.2391106e-20 -4.1099703e-15
-2.887588e-20 0.062110994 -0.0029141326 -1.1928027e-05 2.9279363e-09 -1.0170974e-06 9.330347e-16 -3.4705865e-16
0.17695765 3.3077538e-10 -1.7163574e-14 -4.366218e-13 1.0080055e-05 0.003994129 -8.086006e-10 -0.00432647
-0.00015199576 0.12965506 -0.0036335732 3.0102412e-09 4.4251976e-19 1.7258113e-19 5.7220866e-05 1.5430869e-15
0.024900865 2.664053e-15 -0.004990915 3.6843843e-14 0.0027696097 1.9124434e-10 0.11435144 1.8604884e-15
0.002886199 0.08807577 -3.7488696e-15 -0.002607492 1.6745386e-13 2.111496e-17 -2.6024846e-12 2.2768383e-14
1.2069199e-12 1.139366e-14 2.5080604e-09 0.071357064 7.821986e-11 -1.5573098e-10 -1.4019545e-16 -1.0549045e-15
1.012487e-11 0.00065741607 4.6673515e-05 -1.1887104e-12
00000000: 9502 0928 d277 c826 68d8 b720 6988 40b7
00000010: 802c e3a5 f3a9 863a d0e1 5e20 64da e7ae
00000020: 8dfc 133e c6c3 153e 0408 2db4 2a66 073e
00000030: 572b 10bb cdc0 adba 7b4d 8133 bfb4 cca8
00000040: 525c 9a3a f67a b4b5 2042 8238 ed5c 6626
00000050: 84ab 8d33 ab58 7e9f 5ea8 813d 7ef8 22b6
00000060: 1f09 4b29 6a7b 101e 852f 6828 5042 9531
00000070: eed8 253a aa9c 2d3e decf 193a ee8e 383e
00000080: 42c3 b3b2 b6ca 123d e7c3 ae3b 2175 1c3d
00000090: c0c6 83bb 057f 9bad 44ec 59a3 42c1 d51d
000000a0: 751e 063d 7a05 0e3e 09b6 16a9 470b eeb9
000000b0: 6fce afaa 4fa4 012c 1c51 939f c913 94a7
000000c0: cc5c 089f 1968 7e3d 08fb 3ebb 7c1e 48b7
000000d0: cd34 4931 3383 88b5 e876 8626 d110 c8a5
000000e0: 6334 353e 7fd8 b52f 8298 9aa8 d5cb f5aa
000000f0: 821d 2937 2fe1 823b 3544 5eb0 10c5 8dbb
00000100: 0d61 1fb9 4cc4 043e 3e21 6ebb b9dc 4e31
00000110: d99b 0221 72bf 4b20 7000 7038 dc61 de26
00000120: e6fc cb3c 1bf7 3f27 d48a a3bb 0fee 2529
00000130: 5782 353b 7f46 522f 1631 ea3d f40f 0627
00000140: 6226 3d3b 1261 b43d 3811 87a7 75e2 2abb
00000150: 4a89 3c2a 4ac0 c223 3222 37ac 5114 cd28
00000160: dfdb a92b fc3f 4d28 445a 2c31 a723 923d
00000170: de01 ac2e 603a 2baf 65a2 21a5 1b07 98a6
00000180: 5c1e 322d 7256 2c3a 4ec3 4338 ce4b a7ab

feat_lambda_net.2.weight f4 [1, 100]
4.912159e-14 4.5555084e-15 3.801976e-17 -7.412545e-05 6.645303e-16 0.0042378306 2.9174435e-18 -2.0098825e-10
0.3229809 0.4037136 8.000862e-07 0.28963876 -0.019631261 -0.035991896 1.5146291e-07 3.401019e-14
0.0040369816 -3.793606e-06 7.169935e-05 7.7010986e-16 1.6231637e-07 -1.3862326e-19 0.21006234 -7.4938345e-07
-2.9686557e-14 1.7414171e-20 2.0502653e-15 9.437387e-09 -0.0017602394 0.37297437 0.0020813998 0.36754054
-5.530431e-08 0.111717254 0.013826036 0.113604076 -0.28853506 -1.1856504e-11 -3.1990747e-17 1.2543663e-20
0.10092117 0.27796564 -4.5687836e-14 -0.00044150584 -7.508642e-13 7.748843e-12 8.55425e-20 -8.030644e-15
-1.9860506e-20 0.20937768 -0.1172219 -6.0520255e-05 6.374394e-09 -1.1319539e-06 2.0701816e-15 -6.449074e-17
0.39157093 4.4159662e-10 -1.1046291e-14 -6.132389e-13 2.14477e-05 -0.20848043 -4.9180066e-10 -0.05041301
-2.9537685e-05 0.395261 -0.22829367 2.3138587e-09 2.9133876e-18 4.840477e-19 -0.18009286 1.7336018e-15
0.082604095 8.947641e-15 -0.285027 1.2188995e-13 0.005731645 2.3626395e-10 0.24276918 8.189282e-15
-0.16294125 0.22177903 -1.3381416e-14 -0.07498137 4.669402e-13 3.1546956e-16 -4.7128993e-12 2.0215104e-13
9.626674e-13 4.5323e-14 2.843221e-09 0.21968535 4.2665962e-10 -1.7023953e-10 2.8944516e-16 -6.003022e-16
1.4650318e-09 -0.22026637 1.2845305e-05 -4.1021735e-12
00000000: 5639 5d29 2621 a427 cf55 2f24 cc73 9bb8
00000010: ae89 3f26 80dd 8a3b f344 5722 2afd 5caf
00000020: c15d a53e 8db3 ce3e 81c5 5635 884b 943e
00000030: bdd1 a0bc 3d6c 13bd cfa1 2234 142b 1929
00000040: a848 843b a895 7eb6 4c5d 9638 14f8 5d26
00000050: 2f49 2e34 4fa8 23a0 951a 573e 3d29 49b5
00000060: 45b2 05a9 e278 a41e b8bc 1327 1122 2232
00000070: d5b7 e6ba 7ff6 be3e 1868 083b 462e bc3e
00000080: bb87 6db3 04cc e43d 9986 623c 41a9 e83d
00000090: deba 93be f294 50ad 0288 13a4 6ff1 6c1e
000000a0: c2af ce3d 8351 8e3e 7dc2 4da9 e979 e7b9
000000b0: 7859 53ab b051 082d 45fb c91f cfaa 10a8
000000c0: c293 bb9e 1a67 563e 0912 f0bd 21d7 7db8
000000d0: c305 db31 a4ed 97b5 1c2c 1527 9db4 94a4
000000e0: fc7b c83e 33c5 f22f 07fe 46a8 859c 2cab
000000f0: 96ea b337 e57b 55be 652f 07b0 df7d 4ebd
00000100: b2c7 f7b7 a65f ca3e d1c5 69be d501 1f31
00000110: 56f8 5622 9cdd 0e21 436a 38be 9ed6 f926
00000120: 562c a93d b62f 2128 0fef 91be 633c 092a
00000130: 86d0 bb3b 32e3 812f 7c98 783e 6686 1328
00000140: 12da 26be 0b1a 633e e40e 71a8 d58f 99bd
00000150: 966e 032b 17db b525 06d2 a5ac 129a 632a
00000160: c07b 872b dd1d 4c29 7962 4331 32f5 603e
00000170: 018f ea2f 2b2e 3baf 91da a625 7c06 2da6
00000180: 395a c930 828d 61be 2a82 5737 1855 90ac
