experiments/konrad/saved_models/online/hinge_inverse_gaussian/model_step_2.pt (torch, 881746 bytes, 13 tensors)

A_gate f4 [9]
000000 ae 1f 89 bc 8b 40 d2 3e bf 6d 4e bd 1d 39 30 3c
       -0.016738739 0.41064867 -0.05039763 0.010755804
000010 57 2d 84 3b 48 f0 97 3c e9 94 b9 bc bf 1d bf 3d
       0.0040337252 0.018547192 -0.022654014 0.093318455
000020 5a e0 94 3b
       0.0045433464

B_gate f4 [120]
000000 04 60 75 3b e0 60 54 bc e7 c2 46 a0 64 b3 e2 bb
       0.0037441263 -0.01296255 -1.683574e-19 -0.0069183577
000010 17 1d 00 00 1d a1 0e bd 99 9a 76 3d 65 75 09 38
       1.0435e-41 -0.03482162 0.06020603 3.2772678e-05
000020 58 bb a7 3d fc 99 aa ba 1b 8f 35 3c ea 0e 00 80
       0.0819003 -0.0013015862 0.011081482 -5.35e-42
000030 2f d2 4b 3c 6c 19 00 00 22 61 4d bb ab 22 fe 3c
       0.012440248 9.12e-42 -0.0031338413 0.03102239
000040 ec ff c2 3c ef 36 d6 af 76 ba 71 b9 5d c7 21 3d
       0.023803674 -3.8965406e-10 -0.00023053013 0.03949677
000050 a2 6c b3 bc 27 9f 01 3b 79 5d f2 b3 fa 80 98 3c
       -0.021902386 0.00197787 -1.1286006e-07 0.018616188
000060 a1 57 2e 3c a8 87 90 37 b8 60 d1 ab b2 de e6 ba
       0.01064101 1.7229308e-05 -1.4877188e-12 -0.0017613976
000070 a3 39 00 00 3d 3d 00 00 1c 3e 94 bc cd 11 52 aa
       2.0676e-41 2.1968e-41 -0.018096022 -1.8657923e-13
000080 ef 89 2f 23 2a 49 cc bc 27 10 00 00 03 4e 2a 36
       9.5159776e-18 -0.024937231 5.794e-42 2.5377383e-06
000090 cd f4 56 bb 24 4f 8c bb a9 f9 09 ba 8c 4e db 3d
       -0.0032799721 -0.0042818952 -0.00052633375 0.10708341
0000a0 42 62 35 3e 27 2e 00 80 b7 2a ef 3c df 57 12 3e
       0.17713264 -1.6556e-41 0.029195173 0.14291333
0000b0 4b 06 de b8 ad a0 e7 ba 46 de 18 30 73 3a 00 00
       -0.00010586957 -0.0017671786 5.561315e-10 2.0968e-41
0000c0 e8 ad eb ba 96 62 00 80 7b a3 04 80 c9 af a6 3e
       -0.0017980905 -3.5366e-41 -4.25988e-40 0.32555988
0000d0 59 0d 9d b9 de 2e 5b b8 f0 2b b8 ba 66 54 b4 b1
       -0.00029955318 -5.2257317e-05 -0.001405118 -5.2482845e-09
0000e0 92 de 59 3d d7 78 e7 3a 75 21 d1 3b 6b ea 29 b4
       0.053190775 0.0017659914 0.006382162 -1.5824632e-07
0000f0 3f 89 26 be 8d ba d1 bd e4 19 91 bd 19 6e cc bb
       -0.16263293 -0.1024066 -0.07085016 -0.0062387106
000100 62 96 37 b8 7c 01 00 80 3b 55 f4 b9 c1 0b 00 00
       -4.3770655e-05 -5.32e-43 -0.00046602808 4.217e-42
000110 4a b2 4d 3f f4 d9 d8 3e 3b ca c2 a7 e2 72 90 3d
       0.8035017 0.42353785 -5.4065075e-15 0.07053162
000120 0e da 75 bb 66 47 00 80 2d ec 83 be 0f b6 18 3c
       -0.0037514004 -2.5613e-41 -0.25766125 0.00932075
000130 15 13 00 00 d2 0b 0b 3f db 8e 3a 3d 57 6f f1 b4
       6.845e-42 0.5431491 0.045546394 -4.4970758e-07
000140 b3 57 00 80 0a c9 19 3d ce 23 00 00 1f 2a 57 bb
       -3.146e-41 0.03754524 1.2844e-41 -0.0032831503
000150 60 48 d5 bb b2 f9 6d 3c 24 09 00 00 58 4f cf 3d
       -0.006508872 0.014524864 3.279e-42 0.101225555
000160 64 35 c6 1c 50 ea 20 3b cb cf 34 bb e1 9f d8 1d
       1.3116342e-21 0.0024553724 -0.0027589675 5.7340035e-21
000170 7c bf 56 bf 38 e4 96 bb ff d9 e6 ba a6 eb 86 35
       -0.8388593 -0.0046048425 -0.0017612575 1.0052361e-06
000180 fe 30 2f 3d d6 7e 91 bb f2 42 c5 3a 0a 7d 3d be
       0.042771332 -0.004440169 0.0015049858 -0.1850473
000190 e3 cf 12 b3 15 5d 5f af d7 78 63 bd d5 c5 01 be
       -3.4182346e-08 -2.0314801e-10 -0.055535164 -0.12673123
0001a0 32 20 3c a5 bb 58 32 3d 88 d1 1f 2a 22 f5 b0 be
       -1.6317309e-16 0.04354165 1.4194733e-13 -0.34562021
0001b0 f7 c8 66 3c e1 43 82 36 75 53 ce 3c 7b ba 4c bb
       0.014086 3.882204e-06 0.02518628 -0.003123908
0001c0 c2 c4 f6 39 e5 27 8b bd 51 de 44 be cb d0 bb be
       0.00047067372 -0.06794719 -0.19225432 -0.36682734
0001d0 2d e7 09 aa e8 e6 92 bb 69 e1 20 b9 d8 64 00 80
       -1.224825e-13 -0.0044830926 -0.00015342761 -3.6176e-41

ar_gate_lin.weight f4 [1, 64]
000000 18 62 b0 bb f3 2e ed bd 0d 7c 32 3d bb ee 24 bc
       -0.0053827874 -0.115812205 0.043575335 -0.010066683
000010 96 d1 fa ba 9b 07 ad 3d 4b b4 23 bd 37 fa a7 3d
       -0.0019135948 0.08448716 -0.039966863 0.082020216
000020 16 f2 d6 bd ea 08 02 bd 72 95 0e 3e 5f ce 03 3d
       -0.10495393 -0.031746782 0.13924196 0.032179233
000030 db 90 62 bc e0 fc fd 3c 0c 3b 8b bd 8b fe 75 bc
       -0.013828482 0.03100437 -0.06798372 -0.015014301
000040 38 07 ee bc 88 0c aa bd f6 5a 5d 3d d0 a9 f6 3d
       -0.029056177 -0.083031714 0.054041825 0.12044108
000050 f4 14 fb 3c 2c d5 40 3d 29 01 1d bd 42 02 42 bd
       0.03064964 0.047078297 -0.038331185 -0.047365434
000060 ae 00 cf bd 3d 5d f8 bd 61 d5 a1 bb e3 07 0d 3d
       -0.101075515 -0.12127159 -0.004938767 0.03443135
000070 7a ba a1 3c 0b 94 4a 3c 08 c9 33 bd 98 0e 20 3c
       0.01974224 0.012364398 -0.04389289 0.009769104
000080 26 5d 98 bc 94 4c ca bd 5d 42 0e bd 08 87 fc bc
       -0.018599104 -0.09877887 -0.034731258 -0.030826107
000090 90 cf bb 3d d0 d7 96 3d d5 74 f9 bb 1f 72 85 bd
       0.09170449 0.07365382 -0.0076128044 -0.065159075
0000a0 56 20 2b 3d 70 a3 07 3d 1a 00 0f bd 08 cb 9b bd
       0.041778885 0.03311485 -0.034912206 -0.076070845
0000b0 f4 a2 3c 3d 11 0a 29 bd b4 d3 2d bc 86 1e 29 be
       0.04605384 -0.041269366 -0.010609556 -0.1651555
0000c0 19 4f a4 bd bd 67 af bd c5 59 b8 bd 3f 01 92 3d
       -0.08022899 -0.085647084 -0.09001497 0.07129144
0000d0 a7 c1 5c 3d 55 bc f5 bd 79 3d 1c be c0 70 95 bd
       0.05389562 -0.11998812 -0.15257825 -0.07296896
0000e0 fd f1 96 bb b5 4c 22 be a5 de 4a be 7f 55 c4 bb
       -0.004606484 -0.15849574 -0.19811495 -0.0059916372
0000f0 6a 83 33 3d 96 bd 9d 3d 79 fb 4c 3d 90 8c 05 be
       0.043826498 0.07702176 0.05004451 -0.13041902

ar_mean_net.weight f4 [1, 64]
000000 9e 39 92 bd e2 5d 03 bc c5 a9 00 bd f4 8f 1b 3d
       -0.07139896 -0.008017989 -0.031411905 0.03797908
000010 fa 22 70 bd 1c f0 12 3e cb 7e d2 3c 33 6e 8e bc
       -0.058627106 0.14349407 0.025695225 -0.017386531
000020 0d a4 9f 3c 0d 60 7d bd 27 ba 80 3b f7 88 28 bd
       0.019487405 -0.06185918 0.003928441 -0.041146245
000030 e2 ac 10 bd 4d 7d 03 bc ea d3 37 bc a7 97 3f bc
       -0.035321124 -0.0080254795 -0.011219958 -0.011693872
000040 d6 f1 e9 3c 68 c7 78 3c b3 2d 2f 3c cb e2 c2 3c
       0.0285577 0.015184261 0.010692048 0.023789784
000050 8a 72 c0 3c 79 62 76 bd 6e 41 b1 3c a9 cc ae bc
       0.023492116 -0.060152505 0.021637645 -0.021337824
000060 95 69 e6 3b f4 be 9f bd 31 29 db 3c ee d8 bf bd
       0.0070316293 -0.07800093 0.02675304 -0.09367548
000070 aa 98 9c bd c5 4c 9d 3c 83 3f 83 bd e9 74 ad bd
       -0.07646306 0.019201646 -0.06408598 -0.084695645
000080 75 11 56 bc 45 df a1 bd 0a aa a4 3b 48 26 db bd
       -0.0130656855 -0.079039134 0.005025153 -0.10700661
000090 2f 7f 84 3d d8 2a f5 3c df 98 07 3d f3 86 71 bd
       0.06469571 0.029927656 0.033104774 -0.05896659
0000a0 53 1d 35 bd 0f 58 33 bc 6e b6 7d 3d 1d bb ae 3c
       -0.04421742 -0.010946288 0.061941557 0.021329457
0000b0 7c 47 8f 3b 41 cf 8b bc 1d a3 7a 3d 92 b6 49 bc
       0.0043725353 -0.0170666 0.061190713 -0.012311595
0000c0 80 05 3b bd 91 14 fd bb 1c 11 37 3d 48 33 a6 3a
       -0.045659542 -0.007723399 0.04469405 0.0012680078
0000d0 30 d9 2c 3d 0f 1e 37 bc ea fd 42 bb 08 83 b8 3c
       0.042199314 -0.0111766 -0.0029753395 0.022523418
0000e0 8c 93 99 3d 69 f3 c8 3c 14 cc 4c 3d b9 b7 2b 3d
       0.074988455 0.02453013 0.04999931 0.04192326
0000f0 d9 ef 80 3d a8 0a 9a 3c e1 ad f3 3d bc 12 0c 3d
       0.06295747 0.01880391 0.11898399 0.034197554

ar_sigma_net.0.weight f4 [32, 64]
000000 05 c3 7c 3a f4 0f 52 bb 96 87 92 3c 55 70 12 3c
       0.0009642097 -0.0032052966 0.017886918 0.008937915
000010 9e 99 31 3c 3e e9 8b 3c 63 7c c3 3b 8e e5 1f 3c
       0.010839848 0.017078992 0.005965756 0.00975932
000020 0e 1a 9a b8 5f bb ac 3b 0a 39 ec 3c c8 7a a7 3b
       -7.348145e-05 0.00527136 0.028835792 0.005111072
000030 f8 2a 45 3b bd 90 9a 3b 89 70 fb ba 7d 74 b0 39
       0.0030085426 0.004716961 -0.0019183318 0.00033656126
000040 52 ef eb 3a e5 1b ef 3a 6f f5 d7 3c 38 c1 3b 3d
       0.00180004 0.0018242566 0.026362149 0.045838565
000050 cc 88 90 3c 4a 73 49 3c f6 ae 9c 3b 59 0a 88 3b
       0.017643355 0.012295553 0.004781599 0.004151624
000060 e5 dc cd 39 6e 12 8e 3b 0f dc 8c 3b 33 f8 10 3c
       0.00039265226 0.004335693 0.004298694 0.008848238
000070 50 c6 3d 3c 5c a1 f8 3b bf f6 83 3a 29 c9 bb 3b
       0.011582926 0.007587595 0.0010068043 0.0057307673
000080 5b 9d 79 3b e2 83 b9 3b 20 a8 84 ba 85 17 c5 3b
       0.0038088176 0.0056614736 -0.0010120906 0.0060147666
000090 57 72 e0 3c 95 93 52 3d e7 15 a6 3c ed db 82 3b
       0.027398271 0.051410276 0.020274116 0.0039935024
0000a0 2d ba 9b 3c 4a 43 98 3b a8 11 96 ba e6 1c 20 3b
       0.019009674 0.0046466934 -0.0011449354 0.0024431287
0000b0 c9 c1 3f 3b a4 d3 c0 3b 22 d1 c7 3b 43 eb 97 ba
       0.0029259792 0.0058846045 0.0060979286 -0.0011590499
0000c0 a8 65 47 3b 5f 7d 1f 3b bb 5e e7 3b 89 93 4e 3d
       0.0030425582 0.0024336202 0.0070608533 0.05043367
0000d0 f3 e3 85 3c 0f ef 1c bb 14 d9 ac 3a 7c 57 3d 3a
       0.016344046 -0.00239462 0.0013187253 0.0007222814
0000e0 6f 0a 8a 3b d7 6d b5 3a 48 d9 83 bb a4 64 79 bb
       0.0042126696 0.0013841939 -0.0040237047 -0.0038054371
0000f0 90 69 e8 3c 26 7b 53 3d 02 40 06 3c 90 08 23 3b
       0.028370649 0.051631115 0.008193972 0.002487693
000100 b3 a2 7a 31 c7 7f e0 30 c1 6a fe 31 e9 bc 31 31
       3.6472272e-09 1.6334462e-09 7.4045095e-09 2.5864273e-09
000110 ab 72 4e 31 d7 db b0 31 63 93 44 31 dc 52 8d 31
       3.0042127e-09 5.147267e-09 2.8605533e-09 4.11306e-09
000120 88 82 c4 30 e9 a8 1b 31 db 64 57 32 b4 66 e0 31
       1.4297976e-09 2.2651483e-09 1.2537579e-08 6.530934e-09
000130 c4 64 5c b0 0f 8d 9c 31 31 fe 9a 30 a3 f9 60 31
       -8.017873e-10 4.556234e-09 1.127722e-09 3.2738192e-09
000140 71 89 ea 30 8e aa 4a 30 f7 b1 7d 33 1b 4e be 30
       1.7064804e-09 7.3729545e-10 5.906801e-08 1.3846518e-09
000150 7e 65 e2 31 aa 10 10 31 fa e5 37 31 b0 d6 da 30
       6.589004e-09 2.096423e-09 2.6760731e-09 1.5922605e-09
000160 e9 fd bf 30 18 fa 55 2f 45 ff 75 31 8c f3 cf 31
       1.3969245e-09 1.9461088e-10 3.5797296e-09 6.052181e-09
000170 79 e1 97 31 66 9f b2 b0 06 47 4b b1 e0 6b 7c af
       4.4203117e-09 -1.2996508e-09 -2.958076e-09 -2.2957591e-10
000180 14 07 34 31 a3 3f f7 30 f0 e1 e1 ae 3e 5d 2d 30
       2.619747e-09 1.7989702e-09 -1.027195e-10 6.306954e-10
000190 8a 92 ab 31 73 d0 12 33 68 0c db 31 c8 bc c9 2e
       4.9934146e-09 3.4182857e-08 6.3751493e-09 9.173956e-11
0001a0 7c 22 da 30 71 fa 15 31 b6 5b 2f 31 82 a2 4d 30
       1.5871389e-09 2.1824713e-09 2.5517983e-09 7.4809503e-10
0001b0 ee 95 93 31 f3 4c 96 31 00 cc d2 31 9a cf 80 30
       4.295308e-09 4.3743227e-09 6.1349965e-09 9.37223e-10
0001c0 4c 05 bf 2f 70 b5 0b b1 c6 a4 48 af 53 e2 69 b3
       3.474646e-10 -2.0330297e-09 -1.8248433e-10 -5.445538e-08
0001d0 c1 f9 a6 b1 3c 12 8d b1 de 81 0a b0 8f 5d b9 b1
       -4.8596296e-09 -4.105713e-09 -5.038866e-10 -5.394845e-09
0001e0 d3 06 9e 30 34 7f e2 30 62 f2 63 b0 ba ba b9 b0
       1.1497953e-09 1.6479818e-09 -8.2926566e-10 -1.3513592e-09
0001f0 d4 4f 05 b2 13 87 42 b2 23 f8 30 b2 e4 15 f8 30
       -7.75977e-09 -1.13229985e-08 -1.0300968e-08 1.8050597e-09
000200 e1 cb ab b2 eb 6c e1 b1 e7 af 8e b3 d3 81 26 b3
       -1.9999733e-08 -6.5607444e-09 -6.644387e-08 -3.876796e-08
000210 37 6d 16 b3 41 32 c5 b3 6b 5a 2c b3 ff 1b 8d b3
       -3.5023927e-08 -9.1826685e-08 -4.0129105e-08 -6.5709166e-08
000220 9a ac 98 b2 ac 3f bd b2 d6 b0 21 b3 53 eb 47 b3
       -1.7773619e-08 -2.203145e-08 -3.7646565e-08 -4.6547324e-08
000230 8f 94 c0 b2 ec 73 61 b3 4a f6 7d b2 03 6d a2 b2
       -2.2419298e-08 -5.2492325e-08 -1.4782538e-08 -1.8908855e-08
000240 75 c9 b1 b2 e5 e0 a0 b2 26 56 1f b4 41 ff f5 b3
       -2.0697124e-08 -1.8728722e-08 -1.483937e-07 -1.1455132e-07
000250 8e e9 27 b3 52 6e 5c b3 09 c8 db b2 35 86 bd b2
       -3.9095134e-08 -5.1323077e-08 -2.5585921e-08 -2.2063526e-08
000260 22 7c d4 b2 3a ad 03 b3 b9 be 1a b3 08 c8 57 b3
       -2.4736497e-08 -3.0658363e-08 -3.602938e-08 -5.0240516e-08
000270 a9 bf 03 b3 92 06 d2 b2 87 4f 8f b2 9f 48 f4 b2
       -3.0675128e-08 -2.4450205e-08 -1.6683556e-08 -2.8438363e-08
000280 db 06 f6 b2 a7 33 01 b3 54 90 ea b2 35 ee 36 b3
       -2.8641287e-08 -3.008213e-08 -2.7306818e-08 -4.2591825e-08
000290 b2 d9 03 34 49 b2 ab b4 d5 86 02 b4 e0 3c be b2
       1.2279523e-07 -3.1980952e-07 -1.2156245e-07 -2.2146594e-08
0002a0 74 3b 9b b3 de b3 94 36 42 e6 04 b3 97 2e 66 b2
       -7.2285644e-08 4.431683e-06 -3.0943063e-08 -1.3398355e-08
0002b0 0d 44 08 b3 9b 22 16 b3 12 9d 9d b3 62 08 3f b2
       -3.172686e-08 -3.495607e-08 -7.339453e-08 -1.1119569e-08
0002c0 53 04 d2 b2 58 50 c1 b2 17 b6 e7 b2 7e 81 3a b4
       -2.4449184e-08 -2.2504693e-08 -2.6974744e-08 -1.7369709e-07
0002d0 5d 82 73 b3 d6 55 0f 31 6c 78 a0 b2 ae 34 b6 b2
       -5.669641e-08 2.085803e-09 -1.8681213e-08 -2.1211545e-08
0002e0 92 1a de b2 35 39 d1 b2 00 80 14 b1 d6 84 81 b2
       -2.5856284e-08 -2.4356817e-08 -2.1609594e-09 -1.5077983e-08
0002f0 ff 1f e9 b3 ba f9 05 b4 e3 7c 40 33 ca de fc b2
       -1.0855728e-07 -1.247744e-07 4.4817067e-08 -2.9437974e-08
000300 bd 7e a0 39 3d f2 d6 ba 2b fe 09 3c 79 5b 89 3b
       0.00030612006 -0.0016399097 0.008422415 0.0041918126
000310 fd 88 b1 3b e7 ae 09 3c 4b 33 3e 3b fd f0 92 3b
       0.0054179416 0.008403516 0.0029022272 0.0044842944
000320 5a a7 35 b9 67 0d 1e 3b bc 6b 2c 3c a2 50 2c ba
       -0.00017323848 0.0024116875 0.010523733 -0.00065732945
000330 7a f2 a3 3a 63 81 01 3b 0b 36 bf ba 38 ef 9e 37
       0.0012508177 0.0019760958 -0.001458825 1.8946463e-05
000340 2a 65 3f 3a 81 76 45 3a ba 80 f2 3b d6 e5 a7 3c
       0.00073011464 0.0007532612 0.0074005993 0.020495337
000350 fd ce f6 3b d1 15 b2 3b d5 8b f0 3a 57 62 e0 3a
       0.007531999 0.0054347296 0.001835222 0.0017119151
000360 04 e9 56 b9 34 97 ff 3a ef c9 f6 3a e6 21 6a 3b
       -0.00020495435 0.0019500018 0.0018828491 0.0035725771
000370 6e cc 9b 3b f6 90 3c 3b 78 bf e3 39 77 ca 1b 3b
       0.0047545945 0.0028772927 0.0004343947 0.0023771801
000380 03 3d c5 3a 29 39 10 3b 5d 99 d5 ba 03 ba 1d 3b
       0.001504809 0.0022006726 -0.0016296316 0.002406717
000390 52 f4 36 3c e9 31 dc 3c b8 4a 20 3c 37 6d de 3a
       0.011166649 0.026879268 0.009783439 0.0016969804
0003a0 fb c1 16 3c 28 2f 07 3b 31 66 8b ba fe 19 44 3a
       0.009201522 0.0020627473 -0.0010635314 0.000748068
0003b0 08 49 6a 3a c9 9d 37 3b a3 7e 3f 3b 25 ca 43 ba
       0.0008937274 0.0028017631 0.0029219768 -0.00074687816
0003c0 2c 36 a6 3a d8 20 45 3a 91 af 52 3b a9 ce de 3c
       0.0012680939 0.0007519848 0.0032148103 0.027198153
0003d0 fb 2d 08 3c ee 4b a7 ba 60 1c 05 3a 56 d7 02 39
       0.008311744 -0.0012763718 0.00050777756 0.00012477985
0003e0 1d b2 ed 3a 08 5b 01 3a e0 33 00 bb 0e 82 06 bb
       0.0018134747 0.0004934524 -0.001956217 -0.0020524296
0003f0 4f 5d 6a 3c 0f 22 d5 3c 2a 0d 5e 3b 6d 52 91 3a
       0.014304473 0.026017217 0.0033882358 0.0011087187

ar_sigma_net.0.bias f4 [32]
000000 b1 22 9f 3b e6 7d fa 30 81 f6 1f b3 81 ae f5 3a
       0.0048564305 1.8225677e-09 -3.7244266e-08 0.0018744023
000010 8f 14 fb 3b e7 e1 7e ae 77 d4 1e 2f d8 3b 32 ad
       0.007662363 -5.7953555e-11 1.4445499e-10 -1.01314165e-11
000020 c7 0a fc 3b df 71 09 13 1f fe 96 34 1a 75 3d 23
       0.0076917144 1.7347974e-27 2.8124575e-07 1.0270508e-17
000030 43 3d b9 b5 d6 c0 41 b4 a8 7b d4 3b 4a 28 95 3b
       -1.3801404e-06 -1.8044679e-07 0.0064844675 0.004551922
000040 a1 ea ed 3b 97 99 3d 82 99 b2 01 3c 93 a3 5f 34
       0.007260636 -1.3929605e-37 0.007916116 2.0828001e-07
000050 42 11 4c 97 6a 45 1a 3b aa 0d 9e b6 54 c5 b5 3b
       -6.5937737e-25 0.002353991 -4.7103576e-06 0.005547205
000060 6d 80 10 3c 7d bd b6 ba 4e d8 d4 80 98 a4 ae 3b
       0.008819682 -0.001394197 -1.954672e-38 0.0053296797
000070 d5 07 ed 3b 90 71 3f 33 00 12 0c 3a 05 1a d0 3a
       0.0072335997 4.4573937e-08 0.00053432584 0.0015876895

ar_sigma_net.2.weight f4 [1, 32]
000000 f0 0b be bd d0 5b 87 b2 f6 cd 41 34 5d 94 30 bd
       -0.09279621 -1.575782e-08 1.8049454e-07 -0.04311024
000010 a2 1a 05 be 2a a8 6b 33 6f 0e 6c b1 d3 b3 bd b0
       -0.12998441 5.4868146e-08 -3.4350724e-09 -1.3802669e-09
000020 94 f3 07 be 9b 60 45 b9 fb 7a 3d 38 44 cc d5 37
       -0.13276511 -0.00018823372 4.5175646e-05 2.5486697e-05
000030 73 43 ad b8 16 ed 64 36 63 e5 eb bd c8 e7 ae bd
       -8.261846e-05 3.411265e-06 -0.115183614 -0.085403025
000040 37 63 fc bd 6c 59 1c 34 24 87 0a be 94 a0 72 b8
       -0.12323611 1.4561164e-07 -0.13528115 -5.7846846e-05
000050 6e bc 8f 38 1d ba 5b bd 1d 9c 16 b9 d1 63 d0 bd
       6.853869e-05 -0.05364429 -0.00014363271 -0.101752885
000060 34 d1 15 be f6 3e 66 bc 5d 31 5d 37 b0 9b ce bd
       -0.14630586 -0.014053097 1.318412e-05 -0.10088289
000070 4c 4b fd bd 59 29 87 b6 46 4a c5 3b 34 f5 16 bd
       -0.12367877 -4.028127e-06 0.006020817 -0.036854938

feat_mean_net.0.weight f4 [100, 1080]
000000 d4 32 bb bc 6a 56 00 80 50 e3 00 00 e9 22 00 00
       -0.022851385 -3.1e-41 8.1544e-41 1.2523e-41
000010 c4 20 00 80 3d 94 00 00 4a 39 00 00 1f 18 00 00
       -1.1754e-41 5.3178e-41 2.0551e-41 8.653e-42
000020 48 0c 00 00 87 fe 85 bc f2 42 00 00 21 e3 00 80
       4.406e-42 -0.01635672 2.4015e-41 -8.1478e-41
000030 af 10 00 80 4c 4f 06 00 68 04 a6 2c 4a 3c 00 00
       -5.985e-42 5.7946e-40 4.718493e-12 2.1628e-41
000040 29 d8 00 80 bd 49 00 80 b1 ab df bc 61 d3 00 00
       -7.7544e-41 -2.6452e-41 -0.027303549 7.5828e-41
000050 5e 4a 00 80 c4 24 00 80 0b 67 17 00 65 0f 00 00
       -2.6678e-41 -1.3189e-41 2.149181e-39 5.523e-42
000060 46 57 00 00 c2 e9 05 00 b3 42 02 00 42 5d 32 3d
       3.1308e-41 5.43034e-40 2.07598e-40 0.04354597
000070 d5 57 00 00 2b 52 00 80 a4 4d 53 00 01 bb 0a 00
       3.1508e-41 -2.9476e-41 7.650198e-39 9.8544e-40
000080 00 32 00 00 20 03 12 00 e4 f1 86 34 38 1a 00 00
       1.7937e-41 1.65416e-39 2.5135444e-07 9.406e-42
000090 fe b9 1d bb 00 7b 02 80 9d 62 00 00 c5 77 00 00
       -0.0024067159 -2.27795e-40 3.5376e-41 4.2965e-41
0000a0 96 0a 00 80 ea 7a 00 80 d3 36 00 00 fd 19 00 80
       -3.798e-42 -4.4093e-41 1.9667e-41 -9.323e-42
0000b0 5a 1f 01 00 ca 40 af bc 06 50 00 00 30 66 00 00
       1.03082e-40 -0.021393199 2.8707e-41 3.6658e-41
0000c0 2e be 00 80 55 09 00 80 93 13 00 80 e2 00 00 00
       -6.8224e-41 -3.348e-42 -7.022e-42 3.17e-43
0000d0 fa 75 00 00 5f 2d 00 80 c9 69 3a 3d 37 4c 00 80
       4.2322e-41 -1.6276e-41 0.04551104 -2.7341e-41
0000e0 e4 0a 00 80 a5 1b 00 00 19 46 00 00 a6 28 00 80
       -3.907e-42 9.917e-42 2.5146e-41 -1.4582e-41
0000f0 2d 06 00 00 6a 3d 04 80 7d 88 04 80 aa 62 37 3a
       2.215e-42 -3.89373e-40 -4.16305e-40 0.0006995598
000100 ac 24 cc 30 ed 66 00 00 e8 38 01 80 ad 5a 17 80
       1.4853376e-09 3.6923e-41 -1.1225e-40 -2.144745e-39
000110 30 5b 00 00 59 90 15 00 4f 5e 06 00 3b 10 00 80
       3.2712e-41 1.980328e-39 5.84845e-40 -5.822e-42
000120 f2 a9 15 bd 6b cc 01 00 61 bf 01 00 5d 84 00 80
       -0.036539026 1.65167e-40 1.6049e-40 -4.7483e-41
000130 7e 09 00 00 d5 fe 03 80 f3 46 00 80 c4 41 00 00
       3.405e-42 -3.66923e-40 -2.5452e-41 2.3592e-41
000140 a6 5f 01 00 20 1d e6 bb 97 38 00 80 bb 45 00 80
       1.26148e-40 -0.007022515 -2.03e-41 -2.5015e-41
000150 a0 2d 00 00 7a 05 00 00 63 16 00 80 cd 0d 00 00
       1.6367e-41 1.965e-42 -8.031e-42 4.951e-42
000160 e5 02 02 80 21 ef 00 80 55 85 e7 3c 49 58 00 00
       -1.8471e-40 -8.5783e-41 0.02826182 3.1671e-41
000170 48 60 00 00 6d 2f 00 80 9c 60 01 00 db 04 00 80
       3.4539e-41 -1.7013e-41 1.26492e-40 -1.742e-42
000180 2a c7 0a 00 8b 21 00 00 0b 6e 00 80 df 69 e6 3c
       9.89802e-40 1.2033e-41 -3.9476e-41 0.028126655
000190 fd 63 00 80 b2 11 00 00 42 0c 00 80 16 75 01 80
       -3.5869e-41 6.348e-42 -4.397e-42 -1.33838e-40
0001a0 41 42 00 00 ef 8a 09 00 0c 2f 00 00 9a 7e 8f 00
       2.3767e-41 8.7636e-40 1.6877e-41 1.3177892e-38
0001b0 73 5c 9d 3b cd ec 24 80 b3 80 00 00 5e 45 00 80
       0.0048022806 -3.391026e-39 4.6169e-41 -2.4884e-41
0001c0 0c f5 02 80 56 2c 00 80 45 f9 00 00 5d 56 00 00
       -2.71577e-40 -1.5905e-41 8.9421e-41 3.0981e-41
0001d0 5f 10 01 00 ae 5d 3c 3c 3a 47 00 80 f1 63 00 00
       9.7708e-41 0.011496944 -2.5551e-41 3.5852e-41
0001e0 9a 3c 03 00 80 41 00 80 26 97 d0 06 6f 0c 00 00
       2.97246e-40 -2.3497e-41 7.8462997e-35 4.46e-42
0001f0 17 1c 00 00 2b b9 07 80 a8 e2 8b 3d 36 42 00 80
       1.0077e-41 -7.09274e-40 0.068303406 -2.3752e-41
000200 0a 42 00 00 24 dd 00 80 62 32 00 00 c6 26 00 00
       2.369e-41 -7.933e-41 1.8074e-41 1.3909e-41
000210 06 1b 00 80 b4 44 00 80 1f b5 01 00 28 21 3e 3d
       -9.694e-42 -2.4646e-41 1.5681e-40 0.04641834
000220 e9 14 00 80 09 14 00 80 66 3a 00 00 2c 77 00 80
       -7.501e-42 -7.187e-42 2.095e-41 -4.2751e-41
000230 92 cf 0b 80 96 4c 00 00 98 4b 9a 06 35 89 03 00
       -1.084653e-39 2.7474e-41 5.8039437e-35 3.24727e-40
000240 de 0b 04 3c 0d f5 25 00 69 9e 00 80 b2 46 00 00
       0.00805947 3.485821e-39 -5.6827e-41 2.536e-41
000250 f8 0b 00 80 98 31 00 00 e4 49 00 80 2b b5 01 00
       -4.294e-42 1.7791e-41 -2.6507e-41 1.56826e-40
000260 24 3d 02 80 9a d6 ea 3c db 41 00 80 00 3f 00 00
       -2.05604e-40 0.028666783 -2.3624e-41 2.26e-41
000270 50 03 25 a5 71 36 00 00 a1 2e 00 80 2e 36 00 00
       -1.4312591e-16 1.953e-41 -1.6727e-41 1.9436e-41
000280 e1 9c 05 80 cd 0c 00 00 b7 fd a2 bb 57 ad 00 00
       -5.15455e-40 4.592e-42 -0.004974093 6.2183e-41
000290 28 34 00 80 d0 30 00 80 e5 61 00 80 dc 44 00 80
       -1.871e-41 -1.751e-41 -3.5118e-41 -2.4702e-41
0002a0 2b 20 05 80 20 0b 00 00 10 2d 00 00 2e 48 fd 3c
       -4.70717e-40 3.991e-42 1.6165e-41 0.030918207
0002b0 2d 17 00 80 4b 43 09 08 c9 9f 00 80 67 ae 03 80
       -8.314e-42 4.130604e-34 -5.732e-41 -3.3807e-40
0002c0 41 48 00 00 38 07 00 80 23 18 00 80 f6 23 00 00
       2.592e-41 -2.59e-42 -8.659e-42 1.29e-41
0002d0 4f 6f 51 3c 33 c7 00 80 e2 70 0c 80 5c 37 00 80
       0.012782886 -7.1459e-41 -1.14252e-39 -1.9859e-41
0002e0 27 6d 00 00 ab a0 01 80 34 eb 00 00 34 37 01 00
       3.9156e-41 -1.49472e-40 8.4375e-41 1.11639e-40
0002f0 ac 78 04 80 a8 38 c2 bc ab 16 00 80 c4 ac 0c 38
       -4.10631e-40 -0.023708656 -8.132e-42 3.35395e-05
000300 c5 60 01 80 c1 a8 01 80 98 07 01 80 17 a8 0a 80
       -1.2655e-40 -1.52373e-40 -9.456e-41 -9.78654e-40
000310 a4 1c 00 80 e1 21 00 00 d5 6a 0f bd 6b 13 01 80
       -1.0274e-41 1.2153e-41 -0.035013992 -9.8801e-41
000320 76 3e 00 00 3e 2c 00 00 9a 19 00 80 a6 2f 00 00
       2.2407e-41 1.5871e-41 -9.184e-42 1.7093e-41
000330 2f 31 00 00 b2 1c 4a 37 7f 10 00 00 f1 95 38 3c
       1.7644e-41 1.2046819e-05 5.918e-42 0.011266218
000340 e2 c5 07 00 4b 44 00 00 19 39 00 00 ba 28 00 80
       7.13835e-40 2.4499e-41 2.0483e-41 -1.461e-41
000350 4d 69 01 80 bc ef 00 80 8c 2e 00 00 de ab 52 ac
       -1.2961e-40 -8.6e-41 1.6698e-41 -2.99382e-12
000360 f1 71 a2 3c 3e 40 00 80 5f ad 00 80 11 77 00 80
       0.019829722 -2.3046e-41 -6.2194e-41 -4.2713e-41
000370 fe 4a 00 80 18 7d 4d 1f 2c 2a 00 00 0e 48 00 00
       -2.6902e-41 4.3513914e-20 1.5128e-41 2.5848e-41
000380 2d 45 00 80 ca b0 18 3c 75 40 00 00 bc e2 0e 00
       -2.4816e-41 0.009319494 2.3123e-41 1.367034e-39
000390 79 c8 00 80 3e 41 00 80 ef 13 00 80 49 76 00 80
       -7.1916e-41 -2.3404e-41 -7.151e-42 -4.2433e-41
0003a0 4a 05 00 00 45 48 00 80 70 2a f6 bb 21 d4 00 80
       1.897e-42 -2.5925e-41 -0.007512383 -7.6098e-41
0003b0 17 37 00 80 bf 78 00 00 97 16 00 00 8d 1e 00 80
       -1.9763e-41 4.3316e-41 8.104e-42 -1.096e-41
0003c0 84 0c 00 00 2e 1c 00 00 20 ff 00 80 0a 24 03 bd
       4.49e-42 1.0109e-41 -9.1522e-41 -0.03201679
0003d0 9a 25 00 80 1e 31 00 80 e8 60 01 00 d2 55 04 80
       -1.3489e-41 -1.762e-41 1.26599e-40 -3.98129e-40
0003e0 64 f8 12 00 24 1e 00 80 91 51 1d b9 9b fe 00 00
       1.742145e-39 -1.0812e-41 -0.00015003073 9.1335e-41
0003f0 33 da d1 bc b3 02 00 80 f1 3b 00 00 05 61 00 80
       -0.02561674 -9.68e-43 2.1503e-41 -3.4804e-41

feat_mean_net.0.bias f4 [100]
000000 ea b6 06 be 2d 30 e6 bd 66 0c b1 3d 97 1e 1a b8
       -0.13155714 -0.112396576 0.08644943 -3.674495e-05
000010 d2 68 21 be bc 52 4a be c8 e0 02 3d 97 ce 37 be
       -0.15762642 -0.19758123 0.03195265 -0.17949902
000020 e4 54 44 3d 90 36 3c 3d 26 97 44 3d 7c 94 6d 3c
       0.04793252 0.045950472 0.04799571 0.014500733
000030 62 08 aa bd 29 f3 93 bc eb c7 00 3d 03 b9 30 3d
       -0.0830238 -0.018060284 0.031440657 0.04314519
000040 5a 8c f5 bd 78 a2 3a 3d ff a9 50 be 64 75 fb bb
       -0.119896606 0.0455651 -0.20377348 -0.007673906
000050 f1 ff 21 be aa 0d 58 be b6 f4 a0 38 34 30 33 3b
       -0.1582029 -0.21098962 7.6749755e-05 0.0027341964
000060 42 b7 24 b9 c6 c1 83 b7 1c d8 0b bc e6 3d 3a be
       -0.00015708528 -1.570665e-05 -0.008535411 -0.18187675
000070 ed f6 44 bd b4 5b 05 be 1e 7e 90 3b 7d 31 b0 bd
       -0.04808705 -0.13023263 0.0044095656 -0.08603189
000080 91 d1 b7 bd 6a e0 13 be 3f 63 60 bb ee 0f 0c be
       -0.089755185 -0.14441076 -0.0034238843 -0.13677952
000090 e0 5b 07 3d 3a f9 12 be 30 fd 9b bd 72 20 01 be
       0.033046603 -0.14352885 -0.07616651 -0.12610033
0000a0 13 1c e2 bd 68 07 9c bb f4 ea c4 bd 98 5b 17 be
       -0.11040511 -0.004761625 -0.09615126 -0.14781034
0000b0 6f bb 85 ba a9 5e 25 be 05 a3 22 bd 2a 0a a1 3c
       -0.0010202954 -0.16149391 -0.03970625 0.019658167
0000c0 c3 d7 88 3d 80 3c 28 3c 46 c6 69 b1 f5 50 d2 bd
       0.06681778 0.010268331 -3.4018668e-09 -0.102693476
0000d0 c9 e1 4f bb 16 64 51 3d 58 3a cc 3b 0b 9c 34 be
       -0.0031720272 0.05112084 0.006232541 -0.1763765
0000e0 20 88 ab 3c e5 d1 29 3d 9c 15 d9 3b c2 11 f3 3c
       0.020938933 0.041459937 0.0066248905 0.029671554
0000f0 e6 71 c8 3c 2c bd f4 3c 96 45 de bd e1 c7 a6 bb
       0.024468374 0.02987536 -0.10853116 -0.0050897454
000100 37 24 12 b5 c5 60 2a be 33 c3 19 be b2 f7 19 3a
       -5.444194e-07 -0.16638477 -0.15015869 0.00058733963
000110 d7 82 90 3d ba 68 68 bb 58 68 18 bd ca bc b9 bc
       0.07056206 -0.0035462813 -0.037208885 -0.02267303
000120 c2 d8 33 3d 77 da 25 3d a2 e8 42 bd ec 14 1e be
       0.04390789 0.040491547 -0.047585137 -0.15437669
000130 97 a3 c8 bb 66 74 a3 bb e3 34 90 ba 05 a8 36 be
       -0.006123017 -0.004988241 -0.001100209 -0.17837532
000140 8d 69 75 b7 00 f7 ce 3b 98 b4 e0 bd 6d b6 1e be
       -1.4627713e-05 0.006316066 -0.109719455 -0.15499277
000150 3a b9 ac bd c3 89 f3 bd b1 ea ea bd 5e ce 15 be
       -0.08433767 -0.1189151 -0.11470545 -0.14629504
000160 6c b8 0f be 03 f2 1a be b3 e1 1b bd 52 1b c2 bd
       -0.14035195 -0.15131383 -0.03805704 -0.09477867
000170 fb 5a 8b 3d 28 91 b0 bd 7a 62 bb bd bf 60 2a b7
       0.068044625 -0.08621436 -0.09149642 -1.0155315e-05
000180 aa 83 af b6 b6 ae 8d 3c 71 6a dc bd 88 4b ed bc
       -5.230734e-06 0.017295223 -0.107624896 -0.02896668

feat_mean_net.2.weight f4 [1, 100]
000000 40 88 2a 3e 50 8d 5f 3e 0b b6 38 be fc a2 9a b5
       0.16653538 0.2183125 -0.18038194 -1.1521329e-06
000010 8c f4 9c 3e 0e 94 8c 3e 4c ca bd bd fa bc bc 3e
       0.30655324 0.27456707 -0.09267101 0.36862928
000020 79 c5 9d bd b1 8c 2e be d9 9f 9e be 10 b2 1d be
       -0.077036805 -0.17045857 -0.3098133 -0.15399957
000030 cf a4 ed 3d c7 c6 a7 bd f4 45 11 be fd 9e f1 bd
       0.116037 -0.08192211 -0.14186841 -0.11797903
000040 43 91 5b 3e 30 6b 81 bd 4c f6 bd 3e ef ff 91 bc
       0.21442132 -0.063192725 0.37101972 -0.017822234
000050 c3 dd 50 3e 39 66 c0 3e 78 9e 93 b9 ed be f5 bd
       0.20397095 0.3757799 -0.00028156093 -0.11999307
000060 6e a3 0b b8 23 1e 48 36 b0 c3 ce bc 70 22 e1 3e
       -3.329239e-05 2.9819864e-06 -0.025239795 0.43971586
000070 d4 6e a4 bd a7 67 58 3e 9a c1 9f be 89 e3 2b 3e
       -0.08028951 0.2113329 -0.31202394 0.16786017
000080 4c ed a6 3d bd 01 59 3e c0 b8 28 be 22 c7 b9 3e
       0.081507295 0.2119207 -0.16476727 0.3628474
000090 59 7e 19 bd 4a b3 a4 3e 1a a3 8a 3e 77 69 a2 3e
       -0.03747401 0.32168037 0.27077562 0.31721088
0000a0 90 d7 f5 3d 97 c7 06 be e8 11 91 3e ba 9e 93 3e
       0.12004006 -0.13162075 0.28333974 0.28832036
0000b0 35 f5 81 38 39 f2 ab 3e 01 df 0f be e4 f7 63 be
       6.196873e-05 0.3358324 -0.14049913 -0.22262532
0000c0 32 1c 3e be 49 ba 4a bd 2e df 71 b0 de 43 76 3e
       -0.18565443 -0.04949406 -8.7992447e-10 0.24049327
0000d0 06 4e b5 bd 6c 67 ca bd a7 01 86 bd ca 9e c3 3e
       -0.088527724 -0.098830074 -0.06543284 0.38207084
0000e0 36 50 a4 be b1 cf 13 be 0b 17 20 be 4d f6 60 be
       -0.32092446 -0.14434697 -0.1563379 -0.21968956
0000f0 29 1b 6d be 0e d5 0c be 95 ba 22 3e 8b 10 12 bc
       -0.23154892 -0.13753149 0.15891488 -0.008915077
000100 a8 6e ff b3 67 97 8c 3e 17 0d b0 3e d8 54 43 be
       -1.1894491e-07 0.2745926 0.34384987 -0.19075334
000110 a5 94 12 be c1 fc 37 bd 57 e5 4b 3c 18 7a a8 bc
       -0.14314516 -0.04491878 0.012444816 -0.020566031
000120 d8 7f 50 be 41 96 14 be 2d 27 95 bd a4 95 a2 3e
       -0.20361269 -0.14510442 -0.07282863 0.31754792
000130 4b 16 89 bc fe 94 f5 bd d6 bc eb bd ad f0 a7 3e
       -0.016734263 -0.11991309 -0.11510627 0.3280081
000140 59 16 19 35 41 3d 51 be ce 8c 2b 3e 69 e2 a3 3e
       5.702946e-07 -0.20433523 0.16752931 0.32008675
000150 0f 40 43 3e 31 b7 88 3e b7 e7 ad 3e ac f4 50 3e
       0.19067405 0.26702264 0.33965847 0.20405835
000160 9a 5a a9 3e f3 05 78 3e 04 2b 52 3c e0 17 45 3e
       0.33076936 0.2422102 0.012827639 0.19247389
000170 61 79 f5 bd a1 62 9a 3e f8 a1 89 3e e0 0a 21 36
       -0.11986042 0.30153373 0.26881385 2.39972e-06
000180 fc fb a8 b5 98 1d 57 bd 2c d0 0a 3e 24 43 9e bd
       -1.2590313e-06 -0.052518457 0.13555974 -0.0772765

feat_lambda_net.0.weight f4 [100, 1080]
000000 16 6c 3a bd bd 2a 00 80 ca 22 00 00 7e 3e 00 80
       -0.045513235 -1.5332e-41 1.248e-41 -2.2418e-41
000010 42 26 00 00 45 4e 00 80 82 c8 01 00 b5 08 00 00
       1.3724e-41 -2.8078e-41 1.63764e-40 3.123e-42
000020 4f f6 07 00 8d 64 1a bd 74 6e 02 00 a4 08 ab 06
       7.31207e-40 -0.03769355 2.23294e-40 6.433575e-35
000030 70 00 00 80 31 dc 03 00 cd 3a 00 00 a4 0e 00 80
       -1.57e-43 3.54496e-40 2.1094e-41 -5.252e-42
000040 70 79 1a 80 07 1c 00 00 e6 68 96 bc 4b d9 01 80
       -2.431286e-39 1.0054e-41 -0.018360566 -1.69786e-40
000050 48 2c 05 2b 83 3f 00 00 4b 3f 00 80 c7 27 00 00
       4.7312545e-13 2.2784e-41 -2.2705e-41 1.427e-41
000060 7a ec 0a 00 fa e7 a9 a3 b1 17 00 80 9d b7 00 bd
       1.003187e-39 -1.8421263e-17 -8.499e-42 -0.031425107
000070 9a 1e 00 80 36 42 00 00 32 06 00 80 f9 06 02 00
       -1.0978e-41 2.3752e-41 -2.222e-42 1.86172e-40
000080 4b 3d 00 80 c7 7f 00 00 c4 1d 00 00 9b 17 10 00
       -2.1988e-41 4.5838e-41 1.0678e-41 1.477836e-39
000090 0d a4 1e bd 15 19 09 80 2b 0f 00 80 50 20 00 80
       -0.03873067 -8.35517e-40 -5.441e-42 -1.1592e-41
0000a0 f9 62 00 00 b0 4f 00 80 48 47 00 00 73 d1 00 80
       3.5505e-41 -2.8586e-41 2.5571e-41 -7.5136e-41
0000b0 de fb 01 00 de 38 00 bd a5 c5 09 80 3b 47 00 00
       1.82188e-40 -0.031304233 -8.97421e-40 2.5553e-41
0000c0 65 3b 00 80 59 65 00 80 3d 41 2d 00 be 46 00 80
       -2.1307e-41 -3.6357e-41 4.156e-39 -2.5378e-41
0000d0 58 00 00 00 f8 27 0c 80 18 0f ba bc 3e 2d 00 80
       1.23e-43 -1.116364e-39 -0.022712275 -1.623e-41
0000e0 c6 5a 00 80 94 d7 00 00 c0 51 00 00 dc ba 00 00
       -3.2563e-41 7.7335e-41 2.9326e-41 6.7033e-41
0000f0 2c 7b 00 80 7d 5d 00 00 01 2f 00 00 f4 e6 f1 bc
       -4.4186e-41 3.3537e-41 1.6862e-41 -0.029529072
000100 06 1f 00 80 ac 2d 00 80 f7 40 00 80 02 48 01 80
       -1.1129e-41 -1.6384e-41 -2.3305e-41 -1.17667e-40
000110 5f c4 10 00 1a cf 5b 32 d0 37 00 00 c9 4b 01 00
       1.539813e-39 1.2794567e-08 2.0022e-41 1.19022e-40
000120 4e 7b 52 bc 2c f5 00 00 10 58 07 80 6d 28 00 80
       -0.012846781 8.7951e-41 -6.7444e-40 -1.4502e-41
000130 f6 16 01 00 2f 32 00 80 b5 1e 00 00 53 20 00 00
       1.00072e-40 -1.8002e-41 1.1016e-41 1.1596e-41
000140 06 24 00 00 11 f2 db bc 38 0f 00 00 ff 07 00 00
       1.2923e-41 -0.026848825 5.46e-42 2.868e-42
000150 f3 1b 00 80 d0 64 00 00 1d b0 05 80 48 0b 00 80
       -1.0026e-41 3.6165e-41 -5.22355e-40 -4.047e-42
000160 3c 66 00 80 da 20 9c a0 21 59 d8 bc 40 d5 e8 2f
       -3.6675e-41 -2.6449167e-19 -0.026409687 4.2352077e-10
000170 19 99 11 80 e9 32 00 00 68 5b 00 00 b5 31 00 00
       -1.616125e-39 1.8263e-41 3.279e-41 1.7832e-41
000180 e1 cb 00 80 28 0a 00 00 e9 16 00 00 07 27 59 bd
       -7.3138e-41 3.643e-42 8.219e-42 -0.053015735
000190 05 a9 02 00 49 09 00 00 2d 31 0f ad e1 0b 01 00
       2.44304e-40 3.331e-42 -8.139528e-12 9.6097e-41
0001a0 7b f1 01 00 80 4f 00 00 f3 c1 0d 80 0c 04 02 00
       1.78462e-40 2.8519e-41 -1.263437e-39 1.85123e-40
0001b0 52 09 15 bd 33 b2 00 00 a8 0b 00 00 76 36 00 00
       -0.03638584 6.3926e-41 4.181e-42 1.9537e-41
0001c0 1f 1a 00 00 b2 64 00 00 b9 5c 01 80 2a 1d 00 00
       9.37e-42 3.6123e-41 -1.25098e-40 1.0462e-41
0001d0 45 64 00 00 82 03 04 bd d6 5a 02 00 c2 2d 67 2f
       3.597e-41 -0.032229908 2.16257e-40 2.1025584e-10
0001e0 1c 30 00 80 19 4a 00 80 98 5d 00 80 6a 39 00 00
       -1.7258e-41 -2.6581e-41 -3.3575e-41 2.0596e-41
0001f0 04 22 00 00 53 3b 00 00 6f 72 35 bd 96 7c 01 80
       1.2203e-41 2.1282e-41 -0.044298586 -1.36529e-40
000200 48 81 00 00 04 6c 00 00 cd f3 05 80 cc 05 00 00
       4.6377e-41 3.8749e-41 -5.46637e-40 2.08e-42
000210 23 69 00 80 a9 3c 00 00 8d 28 00 80 92 c4 e8 bc
       -3.7716e-41 2.1761e-41 -1.4547e-41 -0.028414045
000220 89 48 00 00 77 38 00 00 b7 2c 02 80 75 7a 00 00
       2.6021e-41 2.0256e-41 -1.99712e-40 4.393e-41
000230 1d 01 00 00 66 1f 00 80 7a b5 00 00 4f 41 00 00
       4e-43 -1.1264e-41 6.5102e-41 2.3428e-41
000240 25 b4 35 bc 04 37 00 80 23 5d 00 80 ee 12 00 80
       -0.011090313 -1.9736e-41 -3.3411e-41 -6.79e-42
000250 76 4b 00 00 4e c9 06 00 5d 18 06 00 3f 49 01 00
       2.707e-41 6.23227e-40 5.59753e-40 1.18111e-40
000260 68 cb 06 80 70 6e 1c bc a1 2b 00 80 f7 55 07 00
       -6.23981e-40 -0.009547815 -1.5651e-41 6.73687e-40
000270 aa 61 00 00 86 4d 00 80 4d 6c 00 80 0d ba 00 80
       3.5035e-41 -2.781e-41 -3.8851e-41 -6.6742e-41
000280 8a 56 00 00 36 6b 00 80 d3 9b bc 3b 4f 07 00 00
       3.1044e-41 -3.846e-41 0.0057558804 2.622e-42
000290 62 23 00 80 06 14 00 80 47 49 01 00 bd 52 00 00
       -1.2693e-41 -7.183e-42 1.18122e-40 2.9681e-41
0002a0 11 c2 00 80 c6 00 02 80 de a7 00 00 a1 57 5c bc
       -6.9618e-41 -1.83948e-40 6.022e-41 -0.013448627
0002b0 cf 41 00 80 38 5a 00 80 16 60 00 00 80 fe 20 b2
       -2.3608e-41 -3.2364e-41 3.4469e-41 -9.371092e-09
0002c0 08 af 53 a2 fd 4a 00 80 39 12 00 80 d3 1e 00 00
       -2.8688493e-18 -2.6901e-41 -6.537e-42 1.1058e-41
0002d0 a3 69 6d bc be 2f 00 00 71 37 0d 00 28 1e 00 00
       -0.014490518 1.7127e-41 1.21375e-39 1.0818e-41
0002e0 fc 5a 0a 80 5c 31 00 80 4b 00 00 00 33 4e 00 00
       -9.50994e-40 -1.7707e-41 1.05e-43 2.8053e-41
0002f0 69 39 00 80 20 11 3d 3a 69 0c 00 00 53 30 00 80
       -2.0595e-41 0.00072123297 4.452e-42 -1.7335e-41
000300 18 4c 00 80 6f e6 0c 80 ed 27 00 00 a0 03 00 80
       -2.7297e-41 -1.18469e-39 1.4323e-41 -1.3e-42
000310 fb 4b 00 00 7b 18 00 00 79 ef 32 bd b4 06 00 80
       2.7257e-41 8.782e-42 -0.04368541 -2.405e-42
000320 71 08 00 80 30 69 05 00 e4 02 ca b7 69 2f 00 80
       -3.028e-42 4.96912e-40 -2.4081623e-05 -1.7008e-41
000330 05 64 00 00 36 19 01 00 d6 0c 00 80 ac 4a f7 3b
       3.588e-41 1.0088e-40 -4.605e-42 0.0075467434
000340 29 10 00 80 af 50 00 80 fa 1a 00 00 8f 2c 00 80
       -5.797e-42 -2.8944e-41 9.677e-42 -1.5985e-41
000350 26 04 00 00 c7 3c 05 00 92 66 00 00 cb 4f 21 80
       1.488e-42 4.8098e-40 3.6795e-41 -3.059196e-39
000360 36 23 2d bd e9 52 00 00 94 33 11 80 32 34 00 80
       -0.042269908 2.9743e-41 -1.579706e-39 -1.8724e-41
000370 9f 11 00 80 1f 3c 00 00 15 10 00 00 f3 76 00 80
       -6.321e-42 2.1567e-41 5.769e-42 -4.2671e-41
000380 b1 77 00 00 30 57 72 3c 94 21 00 80 68 e3 01 80
       4.2937e-41 0.014791295 -1.2046e-41 -1.73413e-40
000390 cf ac 0a 00 87 2c 00 80 97 26 00 00 9a 5d 61 22
       9.80347e-40 -1.5973e-41 1.3843e-41 3.0542738e-18
0003a0 c7 62 00 80 13 3b 00 80 58 8b d8 bc 73 33 00 00
       -3.5435e-41 -2.1192e-41 -0.026433632 1.8457e-41
0003b0 bb 06 00 00 88 e0 00 00 a3 69 00 00 7f 10 04 00
       2.414e-42 8.0547e-41 3.7895e-41 3.7326e-40
0003c0 00 3f 00 80 26 55 00 80 6a 1d 00 00 7a eb 61 bc
       -2.26e-41 -3.0546e-41 1.0552e-41 -0.013789052
0003d0 54 39 00 00 55 15 00 80 07 65 00 80 e9 cf 01 80
       2.0565e-41 -7.652e-42 -3.6242e-41 -1.6642e-40
0003e0 5f 1d 04 80 5f 22 00 80 5e 39 00 80 7b 12 01 80
       -3.77878e-40 -1.233e-41 -2.058e-41 -9.8465e-41
0003f0 5b 6d d9 3b ec 4b 00 00 db 21 01 00 44 59 02 00
       0.0066353506 2.7236e-41 1.0398e-40 2.15693e-40

feat_lambda_net.0.bias f4 [100]
000000 e5 69 25 3e 5d bd bc 3e f7 ec 54 3e a7 4c 80 29
       0.16153677 0.36863223 0.2079352 5.697639e-14
000010 66 71 bf b7 86 eb bc 3e a6 a3 ee 3b 5d 19 73 bb
       -2.282178e-05 0.3689844 0.007282692 -0.0037093975
000020 c8 6e 1f 3e 9e bc 9d b7 59 00 13 3e 76 2a 5c ba
       0.15569603 -1.880369e-05 0.14355601 -0.0008398661
000030 83 38 38 a9 77 ad 3c 3e 4a c3 4c 3e c7 8e 1a 3e
       -4.0905223e-14 0.18425547 0.19996372 0.15093528
000040 f8 77 d0 b8 3e d3 8b 3e d1 11 fa b9 f9 02 a9 b6
       -9.940559e-05 0.27309602 -0.0004769699 -5.0369385e-06
000050 d9 94 10 ba 50 f7 7d 2a 4a 2c 73 3e 0c 06 56 b1
       -0.0005515344 2.2556718e-13 0.23747364 -3.1144536e-09
000060 ba 75 f7 25 f6 66 aa b4 dd 09 a3 3e 75 83 81 3e
       4.2927444e-16 -3.1739881e-07 0.31843463 0.25295606
000070 97 bd cb 1d 55 8f 83 b9 4d 17 28 3e 11 a5 78 b9
       5.3929684e-21 -0.00025093058 0.16415139 -0.00023712615
000080 c1 1d 25 3e f4 de 99 b8 39 26 2e b7 44 7c 50 3e
       0.16124631 -7.337137e-05 -1.0380108e-05 0.20359904
000090 29 6c 13 3e 66 58 1b a2 e8 06 4c ba 50 fc 87 3e
       0.14396729 -2.1053215e-18 -0.00077830115 0.26559687
0000a0 27 23 b2 b9 eb ed 9b 3e 70 ed fb b8 e2 66 2b 3e
       -0.00033976996 0.30454955 -0.00012012839 0.16738465
0000b0 de 80 fc b4 f9 c6 79 3e 55 d0 1c 3e 76 8f 19 a5
       -4.703242e-07 0.24392308 0.15313847 -1.3319241e-16
0000c0 05 65 96 b8 eb 6b 1b 3e 70 d7 1b 3e 3a 79 28 3e
       -7.171374e-05 0.15177886 0.15218902 0.16452494
0000d0 c3 79 ad b9 d1 28 1c ba e8 d2 1f 1f 07 b1 a7 3e
       -0.0003308785 -0.000595701 3.3844017e-20 0.3275225
0000e0 25 8d 6b 3e 89 69 13 3e cf 84 b3 b9 e3 59 d1 b8
       0.23003061 0.14395727 -0.0003424049 -9.982639e-05
0000f0 12 d5 1f 3e 7e 04 17 3e 2b 4a de b6 a6 69 27 3e
       0.15608624 0.14747807 -6.62475e-06 0.16348895
000100 15 d0 0a 3e c5 74 0e 3e 30 76 2b 3e 5a 91 71 ba
       0.1355594 0.13911732 0.16744304 -0.00092150795
000110 9e 71 2e 3e 98 bb 1f 3e 46 47 0a 3e d8 cd 13 bb
       0.17035529 0.15598905 0.13503751 -0.0022553112
000120 30 d4 ec 25 65 44 10 3e 7a 12 2c ac d2 08 36 aa
       4.1083258e-16 0.1408859 -2.4452927e-12 -1.6167907e-13
000130 c2 90 6c 3e fd 94 21 b5 47 79 a2 3e fc a8 82 ba
       0.23102096 -6.019398e-07 0.31733152 -0.0009968574
000140 be f7 19 ba 36 ec c3 b6 3e 61 2a 3e f2 66 52 3e
       -0.0005873403 -5.8389514e-06 0.16638657 0.20547083
000150 dc 37 45 3e 06 71 0f a9 19 94 60 b3 63 a2 74 3e
       0.1925959 -3.185041e-14 -5.2288758e-08 0.2389007
000160 bc a3 10 3e 06 82 59 b7 41 12 25 b8 aa 2d 61 ba
       0.1412496 -1.2964481e-05 -3.9356066e-05 -0.00085898733
000170 4d b4 0b 3e 9a be 2f b7 19 d5 d8 1f d2 bb 33 ba
       0.13642998 -1.0475191e-05 9.18321e-20 -0.00068562955
000180 e4 57 15 3e 0a 45 8b b9 9e 83 86 b9 90 53 21 3e
       0.14584309 -0.00026563584 -0.00025656534 0.15754533

feat_lambda_net.2.weight f4 [1, 100]
000000 0a 54 b0 3e a9 1b 15 3f 01 91 ae 3e 91 de 0d 2a
       0.34439117 0.5824533 0.34095004 1.2600534e-13
000010 31 c4 9f b8 9c e5 05 3f 0b c6 74 3c 30 8a 69 bc
       -7.618254e-05 0.5230348 0.014939795 -0.014254138
000020 fd 7e a4 3e 3c 46 7a b8 e9 3e 9c 3e 8e ba 48 bb
       0.32128134 -5.9670056e-05 0.30516747 -0.0030628773
000030 0f 71 0c aa 83 73 c3 3e ea 46 cd 3e 6d c3 a4 3e
       -1.2473723e-13 0.38174066 0.40093166 0.32180348
000040 11 b5 b1 b9 f4 00 eb 3e f0 40 d3 ba 92 22 82 b7
       -0.00033894976 0.45899165 -0.0016117375 -1.5513306e-05
000050 a1 84 fc ba 3b 3d e4 2a 7e b6 d7 3e e0 61 5f b2
       -0.0019265601 4.0543423e-13 0.42131418 -1.3002563e-08
000060 b2 68 55 26 36 f0 60 b5 64 00 14 3f bc 8e d1 3e
       7.404111e-16 -8.3796056e-07 0.57813096 0.4092921
000070 35 da 6a 1e 23 7e 5b ba 0b c3 a7 3e 69 86 60 ba
       1.2432981e-20 -0.0008372983 0.32765993 -0.00085649505
000080 ca ad 9f 3e f9 2c 7f b9 35 ea 06 b8 47 9c b7 3e
       0.31187278 -0.00024335449 -3.2166212e-05 0.35861418
000090 b3 84 9a 3e 90 93 02 a3 4c 5c 27 bb 52 13 e0 3e
       0.30179366 -7.078562e-18 -0.002553719 0.4376474
0000a0 ab 10 96 ba f7 72 f7 3e e9 48 d7 b9 96 de b3 3e
       -0.0011449059 0.483299 -0.00041062318 0.35130757
0000b0 66 c5 a3 b5 17 8d d4 3e c7 f1 a5 3e ce 71 d9 a5
       -1.2201897e-06 0.41513893 0.32411024 -3.7720616e-16
0000c0 ba 1c 71 b9 07 a4 9e 3e 2c 63 a7 3e fd 92 ad 3e
       -0.00022994253 0.30984518 0.3269285 0.33901206
0000d0 dc f8 95 ba ff 25 0a bb 8d d9 f0 1f d0 1f e3 3e
       -0.0011441964 -0.0021079776 1.0200386e-19 0.4436021
0000e0 32 35 f7 3e 34 97 a1 3e d6 3f 9e ba c6 3c b1 b9
       0.48282772 0.3156067 -0.0012073468 -0.0003380535
0000f0 6a 80 af 3e c1 d4 a4 3e 31 d6 a3 b7 ea 9b b4 3e
       0.3427766 0.32193568 -1.9530855e-05 0.35275203
000100 d8 16 98 3e ac e5 96 3e 9b 84 b7 3e 34 ee 59 bb
       0.29704928 0.294721 0.35843357 -0.0033253552
000110 21 26 b9 3e 6c c1 af 3e 8b 6e 93 3e 45 4c 04 bc
       0.36161903 0.34327257 0.28795275 -0.008074825
000120 ed 1e 91 26 8b 1a 9e 3e 7a e9 01 ad 86 ed 27 ab
       1.0069779e-15 0.30879626 -7.384643e-12 -5.965995e-13
000130 5b 7a c4 3e 4a fd d2 b5 76 4a fd 3e 18 1a 66 bb
       0.383746 -1.5719936e-06 0.49470872 -0.0035110768
000140 f8 d0 05 bb 41 9b 97 b7 8b 06 ae 3e 4d a5 dd 3e
       -0.0020418745 -1.8072898e-05 0.33989367 0.43290177
000150 97 18 c9 3e 78 7a ad a9 41 35 18 b4 ad 8f e6 3e
       0.39276573 -7.703988e-14 -1.4175477e-07 0.4503149
000160 6f 65 9c 3e 24 50 19 b8 7d dc 03 b9 88 e9 46 bb
       0.30546138 -3.655268e-05 -0.00012575272 -0.0030351598
000170 f3 17 97 3e be ee 03 b8 1a 5d 85 20 9f 57 1d bb
       0.2951046 -3.145518e-05 2.2592686e-19 -0.0024008525
000180 15 84 a3 3e c9 ff 65 ba 02 45 6b ba f3 7a 9c 3e
       0.31936708 -0.00087737717 -0.00089748215 0.30562553
