experiments/konrad/saved_models/online/weibull/model_step_1.pt (torch, 890518 bytes, 15 tensors)

A_gate f4 [9]
000000 1d 48 31 bf 5b b2 3c bd 2c 56 87 3b d5 d1 b2 3e
       -0.6925066 -0.04606853 0.0041301455 0.34925714
000010 9f 50 3b 3d c5 fe b7 3e 20 31 92 3e 51 04 a2 be
       0.045731183 0.3593656 0.28553104 -0.31643918
000020 25 a5 d9 3d
       0.10627202

B_gate f4 [120]
000000 c7 bc 6e 3c 6b 08 5a ba 96 88 72 30 f8 da 03 3f
       0.014571375 -0.00083172944 8.823319e-10 0.51505995
000010 99 8d d5 be 04 43 a7 3d fc a0 5d 3f e7 06 00 80
       -0.41709593 0.08167079 0.8657377 -2.476e-42
000020 ae c5 c6 3d f8 9a b3 bd 31 a8 12 bb 0a fc 30 32
       0.09705673 -0.08769792 -0.0022378082 1.0301855e-08
000030 9e 90 92 bd d0 c6 28 b0 3d c5 b3 bb 68 d4 e6 be
       -0.0715649 -6.1400574e-10 -0.005486159 -0.45083928
000040 54 f0 63 3b 73 7c 1a bf e1 7f ba 3d 43 0e 1f bf
       0.0034780698 -0.60346144 0.09106422 -0.62131137
000050 4a 1c 5c 3e 56 45 5b bd f4 ab f7 be 23 70 00 80
       0.21495166 -0.05353292 -0.48373377 -4.0227e-41
000060 4c f7 f3 bd 0f 1c 80 bc 9f 31 16 be 79 36 d9 3e
       -0.119124025 -0.01563838 -0.14667366 0.42424372
000070 be 69 42 3d e4 dc 0e 36 41 38 23 be 91 9c 0f be
       0.047464125 2.1288224e-06 -0.15939428 -0.14024569
000080 c4 a3 c5 bd 2d ce 2d bc 61 e0 6e 24 68 8d 41 3f
       -0.096503764 -0.010608238 5.179808e-17 0.75606394
000090 b8 38 22 3d bc 41 11 bf 20 09 00 00 88 24 e9 bc
       0.039604872 -0.5674093 3.273e-42 -0.028459802
0000a0 9c 41 17 bb c0 50 8b 3b 07 64 48 3d c4 24 81 b6
       -0.0023079878 0.0042515695 0.04892352 -3.8487797e-06
0000b0 b3 76 ab 9b 9a 22 2f 3e be 79 c7 3e 82 6d 83 bf
       -2.8366285e-22 0.17103043 0.3896007 -1.0267794
0000c0 a5 de 18 bd 58 50 08 38 28 bf 0e 3f c5 a3 00 3e
       -0.037321705 3.2499753e-05 0.5576043 0.12562473
0000d0 5f c4 4d 3d 8c 8b e7 3d ff b3 8a bd 33 f3 81 35
       0.050236102 0.11305913 -0.06772613 9.682029e-07
0000e0 3b 1b 6f b6 4b 57 c9 bd 0f 37 00 00 4f 5f fc bb
       -3.5629625e-06 -0.09831103 1.9751e-41 -0.0077017914
0000f0 8b 82 80 bb 60 51 00 00 bf 5f 7e 3f 6f e9 dc bc
       -0.003921812 2.9192e-41 0.99364847 -0.026966779
000100 21 40 91 3c 4a e2 b8 bc 61 89 a2 bd 92 b7 35 3e
       0.017730774 -0.02256884 -0.07936359 0.17745808
000110 98 87 8d 39 d4 2f 25 3e a4 99 c3 31 1d 7f 7b bd
       0.0002699464 0.16131526 5.692714e-09 -0.06140052
000120 36 31 82 3d 06 65 df 3e 4d c0 8f be e3 76 37 3d
       0.063570425 0.43631762 -0.280764 0.044791114
000130 68 f0 84 3e da 64 c1 bc 0a 4e 21 be 6e 8e a8 b8
       0.25964665 -0.02360766 -0.15752426 -8.037394e-05
000140 97 3b 04 80 20 e0 0b 3e 1f 19 8b bd 60 4c 79 3d
       -3.88719e-40 0.13659716 -0.06791901 0.060863853
000150 f8 69 3f bf 45 13 df bb 7d 80 14 b8 c4 ac c7 3c
       -0.7477107 -0.006807717 -3.5405614e-05 0.024374373
000160 a4 24 0d bd 2b 1b 95 2d bf d8 21 3f b7 04 13 b5
       -0.03445877 1.6951404e-11 0.63221353 -5.476863e-07
000170 88 fb ae bf 7e c9 be 3c fa 99 29 af f0 34 c8 3c
       -1.3670511 0.023289438 -1.5425164e-10 0.024439305
000180 01 ae 02 3c 5e 77 d7 be 3f 64 ae 3b 46 9a 2c be
       0.007976056 -0.42083257 0.005322009 -0.16855726
000190 ca d1 8b 34 44 af 15 b6 bd 69 d2 bd c2 61 d3 38
       2.604341e-07 -2.2304748e-06 -0.10274074 0.00010079473
0001a0 02 b5 40 3f f5 31 d1 bc 16 6e b1 3b 1f 9f 11 be
       0.75276196 -0.025536517 0.0054147346 -0.14220856
0001b0 87 38 c1 bd b4 96 68 3d 4d 84 18 3d 85 f3 67 bd
       -0.0943461 0.056784347 0.037235547 -0.056628723
0001c0 2e 05 4a be 3c 6b 00 00 1b 6a ce 3d 8b 28 be bb
       -0.19728538 3.8468e-41 0.10078832 -0.005803173
0001d0 fd 10 00 80 be 44 fc be 61 71 c5 3e 4b 76 88 bb
       -6.094e-42 -0.49271196 0.38563064 -0.0041644922

ar_gate_lin.weight f4 [1, 64]
000000 70 a8 ba 3d d9 29 90 bd ad 32 b3 bd 23 72 17 3d
       0.09114158 -0.07039232 -0.087499 0.036974084
000010 a8 4c 5f bd 4b 43 a9 3d 31 f0 11 3d 7a df d0 3d
       -0.054516464 0.08264788 0.035629455 0.10198875
000020 e3 fe 8c 3d bf d8 16 3d 91 7e c2 bd d2 e4 49 be
       0.06884553 0.0368278 -0.09496797 -0.19716194
000030 8b 6f 2a 3e 90 79 12 3d 0d 75 96 bd 27 1a 20 bd
       0.16644113 0.035760462 -0.073465444 -0.03908744
000040 00 c5 39 bb 88 9b 00 bd 2e fe ea 3c 27 4a 39 3d
       -0.002834618 -0.031398326 0.028685655 0.045236733
000050 c3 fb 90 bb 9b 63 7f bd e4 2a c6 3d 0c b8 fe 3c
       -0.0044245436 -0.06235085 0.096761495 0.03109362
000060 e3 a6 11 3d 06 61 1e bd 79 60 6e 3d 34 d4 d7 3c
       0.035559546 -0.038666748 0.058197472 0.026346304
000070 09 68 10 3e 62 9f 7f bd 38 4a 94 3a 8b f1 3f 3d
       0.14102186 -0.06240786 0.0011313623 0.046861213
000080 c8 26 68 3c 0d 57 4f bd ec 57 2f bd a6 99 3c 3c
       0.014169402 -0.050620127 -0.04280846 0.011511242
000090 8b 5e 16 3d f5 24 96 bc a3 ee a6 3d 5d 5f f6 bc
       0.036711257 -0.01832817 0.08150985 -0.03007477
0000a0 84 29 95 3d 21 a8 44 bd e9 b6 aa 3d c6 07 6b 3d
       0.07283309 -0.048011903 0.083356686 0.05738046
0000b0 fc ce 0f be 2a 9d f3 3d 66 3a 31 b9 3c d4 d3 3d
       -0.14043802 0.11895211 -0.0001690179 0.10343215
0000c0 2b e0 42 3d 5e af d9 3b 90 39 a3 bd 0c 9f 89 bc
       0.047577064 0.00664322 -0.079699636 -0.016799472
0000d0 7e 90 cd 3c dc c4 b6 3d f1 7c 6c bd 35 f4 fa bb
       0.025093313 0.08924267 -0.05773634 -0.0076585063
0000e0 ce 93 89 bd e5 a2 56 bd cc 93 ed 3c af 93 7e bd
       -0.06717645 -0.052401442 0.02900114 -0.06215256
0000f0 02 5a df 3d 7a 26 c1 3c c4 7a 44 bd 4f b8 df 3d
       0.109058395 0.023577917 -0.04796864 0.10923826

ar_k_net.0.weight f4 [32, 64]
000000 7f 0d 93 b4 08 8c ed 33 af 8c d3 34 86 c9 31 b2
       -2.7390703e-07 1.1061644e-07 3.9404173e-07 -1.0348577e-08
000010 cf 7b a7 b4 63 d4 81 b4 09 4a 10 b4 66 1d 8b 34
       -3.1196257e-07 -2.4182654e-07 -1.3437979e-07 2.5912158e-07
000020 24 ac 92 33 f2 8e d8 b3 1e 78 f3 b3 ee 9c d7 b3
       6.829967e-08 -1.00842854e-07 -1.13374185e-07 -1.0040263e-07
000030 66 ad 62 34 1d ed 91 34 56 9e c0 b4 e8 bc bd b1
       2.1110972e-07 2.7180877e-07 -3.5877991e-07 -5.5221e-09
000040 22 03 10 b3 e6 4f 6a 34 d1 96 a6 33 fd bf 6e b3
       -3.3530462e-08 2.1822015e-07 7.757411e-08 -5.5588306e-08
000050 99 af 35 b4 1d 37 d5 b3 87 ff 82 b4 52 0a 7c b4
       -1.692082e-07 -9.9286105e-08 -2.4400308e-07 -2.3473083e-07
000060 94 10 a6 b4 63 6f cd b4 da c8 f9 b4 1b bd fd b4
       -3.0931972e-07 -3.826527e-07 -4.6526003e-07 -4.7262515e-07
000070 50 e1 06 b5 ab 44 38 b4 10 d4 14 b4 26 71 91 33
       -5.024676e-07 -1.7161317e-07 -1.3860722e-07 6.77267e-08
000080 69 e7 35 34 16 03 d8 33 1e 09 c8 32 ef 70 bf b4
       1.6941125e-07 1.0058845e-07 2.328721e-08 -3.5658692e-07
000090 a0 5a a4 32 3a 1b 5b b4 b1 4a e5 b4 32 ad e2 b4
       1.9133324e-08 -2.040587e-07 -4.270892e-07 -4.2221797e-07
0000a0 80 f6 32 b5 1a 66 bb b3 4a 97 01 36 74 12 3b 35
       -6.666887e-07 -8.726438e-08 1.931056e-06 6.968978e-07
0000b0 42 c1 c2 34 0f f9 55 34 d2 61 70 b4 e0 1e f2 b4
       3.627593e-07 1.9927778e-07 -2.2387329e-07 -4.5098477e-07
0000c0 1a 29 9e b4 d2 96 8b b4 3d 04 d7 b4 a0 b6 be b0
       -2.94597e-07 -2.6000504e-07 -4.0049954e-07 -1.3876225e-09
0000d0 93 74 d6 b3 44 4d 95 32 db 59 ff b4 fa 77 15 b3
       -9.986356e-08 1.738102e-08 -4.756283e-07 -3.4800884e-08
0000e0 70 23 58 b3 0d a7 9d 34 38 b3 75 b4 d4 18 93 b4
       -5.032365e-08 2.9365074e-07 -2.2882602e-07 -2.7398949e-07
0000f0 80 9a 36 b4 20 26 64 b4 96 1b 8d b4 59 93 77 b3
       -1.7006278e-07 -2.1248024e-07 -2.6283368e-07 -5.764318e-08
000100 65 c5 bc bc ef 2e 06 3c 31 f7 0f 3d a1 46 4f bc
       -0.023043344 0.008189901 0.03514785 -0.012651117
000110 7c 44 2b 3c a6 48 a2 3c fb e4 1f 3b fc 86 2e 3d
       0.01045334 0.019810032 0.0024397958 0.0426092
000120 b0 7a 3c 3c 30 35 05 3d f9 7d 0e 3b 4f bf 8c 3c
       0.01150386 0.032521427 0.0021742566 0.017181067
000130 12 ab 11 3b 60 c6 7a b9 b5 51 53 bc 02 c2 e2 3b
       0.002222721 -0.00023915758 -0.012897898 0.0069201
000140 c5 78 41 3b cd 7a 31 bc d4 35 97 3b 3a 76 a4 3b
       0.0029521447 -0.010832501 0.004614571 0.0050189765
000150 45 97 e6 3a f7 6d cf 3c d0 5c 60 3d 14 7a d2 bb
       0.0017592689 0.02532099 0.054776013 -0.0064232443
000160 7e 1e 6c bc 61 ea 83 bc f6 b2 78 bc 99 61 98 bc
       -0.014411567 -0.016102972 -0.015179386 -0.018601226
000170 ee 02 e1 bc 8e 46 a1 bc b2 97 ec bc 25 d7 fd bb
       -0.027467217 -0.019686963 -0.028880928 -0.0077465945
000180 13 1f 42 bc 46 e9 88 3c 62 29 03 bc 54 97 9c ba
       -0.011848229 0.016712796 -0.008005472 -0.0011946955
000190 90 1b 8d 3c e8 3b 27 3c 85 84 b1 3b 80 51 b8 bc
       0.017225057 0.010207154 0.005417409 -0.0224998
0001a0 06 12 08 bd 8a 52 57 bc 0c 82 c5 3b 1c ff 88 3b
       -0.033220313 -0.013142237 0.0060274657 0.004180802
0001b0 48 50 d7 3b b6 c2 8f bb 45 50 41 bc a6 ee 05 3c
       0.0065708496 -0.004387225 -0.011798923 0.008174574
0001c0 1e e1 1a bc 93 57 92 bb 69 9f ab 3b 08 de be 3a
       -0.009453086 -0.004466006 0.005237509 0.001456202
0001d0 9a dd 95 bc d7 f2 ac 3b 30 d7 0c 3c 87 83 2e bc
       -0.018294144 0.005277972 0.008596227 -0.010651476
0001e0 59 1d af bc 7b 61 63 3c 8d 27 58 3c 1c 2d 29 bc
       -0.021376299 0.013878222 0.013193023 -0.010325696
0001f0 f1 e3 bc bc af e5 f6 3c 5a 65 8f 3b 1d 95 97 3c
       -0.02305791 0.030138819 0.0043760957 0.01850372
000200 f9 5c b5 3d af 1f c3 3c 4c c0 51 bd 75 c4 91 3d
       0.08855624 0.023818819 -0.05120878 0.07117549
000210 b2 51 d0 3c 91 35 5d bc 0f af 17 3d cc d4 68 bd
       0.02542958 -0.013501541 0.037032183 -0.056843564
000220 ca 7f a6 3b 0b 5e 36 bd fa ce 01 3c 79 02 fc bc
       0.0050811516 -0.04452328 0.007922882 -0.030762898
000230 3d e7 93 3c 9b 6c 28 3d 1c 7f 67 3d 30 5d 81 3c
       0.018054599 0.0411192 0.056517705 0.015791506
000240 36 21 cc 3c 80 66 29 3d 6a be 32 3c b6 a8 ab 3c
       0.02491818 0.041357517 0.010909656 0.020954471
000250 91 ef fb 3c 4d 83 9a bc 80 ce 9d bd 3c b5 82 3d
       0.030753883 -0.018861437 -0.077054024 0.06382224
000260 f2 3d bc 3d 43 eb 68 3d 47 38 a5 3d ab b0 9d 3d
       0.09191503 0.056864988 0.08067375 0.07699712
000270 e0 9e 73 3d 90 8d 43 3d 8c d3 b8 3d 53 9c 71 3d
       0.059477687 0.047742426 0.09024724 0.058986973
000280 cf f5 83 3d f1 21 6c bb 98 3b 6c 3d 71 88 03 3d
       0.06443369 -0.0036030973 0.05767402 0.032112543
000290 2d c8 16 3b 88 d6 bd 3c f9 70 36 3d 46 c0 d3 3d
       0.0023007498 0.023173586 0.044541333 0.103394076
0002a0 fd 32 eb 3d 5f 9f 80 3d 4f b5 fa 3c 3c 56 28 3d
       0.114843346 0.062803976 0.030604033 0.041097865
0002b0 b4 e4 50 3c 18 61 90 3d 6b 34 98 3d 97 05 2c 3d
       0.01274984 0.07049769 0.07431873 0.04199752
0002c0 48 d4 a6 3d 02 8b 7d 3d 96 fc fb 3c e5 03 0a 3d
       0.08145958 0.061900146 0.03076009 0.03369512
0002d0 ff 0c 92 3d a2 63 11 3d 3b fb 1a 3d 13 08 85 3d
       0.07131385 0.035495408 0.03783725 0.06495681
0002e0 f8 92 b3 3d d9 ef 22 3c 11 d9 a4 3c 71 81 88 3d
       0.087682664 0.009944879 0.020123037 0.06665314
0002f0 d8 60 e4 3d 25 a0 ab bc 99 c8 fb 3c 92 3a 64 bb
       0.11151284 -0.020950386 0.0307353 -0.003482495
000300 ea ed 94 bc 23 23 f3 3b 67 9f d7 3c b2 c2 1e bc
       -0.018179853 0.00741996 0.026321126 -0.009689974
000310 50 86 1e 3c 5d e3 4c 3c ee 6b 9c 3a 11 d0 0b 3d
       0.009675577 0.0125053795 0.0011934021 0.034133974
000320 e0 c3 1b 3c 29 ea d1 3c 44 d6 13 3b ee aa 57 3c
       0.009507149 0.025624352 0.0022558132 0.013163311
000330 c7 1c 2f 3b 0b 1a ad 3a 05 0f 07 bc a6 83 bb 3b
       0.0026720033 0.0013206614 -0.008243327 0.005722481
000340 d3 d6 8a 3b cb c9 01 bc 23 d1 76 3b 5d 67 60 3b
       0.004237035 -0.007921646 0.0037661276 0.0034241297
000350 ca 11 49 3a 81 a5 a6 3c 0f 7b 30 3d 11 37 94 bb
       0.0007670192 0.02034259 0.043086108 -0.004523166
000360 e1 a9 3d bc 84 a6 53 bc 31 37 3c bc f2 45 67 bc
       -0.011576147 -0.012918118 -0.011487768 -0.014115797
000370 1c 38 af bc 86 aa 72 bc 32 7c b8 bc 31 05 b7 bb
       -0.02138906 -0.014811164 -0.022520158 -0.0055853357
000380 a2 1d 13 bc 3b ee 57 3c 90 90 b1 bb 22 db e8 38
       -0.008979233 0.013179357 -0.0054188445 0.00011103439
000390 93 3b 76 3c 88 b5 0f 3c 08 24 42 3b 91 ed 82 bc
       0.015028852 0.008771308 0.0029623527 -0.015982421
0003a0 48 f6 ce bc 03 e9 21 bc 7d 28 9c 3b 92 0f 48 3b
       -0.02526392 -0.0098822145 0.0047655688 0.0030526859
0003b0 2b 34 95 3b 06 93 39 bb 0c 6c 12 bc af 33 cb 3b
       0.004553338 -0.0028316393 -0.008936893 0.0062012295
0003c0 e9 97 b9 bb 42 52 36 bb 2d d6 34 3b 66 97 8e 3a
       -0.005663861 -0.0027820026 0.002759348 0.001087886
0003d0 01 3b 60 bc 94 24 94 3b 19 03 00 3c 09 f0 ea bb
       -0.013685943 0.004520962 0.007813239 -0.0071697277
0003e0 95 de 7c bc d9 84 32 3c c6 9b 2a 3c 01 27 eb bb
       -0.015433927 0.010895931 0.010413116 -0.0071762805
0003f0 70 62 85 bc c8 d6 c5 3c 29 d4 84 3b 2b 4e 5a 3c
       -0.01628229 0.024150267 0.004053612 0.013324301

ar_k_net.0.bias f4 [32]
000000 f7 5f 5c 34 46 be 47 3d e7 97 b3 bd ae 64 12 3d
       2.0524008e-07 0.048765443 -0.087692074 0.035740547
000010 9d ff b0 bd fb d7 36 bd 2b e3 eb 8b 0b 23 dd 8f
       -0.08642504 -0.04463957 -9.086051e-32 -2.180578e-29
000020 9e 6a 0a 96 ef e8 c2 bd 64 a9 cd 0e e0 ea 9a bd
       -1.1181194e-25 -0.09517085 5.069952e-30 -0.0756433
000030 08 01 92 bd 5f 02 b5 bd 78 c0 15 bd aa 6c 97 bd
       -0.07129103 -0.08838343 -0.036560506 -0.07393773
000040 06 78 f5 3c 7e 5e ce a2 48 ba 3f 3d a2 09 80 bd
       0.029964458 -5.593646e-18 0.04680851 -0.06251837
000050 d6 12 7c 3d 6c ba 05 3a 16 6e 17 37 52 a3 09 3d
       0.0615414 0.00051013264 9.025933e-06 0.03360302
000060 0c ed 49 aa 2b e0 04 3c cc 28 ee 16 9a 51 7a 3b
       -1.7934628e-13 0.008110086 3.847672e-25 0.003819561
000070 28 8d 60 bd 6a 00 e6 af e2 8c 8d bd d6 56 45 08
       -0.054822117 -4.183705e-10 -0.06911637 5.9384606e-34

ar_k_net.2.weight f4 [1, 32]
000000 d4 45 0f b7 07 e9 13 be fa a8 b6 3e 92 99 e1 bd
       -8.539722e-06 -0.14444362 0.35675794 -0.11015619
000010 54 e9 b4 3e 0f e1 56 3e 5e c9 b1 0c 88 41 4e 91
       0.35334265 0.2098429 2.7392361e-31 -1.6270728e-28
000020 2c a2 b1 16 b6 64 c2 3e d2 ef ac 90 8a 33 9f 3e
       2.8698237e-25 0.3796746 -6.821154e-29 0.3109401
000030 70 f0 99 3e 6b df b7 3e b2 20 32 3e 93 76 9d 3e
       0.30066252 0.35912642 0.17395285 0.30754527
000040 09 1b c0 bd 6f 8b b1 b8 4a 0d 10 be f9 fb 8e 3e
       -0.093801565 -8.465989e-05 -0.1406757 0.27926615
000050 3b 48 43 be 3f 4d d3 ba 14 a4 33 b8 8a 5b d5 bd
       -0.19070522 -0.0016121044 -4.2829735e-05 -0.1041785
000060 ed 7f 1f ae 9b f2 c4 bc 4d 29 72 1a 16 e0 50 bc
       -3.6266035e-11 -0.024041465 5.007779e-23 -0.012748739
000070 1d 39 74 3e 9b 19 ec 31 a3 ea 92 3e 5e 00 d1 86
       0.23849912 6.871415e-09 0.2869464 -7.86176e-35

ar_lam_net.0.weight f4 [32, 64]
000000 2a 1d 79 bd 34 5a a0 bd a0 b9 63 bd 4c a2 a7 3c
       -0.06081883 -0.07829705 -0.055596948 0.020463131
000010 b9 ab 4c bd d9 05 1f bd 05 8c f5 bc ee 8d 44 bd
       -0.049968455 -0.038823936 -0.029973993 -0.047986917
000020 88 02 9d 3d 1e fa 89 3d a4 c5 86 3c 78 0a ff 3c
       0.076664984 0.06737159 0.016451664 0.031132922
000030 3b 7b 4c bd d2 de a6 bd 7d 50 81 3d 12 98 3b 3d
       -0.04992221 -0.08147968 0.0631418 0.045799322
000040 64 81 48 3d 26 8a e2 3d cd 49 f2 bc f6 f3 ea 3c
       0.04895152 0.11061506 -0.029576207 0.028680783
000050 40 5c c9 3d fa 87 21 3d 01 49 8f 3c 73 38 83 3b
       0.098320484 0.039436318 0.017490866 0.004004532
000060 a7 61 19 3d c2 1d 05 3d 82 b2 27 3d c5 fb ae bd
       0.037446644 0.032499082 0.040941723 -0.08544115
000070 06 77 bc 3d f7 68 8c 3d f4 db 41 3d 1b ba 0d 3d
       0.092023894 0.06855958 0.047328904 0.034601312
000080 d1 82 01 3e c4 e0 2d bc f6 63 25 3c a6 8d 6d bd
       0.12647559 -0.01061267 0.010094633 -0.057996415
000090 50 e8 75 3d 2a f3 ed bd 7b 2d 48 bd b4 29 c9 bb
       0.060036004 -0.116186455 -0.0488715 -0.0061390046
0000a0 a0 c5 39 3d 61 b9 94 3c 88 6f 06 3d c4 9f 95 bd
       0.045354486 0.018154802 0.03282121 -0.073058635
0000b0 54 ea 35 bd 4d 8a 7c 3d 11 bf b9 39 66 55 43 3c
       -0.044412926 0.06165533 0.00035428305 0.011922216
0000c0 98 8f dd bd 02 57 e0 3d 4b 48 99 bb 40 03 3e bc
       -0.10818404 0.109540954 -0.0046778074 -0.011597455
0000d0 15 8c 21 bd c0 8c 6c 3d 04 2f 9c bd e4 5d 08 be
       -0.039440233 0.057751417 -0.07626155 -0.13317066
0000e0 84 fa 76 bd 3e 14 83 bd 62 06 04 be ba 4d 28 bd
       -0.060297504 -0.06400345 -0.1289306 -0.04108975
0000f0 a1 af 6c bd 9c 1d b7 bd c1 8b dc 3b d8 57 bf 3c
       -0.05778468 -0.089411944 0.006730527 0.023357317
000100 d4 f2 90 bd 9c 9b c9 bd 54 30 59 3c 2b 43 9a 3c
       -0.07077566 -0.09844133 0.013256151 0.018830856
000110 9b 4d bb 3d f4 ae 9e bd e2 15 a9 3b 15 1c 54 3c
       0.091456614 -0.077482134 0.0051600793 0.012946148
000120 2e 8b 13 bd 7a 15 34 bc 72 fe 9a bd 71 9c b7 bd
       -0.036021404 -0.010991449 -0.07568063 -0.08965386
000130 b0 86 b8 3d 6a ba 2c bc 6e 3d 24 be ca 87 cc bd
       0.090100646 -0.010542491 -0.16039059 -0.09986837
000140 37 43 89 3c ad d2 02 3e 6c 6e 67 3d 81 cb ff 3d
       0.016755683 0.12775679 0.05650179 0.12489987
000150 21 00 7e bb 3c 92 12 bd 81 99 ad 3c f2 4c 10 3d
       -0.00387574 -0.03578399 0.02119136 0.03522963
000160 7b f9 c0 bc 2a 22 68 bc f2 d0 c4 bd 70 9f 17 bd
       -0.023556462 -0.014168302 -0.09610166 -0.037017286
000170 44 e2 16 3d d9 9b 02 bd d1 da c8 bd b3 ca fd bc
       0.036836877 -0.03188691 -0.09807361 -0.030980444
000180 8f ba 02 3d 4e 42 42 bd a4 7e ba bd 44 f3 53 bd
       0.031916197 -0.047426514 -0.09106186 -0.051745668
000190 34 95 b1 bc c2 87 d0 bd dd bd a6 bd 3d df e6 bd
       -0.02167759 -0.10182144 -0.08141682 -0.11273048
0001a0 67 1a 51 bd 63 1b ae bd 6d cb eb 3d 77 db 8f bd
       -0.05105057 -0.08501317 0.1151341 -0.070242815
0001b0 dd ae 0b 3d 68 0f 0d 3e ee 20 2f 3c 49 f3 b2 3c
       0.03410231 0.13775408 0.010689003 0.021844523
0001c0 3b c9 8e 3d 4a 55 b8 3b 8e 0a de bc 61 6b 9e 3c
       0.069719754 0.0056254016 -0.027104642 0.019338312
0001d0 8e 08 84 3d 54 18 c3 3d 5d c8 e2 3c ca 00 a7 3c
       0.06446944 0.095261246 0.027683431 0.020386118
0001e0 db b8 36 3c 88 a2 5d 3d 8f 6a a2 3c 56 3f 0e 3d
       0.011152471 0.05411008 0.019826202 0.03472837
0001f0 63 4a 8e 3d ad de 6e 3d d3 63 5a bd e6 20 dd bb
       0.06947782 0.05831783 -0.053317856 -0.0067483066
000200 39 72 00 00 cf 49 00 00 9b 69 00 00 53 40 00 00
       4.0975e-41 2.6478e-41 3.7884e-41 2.3075e-41
000210 00 2c 00 00 e3 15 00 00 f8 ae 37 00 32 63 13 00
       1.5784e-41 7.851e-42 5.113719e-39 1.780459e-39
000220 5c 6b 00 80 1c db 01 00 12 08 00 80 bb 40 00 80
       -3.8513e-41 1.70437e-40 -2.895e-42 -2.3221e-41
000230 cf d3 18 93 44 2c 02 00 fe 13 00 80 a5 19 00 80
       -1.9289527e-27 1.9955e-40 -7.172e-42 -9.2e-42
000240 2b 8a 00 00 39 32 00 00 ed 4f 00 80 14 54 35 00
       4.9565e-41 1.8016e-41 -2.8672e-41 4.897443e-39
000250 d3 d8 0f 00 f8 5a 00 00 48 33 00 80 87 55 00 80
       1.455314e-39 3.2633e-41 -1.8396e-41 -3.0681e-41
000260 5e 2b 00 00 88 f7 82 00 3b 85 02 80 15 c5 01 00
       1.5557e-41 1.2027412e-38 -2.31465e-40 1.62535e-40
000270 7f d0 40 05 95 77 00 80 50 a3 0a 80 97 2f 12 09
       9.066091e-36 -4.2898e-41 -9.7694e-40 1.7596487e-33
000280 55 bb b4 0c c6 08 4d 81 82 70 00 00 f2 89 00 00
       2.7846138e-31 -3.7658848e-38 4.036e-41 4.9485e-41
000290 07 c3 02 00 c4 37 00 80 0e 28 00 80 b6 23 00 00
       2.53634e-40 -2.0005e-41 -1.4369e-41 1.281e-41
0002a0 e3 21 00 00 20 4f 00 00 1c 73 00 80 c6 46 00 00
       1.2156e-41 2.8385e-41 -4.1293e-41 2.5389e-41
0002b0 db 12 00 00 b1 1d 00 00 db 72 00 80 6e 4a 00 80
       6.764e-42 1.0651e-41 -4.1202e-41 -2.67e-41
0002c0 3f 4c 00 00 e3 4a 00 00 0f 8f 01 00 74 0f 00 00
       2.7352e-41 2.6864e-41 1.43155e-40 5.544e-42
0002d0 d9 65 01 80 21 88 00 80 91 10 00 80 31 c1 00 00
       -1.28372e-40 -4.8834e-41 -5.943e-42 6.9304e-41
0002e0 28 fb 5e 02 61 13 00 00 34 53 00 00 c8 4c 00 80
       1.6382062e-37 6.952e-42 2.9848e-41 -2.7544e-41
0002f0 62 8a 00 80 15 6c 00 00 0f 52 00 00 a8 21 55 05
       -4.9642e-41 3.8773e-41 2.9437e-41 1.00213935e-35
000300 76 ed fa 3c 04 38 ac 3c e2 79 24 bd 38 0c 94 bd
       0.030630808 0.021022804 -0.0401553 -0.07228893
000310 a5 ae 3b bd 9d f3 c2 3b f3 fc ff 3c db 56 7f 3d
       -0.04582085 0.005949451 0.031248545 0.06233869
000320 ff 9b 52 3d 2e 89 a0 bc 7a 1e e7 3d f6 f5 7b 3c
       0.0514183 -0.019596662 0.1128511 0.015378466
000330 c3 1d bc bd c0 00 70 3c 47 58 18 bd 56 22 8a 3d
       -0.09185364 0.014648616 -0.037193563 0.0674483
000340 03 57 dd bc 92 64 84 bd 93 a8 ef 3c c4 38 7a 3c
       -0.02701903 -0.06464495 0.029255187 0.015272323
000350 45 cd 97 bb 78 57 3f bd 84 fc a4 bd e6 b3 b2 bd
       -0.0046326243 -0.046714276 -0.08055976 -0.08725719
000360 af d2 ba bd 45 76 a5 bd e7 98 ad bd 5a 40 54 bd
       -0.09122216 -0.08079199 -0.084764294 -0.051819183
000370 99 3c d7 3c ec 5f 04 bd d5 66 19 3d 74 0e 99 3c
       0.026274012 -0.03231804 0.037451584 0.01868365
000380 82 43 66 bd 28 68 e8 bd 8b 75 43 3e eb a3 be 3d
       -0.056216724 -0.11347991 0.19087808 0.093086086
000390 18 78 9b bc d9 37 20 3c 85 29 25 3e 88 4e 16 be
       -0.018978164 0.00977894 0.1612912 -0.14678395
0003a0 e3 eb 79 bc ac 07 8f 3d b3 69 36 3d 8e 40 93 bd
       -0.015253994 0.06983885 0.044534396 -0.07190047
0003b0 63 66 38 bd 69 9f 92 3b 05 ac 9f bd bb f4 d1 3d
       -0.04501952 0.0044745696 -0.07796482 0.10251757
0003c0 87 41 9d bd 64 db f6 bd 97 a1 3c 3c 98 ec 49 bc
       -0.07678514 -0.12053564 0.011513135 -0.012324475
0003d0 cb c7 e5 3c ca 93 8c bd 06 bc 38 3d 61 f1 2d 3c
       0.02804937 -0.06864126 0.045101188 0.010616631
0003e0 58 94 24 3d 22 98 d2 3d a6 33 b2 3d 79 b4 64 3d
       0.040180534 0.10282923 0.087012574 0.055836175
0003f0 f4 51 4c 3c ae e1 e2 3d 19 9a e1 bb e9 48 d3 3c
       0.012470711 0.11078201 -0.006884825 0.025791602

ar_lam_net.0.bias f4 [32]
000000 68 b6 58 bc 17 ab ae 3d 6f 01 00 80 94 5a 44 bd
       -0.013227083 0.085287265 -5.14e-43 -0.047937945
000010 04 c6 ec 3d 58 a9 c7 b9 d0 36 84 3d ad 80 03 be
       0.11561206 -0.0003808241 0.06455767 -0.12842055
000020 e5 3a a0 b9 82 95 3f 3e f2 39 17 3e e4 14 8f bd
       -0.00030561458 0.18709376 0.14768198 -0.069864064
000030 2e c9 98 3c 04 52 d7 3d 8c 4a 10 3e 89 9e 06 be
       0.018650617 0.1051369 0.14090937 -0.13146414
000040 dd ed a8 bd af 70 b7 3d a3 73 e3 3c 9f 60 76 3c
       -0.08248494 0.089570396 0.0277651 0.015037685
000050 69 75 14 3e fe c3 c2 bd 3a e6 60 bd 48 bd 89 0b
       0.14497913 -0.09510039 -0.05490706 5.305528e-32
000060 13 c3 28 bd f6 07 28 be c3 37 b5 3d 27 f1 09 3d
       -0.041201662 -0.16409287 0.08848526 0.033677246
000070 09 70 07 bc f7 9d 3e 3e f0 03 ad bc a9 36 2e 3e
       -0.008266457 0.18614946 -0.021120042 0.17013039

ar_lam_net.2.weight f4 [1, 32]
000000 63 e2 9c 3e 1d a7 be be 3c 50 8a 39 68 2c d0 3e
       0.3064147 -0.37236872 0.0002638119 0.4065888
000010 ca 08 10 be d8 c6 82 ba a7 45 df 3e 0c 6e c0 3d
       -0.14065853 -0.0009977473 0.43607828 0.0939599
000020 e5 1e 3e bb 90 74 30 be da 82 5d be 25 dd 80 3d
       -0.0029010114 -0.17231965 -0.21631947 0.0629218
000030 f5 ba a6 3e 12 69 70 be a5 1d 44 be 4a df 18 3e
       0.32564512 -0.23477581 -0.19151933 0.14928928
000040 f1 a3 b5 3e 46 80 ce bd 64 23 97 3e 7d 01 99 3e
       0.3547664 -0.1008306 0.29519188 0.29883948
000050 c7 48 81 be d9 78 8b 3e d8 95 85 3e b9 1d ce ab
       -0.25250837 0.27240637 0.26090884 -1.464543e-12
000060 13 be 1a 3e 08 99 8a 3e 5e 27 39 be 1b f8 de 3e
       0.1511157 0.2706988 -0.18081424 0.43548664
000070 17 3f 91 3e e8 ae 3f be 9c 22 08 3d 7b b3 99 be
       0.28368446 -0.18719065 0.03323613 -0.30019745

feat_k_net.0.weight f4 [100, 1080]
000000 52 3f 14 3d 31 3c 78 86 92 07 00 80 be 45 00 00
       0.0361932 -4.6687838e-35 -2.716e-42 2.5019e-41
000010 3c 79 00 00 de 67 00 80 fd 10 00 80 9c 50 05 00
       4.349e-41 -3.726e-41 -6.094e-42 4.88095e-40
000020 e9 15 00 80 46 a8 83 3d 6f 06 01 80 d2 5f 02 80
       -7.86e-42 0.0642858 -9.4143e-41 -2.18045e-40
000030 eb 24 00 00 30 15 00 00 69 48 00 80 50 05 00 80
       1.3244e-41 7.6e-42 -2.5976e-41 -1.906e-42
000040 ca 6f 00 00 ef 89 11 00 01 ce 17 3b 0c 80 00 00
       4.0102e-41 1.610685e-39 0.002316356 4.5935e-41
000050 90 6c 00 00 ea 81 08 00 c5 b0 00 80 2d 6a 00 80
       3.8945e-41 7.81288e-40 -6.3413e-41 -3.8089e-41
000060 08 0d 00 00 43 40 08 00 15 71 00 80 e0 5a 26 3d
       4.675e-42 7.57737e-40 -4.0566e-41 0.04061401
000070 0c d6 c9 9f f2 1e 00 80 82 54 01 00 f0 40 00 80
       -8.548092e-20 -1.1101e-41 1.22151e-40 -2.3295e-41
000080 b7 2b 00 00 ff 8f 00 00 3d 19 00 00 f5 0f 00 80
       1.5682e-41 5.1656e-41 9.054e-42 -5.724e-42
000090 c7 0a 5f 3d 8d 0c 00 80 7d 2e 00 80 2a 1c 02 80
       0.054453637 -4.502e-42 -1.6677e-41 -1.93774e-40
0000a0 c6 4d 00 00 8d 1d 00 80 8f 20 00 80 33 f0 18 00
       2.79e-41 -1.0601e-41 -1.168e-41 2.290219e-39
0000b0 bb 17 00 00 5a d0 c9 3a a7 03 00 00 96 79 00 80
       8.513e-42 0.0015397177 1.31e-42 -4.3617e-41
0000c0 84 64 00 00 3d 49 00 80 be 03 00 00 08 14 00 80
       3.6058e-41 -2.6273e-41 1.342e-42 -7.186e-42
0000d0 9b 0f 07 80 64 00 00 00 14 08 9e 3d 43 3d 00 00
       -6.48447e-40 1.4e-43 0.077163845 2.1977e-41
0000e0 12 3c 01 00 ee 68 00 00 00 70 00 80 42 1d 00 00
       1.13385e-40 3.7642e-41 -4.0178e-41 1.0496e-41
0000f0 05 21 00 80 84 13 00 00 a2 55 00 00 ce 0e b5 3d
       -1.1845e-41 7.001e-42 3.0719e-41 0.088407144
000100 fa e2 03 80 63 01 00 80 05 3a 00 80 b6 51 00 00
       -3.5693e-40 -4.97e-43 -2.0813e-41 2.9312e-41
000110 24 24 01 00 1f 66 00 80 d6 69 00 00 22 74 00 00
       1.048e-40 -3.6634e-41 3.7967e-41 4.166e-41
000120 1e 5f c3 3c 46 2e 00 80 c7 44 00 80 a7 16 00 00
       0.023849066 -1.66e-41 -2.4673e-41 8.126e-42
000130 0c 3b 00 80 ac 16 01 80 12 32 00 00 07 5e 00 00
       -2.1182e-41 -9.9969e-41 1.7962e-41 3.373e-41
000140 67 0b 01 00 7b 6d dd 3c 8c 0d 00 00 7a ed 00 80
       9.5926e-41 0.027029743 4.86e-42 -8.519e-41
000150 6d 84 01 80 3e 4c 00 00 39 45 00 80 36 c7 00 00
       -1.39341e-40 2.735e-41 -2.4832e-41 7.1463e-41
000160 60 04 00 80 9e 58 01 80 d3 a3 43 3c 88 2a 02 80
       -1.57e-42 -1.23625e-40 0.011940914 -1.98928e-40
000170 5e 1f 00 00 fd 5f 00 00 58 00 00 80 b4 7e 00 80
       1.1252e-41 3.4434e-41 -1.23e-43 -4.5453e-41
000180 e6 ba 47 a0 2a 60 00 00 ac fe 08 80 ff 5f c0 3d
       -1.6917795e-19 3.4497e-41 -8.26043e-40 0.0939331
000190 ef 17 00 80 22 70 02 00 e6 26 01 00 c8 36 00 00
       -8.586e-42 2.23897e-40 1.0579e-40 1.9652e-41
0001a0 35 5f 00 00 be 15 00 00 e6 95 1a 00 37 1e 00 00
       3.4154e-41 7.8e-42 2.441496e-39 1.0839e-41
0001b0 48 e9 eb 3d 77 d2 04 00 96 b2 0e 00 04 0a 61 24
       0.11519104 4.42843e-40 1.349762e-39 4.879758e-17
0001c0 e0 1e 00 80 76 5a 04 80 bf 42 00 80 d4 32 00 00
       -1.1076e-41 -3.99793e-40 -2.3944e-41 1.8234e-41
0001d0 53 53 09 00 7d ba 69 3d c7 7d 01 00 e3 3c 02 00
       8.5641e-40 0.057062615 1.36956e-40 2.05513e-40
0001e0 04 43 00 80 80 8a 00 80 9a 75 ad ad 44 09 00 80
       -2.404e-41 -4.9684e-41 -1.9720049e-11 -3.324e-42
0001f0 ad 60 00 00 0d 57 00 80 d7 a4 28 bd c2 25 01 80
       3.4681e-41 -3.1228e-41 -0.04117283 -1.0538e-40
000200 17 82 00 80 b5 db 01 00 00 33 09 80 b8 7a 00 00
       -4.6667e-41 1.70652e-40 -8.44815e-40 4.4023e-41
000210 77 15 00 80 4d 08 00 00 32 02 00 00 a0 59 90 ba
       -7.7e-42 2.978e-42 7.88e-43 -0.0011013038
000220 7a 0c 00 00 0a 2a 00 80 f8 d5 02 00 39 5c 00 80
       4.476e-42 -1.5081e-41 2.60429e-40 -3.3083e-41
000230 67 3f 00 00 75 08 00 80 ee 16 00 80 4b 51 00 80
       2.2744e-41 -3.034e-42 -8.226e-42 -2.9162e-41
000240 f8 1a f0 3c 69 04 00 00 f3 78 00 80 f4 29 00 00
       0.029309735 1.582e-42 -4.3388e-41 1.505e-41
000250 ca 52 02 80 a8 36 02 00 8e 78 6b a1 45 52 00 80
       -2.1337e-40 2.03278e-40 -7.978065e-19 -2.9513e-41
000260 d6 0e 00 00 d6 5a 71 bd 34 1b 00 00 e5 49 00 00
       5.322e-42 -0.05892452 9.759e-42 2.6508e-41
000270 11 65 00 00 04 82 00 80 0b 34 00 80 91 72 02 00
       3.6256e-41 -4.6641e-41 -1.867e-41 2.2477e-40
000280 2d 63 00 80 fd 65 00 00 69 2a 1e 3d 43 52 00 80
       -3.5578e-41 3.6587e-41 0.038614664 -2.951e-41
000290 d8 3c 00 80 2f 54 00 00 08 02 0b 80 42 7b 01 00
       -2.1827e-41 3.02e-41 -1.010919e-39 1.36052e-40
0002a0 c9 16 00 00 8e d9 00 80 bd 68 00 80 50 40 06 3c
       8.174e-42 -7.8044e-41 -3.7573e-41 0.008194044
0002b0 e3 cc 07 80 99 30 00 00 9d 26 00 80 1a ba 92 85
       -7.16348e-40 1.7434e-41 -1.3852e-41 -1.3798137e-35
0002c0 f5 16 00 00 d1 43 00 00 a1 2b 00 00 b8 60 00 80
       8.235e-42 2.4328e-41 1.5651e-41 -3.4696e-41
0002d0 3b 1a a1 bd f0 64 00 00 c3 1f 0c 00 03 cf 01 80
       -0.07866331 3.621e-41 1.11342e-39 -1.66097e-40
0002e0 c8 10 00 80 74 91 02 00 d4 d1 00 80 6b 6c 00 80
       -6.02e-42 2.3585e-40 -7.5272e-41 -3.8893e-41
0002f0 9b 5a 00 80 bf 85 79 3d db 65 00 80 52 01 00 80
       -3.2503e-41 0.060918566 -3.6539e-41 -4.74e-43
000300 ea c8 02 80 38 5d 02 00 fa 31 00 00 96 1e 00 80
       -2.55745e-40 2.17112e-40 1.7928e-41 -1.0972e-41
000310 cf 2d 00 00 7b 5d 00 80 de 5c 92 bc 48 4f 00 00
       1.6433e-41 -3.3534e-41 -0.017866548 2.8441e-41
000320 70 65 00 00 13 81 00 80 c8 4f 00 00 da 9c 06 00
       3.6389e-41 -4.6303e-41 2.862e-41 6.07281e-40
000330 40 72 b0 2c b9 26 07 00 8f 30 00 80 bd d6 31 bb
       5.014905e-12 6.5674e-40 -1.742e-41 -0.002713605
000340 13 03 00 00 a1 52 00 80 d4 c3 f8 ab 61 3c 00 00
       1.103e-42 -2.9642e-41 -1.7675813e-12 2.166e-41
000350 53 53 00 00 28 7c 01 00 af 37 00 80 60 76 04 80
       2.9891e-41 1.36374e-40 -1.9976e-41 -4.09807e-40
000360 6f 3f 18 3d fa 34 1c 00 07 4f 00 00 6b 99 03 00
       0.03716987 2.590398e-39 2.835e-41 3.30542e-40
000370 eb 9b 01 00 57 55 00 80 ab cc 02 00 9d 12 00 80
       1.47768e-40 -3.0614e-41 2.57092e-40 -6.677e-42
000380 b0 1c 01 80 28 97 1f 3d 51 2f 00 80 a4 f9 03 00
       -1.02127e-40 0.038962513 -1.6974e-41 3.6506e-40
000390 79 2c 00 80 3e 46 00 00 a3 5c 00 00 6a 96 08 80
       -1.5954e-41 2.5198e-41 3.3232e-41 -7.88642e-40
0003a0 59 ec 00 80 d2 05 bb 2c db 47 69 3d 42 e8 00 80
       -8.4786e-41 5.315506e-12 0.056953292 -8.3318e-41
0003b0 54 26 00 00 ca ce 02 80 f2 35 00 00 1f 03 00 80
       1.375e-41 -2.57853e-40 1.9352e-41 -1.12e-42
0003c0 e2 ad 5d 30 6e 29 00 80 bd d5 02 94 18 b6 4a 3d
       8.0646434e-10 -1.4862e-41 -6.605475e-27 0.049490064
0003d0 58 1a 00 80 1e 5a 00 80 d2 68 00 00 cc 7d 00 80
       -9.45e-42 -3.2328e-41 3.7602e-41 -4.5127e-41
0003e0 10 7a 00 00 42 63 00 80 33 02 00 00 90 b3 00 00
       4.3788e-41 -3.5607e-41 7.89e-43 6.4415e-41
0003f0 7e 9a 0e 3d 87 2d 04 00 db 5b 02 00 a4 79 00 80
       0.034815304 3.83674e-40 2.16623e-40 -4.3636e-41

feat_k_net.0.bias f4 [100]
000000 28 55 41 3e d9 ce 5e bc d4 7a 4a 3e b0 d9 9f 3e
       0.18880141 -0.013599121 0.19773418 0.3122077
000010 65 e6 08 3e ef 7a f3 b6 5a b4 84 bb 39 9c 69 25
       0.13369139 -7.2562757e-06 -0.00404982 2.0262459e-16
000020 3c aa c0 ab ff f9 cc 3d d9 18 2f bd a6 18 5d 3e
       -1.368967e-12 0.100086205 -0.042748306 0.21591434
000030 d7 74 bb bc b6 e7 e5 3d 4b 2c 2d 3e e0 04 02 3e
       -0.022882862 0.11225836 0.16911428 0.12697172
000040 8d 14 d5 3d 56 3f 85 b8 40 b8 fd bc f6 57 c9 bb
       0.104043104 -6.3537314e-05 -0.030971646 -0.006144519
000050 71 9e 95 3d 06 3a 0a 3e 3a d8 d0 27 74 f5 9b 3e
       0.07305611 0.13498697 5.796603e-15 0.30460703
000060 d3 7b f1 3d 08 6a f8 3d f5 e0 13 3e b2 a9 9f 35
       0.11791196 0.12129599 0.14441283 1.1895811e-06
000070 da 87 e0 3d 08 c5 75 bb 68 73 14 3e c5 ea e9 3d
       0.10963412 -0.0037501473 0.14497149 0.11421732
000080 e0 55 28 32 15 53 9a 3d 5f b1 37 3e f0 e3 c8 3d
       9.798413e-09 0.07535378 0.17938755 0.09809101
000090 5a bc 1a bd 49 16 bb 3d 37 f3 87 ba a9 61 fd 20
       -0.037777282 0.0913511 -0.0010372166 4.2924493e-19
0000a0 00 18 d6 3d 69 d9 09 3e 33 a2 fe 3d 78 46 a9 b1
       0.104537964 0.13461842 0.12433281 -4.9265587e-09
0000b0 b7 8e 08 bc 6a 93 15 b9 1a 92 07 b0 f0 03 93 bc
       -0.008334807 -0.00014264663 -4.9320337e-10 -0.017946213
0000c0 e3 6a ee 3d b7 ad ad 3d 6d 79 e9 3d 53 e5 0e 3e
       0.11641481 0.08480399 0.11400113 0.13954668
0000d0 95 3d 17 3e db c6 83 ba 40 7f 0b bc 05 2f a3 3d
       0.14769585 -0.001005377 -0.0085142255 0.07967953
0000e0 6c 74 40 3e 77 04 bd 3d 86 5b 4a b9 23 2b e0 3d
       0.18794411 0.09229367 -0.00019298316 0.10945728
0000f0 39 23 e3 3d 11 71 0b 3e 0e 90 e0 bc 4f cf e2 3d
       0.110907026 0.1361735 -0.02741244 0.11074697
000100 68 60 64 b8 ee cc f4 28 4a c5 81 3e e8 67 c7 26
       -5.444922e-05 2.7178316e-14 0.25345832 1.3836563e-15
000110 7c 7d fc bb a8 45 95 3d c5 1c db 3d 41 3e fd 3d
       -0.0077053886 0.072886765 0.10698847 0.123653896
000120 5f 1a 1c ba 90 74 6a bc b4 df 14 bb 32 87 b7 3d
       -0.00059548573 -0.014310017 -0.0022716345 0.08961333
000130 9f 49 00 3e 57 79 57 bc b6 22 03 bd aa 72 bc 3d
       0.12528084 -0.013151488 -0.032015525 0.09201558
000140 87 07 62 3e ae d8 d5 3d 8d 18 83 3e 9d a5 92 3d
       0.22073184 0.10441719 0.25604668 0.071604945
000150 72 62 77 bc 50 98 23 b6 8a 9f 55 34 ec f3 b4 bb
       -0.015099155 -2.437755e-06 1.9895211e-07 -0.005522242
000160 46 9c 1d 3e 78 e2 7d a2 57 e2 c2 3d 7b ce 18 b5
       0.15391645 -3.4407785e-18 0.09515827 -5.692488e-07
000170 c3 d6 eb 3d a8 52 c2 3d 51 b9 28 bd 2c 0e e8 bb
       0.11515572 0.09488422 -0.041192356 -0.0070817675
000180 b1 10 85 3e 40 25 0c 3e e4 1a 04 3e df 00 7d ba
       0.25989297 0.13686085 0.12900883 -0.0009651314

feat_k_net.2.weight f4 [1, 100]
000000 3c 96 02 3f 35 4d a8 bd f5 0e d9 3e 78 36 38 3f
       0.5101049 -0.08217851 0.42394224 0.7195811
000010 cc 80 b1 3e 6b c0 95 b7 55 3a 4e bc b1 63 da 25
       0.34668577 -1.7851786e-05 -0.01258715 3.7884525e-16
000020 ac 21 02 ac a3 78 93 3e 28 63 4a be 15 f6 07 3f
       -1.8492803e-12 0.28802976 -0.19764388 0.53109866
000030 02 33 aa bd 4c 57 9c 3e d3 ea cd 3e c2 91 b7 3e
       -0.0831051 0.30535352 0.4021822 0.35853392
000040 a1 5a 7f 3e 55 ee 2a b9 ca f0 f7 bd 54 99 a3 bc
       0.24936916 -0.00016301249 -0.12106474 -0.019970573
000050 8c fa 42 3e ba f3 b5 3e 8b 56 28 28 63 cc 16 3f
       0.19040889 0.3553751 9.344639e-15 0.5890562
000060 c1 90 9d 3e a5 6e 9e 3e 20 26 c0 3e c2 a9 64 36
       0.307745 0.3094379 0.37529087 3.407346e-06
000070 c3 bd 8c 3e c8 0b 97 bc d1 86 a2 3e c9 73 98 3e
       0.27488527 -0.018438235 0.31743482 0.29775837
000080 64 76 0b 33 03 9e 51 3e d2 89 d6 3e 8f 2a 5f 3e
       3.2471135e-08 0.20470433 0.41902024 0.21793579
000090 69 68 3e be 29 50 54 3e 64 9d 40 bb 19 fc b9 21
       -0.18594517 0.20733704 -0.0029390687 1.2602817e-18
0000a0 d5 47 94 3e 45 62 c7 3e a5 3c a6 3e d5 e7 67 b2
       0.28961053 0.3894216 0.32468143 -1.3498682e-08
0000b0 3b aa 36 bd 2f 02 c0 b9 30 b9 d4 b0 45 d3 82 bd
       -0.04459594 -0.0003662272 -1.5477664e-09 -0.06387953
0000c0 d4 6e 99 3e 84 8b 5a 3e e5 47 98 3e 5e ac af 3e
       0.29967368 0.21342283 0.2974235 0.34311193
0000d0 c1 f2 b7 3e 1c 1c 3d bb 42 f9 e4 bc ff 30 61 3e
       0.35927394 -0.0028855866 -0.027950887 0.21991347
0000e0 94 48 e0 3e bf fd 6c 3e d5 89 00 ba d3 17 98 3e
       0.43805373 0.23143671 -0.0004903351 0.29705676
0000f0 dc 02 74 3e fd 16 98 3e a0 11 05 be b6 88 a0 3e
       0.23829216 0.2970504 -0.12995005 0.31354302
000100 57 b4 15 b9 fa 21 32 2a c2 22 01 3f 44 54 6b 27
       -0.00014276929 1.5821364e-13 0.5044366 3.2658482e-15
000110 03 96 03 bd 0e 2e 3e 3e 5c 5d 99 3e e3 1f 9e 3e
       -0.032125484 0.18572256 0.2995404 0.30883703
000120 0b 1c e0 ba 01 a3 ae bd 3a e9 e1 bb 21 1d 88 3e
       -0.0017098201 -0.08527184 -0.006894258 0.26584724
000130 ac 58 a0 3e d8 5c 44 bd a8 96 ff bd 20 ba 54 3e
       0.3131765 -0.047940105 -0.12479907 0.20774126
000140 09 f4 0f 3f 7c bb 8f 3e bc 24 01 3f 34 46 3b 3e
       0.56231743 0.28072727 0.5044668 0.18288499
000150 e8 11 80 bd 65 cb b6 b6 6d 6b 23 35 20 0a 93 bc
       -0.06253415 -5.447701e-06 6.0878557e-07 -0.017949164
000160 dd 4d c1 3e 29 8c 78 a4 ec d6 6c 3e 62 3b d2 b5
       0.37754717 -5.3895148e-17 0.23128861 -1.5663502e-06
000170 0d 72 a1 3e a3 ad 78 3e a5 94 50 be dd 0e 0b bd
       0.31532326 0.24284987 -0.20369203 -0.03394972
000180 d2 4a 2a 3f 18 61 ad 3e db 2c 95 3e 03 b4 88 bb
       0.66520417 0.3386314 0.29135785 -0.0041718497

feat_lam_net.0.weight f4 [100, 1080]
000000 73 26 00 3d 12 7a 00 00 60 25 3c 07 07 27 00 80
       0.031286668 4.379e-41 1.4154532e-34 -1.4e-41
000010 88 2a 00 80 bc 35 00 80 b4 3d 00 80 fa 09 00 80
       -1.5257e-41 -1.9276e-41 -2.2135e-41 -3.579e-42
000020 00 e2 11 38 58 b2 bf 3c b4 70 16 80 42 14 00 80
       3.4781173e-05 0.02340047 -2.060811e-39 -7.267e-42
000030 6d 17 00 80 a2 ac 06 80 de 11 01 00 4e e9 00 00
       -8.404e-42 -6.12942e-40 9.8245e-41 8.3694e-41
000040 85 48 02 80 c1 46 00 00 80 c3 e2 3b 61 97 0b 00
       -2.09686e-40 2.5382e-41 0.006920278 1.064495e-39
000050 8a 42 00 00 8d 1a 00 00 66 51 00 00 89 09 00 80
       2.387e-41 9.525e-42 2.92e-41 -3.42e-42
000060 18 2e 00 80 c9 0a 06 00 00 32 00 80 b4 27 b2 bb
       -1.6535e-41 5.54882e-40 -1.7937e-41 -0.005436862
000070 02 10 00 00 81 a1 2d 80 fc 2f 0f 80 27 06 00 80
       5.743e-42 -4.190534e-39 -1.394746e-39 -2.207e-42
000080 a0 1a 00 00 46 0e 04 00 b4 3d 00 00 b7 3a 00 80
       9.551e-42 3.72462e-40 2.2135e-41 -2.1063e-41
000090 5e 01 6f 3c 7e 08 00 00 3b 18 00 00 39 36 00 00
       0.014587728 3.046e-42 8.692e-42 1.9451e-41
0000a0 3d 74 00 00 f2 30 00 80 c8 4c 00 80 59 7f 00 00
       4.1698e-41 -1.7558e-41 -2.7544e-41 4.5684e-41
0000b0 96 43 00 00 f0 a4 c2 bb 6d 52 00 00 40 2e 00 80
       2.4245e-41 -0.0059400722 2.9569e-41 -1.6591e-41
0000c0 01 6c 00 80 21 39 00 00 7a d3 00 80 c4 6e 00 00
       -3.8745e-41 2.0494e-41 -7.5863e-41 3.9735e-41
0000d0 1e 24 00 00 2d 4a 00 80 c7 13 88 bc 6a 34 01 80
       1.2956e-41 -2.6609e-41 -0.016610993 -1.10638e-40
0000e0 e9 0f 03 00 ba ac 2f b2 30 37 22 b8 d7 62 00 00
       2.81214e-40 -1.0225614e-08 -3.8675207e-05 3.5457e-41
0000f0 82 7d 05 80 0b 63 00 00 ca 18 00 80 28 cc 37 bb
       -5.04201e-40 3.553e-41 -8.893e-42 -0.002804527
000100 ef 00 00 80 ea 93 00 00 00 2d 00 80 bf 93 00 00
       -3.35e-43 5.3062e-41 -1.6143e-41 5.3001e-41
000110 55 5c 00 00 b5 5d 00 80 16 41 00 00 83 15 01 00
       3.3122e-41 -3.3616e-41 2.3348e-41 9.9552e-41
000120 40 15 4f bb 95 6e 07 80 52 3c 00 80 67 e6 00 80
       -0.003159836 -6.82518e-40 -2.1639e-41 -8.2653e-41
000130 f7 06 0b 80 b8 62 8b 23 10 3f 00 80 92 20 00 80
       -1.012689e-39 1.511222e-17 -2.2623e-41 -1.1684e-41
000140 60 eb 00 80 72 46 1f bd 01 35 01 00 ae d2 02 00
       -8.4437e-41 -0.03888554 1.1085e-40 2.59249e-40
000150 83 1e 00 80 2a 81 00 00 04 0d 00 80 b7 55 00 80
       -1.0946e-41 4.6335e-41 -4.669e-42 -3.0749e-41
000160 ee 67 00 00 83 9f 00 00 fc 99 6f bc 94 7a 4a 00
       3.7283e-41 5.7222e-41 -0.014624115 6.8398e-39
000170 e5 cd 00 00 3c 6f 00 80 e0 4d 00 00 b3 20 00 80
       7.3861e-41 -3.9903e-41 2.7936e-41 -1.173e-41
000180 2b 49 00 00 bb 87 07 00 13 96 03 00 3e 08 a5 3c
       2.6248e-41 6.9154e-40 3.29343e-40 0.020145532
000190 d8 11 00 00 b7 4c 00 00 cd 06 00 00 f1 eb 03 00
       6.401e-42 2.752e-41 2.44e-42 3.60146e-40
0001a0 a5 81 00 80 d3 86 0d 00 14 61 0e 00 37 13 00 00
       -4.6508e-41 1.242227e-39 1.320522e-39 6.893e-42
0001b0 e4 27 0c bb 08 2a 00 00 76 4d 00 00 8e 4b 00 00
       -0.0021386081 1.5078e-41 2.7788e-41 2.7104e-41
0001c0 f7 2d 00 80 a2 00 00 80 1a 79 00 00 3c bb 00 80
       -1.6489e-41 -2.27e-43 4.3443e-41 -6.7167e-41
0001d0 03 4e 00 00 05 43 47 bd 45 0b 00 00 50 2a 00 80
       2.7985e-41 -0.0486479 4.043e-42 -1.5179e-41
0001e0 b3 1e 00 00 38 43 00 00 b0 3a 00 80 80 1e 00 00
       1.1013e-41 2.4114e-41 -2.1053e-41 1.0941e-41
0001f0 9b 63 00 80 4e f3 9e 00 65 d9 f6 3b 74 63 00 00
       -3.5732e-41 1.459729e-38 0.0075332397 3.5677e-41
000200 0e 08 00 00 90 94 01 00 f8 0f 00 00 c6 d9 00 00
       2.89e-42 1.4513e-40 5.729e-42 7.8122e-41
000210 07 d9 01 80 94 2a 00 00 75 17 02 00 68 1a 8e 3b
       -1.6969e-40 1.5274e-41 1.92086e-40 0.004336644
000220 9e 60 00 00 5c b1 da 05 c5 5c 00 80 33 55 00 80
       3.466e-41 2.0565773e-35 -3.328e-41 -3.0564e-41
000230 31 67 00 80 99 35 00 00 4d 2b 00 00 e9 d7 06 00
       -3.7018e-41 1.9227e-41 1.5533e-41 6.28467e-40
000240 79 16 07 3d a4 69 00 00 16 5a 00 00 de e9 05 80
       0.032980416 3.7897e-41 3.2317e-41 -5.43073e-40
000250 5d 65 00 00 f1 32 00 00 2a 82 02 80 d7 0a 00 80
       3.6362e-41 1.8274e-41 -2.30365e-40 -3.889e-42
000260 66 26 00 80 8b fe 84 3d 7f 70 00 80 cc 6c 00 00
       -1.3775e-41 0.06493863 -4.0356e-41 3.9029e-41
000270 9a 6a 00 80 bf 1d 00 00 18 5c 00 00 8f 15 00 00
       -3.8241e-41 1.0671e-41 3.3037e-41 7.734e-42
000280 0e c5 00 80 b7 61 00 80 dc a7 f0 3c 2a 73 00 00
       -7.069e-41 -3.5053e-41 0.029376917 4.1313e-41
000290 31 1a 00 80 e7 5a 00 00 a4 e9 1a b8 11 35 00 80
       -9.396e-42 3.261e-41 -3.6934056e-05 -1.9037e-41
0002a0 a4 e7 01 00 f4 5b 02 80 53 b5 01 80 bc cf 75 3d
       1.74932e-40 -2.16658e-40 -1.56882e-40 0.060012564
0002b0 56 4b 0a 80 80 c6 01 00 28 3b 00 80 84 bb 00 80
       -9.4538e-40 1.63044e-40 -2.1221e-41 -6.7268e-41
0002c0 12 90 00 00 3b 3b 02 80 02 df 00 00 49 35 00 00
       5.1683e-41 -2.04919e-40 8e-41 1.9115e-41
0002d0 11 a6 60 3d 64 67 00 00 61 14 00 00 73 7f 58 12
       0.054845873 3.709e-41 7.31e-42 6.8314676e-28
0002e0 70 6c 07 00 c2 27 00 00 46 86 00 80 71 02 00 00
       6.81749e-40 1.4262e-41 -4.8168e-41 8.76e-43
0002f0 a8 7f 00 00 11 f6 a5 3c 6b 43 00 80 54 09 00 00
       4.5794e-41 0.020258935 -2.4185e-41 3.346e-42
000300 56 28 00 00 62 35 00 00 50 58 00 00 e6 28 02 80
       1.447e-41 1.915e-41 3.168e-41 -1.98343e-40
000310 8b 3d 00 00 54 ed 33 23 aa b4 b5 3c 90 f2 00 80
       2.2077e-41 9.753866e-18 0.022180874 -8.7015e-41
000320 d2 d8 00 00 ea 12 00 80 a5 bb 01 00 ab 05 00 00
       7.778e-41 -6.785e-42 1.5915e-40 2.033e-42
000330 b4 fb a6 b9 4d 26 00 80 ee 3e 00 00 79 e2 e5 3c
       -0.0003184952 -1.374e-41 2.2575e-41 0.028062092
000340 28 32 00 00 ea fb 01 80 be 72 00 00 61 2e 00 00
       1.7993e-41 -1.82205e-40 4.1162e-41 1.6638e-41
000350 5f e4 4b 09 e5 67 00 80 e0 7d 00 00 8f 33 00 00
       2.4542616e-33 -3.727e-41 4.5155e-41 1.8496e-41
000360 d0 65 4f 3c 6d 1c 00 80 a3 1b 00 00 c8 3d 00 00
       0.012658551 -1.0197e-41 9.914e-42 2.2163e-41
000370 a1 4d 00 00 e7 0d 00 00 15 6d 00 00 2e 5f 00 80
       2.7848e-41 4.987e-42 3.9131e-41 -3.4144e-41
000380 b2 ef 08 80 7a 4a 69 3d 30 2d 00 00 08 97 00 00
       -8.2067e-40 0.056955792 1.621e-41 5.418e-41
000390 4c 22 00 00 8d 1c 00 80 a2 23 00 00 b2 54 00 00
       1.2303e-41 -1.0242e-41 1.2783e-41 3.0383e-41
0003a0 c3 06 00 80 a8 07 00 80 5e b9 01 3c 63 4f 00 80
       -2.426e-42 -2.747e-42 0.00791773 -2.8479e-41
0003b0 7f 36 00 80 3a 84 19 00 96 25 04 80 e1 cc 00 80
       -1.955e-41 2.343321e-39 -3.80825e-40 -7.3497e-41
0003c0 9e b1 01 00 e3 d5 00 80 92 49 00 00 19 b7 0b 3c
       1.55553e-40 -7.6728e-41 2.6392e-41 0.008527541
0003d0 6f 2c 02 00 7d 19 00 00 66 15 00 80 4d 10 00 80
       1.99611e-40 9.143e-42 -7.676e-42 -5.848e-42
0003e0 63 35 ce 86 20 0a 00 80 0f 2f 0c 80 90 56 00 00
       -7.756703e-35 -3.632e-42 -1.118907e-39 3.1053e-41
0003f0 70 51 25 3b b3 3b 00 00 33 08 00 80 d4 38 00 80
       0.0025225542 2.1416e-41 -2.941e-42 -2.0386e-41

feat_lam_net.0.bias f4 [100]
000000 48 c9 02 bd 2a f8 1e bd de 86 0b bd 9e 17 67 bd
       -0.031930238 -0.038810886 -0.034064166 -0.056419007
000010 8b dc b9 bd 86 ad 61 bd b0 2c 20 3b 55 cb ea 3a
       -0.09075268 -0.055097125 0.0024440698 0.0017913381
000020 ef ed 41 bd 08 9c 93 3b c5 6a b4 bd 34 2d 86 bd
       -0.04734605 0.0045046844 -0.08809427 -0.065515906
000030 4f 49 1e bc 64 ab a7 bd ae ad 10 bd 71 74 b9 bd
       -0.009661033 -0.08186987 -0.035321884 -0.090554126
000040 dc 3f 6e bb 7e 6c 04 bc 68 a4 54 bc 34 70 0e bd
       -0.003635398 -0.008082507 -0.012978651 -0.034774974
000050 c3 ba b9 b8 90 e3 a1 b9 36 18 e8 3b 9a f1 39 b9
       -8.8562745e-05 -0.0003087786 0.0070829643 -0.00017732978
000060 25 d6 a1 bd 3a 0c 8f bb 4b 48 3d 3c 32 d8 21 b8
       -0.07902173 -0.004365471 0.0115528805 -3.858674e-05
000070 05 a9 bf bd 8f 3f ab bd 5f 67 9d b8 1c 41 11 ba
       -0.0935841 -0.08361732 -7.505598e-05 -0.0005541013
000080 76 af 86 bd 3f c0 05 bd 49 0e 60 bd 21 79 63 bd
       -0.06576435 -0.032654043 -0.054701123 -0.05553544
000090 56 05 f6 3b 30 84 03 bd a4 00 cf bc df ce a6 bd
       0.0075079603 -0.032108486 -0.02526886 -0.08144926
0000a0 fa 72 8f bc d0 f1 bc bd ca 42 bb bc 46 7f 39 bd
       -0.01751088 -0.092258096 -0.022858996 -0.045287393
0000b0 fe de 09 bc 38 ed 31 ba a1 f8 c4 bc 44 cc b0 bd
       -0.008414982 -0.00067873625 -0.024044337 -0.086327106
0000c0 39 a3 ba bd 3b a5 9b bb 3a ac 30 bb 71 76 48 bc
       -0.091131635 -0.0047499216 -0.0026958124 -0.01223527
0000d0 6b 23 14 bd 52 7b c9 bc f3 e3 87 bd 52 65 e2 ba
       -0.03616659 -0.024594937 -0.06635275 -0.0017272627
0000e0 f9 47 cb b9 2e 63 9f 3b 3c 91 3d bd e3 99 93 bd
       -0.000387728 0.004864118 -0.046281084 -0.07207086
0000f0 67 18 ad bd 28 62 7c bc 31 c0 74 bd 13 24 81 bd
       -0.0845192 -0.015404262 -0.0597536 -0.06305709
000100 37 89 5f bd 09 9b 9a bb fe d6 23 bd 98 6e f9 bc
       -0.054574218 -0.0047181887 -0.039999954 -0.030448243
000110 a0 54 92 bd 4f 0f 64 bd 9c 2a 06 b9 b4 5b 5b bd
       -0.07145047 -0.055678662 -0.00012795109 -0.05355425
000120 1b 1f 8c bd a5 57 6f bb 9a ea e6 bb c0 c9 95 bc
       -0.068418704 -0.0036520746 -0.0070470097 -0.018284678
000130 cb cf be bc fe 67 3f bd 1b a4 2d b9 b4 5e a6 3b
       -0.023292443 -0.046730034 -0.000165597 0.0050772075
000140 ab 12 81 bc ec 98 ae bc 9b 2f 72 bb 11 06 99 bc
       -0.015755972 -0.021313153 -0.0036954645 -0.01867965
000150 fe 70 9f 39 8a 31 65 3b cc 77 26 b8 d3 ce 4f bc
       0.0003041103 0.0034972155 -3.9689054e-05 -0.012683588
000160 c4 5c 9d bd 4e d8 a9 bc 57 67 22 bb e7 8e 0e bd
       -0.07683709 -0.020733025 -0.0024780834 -0.03480425
000170 d5 a7 7b 3c 1d 91 4a bd 4a 6d fb bb ab 47 28 bc
       0.0153598385 -0.049454797 -0.0076729404 -0.010270993
000180 27 54 cf b9 24 be ef bd 58 da 29 bd ac 59 40 bd
       -0.00039544815 -0.11706188 -0.041467994 -0.046960518

feat_lam_net.2.weight f4 [1, 100]
000000 78 25 d1 bd 53 a8 1d 3d 4f 36 1e 3e 0a e7 08 3e
       -0.10212225 0.038490605 0.15450405 0.13369384
000010 d3 c0 08 3e e1 03 00 3e c9 5f ba bb 6a 76 7b 3a
       0.13354807 0.1250148 -0.005687688 0.0009592535
000020 95 85 61 3e d1 99 57 be 36 74 2b 3e ce 90 5d 3e
       0.22023614 -0.2105477 0.1674355 0.2163727
000030 0a 99 45 be 66 e4 27 3e b3 e4 07 3c c6 dc 12 3e
       -0.19296661 0.16395721 0.008294272 0.14342031
000040 2d 8c 8f be ea 3c 1d 3a a4 3a bc bd 86 07 16 3c
       -0.28036633 0.00059981516 -0.09190872 0.009157067
000050 2c 3f cf b6 1c 63 4c b8 2b b8 67 be 79 3e 46 37
       -6.176435e-06 -4.8729693e-05 -0.22628848 1.1816265e-05
000060 1d 4a 59 3e 3b 76 33 3e 80 63 a2 bd 56 c3 93 b7
       0.21219678 0.1752557 -0.07929134 -1.7614726e-05
000070 49 9f 00 3e 4b b5 4e 3e ea e4 e2 b6 f0 09 aa 37
       0.12560762 0.20186345 -6.761974e-06 2.0270207e-05
000080 91 ba 68 3e 4e e0 bd bd ec 99 8d 3e 33 96 25 3e
       0.2272742 -0.09271298 0.27656496 0.16170578
000090 26 0a aa ba b5 8e 9d ba 13 82 80 bd f1 60 53 3e
       -0.0012972995 -0.001202068 -0.0627481 0.20642449
0000a0 66 99 4c bb 79 a6 06 3e aa aa da 39 31 b8 24 3e
       -0.0031219362 0.13149442 0.00041707355 0.16085888
0000b0 1f 13 3d 3e 94 37 2e be 35 38 0d be 6f 15 96 3e
       0.18464325 -0.17013389 -0.13790973 0.29313228
0000c0 e9 e8 7b 3e cf 4e 92 b8 66 36 10 bd 76 9d 7c 39
       0.24600567 -6.976502e-05 -0.03520813 0.00024091252
0000d0 2c a5 99 be 23 08 71 bd e3 e9 a2 3d 89 a1 ec bd
       -0.3000883 -0.05884565 0.079547666 -0.11554248
0000e0 ce db 12 38 88 8b 37 be 4b a1 93 3c b7 ab aa 3e
       3.501382e-05 -0.1792432 0.018021246 0.33334133
0000f0 5f 73 d4 3d 88 4e 8c 3e dc 37 1d 3e e6 1e 4e 3e
       0.10373568 0.27403665 0.1535334 0.20128974
000100 28 a4 1f 3d a2 36 86 ba 80 7b c7 3d c7 09 85 3b
       0.03897491 -0.001023967 0.09740353 0.0040600034
000110 cc d8 1d 3e dd e5 c1 3d a4 6f 0d 37 41 f0 47 3e
       0.15414733 0.09467671 8.430248e-06 0.19525243
000120 be 11 f1 3d 6e 53 49 3a d9 2c ae bd 24 ee 30 b9
       0.11770962 0.00076799735 -0.08504648 -0.00016873382
000130 d8 b0 81 b8 f0 98 3a be 1f 4e e2 36 24 8d 2d be
       -6.184139e-05 -0.18222404 6.7444194e-06 -0.16948372
000140 08 f3 de bd 7f 0e 8c ba 15 05 22 be 49 0d 92 bd
       -0.10886198 -0.0010685473 -0.15822251 -0.0713144
000150 88 dd c8 bc ed c0 4d bc 30 7b 0c 36 9f ab 0b 3b
       -0.024519697 -0.012558204 2.093333e-06 0.002131201
000160 b7 69 f9 3d 19 ba 27 bc 9b 84 3b 39 ec d7 51 3e
       0.12178367 -0.01023724 0.00017883109 0.20492524
000170 4c 85 82 bc 28 a1 56 3e ec 06 35 be e2 39 e1 bc
       -0.015932702 0.20959914 -0.17678422 -0.027493421
000180 9e b9 2d 39 c0 23 60 3e 98 e1 66 3e c9 21 3a 3e
       0.00016567713 0.21888638 0.22546995 0.1817695
