experiments/konrad/saved_models/online/weibull/model_step_6.pt (torch, 890518 bytes, 15 tensors)

A_gate f4 [9]
0	0xbe37df40	-0.17956257
1	0xbe09310d	-0.13397618
2	0xbf1449ac	-0.57924914
3	0x3c0fbbca	0.0087728
4	0xbdb7c79c	-0.08973619
5	0xbe839177	-0.25696918
6	0xbf1b41e6	-0.6064743
7	0xbe1c87a1	-0.15286113
8	0xbe718341	-0.23585226

B_gate f4 [120]
0	0x3f4ebf7a	0.8076092
1	0xbb79e9b8	-0.0038133692
2	0x00003578	1.9181e-41
3	0xbef4fa72	-0.47847325
4	0x00001ff3	1.1461e-41
5	0x3ed56253	0.41676578
6	0xbd443927	-0.047906067
7	0xbdb2b961	-0.087267645
8	0xbe909095	-0.28235307
9	0x3da9fa18	0.08299655
10	0xae8b69bf	-6.3397725e-11
11	0x3da4cd00	0.08046913
12	0xbc2cf548	-0.0105565265
13	0x34dcbea0	4.111689e-07
14	0x3b9852aa	0.004648526
15	0xbd24b08c	-0.04020743
16	0xbb40b268	-0.0029403213
17	0x3cd31a2e	0.02576932
18	0xbf0d2795	-0.5513852
19	0x800027d1	-1.4283e-41
20	0x35dc5b21	1.6417799e-06
21	0xbee99715	-0.4562308
22	0x395d29a2	0.00021091712
23	0x23efdb56	2.6005324e-17
24	0x3e02ba52	0.12766388
25	0x39dc940b	0.0004207197
26	0x3ef1abc7	0.47201368
27	0xbda51522	-0.080606714
28	0xbde7abaa	-0.11312039
29	0x3d249164	0.040177718
30	0xbdaddd56	-0.08489482
31	0x8e7f9bb8	-3.1506153e-30
32	0x0000a6cb	5.9834e-41
33	0xbcfdbe86	-0.030974638
34	0x3d8f2b71	0.06990708
35	0xbd3d54ca	-0.04622344
36	0xbe79dba1	-0.24400188
37	0x8000584e	-3.1678e-41
38	0xb64e1781	-3.0710073e-06
39	0xbefbe101	-0.49195102
40	0xbdd8863c	-0.10572478
41	0x80009736	-5.4244e-41
42	0xbd82c292	-0.063847676
43	0xb9814c3d	-0.000246616
44	0xbce7466f	-0.028231828
45	0xbed715c2	-0.42008787
46	0x2e822bba	5.919483e-11
47	0xbd20b86c	-0.03923838
48	0xbca670b6	-0.020317417
49	0xbc4bc12d	-0.012436193
50	0x3e49c954	0.19705707
51	0xbe7284ee	-0.23683521
52	0x3fa4ebcb	1.2884458
53	0xb910d28f	-0.0001381135
54	0xbe2f7b57	-0.17136894
55	0x8000319d	-1.7798e-41
56	0x3ec300a6	0.38086432
57	0x3ca3106c	0.019905291
58	0x8000a56a	-5.934e-41
59	0xbc0c108b	-0.008548866
60	0xbd547c77	-0.05187651
61	0xbe7b5bc3	-0.24546723
62	0x3f642232	0.8911468
63	0xbdef1485	-0.11673836
64	0xb6f697ed	-7.349058e-06
65	0x31afae26	5.1129687e-09
66	0x3e9da32f	0.30788562
67	0x8000109a	-5.956e-42
68	0x3cb5ac1c	0.022176795
69	0xbdad47df	-0.08460974
70	0x3cb81a88	0.022473589
71	0x3da81932	0.082079306
72	0xbda7e9f5	-0.08198921
73	0x214bd784	6.906431e-19
74	0xb93640ea	-0.00017381055
75	0xbcfe34b4	-0.03103099
76	0x3c71f891	0.0147687355
77	0x3dbb44d8	0.0914399
78	0x3ca6308c	0.02028682
79	0x36388a11	2.7498502e-06
80	0xb5e80974	-1.7288098e-06
81	0x3e94e013	0.29077205
82	0x3461b0f4	2.1019133e-07
83	0xbe59c591	-0.21266772
84	0xbe4db0ee	-0.20087025
85	0xb941df43	-0.00018489086
86	0xb976e8d5	-0.00023547125
87	0xbe83af5d	-0.2571973
88	0xb885377a	-6.3522675e-05
89	0x3cb1e2cf	0.021714596
90	0xbeab8513	-0.33499965
91	0x3f00150f	0.5003213
92	0xbea8dbd7	-0.32980224
93	0xbd85ce22	-0.06533457
94	0x3d3ba653	0.045812916
95	0x34058760	1.243584e-07
96	0xbda110bd	-0.07864521
97	0xa4988379	-6.6142215e-17
98	0x3e2d2611	0.16909052
99	0x3e94ca0b	0.29060397
100	0xaca2e846	-4.6301045e-12
101	0x3c5e471d	0.013566759
102	0xbe280ad0	-0.16410375
103	0x3e10e32d	0.1414916
104	0xbdc48680	-0.09595966
105	0xbc8ef279	-0.017449604
106	0xb381eea4	-6.050439e-08
107	0xbf12b799	-0.573114
108	0xbda4bdc5	-0.08044008
109	0x3e10c492	0.14137486
110	0xbd0d0e41	-0.03443742
111	0xbe3e1fce	-0.1856682
112	0xbea7fdc4	-0.32810795
113	0xbbc709a7	-0.0060741487
114	0xbda1aff2	-0.07894887
115	0xb43b0e40	-1.7420916e-07
116	0x3f12115e	0.5705775
117	0xbd690286	-0.056887172
118	0x3e5ce461	0.21571495
119	0xaed50d62	-9.688496e-11

ar_gate_lin.weight f4 [1, 64]
0	0xbc828257	-0.015931292
1	0x3c1c0bd6	0.009524306
2	0xbd3b34e0	-0.045704722
3	0xbd972bae	-0.07381378
4	0x3dd52f41	0.104094036
5	0x3a32784c	0.0006808087
6	0xbe151734	-0.14559633
7	0xbd8e942a	-0.06961854
8	0xbd285c0e	-0.041103415
9	0x3d206384	0.039157405
10	0xbc5ef333	-0.013607788
11	0xbcf46ef1	-0.029838057
12	0x3cd9f102	0.02660418
13	0xbdbe9d3c	-0.09307334
14	0x3ce49d5b	0.027907064
15	0x3c527026	0.012844121
16	0x3d7db5aa	0.061940826
17	0xbcdffe58	-0.02734296
18	0x3df6e03f	0.1205449
19	0xbe2c762d	-0.16841955
20	0xbd14065f	-0.03613889
21	0x3ca42531	0.020037265
22	0xbd429aea	-0.04751102
23	0x3d13ace7	0.036053564
24	0xbda892f6	-0.082311556
25	0x3cedd501	0.029032232
26	0xbe9187e9	-0.28424004
27	0xbb344aae	-0.0027510333
28	0xbd88f4e3	-0.066873334
29	0xbce0f20c	-0.027459167
30	0xbdd11004	-0.10208133
31	0xbbb527ed	-0.005528441
32	0x3e1da7ef	0.15396093
33	0x3d6b53fc	0.05745314
34	0xbde5c4ff	-0.11219215
35	0x3ce397dc	0.027782373
36	0xbd80b320	-0.062841654
37	0x3cdb1325	0.026742527
38	0x3da4e2b5	0.080510534
39	0xbdfe1254	-0.124058396
40	0xbcfb19a8	-0.030651882
41	0x3b237364	0.0024940604
42	0xbd96627e	-0.07343005
43	0x3cb51357	0.022103949
44	0x3da260dc	0.07928631
45	0x3def6352	0.11688866
46	0x3c23ff26	0.010009563
47	0x3dff66e7	0.12470799
48	0xbce3aa74	-0.02779124
49	0x3c43e428	0.011956252
50	0x3c5a953c	0.013341244
51	0xbb84d8c5	-0.0040541613
52	0x3d5198f9	0.051171277
53	0xbe255607	-0.16146098
54	0xbdc6c43d	-0.09705398
55	0xbcaa1707	-0.020762933
56	0x3b963c52	0.0045848275
57	0x3ca27bce	0.019834425
58	0xbca2effe	-0.019889828
59	0xbd15ddcb	-0.03658847
60	0xbd733847	-0.059379842
61	0x3ca94268	0.020661548
62	0xbc525173	-0.012836802
63	0x3dc12186	0.09430222

ar_k_net.0.weight f4 [32, 64]
0	0x3b361e2b	0.0027788978
1	0x3b77832d	0.0037767396
2	0xb9cdcea8	-0.00039254618
3	0x3bd55823	0.006510751
4	0x3a2495e5	0.00062784395
5	0xba3e25d7	-0.00072535634
6	0x3a04100f	0.00050377933
7	0x3c1fdb33	0.009756851
8	0x3a802db2	0.0009779243
9	0x3b8c256c	0.004276922
10	0xb8c2eb16	-9.294429e-05
11	0x3ca392b7	0.01996742
12	0x3c331375	0.010929932
13	0x3ca32461	0.019914808
14	0x3bba0d0c	0.005677825
15	0xbb03e16e	-0.002012338
16	0x396372d3	0.00021691182
17	0x3c680f12	0.014163749
18	0x3bee7040	0.007276565
19	0x3c5a72be	0.013333021
20	0xbb51254f	-0.0031913107
21	0xbc1564ef	-0.009118303
22	0xbbcaa059	-0.0061836657
23	0xbc57ef5d	-0.013179627
24	0x3b79929e	0.0038081775
25	0xbc2ad48b	-0.010426651
26	0x3c091acf	0.008368208
27	0xbbae2a73	-0.005315119
28	0xbb4c61f8	-0.0031186324
29	0xbbe83837	-0.0070867795
30	0xbc47da9e	-0.0121981185
31	0xbc806bed	-0.015676463
32	0x3bb1e2fa	0.005428669
33	0x3c851a4c	0.01624789
34	0x39886c1f	0.00026020498
35	0x3ae90094	0.0017776662
36	0xbc794f1d	-0.015216616
37	0x3d04286e	0.03226512
38	0x3c7172fd	0.014736888
39	0xbb9bf5aa	-0.00475951
40	0x3ba0cf66	0.0049075363
41	0xbb0f740b	-0.0021889235
42	0xbb76d93c	-0.0037666103
43	0x3b37d4b2	0.002805036
44	0xbc85f676	-0.016352873
45	0xbbfedb7d	-0.00777763
46	0xbc3ce4a3	-0.011529121
47	0xbc3f86d0	-0.011689857
48	0xbc27f18a	-0.0102504585
49	0xbc444c4d	-0.011981082
50	0x3a4ec28d	0.00078872667
51	0xbb407c0c	-0.0029370813
52	0xbb2517f1	-0.0025191272
53	0x3b8234eb	0.0039735935
54	0x3be7b9bf	0.007071703
55	0x3c3ba85e	0.011453716
56	0xb9dcd94a	-0.00042123563
57	0xbb82ceec	-0.003991952
58	0xbba55fb3	-0.0050468086
59	0xbbc05fe9	-0.0058708084
60	0x3b83bbcb	0.0040201894
61	0xbc0e8f02	-0.008701088
62	0xbc4448de	-0.0119802635
63	0x3c025f91	0.007957355
64	0xba139a34	-0.0005630583
65	0x3b9b8e7e	0.004747211
66	0xba934062	-0.0011234398
67	0x3b996f02	0.0046824226
68	0xba19e45d	-0.00058705156
69	0x3a3b0570	0.0007134294
70	0x3b0fbe9c	0.002193368
71	0x3c157da0	0.00912419
72	0x3ad55983	0.0016277287
73	0x3baa32ef	0.00519406
74	0x3b08df82	0.0020885174
75	0x3cc4f2b8	0.024041519
76	0x3ca6e4d1	0.02037278
77	0x3ce495ef	0.027903525
78	0x3c163532	0.009167956
79	0xbb9b7df4	-0.0047452394
80	0xbbd2f6d4	-0.0064381156
81	0x3b9cfa67	0.0047905925
82	0x3986b054	0.00025689846
83	0x3c3c0431	0.011475609
84	0x3b851be5	0.004062163
85	0xbc4e4b4c	-0.012591194
86	0xb9fcf0ca	-0.00048244587
87	0xbc69a5cd	-0.014260721
88	0x3c402362	0.011727186
89	0xbc9c72a5	-0.019097636
90	0x3be644d4	0.007027248
91	0xbad69e2d	-0.0016374044
92	0x3b30760d	0.0026925832
93	0xba74c436	-0.0009337099
94	0xbc618c5e	-0.013766376
95	0xbb80b962	-0.0039283494
96	0x3b6493eb	0.0034878205
97	0x3c51d4ee	0.012807114
98	0x3b5ed773	0.003400293
99	0x3c5c20f1	0.013435588
100	0xbc842fc8	-0.016136065
101	0x3ccbc5cb	0.024874588
102	0x3c6a405a	0.014297569
103	0xbbc739cd	-0.0060798884
104	0x3b46a3da	0.0030310065
105	0xbbaa8271	-0.005203538
106	0xbc02e25a	-0.007988537
107	0x3c284a8f	0.010271682
108	0x3b3c66d1	0.0028747807
109	0x3bf6a71e	0.007527246
110	0xbae14a2d	-0.0017188244
111	0xbc243933	-0.010023403
112	0xba8cf88b	-0.0010755224
113	0xbc028120	-0.007965356
114	0x378ca992	1.6768263e-05
115	0xbbeb4ae5	-0.007180559
116	0xbb2c34a4	-0.0026276493
117	0x3c618e77	0.013766876
118	0x3bc46543	0.0059935167
119	0x3c12a93b	0.0089514805
120	0xbb049ad2	-0.0020233882
121	0xbbb81a7f	-0.005618393
122	0xbc265038	-0.010150962
123	0xbc77d2de	-0.015125958
124	0x3ae5b929	0.0017526496
125	0xbbfbd1f7	-0.007684942
126	0xbb32945a	-0.002724907
127	0x3b2e7c04	0.0026624212
128	0x38eae860	0.00011201273
129	0x3995a6c7	0.00028543753
130	0x391283dc	0.00013972766
131	0x3883aa3d	6.278276e-05
132	0x399e2e1e	0.00030170468
133	0x397679d9	0.0002350578
134	0x380de410	3.382942e-05
135	0xb86abd2a	-5.596612e-05
136	0x38d08603	9.9431745e-05
137	0x38824464	6.211622e-05
138	0xb745bf0e	-1.1786598e-05
139	0xba37908c	-0.0007002435
140	0xba06134d	-0.00051145704
141	0xba3b97bd	-0.00071560947
142	0xb92ce1db	-0.00016487336
143	0x39782bb3	0.00023667402
144	0x39aa7e3e	0.00032518985
145	0xb9aa003f	-0.0003242511
146	0xb9b35cf1	-0.00034210787
147	0xb99055f8	-0.00027529872
148	0x3901319b	0.00012320878
149	0x3a227006	0.00061965024
150	0x39375283	0.00017482978
151	0x3a3a8d73	0.00071164145
152	0xb91a5852	-0.00014719486
153	0x3a846fec	0.0010104156
154	0xb93d343b	-0.00018043902
155	0x393be813	0.00017920164
156	0x38d96fc9	0.00010368188
157	0x3976020e	0.00023461154
158	0x39effb56	0.00045772892
159	0x38cd0c3b	9.77744e-05
160	0x38ed79e4	0.000113237445
161	0xb8fa93a4	-0.00011948429
162	0x392929ad	0.00016132621
163	0xb9012456	-0.00012315935
164	0x3a02a198	0.0004983186
165	0xb8f2adb9	-0.000115718176
166	0xb9a3a545	-0.00031212918
167	0x392a3814	0.00016233354
168	0xb8976341	-7.2187286e-05
169	0x39b41fc5	0.00034355946
170	0x39eeb7f3	0.0004553195
171	0xb9ab3992	-0.00032658555
172	0xb96ad714	-0.00022396102
173	0xba057bff	-0.0005092024
174	0x3a042701	0.00050412124
175	0x3a9e9560	0.001209896
176	0x39209318	0.00015313586
177	0x3a1c0335	0.00059514056
178	0x39e63b29	0.00043913096
179	0x3a2ae514	0.00065191207
180	0x3a65d7d5	0.0008767818
181	0xb8b7e198	-8.76814e-05
182	0x38a04e5d	7.643991e-05
183	0xb92fba1b	-0.0001675863
184	0x39649603	0.00021799658
185	0x37711f4c	1.4372006e-05
186	0x39097477	0.00013108725
187	0x396df0a6	0.0002269173
188	0x38100f03	3.4346256e-05
189	0x39c6ac4a	0.00037893868
190	0x395944da	0.00020720382
191	0x38bbba40	8.9515466e-05
192	0x3b2bbaaa	0.002620379
193	0xbb7e832f	-0.0038835516
194	0x3bf1dc3e	0.0073809912
195	0xbc184b4f	-0.009295299
196	0x3c5d870e	0.013520969
197	0x3c4278be	0.0118696075
198	0x3b0e283c	0.0021691462
199	0xbc917ca1	-0.017759623
200	0x390b88a9	0.00013306983
201	0xbba36c2b	-0.00498726
202	0x3b034d8b	0.0020035233
203	0xbd783db9	-0.06060574
204	0xbd05ccf3	-0.032666158
205	0xbd93a67b	-0.07209488
206	0xbc866284	-0.016404398
207	0x3cb7a032	0.022415254
208	0x3cd70921	0.02624947
209	0xbc96ad2f	-0.018393127
210	0xbc1c6c74	-0.009547342
211	0xbcef23a8	-0.029191807
212	0x3b9242cd	0.0044635297
213	0x3d452a74	0.04813619
214	0x3a2fb885	0.0006703216
215	0x3d84e9a7	0.06489878
216	0xbc774be9	-0.015093782
217	0x3da16b0a	0.07881744
218	0xbc96b931	-0.018398853
219	0x3c3fa53e	0.011697112
220	0xbbaea272	-0.0053294236
221	0x3b47e23a	0.0030499832
222	0x3cf816ca	0.030284304
223	0x3c86c877	0.016453011
224	0x3be06ae5	0.0068486803
225	0xbc7de2af	-0.01549594
226	0x3b70e694	0.003675853
227	0xbccf2513	-0.025286233
228	0x3d671a8d	0.056421805
229	0xbc83e70e	-0.016101386
230	0xbc693a57	-0.014235101
231	0x3ca2a470	0.0198538
232	0xbc3da79c	-0.011575606
233	0x3cddd061	0.027076902
234	0x3ceb8633	0.028750515
235	0x3d020c85	0.03175022
236	0xbd0a84b6	-0.03381797
237	0x3c22dd2d	0.009940428
238	0x3d12f9df	0.035882827
239	0x3d9dbbfa	0.07701869
240	0x3c599944	0.01328117
241	0x3cc9b51a	0.024622489
242	0x3d1b97db	0.037986618
243	0x3cdcdd03	0.026960855
244	0x3d4543b9	0.04816029
245	0xbcb00b92	-0.021489892
246	0xbbcc5e78	-0.0062368475
247	0xbc9bf928	-0.019039705
248	0x3c773c2b	0.015090029
249	0x3cb84e5e	0.022498306
250	0x3cf32e24	0.029685088
251	0x3cfbe967	0.030750943
252	0x3c57abe1	0.013163538
253	0x3d08c173	0.033387613
254	0x3cc65d13	0.024214303
255	0x3d29552e	0.041341

ar_k_net.0.bias f4 [32]
0	0x3c15bfa3	0.009139928
1	0x3c5208ca	0.012819478
2	0xb89113d2	-6.9178306e-05
3	0xbc42887e	-0.011873363
4	0xa1ea9790	-1.5896575e-18
5	0xbb7fc90b	-0.0039029743
6	0xbbb4c3f4	-0.0055165235
7	0xb890da24	-6.907087e-05
8	0xbc17cd61	-0.009265275
9	0x3cb1c95c	0.021702461
10	0x3c7d18ba	0.01544779
11	0xbbf8cc76	-0.007592733
12	0x3c820c5b	0.015875032
13	0xbbcebc63	-0.0063090785
14	0xbb57f805	-0.0032954228
15	0xbbf88fc2	-0.0075854966
16	0x3afa6417	0.0019103315
17	0x3cb38812	0.02191547
18	0x3cfc84d4	0.030825056
19	0xbbd03db2	-0.006355011
20	0xbc2cccb5	-0.010546853
21	0xbc2f91f8	-0.010715954
22	0xbc0d231c	-0.008614328
23	0x3c3a243b	0.011361177
24	0xbc33b99d	-0.010969547
25	0x3c5c534e	0.013447596
26	0x3c28dfa0	0.010307223
27	0x3c351ecc	0.011054706
28	0xbc0d75f8	-0.008634083
29	0x3ce22916	0.027607482
30	0xbc4637b4	-0.012098242
31	0xbc105e80	-0.008811593

ar_k_net.2.weight f4 [1, 32]
0	0xbd8c89a7	-0.068621926
1	0xbd8c7687	-0.06858545
2	0x3b0109f9	0.0019689782
3	0x3e56605f	0.209352
4	0x3195d8c4	4.361114e-09
5	0x3d8bb288	0.068211615
6	0x3e8897a9	0.26678208
7	0x3a0d4d65	0.0005390256
8	0x3e78ded1	0.24303748
9	0xbe2ef442	-0.17085364
10	0xbdeb7ec0	-0.11498785
11	0x3e5731a2	0.21015027
12	0xbdffb8bc	-0.12486407
13	0x3e6d8857	0.23196541
14	0x3d5c613e	0.053803675
15	0x3dfac68c	0.12244901
16	0xbc2a34da	-0.010388577
17	0xbe25c13a	-0.16186991
18	0xbe256c74	-0.16154653
19	0x3e5a4c4d	0.21318169
20	0x3ec0ff2e	0.37694687
21	0x3e504d29	0.20341934
22	0x3e1dfe5c	0.15429062
23	0xbd76e6cf	-0.06027871
24	0x3eb2e5c7	0.3494093
25	0xbdabde51	-0.08392013
26	0xbd621bd8	-0.055202335
27	0xbd6acb79	-0.057322953
28	0x3e872c9a	0.26401216
29	0xbe5882bc	-0.21143621
30	0x3ea2275f	0.31670663
31	0x3e796f45	0.24358852

ar_lam_net.0.weight f4 [32, 64]
0	0x3d090229	0.033449326
1	0x3ca1c540	0.019747376
2	0x3b4396ec	0.0029844595
3	0x3c907512	0.017633948
4	0x3b5abe31	0.0033377523
5	0x3b42af27	0.002970645
6	0x3c40afc9	0.01176066
7	0x3b8c9778	0.0042905174
8	0x3cb69d45	0.022291789
9	0x3c4b088a	0.012392173
10	0x3c3756da	0.011190141
11	0xbaa65cc0	-0.0012692437
12	0xbc605c7b	-0.013693924
13	0xbc87dc8f	-0.016584663
14	0xbc9f6983	-0.019459492
15	0xbcb5ac89	-0.022176998
16	0xbb6e4cfd	-0.0036361807
17	0x3d43f761	0.04784334
18	0x3c810edc	0.015754156
19	0x3bf70d97	0.007539462
20	0xbcf8be85	-0.030364284
21	0x3d2d5857	0.042320576
22	0xbb42aac5	-0.0029703837
23	0xbcb005f5	-0.021487216
24	0xbc02b81f	-0.007978468
25	0x3cc2ec9a	0.023794461
26	0x3b6a1bae	0.0035722065
27	0xbcbdcf4d	-0.023170138
28	0x3cb94aec	0.022618733
29	0x3d309aff	0.043116566
30	0x3cde3158	0.027123138
31	0x3c154365	0.009110306
32	0xbd1bd866	-0.03804817
33	0xbc865963	-0.016400045
34	0x3a841a42	0.0010078626
35	0xbc1fd95b	-0.009756411
36	0x3c418270	0.011810884
37	0xbc487b91	-0.012236492
38	0xbd5e9ffe	-0.0543518
39	0x3bc3e384	0.0059780497
40	0xbbd4c7ae	-0.0064935302
41	0x3ca7e375	0.020494202
42	0xbc2da74d	-0.01059897
43	0x3c9c6004	0.019088753
44	0xbd0c309d	-0.03422605
45	0xbd067311	-0.03282458
46	0xbd095cfa	-0.033535935
47	0x3d481a2d	0.04885309
48	0x3d460eb2	0.04835386
49	0xbb82a48c	-0.0039869007
50	0x3bb9382f	0.0056524496
51	0xbcf80d90	-0.030279905
52	0x3dca28d5	0.09871069
53	0x3c8a5645	0.01688684
54	0x3c18ab59	0.009318196
55	0xb8fa01b8	-0.00011921249
56	0x3d37301a	0.044723608
57	0x3c1db9ab	0.009626786
58	0x3cc18e3d	0.023627395
59	0x3d15af72	0.03654427
60	0x3c9f16a5	0.019419977
61	0xbcbefc0d	-0.023313547
62	0x3c306e5f	0.010768502
63	0xbbb59733	-0.005541706
64	0x3d21f819	0.039543245
65	0x3cff7bc6	0.03118695
66	0x3c74ae82	0.014934184
67	0x3c8c1797	0.017101092
68	0xbc1dabdc	-0.009623494
69	0x3c6c5721	0.01442507
70	0x3c906c0c	0.017629646
71	0xbba13557	-0.0049196887
72	0x3c6e4038	0.014541678
73	0x3bebd088	0.0071964897
74	0xbb084ba7	-0.0020797045
75	0x3ae63ba0	0.0017565377
76	0x3bbf690f	0.0058413814
77	0xbc4baba9	-0.012431064
78	0x3ccfb304	0.025353916
79	0x3c319399	0.010838413
80	0xbd1b8717	-0.03797063
81	0x3d1e868c	0.038702533
82	0x3c8999d6	0.016796988
83	0x3c827932	0.015926931
84	0xbcb0f198	-0.021599576
85	0x3d599d18	0.053128332
86	0xbbe34ed2	-0.0069368863
87	0xbcaf2aee	-0.021382775
88	0xbc995955	-0.018719355
89	0x3c41c890	0.011827603
90	0x3c41fe1f	0.011840372
91	0xbcd84919	-0.026402043
92	0x3cd23531	0.02566013
93	0x3d40dc62	0.047085173
94	0x3d21f8f1	0.03954405
95	0x3cb08f12	0.021552596
96	0xbca82363	-0.020524686
97	0xbd01e635	-0.031713683
98	0x3b0b0d12	0.0021217507
99	0xbc81fc5b	-0.015867403
100	0x3c833e9f	0.016021071
101	0xbcd90b09	-0.02649452
102	0xbd8e124f	-0.06937086
103	0x3c398e71	0.011325465
104	0xba10e12b	-0.00055267167
105	0x3d5d6c28	0.054058224
106	0x3c000621	0.007813961
107	0xbbcd7fbb	-0.00627133
108	0xbc7acdcd	-0.015307856
109	0xbd343718	-0.043997854
110	0xbc89a89f	-0.016804038
111	0x3d6fa361	0.05850542
112	0x3ce444f1	0.027864905
113	0xbba9c86c	-0.005181363
114	0x3aa5ae82	0.0012640508
115	0xbd2d5a47	-0.042322423
116	0x3dd1a61e	0.102367625
117	0x3b3f3ff1	0.00291824
118	0x3c98a17b	0.018631687
119	0x3c15b3fb	0.009137149
120	0x3d342c15	0.043987352
121	0x3b973fc6	0.0046157567
122	0x3d1641b3	0.03668375
123	0x3cf7fc5d	0.030271703
124	0x3d071b6a	0.03298513
125	0xbbb23023	-0.0054378673
126	0x3c8b9a39	0.017041313
127	0xbd30ffae	-0.043212585
128	0xb0840c3e	-9.607743e-10
129	0xb5887d7f	-1.0169314e-06
130	0xab057650	-4.7415284e-13
131	0xb301a1c0	-3.0182264e-08
132	0xb70df3b0	-8.460993e-06
133	0xb1b65f23	-5.307713e-09
134	0xb3450fa5	-4.5881865e-08
135	0xb703b0b1	-7.849348e-06
136	0xb6acbeb4	-5.1482e-06
137	0xb1be0297	-5.530022e-09
138	0xb7132668	-8.770825e-06
139	0xb6ec3d02	-7.0404503e-06
140	0xb53f4d81	-7.126583e-07
141	0xafa86fc1	-3.0638428e-10
142	0xb081f1e9	-9.45474e-10
143	0xb4ecce50	-4.4108538e-07
144	0xb5a27078	-1.2102673e-06
145	0xb72777a6	-9.9818335e-06
146	0xb718901e	-9.093461e-06
147	0xb6371d0b	-2.728603e-06
148	0xafdaac56	-3.977642e-10
149	0xb37787e9	-5.763278e-08
150	0xaca279ee	-4.617854e-12
151	0xa89533c2	-1.656477e-14
152	0xb6993a88	-4.5665693e-06
153	0xb736438b	-1.0863771e-05
154	0xb5f058f7	-1.7907286e-06
155	0xb6f77e4b	-7.375876e-06
156	0xb57dfba7	-9.4616047e-07
157	0xb24df02f	-1.1987182e-08
158	0xaf060340	-1.2188384e-10
159	0xb2595d8c	-1.26523325e-08
160	0xb6c638fe	-5.9074946e-06
161	0xb6e95990	-6.9543676e-06
162	0xb6e9c605	-6.9669936e-06
163	0xb704b053	-7.908867e-06
164	0xb71f41ad	-9.49243e-06
165	0xb6db950e	-6.544061e-06
166	0xb6bc1657	-5.6054373e-06
167	0xb71c124e	-9.3025865e-06
168	0xb6f94880	-7.4292184e-06
169	0xb706b662	-8.029487e-06
170	0xb6636f58	-3.3890447e-06
171	0xb6b1d841	-5.3001863e-06
172	0xb707b8a4	-8.089617e-06
173	0xb702aec4	-7.789295e-06
174	0xb707875c	-8.078143e-06
175	0xb7243ac3	-9.788843e-06
176	0xb70f7bc5	-8.5522815e-06
177	0xb6dcef66	-6.5843806e-06
178	0xb4c18895	-3.6048428e-07
179	0xb3e20a2c	-1.0525795e-07
180	0xb4bd2a78	-3.5234893e-07
181	0xb19a2e83	-4.4872777e-09
182	0xb4020eb3	-1.2112541e-07
183	0xb4de31de	-4.1387005e-07
184	0xa92c18b1	-3.821309e-14
185	0xaac4b066	-3.4938995e-13
186	0xb72247b0	-9.6726435e-06
187	0xb71b8f83	-9.272134e-06
188	0xb3b44623	-8.394661e-08
189	0xb5e47887	-1.7022402e-06
190	0xb0fe5ad5	-1.8506748e-09
191	0xb6c45855	-5.8515384e-06
192	0xbb1fde62	-0.0024394025
193	0xbac11975	-0.0014732318
194	0xbaf4c6a3	-0.0018674921
195	0xbb3adf87	-0.002851458
196	0xbb0c4b32	-0.0021407125
197	0xbba474b4	-0.005018795
198	0xbb738967	-0.0037160756
199	0xbbada546	-0.005299243
200	0xbb106cd8	-0.0022037532
201	0xb9f3cb7d	-0.00046500182
202	0xbad5f1e1	-0.0016322696
203	0xba07b850	-0.0005177306
204	0xba64bcc8	-0.00087256404
205	0xbbee8788	-0.00727934
206	0xbb92cd71	-0.004480057
207	0xba6817bd	-0.0008853635
208	0xbb3f8d29	-0.0029228425
209	0xba8c5c18	-0.0010708598
210	0x3a05d605	0.0005105439
211	0x398b3254	0.00026549643
212	0xbaf6ffd4	-0.0018844553
213	0xba88ae32	-0.0010427891
214	0xbabd9dd8	-0.0014466597
215	0xbbba024f	-0.0056765447
216	0x3a194fd9	0.0005848385
217	0xbb1529b3	-0.002276045
218	0xb9e52522	-0.0004370595
219	0xb76ddb4c	-1.417736e-05
220	0xb8c0dccf	-9.196402e-05
221	0xba6a5603	-0.00089392083
222	0xba4f71db	-0.0007913389
223	0xba1b813d	-0.0005932039
224	0xba10eb12	-0.0005528192
225	0xbae14bf2	-0.0017188771
226	0xbb930c51	-0.004487552
227	0xbaeeb89e	-0.0018212979
228	0xbbb642b8	-0.0055621527
229	0xbb8ac8ef	-0.004235379
230	0x394ff9fc	0.00019834185
231	0xbada8a0d	-0.0016673222
232	0xb9e775ab	-0.00044147423
233	0x398cdd09	0.00026867565
234	0xb9ddae01	-0.00042282048
235	0x3b981a67	0.0046418193
236	0xbb98837e	-0.004654347
237	0x3c27e3a2	0.010247143
238	0x3aab65dd	0.0013076622
239	0xbb03e353	-0.002012451
240	0xb90e1967	-0.00013551638
241	0xba39e088	-0.00070906477
242	0xba7616f7	-0.00093875773
243	0xbbaf9f0e	-0.005359537
244	0xbbf29384	-0.007402839
245	0xbb8bd799	-0.0042676446
246	0xbb8fe55e	-0.0043913564
247	0xbba0c942	-0.0049068043
248	0xbb39e9a1	-0.0028368013
249	0xbb7978d5	-0.0038066406
250	0xbac6da20	-0.0015171207
251	0xbb8b00bc	-0.004242031
252	0x3a915a19	0.0011089473
253	0xbbd788bb	-0.006577579
254	0xbb3da689	-0.0028938374
255	0xbba05a06	-0.004893544

ar_lam_net.0.bias f4 [32]
0	0xbc0e6eba	-0.008693391
1	0x3bb24968	0.0054408796
2	0xb70b1c2e	-8.291607e-06
3	0xbbabfe67	-0.005248833
4	0x3ce62bfa	0.028097142
5	0x3bf70573	0.0075384914
6	0x3baf6a0e	0.005353219
7	0x3a34caf9	0.00068967004
8	0x3c51268a	0.012765536
9	0xba534a0e	-0.0008060046
10	0xbbef99c0	-0.0073120296
11	0xba70b4be	-0.0009182206
12	0xbb2f5338	-0.0026752483
13	0x3c7f2ed0	0.015575126
14	0x3b9e3b16	0.004828821
15	0x3c90f0ff	0.01769304
16	0x3b89e722	0.0042084614
17	0x3c919c23	0.017774647
18	0x97102e18	-4.658709e-25
19	0x3b1ea28b	0.002420577
20	0x3c922c06	0.017843258
21	0x3cb1cbca	0.02170362
22	0x3c752590	0.014962569
23	0x3b50d978	0.0031867903
24	0xbaa4f163	-0.0012584146
25	0xb725857d	-9.865847e-06
26	0xb8123cf9	-3.4865898e-05
27	0x3bef8b6d	0.007310322
28	0x3c848f01	0.01618147
29	0x3b9a44d9	0.0047079143
30	0xba0fecf9	-0.0005490329
31	0x3c4d16fc	0.012517687

ar_lam_net.2.weight f4 [1, 32]
0	0xbe1aec4e	-0.15129206
1	0xbe30f736	-0.17281803
2	0x3ab68a47	0.0013926708
3	0x3cdb2d44	0.026754983
4	0xbe7796fa	-0.24178687
5	0x3dc1675b	0.094435416
6	0xbcb296ac	-0.021800362
7	0xbe04db10	-0.1297419
8	0x3e4571f9	0.19281758
9	0xbaf3caf7	-0.0018599917
10	0x3e120959	0.14261378
11	0x3b65aab5	0.0035044376
12	0x3bc3995a	0.0059692087
13	0x3de0b432	0.109718695
14	0xbd9787ec	-0.07398972
15	0x3e64500d	0.22296162
16	0xbdbaaba3	-0.09114768
17	0x3dee32b3	0.11630764
18	0xb9b38758	-0.0003424238
19	0xbc5b5be0	-0.013388604
20	0x3e5b518c	0.21417826
21	0x3e54426d	0.20728464
22	0x3e34bc3c	0.1764993
23	0xbe05665c	-0.13027328
24	0x3e0b281c	0.1358952
25	0x3902da3f	0.00012479069
26	0xbbfd0892	-0.007721969
27	0x3e2da126	0.16956005
28	0xbe384d15	-0.17998154
29	0xbe3701f8	-0.17871845
30	0x3b97a73c	0.00462809
31	0x3e8a39d7	0.26997253

feat_k_net.0.weight f4 [100, 1080]
0	0x1e6f9d57	1.2685092e-20
1	0x0008c72c	8.06133e-40
2	0x8000375f	-1.9863e-41
3	0x00002e24	1.6552e-41
4	0x8000516e	-2.9211e-41
5	0x00005c07	3.3013e-41
6	0x80000fd2	-5.675e-42
7	0x0002d763	2.60937e-40
8	0x8000aaa9	-6.1221e-41
9	0x1d892df8	3.631113e-21
10	0x0000a8a2	6.0494e-41
11	0x0001868e	1.40105e-40
12	0x0004d6d5	4.44409e-40
13	0x000216ce	1.91852e-40
14	0x00002ff7	1.7207e-41
15	0x80000f0e	-5.4e-42
16	0x800064e6	-3.6196e-41
17	0x8000829c	-4.6854e-41
18	0x1dfbef10	6.668633e-21
19	0x0000a9b9	6.0885e-41
20	0x80002bb3	-1.5676e-41
21	0x80001bd8	-9.988e-42
22	0x800ab281	-9.8239e-40
23	0x0001760b	1.34181e-40
24	0x0001b6a2	1.57352e-40
25	0x800068ec	-3.7639e-41
26	0x80003fbb	-2.2862e-41
27	0x1d7acf9f	3.3194562e-21
28	0x00003e3e	2.2328e-41
29	0x0001aee2	1.54572e-40
30	0x00003b83	2.1349e-41
31	0x0001dc6e	1.70911e-40
32	0x80004c38	-2.7342e-41
33	0x0000a512	5.9216e-41
34	0x80009452	-5.3207e-41
35	0x000033ea	1.8623e-41
36	0x1dbd95c2	5.018273e-21
37	0x80005e27	-3.3775e-41
38	0x0000481f	2.5872e-41
39	0x0000606f	3.4594e-41
40	0x80001851	-8.723e-42
41	0x0000b7af	6.5893e-41
42	0x80005496	-3.0344e-41
43	0x0002ac2f	2.45439e-40
44	0x00064f14	5.79381e-40
45	0x9e4602e8	-1.0482634e-20
46	0x80064cda	-5.78582e-40
47	0x80001ca0	-1.0269e-41
48	0x0003fd8b	3.6646e-40
49	0x0000712f	4.0603e-41
50	0x00012c05	1.07627e-40
51	0x000172df	1.33043e-40
52	0x8000328b	-1.8131e-41
53	0x0000b262	6.3992e-41
54	0x1d42fc42	2.58061e-21
55	0x80129211	-1.705438e-39
56	0x80001916	-8.999e-42
57	0x0001ddf8	1.71463e-40
58	0x80006500	-3.6232e-41
59	0x0000c952	7.222e-41
60	0x00006c78	3.8911e-41
61	0x0000506f	2.8854e-41
62	0x800059fe	-3.2283e-41
63	0x1e8dc3d1	1.5009943e-20
64	0x000016b1	8.14e-42
65	0x00004e49	2.8083e-41
66	0x800328ca	-2.90139e-40
67	0x000760a2	6.77514e-40
68	0x0000206f	1.1635e-41
69	0x000065cf	3.6522e-41
70	0x000029fa	1.5058e-41
71	0x00001c48	1.0145e-41
72	0x1e1bc3e3	8.24614e-21
73	0x00084740	7.60244e-40
74	0x800067e7	-3.7273e-41
75	0x80001acc	-9.613e-42
76	0x00025fd0	2.18042e-40
77	0x80007d6d	-4.4994e-41
78	0x00002ee1	1.6817e-41
79	0x00003783	1.9914e-41
80	0x80001042	-5.832e-42
81	0x1e104704	7.637982e-21
82	0x80005d62	-3.35e-41
83	0x800031ed	-1.791e-41
84	0x800040bc	-2.3222e-41
85	0x0000ba11	6.6748e-41
86	0x00045943	3.99363e-40
87	0x00007a27	4.382e-41
88	0x000047fc	2.5823e-41
89	0xb202cb96	-7.613286e-09
90	0x1dbd2db0	5.0075123e-21
91	0x0001e68d	1.74542e-40
92	0x000022a0	1.2421e-41
93	0x000080d0	4.6209e-41
94	0x8000979b	-5.4386e-41
95	0x8000357d	-1.9188e-41
96	0x80003c17	-2.1556e-41
97	0x800065b3	-3.6483e-41
98	0x800070a9	-4.0415e-41
99	0x9d95d1fc	-3.965709e-21
100	0x800013c1	-7.086e-42
101	0x0000058e	1.993e-42
102	0x800468be	-4.04916e-40
103	0x80008fc1	-5.1569e-41
104	0x8000d480	-7.623e-41
105	0x0001a51c	1.51066e-40
106	0x800272a8	-2.24802e-40
107	0x8000003a	-8.1e-44
108	0x9e6681ac	-1.2202914e-20
109	0x00004a40	2.6636e-41
110	0x80002c7f	-1.5962e-41
111	0x800018b7	-8.866e-42
112	0x000068a7	3.7542e-41
113	0x00007c26	4.4536e-41
114	0x80004e2c	-2.8043e-41
115	0x80003f6d	-2.2753e-41
116	0x8000436d	-2.4188e-41
117	0x1ce39447	1.5059929e-21
118	0x00001b11	9.71e-42
119	0x0000b1bf	6.3763e-41
120	0x8000027e	-8.94e-43
121	0x80009551	-5.3565e-41
122	0x00004b2f	2.6971e-41
123	0x80005c10	-3.3026e-41
124	0x0000271d	1.4031e-41
125	0x80000a83	-3.771e-42
126	0x1cc16e00	1.2800103e-21
127	0x8006e567	-6.33307e-40
128	0x00005d0c	3.3379e-41
129	0x8000b40f	-6.4593e-41
130	0x80002669	-1.3779e-41
131	0x8000434d	-2.4143e-41
132	0x8022e613	-3.204942e-39
133	0x8000103c	-5.824e-42
134	0x000036f4	1.9713e-41
135	0x1d9a6693	4.086952e-21
136	0x800c244d	-1.115048e-39
137	0x80009a0b	-5.526e-41
138	0x00000918	3.262e-42
139	0x00002495	1.3123e-41
140	0x80007578	-4.214e-41
141	0x8000363b	-1.9454e-41
142	0x00005f92	3.4284e-41
143	0xb44fdcec	-1.9358748e-07
144	0x1e3e7204	1.0082094e-20
145	0x00000bee	4.28e-42
146	0x800004ae	-1.679e-42
147	0x8037f9ad	-5.140519e-39
148	0x00002651	1.3745e-41
149	0x800145de	-1.16899e-40
150	0x8003fe7c	-3.66798e-40
151	0x8000a2c5	-5.8391e-41
152	0x00006e07	3.947e-41
153	0x1de5a11b	6.0782374e-21
154	0x0000a46f	5.8988e-41
155	0x00058658	5.07371e-40
156	0x800013eb	-7.145e-42
157	0x80007e7c	-4.5374e-41
158	0x000011fa	6.449e-42
159	0x80006d9f	-3.9325e-41
160	0x00007bf3	4.4465e-41
161	0x000047ec	2.5801e-41
162	0x1dee5f1f	6.309643e-21
163	0x80003099	-1.7434e-41
164	0x002497d7	3.360548e-39
165	0x80006672	-3.675e-41
166	0x80004002	-2.2962e-41
167	0x80030f2d	-2.8095e-40
168	0x8000843a	-4.7434e-41
169	0x000087a5	4.866e-41
170	0x00002430	1.2982e-41
171	0x1da54e86	4.3756328e-21
172	0x00007823	4.3097e-41
173	0x8005a5dd	-5.18678e-40
174	0x80007f34	-4.5632e-41
175	0x0000060b	2.168e-42
176	0x80065c87	-5.84206e-40
177	0x00001d16	1.0434e-41
178	0x000039df	2.076e-41
179	0x000087ca	4.8712e-41
180	0x1dfa9921	6.633278e-21
181	0x8000116e	-6.253e-42
182	0x80003783	-1.9914e-41
183	0x00001fc7	1.14e-41
184	0x00008a43	4.9599e-41
185	0x80006f05	-3.9826e-41
186	0x80007173	-4.0698e-41
187	0x00003be2	2.1482e-41
188	0x800010a3	-5.968e-42
189	0x1d9f7255	4.2205166e-21
190	0x000084fe	4.7709e-41
191	0x0002a956	2.44417e-40
192	0x00003d30	2.195e-41
193	0x8001cee4	-1.66054e-40
194	0x800248e3	-2.09818e-40
195	0x800030da	-1.7525e-41
196	0x80006b84	-3.857e-41
197	0x0000197e	9.145e-42
198	0x1e205516	8.487925e-21
199	0x80000739	-2.591e-42
200	0x00b57d68	1.6667212e-38
201	0xaa959b10	-2.6575313e-13
202	0x000018dc	8.918e-42
203	0x800038a1	-2.0315e-41
204	0xa80fd3e8	-7.9840445e-15
205	0x00004380	2.4214e-41
206	0x80002672	-1.3792e-41
207	0x9d54a6b4	-2.814415e-21
208	0x000059ee	3.226e-41
209	0x0004c6ea	4.38699e-40
210	0x00000cac	4.546e-42
211	0x80003396	-1.8506e-41
212	0x10b8bf96	7.287039e-29
213	0x0000a74a	6.0012e-41
214	0x8002dcc9	-2.62874e-40
215	0x80009f85	-5.7225e-41
216	0x1d664f0e	3.0481117e-21
217	0xaea3630c	-7.429976e-11
218	0x80005c40	-3.3093e-41
219	0x80004279	-2.3846e-41
220	0x0000933e	5.282e-41
221	0x80007ba0	-4.4348e-41
222	0x0004d6c8	4.44391e-40
223	0x000226bc	1.97566e-40
224	0x80068467	-5.9851e-40
225	0x1e047580	7.01232e-21
226	0x00005d23	3.3411e-41
227	0x00003f97	2.2812e-41
228	0x80003d59	-2.2007e-41
229	0x80000ba6	-4.179e-42
230	0x800004fa	-1.785e-42
231	0x0000a55a	5.9317e-41
232	0x800001cd	-6.46e-43
233	0x00003c5b	2.1651e-41
234	0x9de87f00	-6.1541204e-21
235	0x8002ad79	-2.45901e-40
236	0x802bb694	-4.014423e-39
237	0x00004a2d	2.6609e-41
238	0x8000c205	-6.9601e-41
239	0x800088f9	-4.9137e-41
240	0x80001616	-7.923e-42
241	0x8000a328	-5.853e-41
242	0x000065fc	3.6585e-41
243	0x1d965fe2	3.980381e-21
244	0x00006506	3.624e-41
245	0x80007594	-4.2179e-41
246	0x00005471	3.0292e-41
247	0x80003c95	-2.1733e-41
248	0x80004955	-2.6307e-41
249	0x80006f4f	-3.993e-41
250	0x800022a2	-1.2424e-41
251	0x00005188	2.9248e-41
252	0x9c9938e5	-1.0139398e-21
253	0x00000071	1.58e-43
254	0x00009e1e	5.6722e-41
255	0x00005045	2.8795e-41

feat_k_net.0.bias f4 [100]
0	0x1dd01592	5.5079445e-21
1	0x3e30a095	0.17248757
2	0xbbedc11d	-0.007255687
3	0x3dde04b8	0.10840744
4	0x196aa891	1.2131558e-23
5	0x3e254c9f	0.1614251
6	0x3e3e4650	0.1858151
7	0x3e2d571d	0.16927762
8	0x3e2288bb	0.15872471
9	0x3e544b08	0.20731747
10	0x3e296992	0.16544178
11	0x3e3dbb4d	0.18528481
12	0xbc50868e	-0.012727393
13	0x3e3fd775	0.18734534
14	0x3e64c421	0.22340442
15	0x3e143aba	0.14475527
16	0x3deb6566	0.114939496
17	0x26d632bb	1.4862983e-15
18	0x3deac1ff	0.11462783
19	0x3e0a9ce7	0.13536416
20	0x3e2a2fb9	0.16619767
21	0x3e23d818	0.16000402
22	0x3e48d722	0.19613317
23	0xbb29e633	-0.0025924563
24	0x3e2303d0	0.15919423
25	0x3dfbc799	0.122939296
26	0x3e177f5a	0.14794675
27	0x212940b4	5.734506e-19
28	0x3e5c3933	0.21506195
29	0x3e0cade5	0.1373821
30	0xb086113a	-9.754679e-10
31	0x3e361457	0.17781197
32	0x3e33fdca	0.17577282
33	0x3e48bf4d	0.19604225
34	0x3e31529e	0.17316672
35	0xbb5fb2f8	-0.0034133773
36	0xb81638ec	-3.58158e-05
37	0x3e0d93e0	0.13825941
38	0x3e5262e4	0.20545536
39	0xbc0a3480	-0.008435369
40	0x1ac589ec	8.1700115e-23
41	0x35c4c9e1	1.4661892e-06
42	0x3e1d9c70	0.15391707
43	0x3e5d79c5	0.21628483
44	0x3e2466ff	0.16054915
45	0x3e0e4a76	0.13895592
46	0x3e0d20ac	0.13781995
47	0x3e394514	0.18092757
48	0x3e6c7283	0.23090558
49	0xb856bd93	-5.119813e-05
50	0x3df81031	0.12112463
51	0x3e3fbfbb	0.18725483
52	0x3e231e14	0.15929443
53	0x1c2fea74	5.8205666e-22
54	0x3e193cda	0.1496462
55	0x3e2027b4	0.15640146
56	0x3e2903b2	0.16505316
57	0x3e649d0e	0.22325537
58	0x3e4ceccc	0.20012206
59	0x3e25b613	0.16182737
60	0xb776f736	-1.4720301e-05
61	0x23b60f70	1.9739018e-17
62	0xbaeec7ae	-0.0018217468
63	0x23f1e7e9	2.622749e-17
64	0xbabb4635	-0.0014287891
65	0x3e30560e	0.17220327
66	0x22f9e87c	6.7737738e-18
67	0x3e090df5	0.1338423
68	0x3dd223da	0.102607444
69	0x1c189509	5.0485205e-22
70	0x3e1a2bfc	0.15055841
71	0x3e51d34d	0.20490761
72	0x3df5a33e	0.119940266
73	0x3e648676	0.22316918
74	0x3e1e4bda	0.15458623
75	0xa9d4662d	-9.432416e-14
76	0x30235c10	5.9429883e-10
77	0x3e40aaf7	0.18815218
78	0x3e2d600a	0.16931167
79	0x3e04c354	0.12965137
80	0x3e146113	0.14490156
81	0x3e7229bc	0.23648733
82	0xaf2125d3	-1.4656303e-10
83	0x21d921c6	1.4713432e-18
84	0xafb12021	-3.2218941e-10
85	0xbc3868e1	-0.011255474
86	0x3e50fba3	0.20408492
87	0x3e2877d1	0.16451956
88	0x3df18b7a	0.11794181
89	0x3dd67e5c	0.1047332
90	0x3e204a1b	0.15653269
91	0x3e5c3b0c	0.215069
92	0xb9990257	-0.00029184177
93	0x2cc76f9f	5.6683126e-12
94	0x3e037547	0.12837707
95	0x2fa0631d	2.9174255e-10
96	0xb6b1cb76	-5.298697e-06
97	0xbc5ec55e	-0.013596861
98	0x3e0d8ed2	0.13824013
99	0x3e2db4bb	0.16963474

feat_k_net.2.weight f4 [1, 100]
0	0x1eca825d	2.1441499e-20
1	0x3ea63591	0.32462743
2	0xbcdc3430	-0.026880354
3	0x3eabb5fe	0.33537287
4	0x19ec6842	2.4443937e-23
5	0x3ee54334	0.44777834
6	0x3eb45265	0.35219112
7	0x3ea2e658	0.31816363
8	0x3ea51b2c	0.32247293
9	0x3ef7a335	0.48366705
10	0x3ea9397f	0.3305168
11	0x3ee60497	0.44925377
12	0xbd342971	-0.043984834
13	0x3ebee9db	0.37287793
14	0x3ee1410f	0.43994948
15	0x3ec59474	0.38589823
16	0x3eb253ae	0.34829468
17	0x2764e6b5	3.1766423e-15
18	0x3ead6a02	0.3386994
19	0x3ec40ac0	0.38289452
20	0x3ecc34a2	0.39883906
21	0x3ea9c2c8	0.3315642
22	0x3edd2694	0.43193495
23	0xbbe4c740	-0.0069817603
24	0x3ec356b5	0.3815209
25	0x3ea46520	0.32108402
26	0x3e942fd7	0.2894275
27	0x2188ce84	9.270383e-19
28	0x3ed12039	0.40844896
29	0x3e949235	0.29017797
30	0xb10cf69e	-2.0512867e-09
31	0x3ec9d3cf	0.3941941
32	0x3ebcdcdf	0.3688726
33	0x3eb5ca0f	0.3550572
34	0x3eb6162f	0.355638
35	0xbc198f64	-0.009372566
36	0xb8c33aeb	-9.309299e-05
37	0x3e8ff11f	0.28113648
38	0x3ebc8e94	0.36827528
39	0xbceeb819	-0.029140519
40	0x1a969b28	6.2289214e-23
41	0x364b61e2	3.0306333e-06
42	0x3ea3112f	0.31849048
43	0x3efa9332	0.48940426
44	0x3ea7a85b	0.32745633
45	0x3ecaa217	0.3957679
46	0x3e8e3c6a	0.27780467
47	0x3eceb065	0.40368953
48	0x3f02fafe	0.51164234
49	0xb8e92bab	-0.000111184396
50	0x3eb955d3	0.3619829
51	0x3eae2eb1	0.34019998
52	0x3eaf846b	0.34280714
53	0x1cac4b1d	1.1401422e-21
54	0x3eb9a9d7	0.3626239
55	0x3ea41b85	0.32052246
56	0x3efed70d	0.49773446
57	0x3eda3cae	0.4262442
58	0x3eeb9e2e	0.4601912
59	0x3ea9cd79	0.33164576
60	0xb8056525	-3.180387e-05
61	0x2496c66a	6.538826e-17
62	0xbbc0234f	-0.005863584
63	0x243cd81d	4.0949057e-17
64	0xbb90998f	-0.004412837
65	0x3eb0bfad	0.34521237
66	0x23ddd0c3	2.4049282e-17
67	0x3eb4a082	0.35278708
68	0x3e97e569	0.29667214
69	0x9d307302	-2.3352864e-21
70	0x3ebbe8c3	0.3670102
71	0x3eb0cc6d	0.34530964
72	0x3ec1e0bd	0.37866774
73	0x3f004f0b	0.5012061
74	0x3ec55d7b	0.38547882
75	0xa94322a7	-4.3328754e-14
76	0x3090be41	1.0531452e-09
77	0x3ebe8703	0.3721238
78	0x3eafac75	0.34311262
79	0x3ec3c853	0.38238773
80	0x3ecc65d8	0.3992145
81	0x3f08734c	0.5330093
82	0xaf4adb0b	-1.8449613e-10
83	0x23f6130f	2.6679445e-17
84	0xafdccca8	-4.0163184e-10
85	0xbd244f47	-0.040114667
86	0x3efe9ffb	0.4973143
87	0x3ec435bd	0.3832225
88	0x3eae3ae6	0.3402931
89	0x3eaed4f3	0.34146842
90	0x3ec7fcb6	0.3905999
91	0x3ec72ad4	0.38899863
92	0xba56ca1f	-0.00081935705
93	0x2d95680e	1.6985548e-11
94	0x3e837127	0.25672266
95	0x3038c097	6.7212497e-10
96	0xb737e65d	-1.0961286e-05
97	0xbd4fd25f	-0.050737735
98	0x3ec656a1	0.38737968
99	0x3ea7e433	0.3279129

feat_lam_net.0.weight f4 [100, 1080]
0	0xbd6b2260	-0.05740583
1	0x00019400	1.44928e-40
2	0x00004823	2.5878e-41
3	0x000216fd	1.91918e-40
4	0x00008221	4.6681e-41
5	0x0010200e	1.480867e-39
6	0x8002083b	-1.86624e-40
7	0x00000270	8.74e-43
8	0x00008266	4.6778e-41
9	0x3c98577c	0.018596403
10	0x80004186	-2.3505e-41
11	0x0001a658	1.51508e-40
12	0x00007f50	4.5671e-41
13	0x001fddf2	2.92652e-39
14	0x00005469	3.028e-41
15	0x800029d4	-1.5005e-41
16	0x00007b82	4.4306e-41
17	0x00018694	1.40113e-40
18	0x3cba7c8c	0.022764467
19	0x80004df7	-2.7969e-41
20	0x000070b8	4.0436e-41
21	0x0000a3cc	5.8759e-41
22	0x800015ad	-7.776e-42
23	0xab84e1bf	-9.441821e-13
24	0x000205b9	1.85724e-40
25	0x8000b10e	-6.3515e-41
26	0x000085b1	4.796e-41
27	0x3d22635d	0.03964554
28	0x800014d0	-7.466e-42
29	0x8000483f	-2.5917e-41
30	0x80006c22	-3.8791e-41
31	0x00030a1e	2.79136e-40
32	0x00004d12	2.7648e-41
33	0x0000a463	5.8971e-41
34	0x80007466	-4.1756e-41
35	0x000017b5	8.504e-42
36	0x3da07fb5	0.07836858
37	0x80007b90	-4.4326e-41
38	0x00008661	4.8206e-41
39	0x000076af	4.2576e-41
40	0x00008475	4.7517e-41
41	0x3466b37a	2.1485712e-07
42	0x80001bd5	-9.984e-42
43	0x00029eee	2.40684e-40
44	0x80001b0c	-9.703e-42
45	0x3c9ff68e	0.019526746
46	0x8001545f	-1.22102e-40
47	0x800fdb8e	-1.456294e-39
48	0x0000abc9	6.1625e-41
49	0x000010a1	5.965e-42
50	0x800a9830	-9.7295e-40
51	0x000c132d	1.108905e-39
52	0x8000b51f	-6.4974e-41
53	0x80004b5f	-2.7038e-41
54	0xbb8d8bdd	-0.0043196515
55	0x8000981d	-5.4568e-41
56	0x00008502	4.7714e-41
57	0x0000791a	4.3443e-41
58	0x0005bd16	5.27009e-40
59	0x8000bab2	-6.6974e-41
60	0x800095de	-5.3762e-41
61	0x8000517e	-2.9234e-41
62	0x0001b8a1	1.58068e-40
63	0x3bf84dd6	0.007577638
64	0x8006d5c4	-6.27698e-40
65	0x80009c55	-5.6081e-41
66	0x800090b0	-5.1904e-41
67	0x00006c31	3.8812e-41
68	0x800045cf	-2.5043e-41
69	0x80024c05	-2.10942e-40
70	0x00006bc2	3.8656e-41
71	0x000090c6	5.1935e-41
72	0x3c74d72f	0.014943882
73	0x00007968	4.3552e-41
74	0x8000bab4	-6.6976e-41
75	0x00005b68	3.279e-41
76	0x80002345	-1.2652e-41
77	0x800013c2	-7.088e-42
78	0x000038c1	2.036e-41
79	0x000020ca	1.1762e-41
80	0x0000e5b7	8.2406e-41
81	0xbd2b8279	-0.041872475
82	0x000082c1	4.6906e-41
83	0x80005aab	-3.2526e-41
84	0x000151f2	1.21232e-40
85	0x00006b72	3.8544e-41
86	0x8234f680	-1.3295053e-37
87	0x00002e26	1.6555e-41
88	0x000049d3	2.6483e-41
89	0x00007bb0	4.4371e-41
90	0xbbbcf7f4	-0.005766863
91	0x80004fe5	-2.8661e-41
92	0x8000171f	-8.294e-42
93	0x00003284	1.8122e-41
94	0x80007491	-4.1816e-41
95	0x00000697	2.364e-42
96	0x00008b67	5.0008e-41
97	0x00000ce8	4.63e-42
98	0x00008d1a	5.0618e-41
99	0x3d0f270f	0.03494936
100	0x00006c98	3.8956e-41
101	0x0005986f	5.1386e-40
102	0xb86254bd	-5.3961518e-05
103	0x8095caf3	-1.3756293e-38
104	0x80026124	-2.18518e-40
105	0x80004c06	-2.7272e-41
106	0x8001e808	-1.75073e-40
107	0x8000b247	-6.3954e-41
108	0x3d96fdd2	0.07372631
109	0x80027af8	-2.27784e-40
110	0x00005d31	3.3431e-41
111	0x8000602f	-3.4504e-41
112	0x00008301	4.6995e-41
113	0x000080ce	4.6206e-41
114	0x800073d2	-4.1548e-41
115	0x800046fc	-2.5464e-41
116	0x0000a1ec	5.8087e-41
117	0x3d7effd5	0.0622557
118	0x0000a9b9	6.0885e-41
119	0x80006922	-3.7715e-41
120	0xaf1bf5a7	-1.4184441e-10
121	0x00003734	1.9803e-41
122	0x000089b6	4.9401e-41
123	0x800028f7	-1.4695e-41
124	0x00001926	9.022e-42
125	0x3237dca7	1.07021725e-08
126	0xbc6e7374	-0.014553893
127	0x80004dc3	-2.7896e-41
128	0x00003357	1.8417e-41
129	0x8ba688d8	-6.4146774e-32
130	0x00001f34	1.1194e-41
131	0x80007e2b	-4.526e-41
132	0x80004eb5	-2.8235e-41
133	0x0000b88e	6.6206e-41
134	0x0000962f	5.3876e-41
135	0xbd21d255	-0.03950723
136	0x8000875b	-4.8556e-41
137	0x00001050	5.852e-42
138	0x80006b28	-3.844e-41
139	0x00001dd4	1.07e-41
140	0x00008cf7	5.0569e-41
141	0x00000e50	5.134e-42
142	0x80007344	-4.135e-41
143	0x00007511	4.1996e-41
144	0x3d9a3130	0.07528913
145	0x00009d80	5.65e-41
146	0x0000d8d6	7.7786e-41
147	0x00009d98	5.6534e-41
148	0x80001dda	-1.0709e-41
149	0x00007db9	4.5101e-41
150	0x80004d1f	-2.7666e-41
151	0x80004280	-2.3856e-41
152	0x800069fe	-3.8023e-41
153	0xbcd8d6a5	-0.026469538
154	0x800051aa	-2.9296e-41
155	0x0000e7f4	8.3209e-41
156	0x0000a635	5.9624e-41
157	0x800038e1	-2.0404e-41
158	0x0000b60b	6.5305e-41
159	0x00025ada	2.16262e-40
160	0x800025a6	-1.3506e-41
161	0x80005b88	-3.2835e-41
162	0xbd86ee10	-0.065883756
163	0x800049c7	-2.6466e-41
164	0x8000a036	-5.7473e-41
165	0x00020e08	1.88704e-40
166	0x800097fa	-5.4519e-41
167	0x80002aa6	-1.53e-41
168	0x80003545	-1.911e-41
169	0x8004e9ab	-4.51166e-40
170	0x8001c9ad	-1.64183e-40
171	0xbc2c6ed4	-0.01052447
172	0x80005045	-2.8795e-41
173	0x00009ea4	5.691e-41
174	0x800045fd	-2.5107e-41
175	0x000017c9	8.533e-42
176	0x00000610	2.175e-42
177	0x00002ec1	1.6772e-41
178	0x00001a25	9.379e-42
179	0x80001e5a	-1.0888e-41
180	0x3c38fe52	0.011291103
181	0x00005496	3.0344e-41
182	0x80000b1e	-3.988e-42
183	0x000001e7	6.82e-43
184	0x000053ed	3.0107e-41
185	0x80028e36	-2.34687e-40
186	0x0000317e	1.7754e-41
187	0x8000c9fc	-7.2458e-41
188	0x89e743e9	-5.567509e-33
189	0x38f5ad19	0.00011714752
190	0x80004b40	-2.6995e-41
191	0x800047b9	-2.5729e-41
192	0x8000c49e	-7.0533e-41
193	0x800beebe	-1.095835e-39
194	0x8000365d	-1.9502e-41
195	0x80005257	-2.9538e-41
196	0x00015c7c	1.25013e-40
197	0x00005c04	3.3009e-41
198	0x3d122d08	0.035687476
199	0x800049f5	-2.6531e-41
200	0x00000b6c	4.097e-42
201	0x00003a81	2.0987e-41
202	0x80008db3	-5.0832e-41
203	0x800187d0	-1.40556e-40
204	0x8000891c	-4.9186e-41
205	0x00004292	2.3881e-41
206	0x80008724	-4.848e-41
207	0xbbaed8a5	-0.0053358846
208	0x80001527	-7.588e-42
209	0x0158177d	3.9689786e-38
210	0x000002b3	9.68e-43
211	0x00006f85	4.0006e-41
212	0x1d59f81e	2.8847984e-21
213	0x0005cd50	5.3283e-40
214	0x00069525	6.04516e-40
215	0x00127a99	1.697019e-39
216	0xbd1fda1f	-0.039026376
217	0x399e534a	0.00030198164
218	0x000071ab	4.0776e-41
219	0x000025ba	1.3534e-41
220	0x8abd2cd8	-1.8216906e-32
221	0x800030e0	-1.7533e-41
222	0x80007aaa	-4.4004e-41
223	0x000085dc	4.802e-41
224	0x0000a0ca	5.768e-41
225	0x3d6266df	0.055273887
226	0x28abde8a	1.9081325e-14
227	0x80003833	-2.016e-41
228	0x0000923c	5.2459e-41
229	0x8000256d	-1.3426e-41
230	0x00003d2a	2.1942e-41
231	0x80002891	-1.4552e-41
232	0x00000fbd	5.646e-42
233	0x80005b55	-3.2764e-41
234	0xbd011b58	-0.031520218
235	0x00016fe8	1.3198e-40
236	0x0000995b	5.5014e-41
237	0x00538e68	7.673432e-39
238	0x80026845	-2.21076e-40
239	0x80002dc2	-1.6415e-41
240	0x14918b60	1.4696232e-26
241	0x80005731	-3.1278e-41
242	0x80007fbd	-4.5824e-41
243	0x3d98ce4b	0.07461222
244	0x80003bb1	-2.1413e-41
245	0x00018c03	1.42062e-40
246	0x00003048	1.732e-41
247	0x2dc7caa8	2.2713678e-11
248	0x80005eb6	-3.3976e-41
249	0x00004171	2.3476e-41
250	0x800068e9	-3.7635e-41
251	0x0154ab48	3.906114e-38
252	0xbaaa5e3a	-0.0012998052
253	0x00001097	5.951e-42
254	0x800022fe	-1.2553e-41
255	0x80048541	-4.15144e-40

feat_lam_net.0.bias f4 [100]
0	0xbdbb928c	-0.09158811
1	0xbc8e16ba	-0.017344821
2	0x3cc497ed	0.023998225
3	0xbe059a1d	-0.13047071
4	0xbd81e3df	-0.06342291
5	0x3d0c9d25	0.034329552
6	0xbdf12d9a	-0.11776276
7	0xbdfdf25f	-0.12399744
8	0xbdb36c12	-0.08760847
9	0xbd053f3a	-0.032531
10	0xbd46038d	-0.04834323
11	0xbbbc4935	-0.0057460316
12	0xbe0ddd0a	-0.13853851
13	0xbe242dd2	-0.16033104
14	0x3d9c1a07	0.07622152
15	0x3de4c434	0.11170235
16	0xbd282bc0	-0.04105735
17	0xbe0163bc	-0.12635702
18	0x3cbef7de	0.023311552
19	0xb9828eec	-0.00024902017
20	0xbe037370	-0.12837005
21	0x3be845dd	0.0070884065
22	0xbdd6d87c	-0.1049051
23	0xbdb9e47d	-0.09076784
24	0xbc6700a2	-0.014099272
25	0xbc7aa59a	-0.015298272
26	0xb9d2f6ac	-0.00040238106
27	0xbe0ddfb0	-0.13854861
28	0xba8142c2	-0.0009861814
29	0xbdfe585b	-0.12419196
30	0xbdd5d36e	-0.10440718
31	0x3c95e51c	0.018297724
32	0xbe3b8cda	-0.1831545
33	0x3c8f726a	0.017510612
34	0x3d7e12b8	0.06202957
35	0xbd98db24	-0.07463673
36	0xbe06a8ee	-0.13150379
37	0x3d571228	0.05250755
38	0x3c154ce6	0.009112572
39	0xbe161d9d	-0.14659734
40	0xbddd2bec	-0.10799393
41	0x3da77e7a	0.0817842
42	0x3df6e0cd	0.12054596
43	0xba653c84	-0.0008744674
44	0x3d64a5f8	0.055822343
45	0x3dad1f16	0.08453195
46	0xbb93d778	-0.00451177
47	0x3dbfd409	0.09366614
48	0x3d4006d0	0.046881497
49	0xba0480c9	-0.0005054591
50	0xba7011eb	-0.00091579434
51	0xbe39218b	-0.18079202
52	0x3c2d6ecb	0.010585497
53	0xbd961294	-0.07327762
54	0xbce64b86	-0.028112184
55	0xbe1d976f	-0.15389799
56	0xbe140afb	-0.14457314
57	0x3d99b3b3	0.07504978
58	0x3ced835b	0.0289933
59	0xb181d75a	-3.7788768e-09
60	0xbdd66b06	-0.10469632
61	0xbcf5794e	-0.02996507
62	0x3dd25e42	0.102718845
63	0xbd284fa6	-0.041091584
64	0x3c2f93bf	0.010716378
65	0x3db532b6	0.08847563
66	0xbe0dbc50	-0.13841367
67	0xbdbf0aa7	-0.09328204
68	0x3d39d6ab	0.04537074
69	0xbdb2cb6d	-0.08730207
70	0xb8cce392	-9.769866e-05
71	0xbb0a1405	-0.0021069061
72	0xb9f46c48	-0.00046619982
73	0x3d77b524	0.060475484
74	0xbdfe3c5b	-0.12413856
75	0xbe1d37ab	-0.15353267
76	0x3d4911a2	0.04908908
77	0xbdd336bc	-0.10313174
78	0xbd7a3c2e	-0.061092548
79	0xbd36a560	-0.044591308
80	0xbdb18382	-0.08667661
81	0xbdd12a1d	-0.102131106
82	0xb93ffe5e	-0.00018309939
83	0x3cacab7f	0.02107787
84	0xbb3f6001	-0.002920151
85	0x3d6c3e3b	0.057676535
86	0xbde3dfdd	-0.11126683
87	0xbb679200	-0.0035334826
88	0x3d09575a	0.03353057
89	0xbc5209dc	-0.0128197335
90	0x3bba11ac	0.005678376
91	0xbdf6e820	-0.12055993
92	0x3d87578a	0.066084936
93	0xbdbbfaad	-0.09178672
94	0x3d89b1ac	0.06723341
95	0x3d9c533e	0.07633065
96	0xbcabf39a	-0.020990182
97	0x3d8cbcde	0.06871961
98	0xbe1a2e78	-0.15056789
99	0xb749e622	-1.2034116e-05

feat_lam_net.2.weight f4 [1, 100]
0	0x3e12866b	0.14309089
1	0xb88109c4	-6.153018e-05
2	0xbdbde323	-0.092718385
3	0x3e3400de	0.17578456
4	0x3d2d9d8b	0.042386573
5	0xbe0e6270	-0.13904738
6	0x3e198e6c	0.14995736
7	0x3e780a8e	0.24222776
8	0x3e32b51b	0.17451899
9	0xbd48e6e2	-0.049048312
10	0xbc2c7c78	-0.010527723
11	0xbc1d5cd1	-0.009604649
12	0x3e32c6d5	0.17458661
13	0x3e5cbc86	0.21556291
14	0xbe8c37dc	-0.27386367
15	0xbec50962	-0.3848372
16	0xbc482575	-0.012215962
17	0x3e45ec02	0.19328311
18	0xbda4dc6d	-0.080498554
19	0xb70cab80	-8.384581e-06
20	0x3deeb32c	0.11655268
21	0xba632c10	-0.00086659286
22	0x3d2ef38d	0.042712737
23	0x3d948425	0.07251767
24	0xbb5244ab	-0.0032084386
25	0xbbf07d15	-0.0073391297
26	0x379bce5c	1.8573533e-05
27	0x3e93a61d	0.28837672
28	0x3890746b	6.8881396e-05
29	0x3e152ac9	0.14567102
30	0x3de68164	0.11255148
31	0xbab00618	-0.001342955
32	0x3e88f666	0.26750487
33	0xbc08ce22	-0.008349927
34	0xbe55c8a2	-0.20877317
35	0x3d1c7153	0.038194012
36	0x3e5cbbd7	0.2155603
37	0xbd88137e	-0.06644343
38	0xbe65386a	-0.22384802
39	0x3e13c0a8	0.14428961
40	0x3e248883	0.160677
41	0xbe4b3f2d	-0.19848318
42	0xbe7e5258	-0.24836099
43	0xb90e1b72	-0.000135524
44	0xbe65f2b5	-0.22455867
45	0xbdd3b587	-0.10337358
46	0xb8d266a4	-0.000100326986
47	0xbe8e8b9e	-0.27840894
48	0xbe811827	-0.2521374
49	0xb7b7ea3f	-2.192438e-05
50	0x36d95795	6.4773e-06
51	0x3eaa8421	0.3330393
52	0xbd813e88	-0.06310755
53	0x3e6ea594	0.2330535
54	0xbd9f432a	-0.077764824
55	0x3e5ad0f7	0.21368776
56	0x3e4832bb	0.19550602
57	0xbe33577f	-0.17513846
58	0xbe880ed9	-0.26573828
59	0x3077ee8d	9.019708e-10
60	0x3defa257	0.11700886
61	0x3b25315d	0.0025206425
62	0xbe551dfc	-0.2081222
63	0xbcd245d8	-0.02566807
64	0xbc123e1b	-0.00892594
65	0xbe08c304	-0.13355643
66	0x3e1fdafd	0.15610881
67	0x3da6f53a	0.08152242
68	0xbe38d708	-0.18050778
69	0x3e17b259	0.14814128
70	0x3861a3b1	5.379663e-05
71	0x38d60542	0.000102052945
72	0xb82a6a15	-4.0629955e-05
73	0xbe5d3099	-0.2160057
74	0x3e0c9393	0.1372817
75	0x3e5a9358	0.2134527
76	0xbe953fbb	-0.29150185
77	0x3e6d28b1	0.23160054
78	0x3b77d5ea	0.0037816712
79	0x3c37c324	0.011215959
80	0x3e2fd43d	0.17170806
81	0x3de23d75	0.11046878
82	0x3625007b	2.4587196e-06
83	0xbe4c9cfd	-0.19981761
84	0xb9ad5dde	-0.00033067068
85	0xbd90d8dd	-0.070726134
86	0x3dd3562b	0.103191696
87	0xbd1dad58	-0.03849539
88	0xbda11de0	-0.07867026
89	0x3c226163	0.009910914
90	0xbe3b6f8a	-0.18304268
91	0x3e8e1a24	0.2775432
92	0xbe21315d	-0.15741487
93	0x3d62a72c	0.05533521
94	0xbe979f63	-0.2961379
95	0xbe129c91	-0.14317538
96	0xb9b83988	-0.0003513808
97	0xbe1c1f4b	-0.15246312
98	0x3e066abd	0.13126655
99	0x3470d2bb	2.2428405e-07
