experiments/konrad/saved_models/rolling/hinge/model_interval_1.pt (torch, 7514 bytes, 9 tensors)

A_gate f4 [9]
0.038714398 -0.010457229 0.009648297 -0.04915922 -0.1597364 -0.018744167 -0.029206077 0.11260393
-0.18478768
00000000: fd92 1e3d cc54 2bbc e413 1e3c 2e5b 49bd
00000010: f091 23be 5e8d 99bc 9541 efbc e49c e63d
00000020: fb38 3dbe

B_gate f4 [120]
-0.0029951306 2.2572e-41 0.25272822 -0.030723903 -0.0015453049 1.4799341e-05 0.018430453 -2.9565388e-06
0.012586851 0.0011346204 -0.13570975 2.9353e-41 -0.058342 0.30558717 -0.21173124 0.0020408772
-0.04450718 4.7182555e-05 0.0046948427 4.5446494e-13 -3.2946e-41 0.010556658 -0.008844542 1.5114e-41
0.00495382 -1.4928e-41 3.911e-42 -0.0025340617 8.304153e-17 0.0002105371 -0.05608721 -4.240688e-19
0.015772898 0.068904534 -5.1733025e-30 -2.38554e-05 0.076514475 -1.992e-41 0.13673691 -0.0856135
0.019015666 -0.0008828218 0.027724434 -4.4234627e-10 -1.6425683e-06 0.006045383 -1.3179e-41 -1.6423e-41
-0.055482805 7.2907e-41 -8.090161e-08 -0.010127395 4.8764457e-33 -1.1076e-41 0.0059258863 0.05723761
-3.0257347e-06 -0.07395823 -1.8734721e-06 1.2402229e-06 0.0020120598 0.35311747 8.868611e-08 0.0042668665
2.9115754e-05 -6.3427486e-21 -0.08503925 -6.659755e-18 0.013497384 -0.04601623 -0.00025416235 -7.033457e-05
-0.16665268 7.495584e-19 0.021792121 -0.039021507 -3.1397e-41 -0.58415157 -0.058183413 -7.554e-42
-4.6081886e-06 -0.0018911106 1.512477e-07 -2.2830246e-16 -0.0514404 1.9084e-41 -2.3600624e-12 -0.2131692
-0.0001459839 -1.0148303e-07 -0.007914444 -3.9187e-41 -1.9959858e-05 -0.049506336 8.691273e-08 0.020981751
-0.012676158 -0.00026920263 3.2727737e-20 -0.022891803 -0.00021782304 0.016305914 -0.06541786 2.67655e-11
1.3679813e-10 -0.013862061 -0.36564046 0.0068141515 -0.022591481 1.3629948e-23 -1.3143e-41 -0.035463233
-9.997043e-13 1.8466379e-35 -0.2962097 1.2016e-41 1.4185458e-18 -0.021253988 -3.2111e-41 0.0024131134
00000000: f449 44bb ec3e 0000 9865 813e b2b0 fbbc
00000010: d48b caba b04a 7837 76fb 963c f368 46b6
00000020: 1439 4e3c 8bb7 943a 7ff7 0abe d351 0000
00000030: 05f8 6ebd ec75 9c3e 13d0 58be 3dc0 053b
00000040: 294d 36bd e2e5 4538 32d7 993b 4dd7 ff2a
00000050: d75b 0080 d5f5 2c3c b3e8 10bc 222a 0000
00000060: a753 a23b 9d29 0080 e70a 0000 8012 26bb
00000070: 117b bf24 9fc3 5c39 b4bb 65bd 7753 faa0
00000080: 2a36 813c d21d 8d3d a5da d18e 151d c8b7
00000090: 9fb3 9c3d 8737 0080 c304 0c3e 2156 afbd
000000a0: bec6 9b3c 2b6d 67ba 5a1e e33c b42e f3af
000000b0: 3876 dcb5 5918 c63b bd24 0080 c82d 0080
000000c0: f041 63bd 3ccb 0000 21bc adb3 60ed 25bc
000000d0: 448f ca09 e01e 0080 f02d c23b fc71 6a3d
000000e0: ba0d 4bb6 6a77 97bd 0374 fbb5 bc75 a635
000000f0: c3dc 033b d0cb b43e b473 be33 12d1 8b3b
00000100: 9b3d f437 4d9f ef9d 0f29 aebd 9cb3 f5a2
00000110: 2224 5d3c 847b 3cbd 1841 85b9 9680 93b8
00000120: 00a7 2abe 083b 5d21 6485 b23c 04d5 1fbd
00000130: 8657 0080 f58a 15bf bb51 6ebd 0f15 0080
00000140: 0aa0 9ab6 24df f7ba a766 2234 7f9b 83a5
00000150: 2bb3 52bd 3335 0000 1b13 26ac 0749 5abe
00000160: 4113 19b9 e3ee d9b3 96ab 01bc 3d6d 0080
00000170: 786f a7b7 28c7 4abd c7a4 ba33 ece1 ab3c
00000180: a9af 4fbc c423 8db9 688d 1a1f 9787 bbbc
00000190: 6d67 64b9 fb93 853c cdf9 85bd 8c6e eb2d
000001a0: 4069 162f b31d 63bc 3a35 bbbe 3f49 df3b
000001b0: c511 b9bc 1ed2 8319 a324 0080 e541 11bd
000001c0: 25b2 8cab 445e c405 cca8 97be 7f21 0000
000001d0: 2557 d121 d81c aebc 8359 0080 5325 1e3b

A_mean f4 [9]
3.1022833e-25 2.3184907e-22 -1.9994177e-29 9.667273e-24 1.1023947e-21 -2.8805135e-29 1.3437692e-23 1.7325554e-21
2.692627e-29
00000000: a405 c016 e824 8c1b dac3 ca8f 04fe 3a19
00000010: d496 a61c 340f 1290 1df6 8119 7fe8 021d
00000020: 4c88 0810

B_mean f4 [120]
4.0752886e-24 9.324417e-18 -4.243758e-12 8.903715e-30 -1.926943e-35 1.9018253e-07 5.7360436e-21 -5.118689e-13
4.5355463e-15 2.6294637e-24 4.2766107e-08 9.208058e-23 2.1047094e-29 -2.1865953e-27 3.6413656e-13 -2.7242836e-21
-2.5220507e-08 3.3243266e-09 -2.7287835e-24 2.1036225e-21 -1.8246379e-12 4.951322e-30 1.7233e-40 3.4427612e-34
1.3134439e-21 -6.338993e-34 6.893498e-11 1.5528127e-24 -0.00011914772 -2.3263434e-26 3.1118902e-29 2.0395144e-13
4.362445e-28 -8.875972e-22 3.7638767e-07 -3.673619e-23 1.313868e-24 -6.721691e-07 2.265683e-11 8.8431345e-30
-6.5441977e-16 3.5857204e-30 6.9289685e-22 1.7083417e-05 4.4266048e-26 6.9873804e-24 1.4089451e-14 -6.599752e-10
2.789482e-29 -1.1262407e-32 2.5667502e-22 -1.1774332e-21 4.1357738e-12 2.595691e-27 6.562392e-24 -1.0115433e-24
-6.930707e-23 1.3714147e-29 -9.49119e-40 1.6712592e-17 -4.034848e-23 -5.362408e-07 -5.3669304e-08 9.547413e-24
-1.1271514e-12 5.454215e-10 3.0284628e-29 -2.1574308e-19 -2.052015e-11 -3.746949e-21 1.7358805e-20 -2.3513119e-11
1.7693708e-23 -1.2762857e-06 -8.072506e-07 3.552447e-29 2.2120028e-13 1.3381991e-09 -2.4520556e-21 1.1135381e-05
2.5752584e-08 -9.371033e-25 -1.2256136e-38 5.5370385e-17 3.471053e-29 -1.38337874e-08 1.052552e-39 3.1921433e-21
-1.2820489e-25 -2.51569e-12 2.4493587e-24 1.5972057e-11 1.6458754e-36 1.314452e-29 9.880168e-10 8.013117e-09
-2.2691638e-21 4.755624e-17 5.3499024e-17 1.6016998e-24 4.3751286e-05 -3.5540396e-30 1.7495494e-29 -1.6939013e-26
2.3336923e-23 -5.271509e-21 -1.8203437e-16 -1.7422198e-36 1.1188098e-23 -9.202478e-13 -1.477001e-21 5.8706305e-29
1.2992194e-25 3.4750028e-30 2.031611e-21 0.0002447748 -7.984944e-05 -7.715667e-25 -1.7398175e-16 -3.465998e-32
00000000: b4a7 9d18 5001 2c23 6050 95ac bb96 340f
00000010: 61e8 cc85 fa34 4c34 9cb3 d81d 0b14 10ab
00000020: 0869 a327 e571 4b18 d5ad 3733 1ea3 de1a
00000030: 6171 d50f 6c3d 2d93 9cfd cc2a 4fd7 4d9d
00000040: 7ba4 d8b2 2c72 6431 2021 5398 faf1 1e1d
00000050: c165 00ac 78d9 c80e 63e0 0100 8ccf e407
00000060: 667b c61c 30a6 5288 f296 972e 4049 f017
00000070: f2de f9b8 d063 e694 a5ca 1d10 00a1 652a
00000080: 5c40 0a12 4121 869c 5412 ca34 33a5 319a
00000090: ac4f cb17 1c6f 34b5 a54a c72d 2e5c 330f
000000a0: a89f 3ca6 4074 910e 4c6a 511c 5c4e 8f37
000000b0: e231 5b15 d527 0719 20d0 7d28 a069 35b0
000000c0: 8c71 0d10 3ae9 698a 8926 9b1b beed b19c
000000d0: bd83 912c dea6 4d13 c8de fd18 5c87 9c97
000000e0: 0093 a79a f613 8b0f c255 0a80 7e25 9a23
000000f0: 001d 439a 30f2 0fb5 0682 66b3 80ac 3819
00000100: e9a1 9eab a0ec 1530 b28f 1910 58b4 7ea0
00000110: 457f b4ad 448e 8d9d 04f3 a31e d6d2 cead
00000120: 801f ab19 d84c abb5 d7b1 58b5 6621 3410
00000130: a40c 792a b2eb b730 a745 399d 19d2 3a37
00000140: 8836 dd32 7c02 9197 1f75 8580 d059 7f24
00000150: d800 3010 a4a9 6db2 1676 0b00 0831 711d
00000160: c0b5 1e96 a406 31ac 8c82 3d18 e07d 8c2d
00000170: fe03 0c04 204d 850f c0ca 8730 10aa 0932
00000180: 0374 2b9d 8050 5b24 80b8 7624 ded9 f717
00000190: 9681 3738 422b 908e e66c b10f 80c1 a794
000001a0: 6cb3 e119 e826 c79d 10df 51a5 3036 1484
000001b0: c768 5819 6c83 81ab b532 df9c 92d6 9410
000001c0: e8d5 2016 7ef6 8c0e 1281 191d 1e55 8039
000001d0: d774 a7b8 d0c9 6e97 5996 48a5 04f7 338b

A_logvar f4 [9]
-1.0650379e-28 -0.059906658 -0.19161044 5.7232367e-29 -0.093767926 -0.25134113 -1.0151358e-28 -0.009729434
-0.09904827
00000000: 7502 0791 af60 75bd 8735 44be ee19 9110
00000010: 6609 c0bd c9af 80be 0aaf 0091 3468 1fbc
00000020: d2d9 cabd

B_logvar f4 [120]
4.0392607e-29 3.314612e-39 -2.554544e-09 -0.062691785 -3.1727364e-18 1.5064486e-09 -0.0054960297 1.6710314e-26
2.9512154e-05 2.9911013e-29 -1.8619832e-20 3.131011e-17 -0.12437132 8.250328e-16 -3.219e-41 0.0130253155
4.4816657e-06 1.55992e-39 -3.4889154e-30 -2.291421e-06 2.3168551e-18 -0.08960789 5.98263e-07 3.9154166e-14
-0.016348278 1.8962378e-32 3.6621638e-20 -3.43515e-29 1.0334638e-06 -2.4583495e-14 -0.09035917 1.094541e-06
-6.144176e-17 0.0076824664 -5.5592787e-18 -6.132976e-19 5.574458e-29 -2.4252993e-14 -4.731526e-11 -0.118863456
-1.6414292e-13 -9.887299e-31 -0.011538258 -2.6396083e-10 1.0580469e-15 1.3396272e-31 -1.8001788e-07 2.5808777e-23
-0.030884754 -8.902594e-24 1.910918e-06 -0.0136800725 3.304801e-13 -8.2560425e-18 -1.4273559e-29 1.840297e-06
-7.6378055e-06 -0.062363774 -4.1654338e-10 3.623023e-14 -0.03310348 1.7283887e-06 5.391771e-32 3.9793673e-29
4.4420023e-13 1.1256663e-14 -0.0738108 -8.91282e-15 -3.5113248e-06 0.020407803 9.050685e-10 4.4466623e-30
6.7575525e-30 -1.6753225e-07 3.2351507e-15 -0.069407694 1.7307622e-09 -5.849387e-20 -0.03875469 9.039419e-17
-3.3705585e-13 1.5713259e-29 6.014407e-18 -5.3238477e-12 -0.107893825 1.5128681e-15 7.045896e-21 -0.027593583
-8.182327e-35 4.9031233e-31 -3.4316635e-29 -7.6037777e-16 -1.5128261e-09 -0.09261418 -3.1271804e-05 7.738379e-14
-0.03370501 5.8004134e-06 -7.4368745e-07 4.3860527e-29 3.3183342e-06 -5.7136585e-05 -0.020952929 -4.5010965e-14
-8.140111e-06 -0.03827818 6.8920826e-22 -6.589612e-14 1.7217078e-29 9.527062e-32 7.464194e-14 0.03065531
-5.983762e-14 -9.853002e-17 -0.028677832 -2.2735953e-34 2.7794755e-20 6.7007936e-29 -1.5325486e-05 1.1097126e-16
00000000: 9ad0 4c10 ca17 2400 038c 2fb1 8d64 80bd
00000010: 4c1b 6aa2 730b cf30 0a18 b4bb ae7d a514
00000020: de90 f737 b7aa 1710 fedb af9e 7464 1024
00000030: 64b6 febd adcc 6d26 bc59 0080 2268 553c
00000040: 3761 9636 6cfc 1000 f886 8d8e 50c6 19b6
00000050: 28f4 2a22 5784 b7bd 5298 2035 ae55 3029
00000060: d3ec 85bc a6ea c40a d8f0 2c1f cc2e 2e90
00000070: 8cb5 8a35 ae6d dda8 3b0e b9bd 24e8 9235
00000080: d0ac 8da4 33bd fb3b e719 cda2 7503 35a1
00000090: 4d54 8d10 9873 daa8 3f18 50ae af6e f3bd
000000a0: face 38aa 3c6e a08d f60a 3dbc 2f1d 91af
000000b0: 0a7b 9826 c0e4 2d0c f04a 41b4 709b f919
000000c0: 0602 fdbc 8333 2c99 523d 0036 6222 60bc
000000d0: 340b ba2a 0f4c 18a3 47c0 908f 2000 f735
000000e0: 2024 00b7 2871 7fbd 45ff e4af 9c2a 2329
000000f0: 8497 07bd fcfa e735 77fa 8b0b 24c7 4910
00000100: 0010 fa2a 32c8 4a28 1e2a 97bd 218f 20a8
00000110: 1aa4 6bb6 442e a73c 89c8 7830 c860 b40e
00000120: 380f 090f eae2 33b4 ff1d 6927 9f25 8ebd
00000130: c8df ed30 601d 8a9f 3dbd 1ebd 506f d024
00000140: debe bdaa f459 9f0f 78e4 dd22 f550 bbac
00000150: 70f7 dcbd fb06 da26 dd17 051e f00b e2bc
00000160: 0886 d986 8e1d 1f0d 8a01 2e90 fa29 5ba6
00000170: d6eb cfb0 81ac bdbd d829 03b8 b840 ae29
00000180: 440e 0abd 2ca1 c236 d0a1 47b5 3866 5e10
00000190: 8cb0 5e36 f1a5 6fb8 7aa5 abbc 1cb6 4aa9
000001a0: 8391 08b7 95c9 1cbd e84c 501c 8762 94a9
000001b0: 179a ae0f 3056 f70b 2614 a829 d820 fb3c
000001c0: 0abe 86a9 dc31 e3a4 c6ed eabc 381b 9787
000001d0: cc41 031f a3e2 a910 3b8f 80b7 dfe1 ff24

ar_gate_lin.weight f4 [1, 64]
0.014912448 -0.0061119865 -0.09128845 0.08043352 -0.08687114 0.18335082 0.082496464 -0.039346013
-0.013389664 -0.080337025 -0.01607893 0.033577397 0.26354977 -0.12393341 0.001099307 0.017063092
-0.037124317 -0.1632584 0.09530882 -0.0136729665 0.13860577 -0.026177833 0.109191395 -0.053596072
0.01593676 -0.08054701 -0.09315018 -0.06930008 0.12389412 -0.13729736 0.07967946 -0.019666033
-0.08614301 0.01986222 0.0005316298 0.118946664 -0.012534568 0.032552183 0.054443415 -0.095762335
0.17102529 0.054780968 -0.018160775 -0.15641662 0.0025229468 -0.026615217 0.07356889 -0.16279551
0.14387903 0.13295919 0.035893705 0.100815244 -0.03589667 0.023787463 -0.0020238906 -0.009511545
-0.04877452 -0.009378606 -0.06938238 0.023072865 -0.022046791 0.06535049 0.092519335 -0.04243918
00000000: 5753 743c 0f47 c8bb 70f5 babd 54ba a43d
00000010: 7fe9 b1bd 51c0 3b3e e8f3 a83d 4929 21bd
00000020: 5260 5bbc bd87 a4bd f6b7 83bc 7488 093d
00000030: ffef 863e cdd0 fdbd 9f16 903a e6c7 8b3c
00000040: ab0f 18bd 362d 27be 4531 c33d 9404 60bc
00000050: acee 0d3e e572 d6bc bd9f df3d 8e87 5bbd
00000060: cf8d 823c d5f5 a4bd 86c5 bebd 33ed 8dbd
00000070: 33bc fd3d ae97 0cbe fc2e a33d a91a a1bc
00000080: bf6b b0bd 18b6 a23c 125d 0b3a 4f9a f33d
00000090: ca5d 4dbc 7055 053d 0f00 5f3d 0b1f c4bd
000000a0: 4121 2f3e 0262 603d e8c5 94bc ae2b 20be
000000b0: 0658 253b 2808 dabc 49ab 963d deb3 26be
000000c0: 0655 133e 7426 083e 4705 133d 3978 ce3d
000000d0: 6308 13bd eddd c23c 40a3 04bb 50d6 1bbc
000000e0: cbc7 47bd baa8 19bc 5918 8ebd 4e03 bd3c
000000f0: 799b b4bc 7ad6 853d c77a bd3d b5d4 2dbd

ar_mean_lin.weight f4 [1, 64]
-0.05061228 0.0067388834 0.0060657603 0.030436978 0.004051786 -0.0030144197 -0.005349009 0.019501682
-0.005199994 0.0013502609 0.0006722475 -0.03606361 0.014934875 -0.011786272 -0.02325708 -0.023523452
0.020851603 0.042062428 0.03329258 0.034085386 0.010633963 0.013791471 0.011344616 -0.024642063
-0.027027957 -0.00764163 0.050485473 -0.044757135 0.013115097 -0.03366485 -0.011289986 0.019114649
0.06259836 -0.009625103 0.019209424 -0.05583818 0.03439477 -0.0047059683 -0.031075515 -0.050120864
-0.007892689 0.031697895 0.03793142 -0.034467883 0.01637304 0.022714322 0.024198862 -0.022119911
0.016347583 0.030845707 0.014900449 0.025186056 -0.0068310746 0.014702247 -0.012480278 0.017456368
0.046299245 0.025090596 -0.023054793 0.029850824 0.022661364 0.04638418 0.1079577 0.3966702
00000000: d24e 4fbd dad1 dc3b 49c3 c63b f856 f93c
00000010: d8c4 843b 928d 45bb bd46 afbb fec1 9f3c
00000020: b664 aabb 3dfb b03a c439 303a 70b7 13bd
00000030: 68b1 743c 351b 41bc a285 bebc 41b4 c0bc
00000040: fbd0 aa3c a749 2c3d cd5d 083d 1e9d 0b3d
00000050: 133a 2e3c 9ff5 613c c5de 393c 27de c9bc
00000060: bc69 ddbc a366 fabb dbc9 4e3d 4253 37bd
00000070: b4e0 563c 27e4 09bd a2f9 38bc 5396 9c3c
00000080: 9233 803d 9cb2 1dbc 155d 9d3c 93b6 64bd
00000090: 88e1 0c3d 8634 9abb 1492 febc 894b 4dbd
000000a0: 5650 01bc a7d5 013d fa5d 1b3d 322e 0dbd
000000b0: c120 863c 6313 ba3c b13c c63c d134 b5bc
000000c0: 5eeb 853c 23b0 fc3c 0321 743c fd52 ce3c
000000d0: 35d7 dfbb b2e1 703c 147a 4cbc a800 8f3c
000000e0: 47a4 3d3d cb8a cd3c 68dd bcbc b789 f43c
000000f0: 53a4 b93c 57fd 3d3d ed18 dd3d 5b18 cb3e

ar_logvar_lin.weight f4 [1, 64]
-0.03002883 -0.097309604 -0.07147246 0.10084204 -0.17002623 -0.04943185 -0.20941283 0.05087005
-0.06261242 -0.08059146 0.026250225 -0.047058664 0.037027095 -0.065207236 -0.07965639 -0.07903395
0.15161225 -0.035524264 0.183448 0.0064066797 0.047155865 -0.031644367 0.1156591 -0.21154223
-0.037852548 -0.23955742 -0.21337622 -0.12935759 -0.033392332 -0.037581943 0.0029070287 0.07666168
0.22779922 -0.10662552 -0.02875954 -0.21597888 0.1850753 0.023773922 -0.07227992 -0.054791305
-0.13368388 0.007135864 -0.08470927 -0.14850451 0.0398496 -0.16472384 0.06269197 0.006426111
0.054634344 0.0045767566 0.10217576 -0.0052009257 -0.022366732 -0.016161315 0.16192064 -0.070935026
-0.019005988 0.018138586 -0.10755789 -0.13598783 0.0094446335 0.24060415 0.20224331 0.3243973
00000000: 05ff f5bc 424a c7bd 2760 92bd 4586 ce3d
00000010: 5b1b 2ebe 0d79 4abd 5170 56be 1d5d 503d
00000020: f13a 80bd 230d a5bd b60a d73c 96c0 40bd
00000030: b9a9 173d 5f8b 85bd e422 a3bd 8ddc a1bd
00000040: 3e40 1b3e e481 11bd cbd9 3b3e 20ef d13b
00000050: 8226 413d 869d 01bd aede ec3d 879e 58be
00000060: 460b 1bbd 8a4e 75be 4c7f 5abe 5176 04be
00000070: 66c6 08bd 86ef 19bd d983 3e3b cd00 9d3d
00000080: 3344 693e 7b5e dabd 2099 ebbc 9129 5dbe
00000090: 6184 3d3e 87c1 c23c 7f07 94bd d96c 60bd
000000a0: 6de4 08be f7d3 e93b 0e7c adbd 9111 18be
000000b0: 5639 233d 5ead 28be a664 803d 2092 d23b
000000c0: 43c8 5f3d 9ef8 953b 8641 d13d 876c aabb
000000d0: 703a b7bc bc64 84bc 86ce 253e 6246 91bd
000000e0: 72b2 9bbc 5f97 943c 5047 dcbd 6540 0bbe
000000f0: aabd 1a3c ef60 763e df18 4f3e 6717 a63e
