experiments/konrad/saved_models/online/inverse_gaussian/model_step_5.pt (torch, 449040 bytes, 12 tensors)

A_gate f4 [9]
000000 f7 57 b6 be 09 ba 09 be 78 26 dc ba 61 e0 ba 3c
       -0.35613987 -0.13449873 -0.0016796133 0.02281207
000010 0c b2 13 bf 93 62 a6 be d1 9d a1 3e 1b 3e 52 be
       -0.5769355 -0.3249708 0.31565717 -0.20531504
000020 34 0b 65 bc
       -0.013979722

B_gate f4 [120]
000000 a5 e7 27 3d d0 14 b6 35 dc 11 fc 3a d5 1c ce 3d
       0.040992398 1.3566114e-06 0.0019231397 0.10064093
000010 e9 11 00 80 4b 3f 00 80 00 6b bc 3c d9 ba 85 b7
       -6.425e-42 -2.2705e-41 0.02300024 -1.5941843e-05
000020 c4 e3 46 36 e0 e9 8d bc 54 68 76 3c 03 4e 2d 3b
       2.9636876e-06 -0.017323434 0.015039522 0.0026444204
000030 a1 0c fc 3e 1e 02 fb b2 f2 3d 34 39 09 e0 8c bd
       0.49228385 -2.9221209e-08 0.00017189214 -0.06878669
000040 49 23 00 80 a2 82 7e bc 5b 2b 69 bd 87 92 64 3a
       -1.2658e-41 -0.015534075 -0.056926113 0.0008719344
000050 33 28 00 00 49 cb eb 3b b7 30 1c ae b8 dc 21 bf
       1.4421e-41 0.0071958643 -3.551356e-11 -0.63227415
000060 a7 e5 87 3d 5c f1 5e ad 5e 9b 95 be 6d 8c e7 bc
       0.066355996 -1.26728315e-11 -0.29220098 -0.028265202
000070 a1 7a 0e 0e 1e 52 72 39 93 6f 47 bd a4 b8 99 3d
       1.7561895e-30 0.0002310951 -0.04869039 0.075059205
000080 9f 44 7f be 58 97 c5 3c 08 30 00 00 47 f8 3d 38
       -0.2492852 0.024120018 1.723e-41 4.5292338e-05
000090 11 6a bc bd 0a b8 ac b5 68 db a2 b8 9e 17 41 bd
       -0.09199918 -1.2868561e-06 -7.7656296e-05 -0.047141664
0000a0 4e b1 e1 3b de 2e 00 00 71 2d 1a 3e 29 0c 68 3d
       0.0068875914 1.6813e-41 0.15056397 0.05665222
0000b0 44 1d 00 80 a9 5e e6 be 35 f0 93 30 a2 76 2f 3e
       -1.0499e-41 -0.44994095 1.0763929e-09 0.17135099
0000c0 fb bd 4c 3d 62 06 00 00 68 f7 0e 35 d3 a7 b7 3d
       0.049985867 2.29e-42 5.3259146e-07 0.08967557
0000d0 ae 20 5b 3b 45 c7 dd 2c b8 69 cc bd d7 27 03 3f
       0.0033436227 6.303321e-12 -0.09981102 0.51232666
0000e0 7d 1a b5 b3 bf f9 a7 3d 3f 87 8e 3e 80 c5 fa b9
       -8.4332875e-08 0.08201932 0.2783756 -0.00047830865
0000f0 98 69 2a 3f 0a 16 0e 3b 8a 2d cd 3d da 11 a3 be
       0.66567373 0.0021680617 0.100184515 -0.31849557
000100 32 52 0c a5 b5 c5 ec ba fd 24 b2 3d 65 c8 d2 ba
       -1.2170913e-16 -0.0018064292 0.08698461 -0.0016081451
000110 05 0e 86 b7 3b 3c c1 3d 3d aa 06 ad 78 d6 75 ba
       -1.5980573e-05 0.09435316 -7.654819e-12 -0.00093779666
000120 94 0d 85 bd f7 6e 61 bb 8c 48 81 2e e5 8b 7c 3d
       -0.064967304 -0.0034398416 5.879128e-11 0.06165685
000130 77 05 80 36 c0 c0 f3 39 9a ff 7d 3e ab 5a a1 3c
       3.8153335e-06 0.00046492182 0.24804536 0.019696554
000140 22 6a ea 33 40 cc e1 bd c5 5b 44 3c d4 5d 00 80
       1.09157796e-07 -0.11025286 0.01198477 -3.3659e-41
000150 17 df b7 3d 4a 93 16 b2 6e b1 01 80 75 f0 0a 3e
       0.08978098 -8.764639e-09 -1.55485e-40 0.1356829
000160 8d ef eb 3d 4d 98 9c 29 b9 c6 35 bc 3f 20 a6 b5
       0.115203 6.9542116e-14 -0.011094742 -1.2377349e-06
000170 7f dd cc 3e 13 50 72 bc e8 31 f6 88 2b 92 88 bd
       0.40012738 -0.014789599 -1.4817319e-33 -0.06668504
000180 fe d1 aa 3d 09 a3 b1 31 2c 0b eb 30 24 62 ba bd
       0.08340834 5.169913e-09 1.7101676e-09 -0.0910075
000190 aa 7b aa bd 64 4d 00 00 3d 33 64 3d d7 45 00 00
       -0.08324368 2.7763e-41 0.055712927 2.5054e-41
0001a0 02 29 99 31 32 75 e4 3d 54 ea 85 ba 5f 53 02 00
       4.457548e-09 0.11155166 -0.001021693 2.13579e-40
0001b0 85 21 74 3b 92 73 12 a4 97 de 22 bc b0 74 b3 3d
       0.0037251425 -3.1756595e-17 -0.009940765 0.08762491
0001c0 9f 6a 65 b5 59 0e 00 00 0d 69 1c 3e bd f8 a6 3d
       -8.54643e-07 5.147e-42 0.15274449 0.08152912
0001d0 2c 4a 00 80 31 13 01 be 97 3a d9 3b 89 96 f9 12
       -2.6608e-41 -0.12604977 0.006629299 1.5751219e-27

A_mean f4 [9]
000000 a7 36 8e b5 2c 5e ea 24 5a a6 0d bb d5 01 a0 b5
       -1.059573e-06 1.0164086e-16 -0.0021614046 -1.1921462e-06
000010 28 dd e2 a3 61 8d 7c bb ab 1b 2c b6 8b 4b b9 a4
       -2.4596632e-17 -0.0038536417 -2.5646102e-06 -8.0358936e-17
000020 2f cf 43 ba
       -0.00074695324

B_mean f4 [120]
000000 94 6c 01 35 3b 37 0a 00 cf a2 00 00 20 8a ae ba
       4.8214247e-07 9.38168e-40 5.8405e-41 -0.0013316311
000010 4f 11 00 00 0f 13 00 80 20 3b a8 a3 16 21 02 80
       6.209e-42 -6.837e-42 -1.8239637e-17 -1.9554e-40
000020 d5 a0 00 80 06 d4 fa b4 ba 45 00 00 cf 54 00 80
       -5.7696e-41 -4.6720396e-07 2.5013e-41 -3.0424e-41
000030 aa 89 84 ba ce 2f 01 80 b2 38 0c 00 66 53 0d 24
       -0.0010111828 -1.08985e-40 1.122364e-39 3.0645142e-17
000040 8c cd 8f 34 69 18 00 80 e0 cf 7c b5 ee 60 00 00
       2.678538e-07 -8.757e-42 -9.4179813e-07 3.4772e-41
000050 98 2f 00 80 78 71 55 bb db 81 01 00 40 ba 02 80
       -1.7073e-41 -0.0032568853 1.38419e-40 -2.50485e-40
000060 2a 18 92 a3 b1 cd 01 00 43 7a 01 80 d0 9c 18 b3
       -1.5839586e-17 1.65624e-40 -1.35695e-40 -3.5532878e-08
000070 f6 00 05 80 45 5b 03 80 a0 a3 bd 37 a4 4b 01 00
       -4.59522e-40 -3.08248e-40 2.260675e-05 1.1897e-40
000080 76 00 01 00 3e 7b 91 a3 1c ed d6 33 ec ea 16 33
       9.2001e-41 -1.5773127e-17 1.00082815e-07 3.5138257e-08
000090 fa f7 73 b5 01 06 00 00 49 0b 03 00 62 8e 09 bb
       -9.088541e-07 2.154e-42 2.79555e-40 -0.0020989408
0000a0 f4 ad b9 9d aa 8c 00 80 18 7d 86 23 d1 73 01 80
       -4.9148956e-21 -5.0461e-41 1.4581288e-17 -1.33383e-40
0000b0 9b 0b 00 80 b8 b9 e4 33 31 d0 2d 00 42 86 01 00
       -4.163e-42 1.06508594e-07 4.207282e-39 1.39998e-40
0000c0 68 1e 18 bb ea 39 4f 2d 37 a7 01 80 c0 25 a4 24
       -0.0023211483 1.1779447e-11 -1.51821e-40 7.1187614e-17
0000d0 40 59 00 00 ad 8e 07 00 2c 36 34 b5 d4 65 04 00
       3.2017e-41 6.94031e-40 -6.7134056e-07 4.03871e-40
0000e0 40 4c 4e 30 a8 9e de b7 65 0f 05 00 be 3f 00 80
       7.505072e-10 -2.6538342e-05 4.647e-40 -2.2866e-41
0000f0 79 2d e6 23 a1 c4 03 00 a3 47 05 00 60 82 44 b5
       2.4955908e-17 3.46044e-40 4.84876e-40 -7.320541e-07
000100 15 3f 00 80 a4 e9 1a 2c 59 d0 d4 ba c7 94 08 00
       -2.263e-41 2.2014413e-12 -0.0016236409 7.88055e-40
000110 f5 18 02 80 67 c6 84 23 54 32 00 80 2f 29 00 00
       -1.92624e-40 1.4395495e-17 -1.8054e-41 1.4774e-41
000120 41 32 00 b5 04 5e 00 00 be fe 03 80 bd 05 5f ba
       -4.7756845e-07 3.3726e-41 -3.66891e-40 -0.000850763
000130 e8 ff 04 80 71 85 01 00 f3 96 ee 23 96 47 00 80
       -4.59144e-40 1.39705e-40 2.5867941e-17 -2.568e-41
000140 1e 80 02 00 e0 ad cb b3 4e 76 0c 00 31 53 02 80
       2.29631e-40 -9.484552e-08 1.144466e-39 -2.13514e-40
000150 38 b4 02 3b 55 03 01 80 1a 9f 0f 80 7a e9 59 24
       0.0019943845 -9.3031e-41 -1.434607e-39 4.7252137e-17
000160 96 85 52 08 f0 3e 04 00 e8 8a 1f b5 7b 1e 00 00
       6.3351606e-34 3.8992e-40 -5.943425e-07 1.0934e-41
000170 37 e5 00 00 e6 a8 b9 ba 44 90 07 00 9f 09 00 00
       8.2227e-41 -0.0014164716 6.94601e-40 3.451e-42
000180 fb 43 e2 23 68 1e 00 80 7e c1 01 80 88 e3 97 b3
       2.453176e-17 -1.0908e-41 -1.61247e-40 -7.072873e-08
000190 4b 3c 00 00 7e 6e 02 00 2e 7e 2c bb 64 73 01 80
       2.1629e-41 2.23308e-40 -0.0026320326 -1.3323e-40
0001a0 54 b7 01 00 e2 ba 82 a4 a7 30 02 80 e0 4e 98 a1
       1.57601e-40 -5.6695105e-17 -2.01124e-40 -1.0320799e-18
0001b0 71 3a 89 b5 62 02 07 00 73 f6 01 80 df 66 7d bb
       -1.0224304e-06 6.43703e-40 -1.80245e-40 -0.0038666052
0001c0 ae 37 0a 00 c6 21 00 00 b2 7c bc a4 c3 46 0f 00
       9.38329e-40 1.2116e-41 -8.1743245e-17 1.402917e-39
0001d0 d2 16 00 00 a4 28 61 b5 e1 bc 00 00 61 6b 01 80
       8.186e-42 -8.387817e-07 6.7757e-41 -1.30356e-40

ar_gate_lin.weight f4 [1, 64]
000000 af 3e 2e 3c 31 16 6a 3d f1 be 8b 3a d8 23 94 3d
       0.010635062 0.05715007 0.0010661763 0.07233399
000010 2e 9c cb bd ba ba 10 3e cc b6 aa be da f4 2a 3e
       -0.09941898 0.1413373 -0.33342588 0.16694966
000020 92 f5 d1 3b 58 54 27 3d 89 c2 a0 3d cf c1 f8 bd
       0.006407448 0.04085192 0.07849605 -0.12146341
000030 61 f2 36 be e2 c0 26 be b2 05 07 be b9 e3 00 be
       -0.17865898 -0.16284516 -0.13185766 -0.1258687
000040 1a 45 61 bd da 5d ec bc ce 6e ba bd f8 12 5a bc
       -0.05499754 -0.028853346 -0.091031656 -0.013310187
000050 98 12 3e bc 6e dc fd bc 2d 3c 83 3d 6e cb 88 3d
       -0.011601113 -0.030988898 0.06407962 0.06679426
000060 99 83 0d be 34 28 de bd b4 7e 99 bd 65 49 d8 3d
       -0.13819732 -0.10847512 -0.0749487 0.10560874
000070 e5 e4 2f 3d c7 28 a9 3c 58 11 e7 3d c6 83 72 3d
       0.0429429 0.020649327 0.11282605 0.0592077
000080 f8 cc 60 bd a1 2e 6f 3c 7f eb 53 3c 39 26 9e bd
       -0.054882973 0.01459852 0.012934565 -0.07722134
000090 b9 1c 35 3d af f8 d9 bd 00 cd 51 3d 75 3a 48 3d
       0.044216845 -0.10643136 0.051220894 0.048883874
0000a0 31 e9 16 be a6 91 37 3d 06 ac ac bd 13 2a 52 bd
       -0.14737393 0.044816636 -0.08431248 -0.051309656
0000b0 52 6d 79 3d fa b2 ac 3d 92 61 c5 bd eb 79 41 3c
       0.06089527 0.084325746 -0.09637751 0.011808853
0000c0 1d a4 de bc 50 7c 8b bc 78 e9 35 bd ea 3f d6 3d
       -0.027177865 -0.01702705 -0.044412106 0.104614094
0000d0 8a 06 e1 3d db 87 e1 bd f1 d3 6d bd 89 6b 35 3d
       0.10987575 -0.110122405 -0.05806345 0.044292007
0000e0 59 e4 82 bc 13 0f fd 3d 83 51 15 bd 22 3e 96 bd
       -0.015978025 0.12356391 -0.03645469 -0.0733607
0000f0 a3 53 f8 3d e7 19 64 3e f6 3c a9 bd 24 e5 86 3e
       0.121253274 0.22275506 -0.082635805 0.26346695

ar_mean_lin.weight f4 [1, 64]
000000 93 70 ba bc 48 b8 a6 bd f9 57 0c bb fc 1e c4 bd
       -0.022758758 -0.081406176 -0.002141474 -0.09576222
000010 d5 3b 3f be a0 ef 3d be e3 e9 1a 3e a7 8f c7 3c
       -0.18675168 -0.18548441 0.15128283 0.024360491
000020 dc f8 d8 3b 60 72 56 bc ef e1 16 be 00 3a 51 3d
       0.006621463 -0.013088793 -0.14734624 0.051080704
000030 24 e3 f0 3c df d4 c8 bd c6 29 ad 3c 74 45 f0 bd
       0.029405184 -0.09806227 0.021138083 -0.11731997
000040 91 cf b0 be 25 8d 98 3d ab d0 8f 3d 1d d1 03 bd
       -0.3453336 0.07448796 0.07022222 -0.032181848
000050 21 42 2d bd 09 7f 02 bd 41 c7 50 3d cd d7 1e bd
       -0.042299394 -0.03185943 0.050971273 -0.038780022
000060 bc 88 92 3d b2 b4 c1 3e e0 72 82 bd 13 b9 8b bc
       0.07154986 0.37833172 -0.06369567 -0.017056024
000070 cd 47 1d 3d a5 11 33 bd ad a7 ef 3c 37 61 6a bd
       0.038398553 -0.043718 0.029254759 -0.057221618
000080 14 24 99 3d ec f5 06 3e 1c 8d 18 be ec 94 37 be
       0.074775845 0.13179749 -0.14897579 -0.17927903
000090 d8 f2 5e bc ae d0 9c bd 1a fb b5 bd 40 ec 10 be
       -0.013607703 -0.0765699 -0.088857844 -0.14152622
0000a0 23 65 2b 3e 58 cc 79 be d4 bf 93 3c 7b c2 b4 bd
       0.167378 -0.24394357 0.018035807 -0.08826157
0000b0 c4 ad a9 3d 87 f1 69 bd 0f 61 60 bd a5 54 68 bd
       0.08285096 -0.057115104 -0.054780062 -0.05672135
0000c0 a9 9a e0 bd c1 33 35 bd 87 3d af bd 06 69 7d 3d
       -0.10966999 -0.04423881 -0.08556657 0.061867736
0000d0 e2 14 c0 bd a1 dc 2c 3e 01 49 c8 bd 58 af 03 3e
       -0.09378983 0.16881038 -0.097795494 0.12859857
0000e0 11 2f 81 bb c0 2c d2 bd 7b f1 7f 3d d6 68 93 bd
       -0.0039423783 -0.10262442 0.062486153 -0.0719773
0000f0 7f 29 fd 3c 69 72 0a 3e 6f 98 b1 bd 75 f1 a0 3e
       0.030903576 0.13520207 -0.086716525 0.31434217

ar_lambda_lin.0.weight f4 [32, 64]
000000 2a bb 80 3d 9d 45 26 bc 4e 7c 5e 3d ca 44 b7 3d
       0.06285699 -0.010148433 0.054317765 0.08948667
000010 87 80 58 3d 38 ae 83 3d 7a e0 3f 3d f4 bb 6c 3d
       0.05285695 0.06429714 0.046844937 0.057796434
000020 1f 90 17 3d e3 8c 87 3d ce 42 98 3d 24 5d 67 3d
       0.03700268 0.06618669 0.07434617 0.05648531
000030 2a 1c 84 3d dd 95 17 3d b7 45 1d 3d 47 db 2d 3d
       0.06450684 0.037008155 0.038396563 0.042445447
000040 67 f1 24 3d 7b 35 77 3d 16 5f 41 3d 9f 15 48 3d
       0.04026928 0.060353737 0.04720982 0.048848744
000050 91 43 5d 3d ea 44 87 3d c6 2a b0 3d 6d 16 99 3d
       0.054019514 0.06604941 0.086019084 0.074749805
000060 e9 9d 87 3c 85 5f 85 bc b7 8b 32 3c 55 99 4f 3c
       0.01655479 -0.016280899 0.010897568 0.012670835
000070 00 d7 1c 3d e1 5a b7 3d ed 62 e5 3d 23 db 95 3d
       0.038290977 0.08952881 0.11200509 0.07317188
000080 05 47 88 3d d8 a3 aa 3d 1d 36 9d 3d 58 ce 50 3d
       0.06654171 0.08332032 0.07676337 0.050978035
000090 15 a1 9c 3d 8e 40 12 3d cd 4e e1 3c 7f 8b 56 3d
       0.076479115 0.035706095 0.027503395 0.052379128
0000a0 6c bf 61 3d bb 4c 6d 3d 77 22 47 3d ac f7 8f 3d
       0.055114195 0.057934504 0.048616853 0.070296615
0000b0 93 3e c3 3d 58 48 95 3d 58 14 53 3d 63 71 9e 3d
       0.095334195 0.07289189 0.051533073 0.077364706
0000c0 94 0e 7d 3d 0e e9 76 3d ec 50 6a 3d cd be c6 3d
       0.06178148 0.060280852 0.05720608 0.09704361
0000d0 53 17 a0 3d 17 f9 3b 3d 20 8a 70 3d ca ab 88 3d
       0.07816949 0.045891847 0.058725476 0.06673391
0000e0 f7 a4 96 3d 0a f0 99 3d 40 8c 86 3d 89 a6 64 3d
       0.07355683 0.07516487 0.06569719 0.055822883
0000f0 93 17 b1 3d 04 f7 94 3d db 22 b0 3d 01 d7 b7 3c
       0.086470746 0.07273677 0.08600398 0.022441389
000100 15 40 3d b6 64 32 9f 37 e5 6c a0 34 39 c1 49 b6
       -2.8200495e-06 1.8977742e-05 2.9881554e-07 -3.0063804e-06
000110 64 37 bb 35 b1 e6 3e 36 80 ec 8b b5 95 e8 83 36
       1.3948707e-06 2.8446486e-06 -1.0425138e-06 3.9311803e-06
000120 7c 9a a3 36 5d ae b8 b5 fe 11 79 b4 e5 a9 4f 36
       4.875763e-06 -1.3759815e-06 -2.3196478e-07 3.0944295e-06
000130 02 b9 6e b6 26 0b 7a b5 8e 61 e7 b4 1f d9 39 b6
       -3.5572452e-06 -9.314848e-07 -4.3098083e-07 -2.769353e-06
000140 18 4f db b4 a8 84 6b b6 4b 48 f9 33 f3 f5 95 b5
       -4.0849477e-07 -3.5094945e-06 1.1608116e-07 -1.1172946e-06
000150 5e 9a cd b3 70 28 bb b6 1d 1a 8d b6 f5 d5 34 b6
       -9.5741356e-08 -5.577742e-06 -4.2051674e-06 -2.694663e-06
000160 36 e4 90 35 d3 c3 5d 37 66 fc 35 37 51 04 0f 37
       1.0795254e-06 1.321822e-05 1.0847207e-05 8.524469e-06
000170 01 dc a3 35 bf ba 40 b6 e5 df 92 b6 23 91 09 b6
       1.2208476e-06 -2.871893e-06 -4.377204e-06 -2.0499072e-06
000180 2d 0d 8d b6 88 39 89 b6 62 ed db b6 55 b8 4d b6
       -4.2036613e-06 -4.0896157e-06 -6.5543436e-06 -3.0654676e-06
000190 3f d0 d9 b6 aa 6b 3a 35 ac 07 fd 35 76 27 04 b6
       -6.491347e-06 6.944707e-07 1.8852202e-06 -1.9692502e-06
0001a0 8f 89 4d b5 f6 2d b2 b5 42 5b f2 b5 49 5d 01 b7
       -7.6568625e-07 -1.327541e-06 -1.8056965e-06 -7.710719e-06
0001b0 76 51 1d b7 b3 13 b7 b6 48 ca 08 b6 9c 3e f4 b6
       -9.376896e-06 -5.4561183e-06 -2.0383322e-06 -7.2790554e-06
0001c0 5a 46 93 b4 7b b0 b1 35 5e 94 ca 35 b6 8e 68 b6
       -2.743207e-07 1.323889e-06 1.5093353e-06 -3.4653763e-06
0001d0 53 fb 82 36 3d 3f 15 36 fd 39 2d b6 da db 20 b6
       3.90356e-06 2.223954e-06 -2.5812762e-06 -2.3969828e-06
0001e0 fc db 0f b6 d8 66 ac b6 56 6b 76 35 32 be 8e b4
       -2.1436708e-06 -5.137972e-06 9.1798336e-07 -2.6587946e-07
0001f0 97 75 27 b6 bd 16 68 36 85 72 3d b7 cd 74 b3 38
       -2.4953385e-06 3.458393e-06 -1.12919415e-05 8.557141e-05
000200 6f 5f 3c b2 b6 56 ec b1 54 49 3a b2 07 fa 35 b2
       -1.0964739e-08 -6.878362e-09 -1.0843298e-08 -1.0592436e-08
000210 48 89 27 b2 76 61 18 b2 94 92 40 b2 67 23 74 b2
       -9.7518935e-09 -8.8697245e-09 -1.1209199e-08 -1.4210719e-08
000220 e0 8c 99 b2 8e 97 80 b2 d6 d9 5c b3 33 25 97 b2
       -1.7875607e-08 -1.497008e-08 -5.1420862e-08 -1.759563e-08
000230 0d 9d 48 b3 01 89 9a b2 9b 59 79 b2 4d d6 be b2
       -4.6708966e-08 -1.7990262e-08 -1.45140815e-08 -2.2216364e-08
000240 dd 6e 8e b2 18 8a 9d b2 92 5f 3a b2 9d d4 1b b2
       -1.658139e-08 -1.8340003e-08 -1.0848355e-08 -9.07053e-09
000250 a6 53 8a b2 62 b9 07 b1 be 1d 67 b2 66 73 1f b2
       -1.6103353e-08 -1.9750463e-09 -1.3452732e-08 -9.281257e-09
000260 c6 78 e5 b1 69 6e ab b2 34 cc 0b b2 af 5f 00 b2
       -6.6785075e-09 -1.9957229e-08 -8.137295e-09 -7.4723365e-09
000270 68 eb 43 b2 ec 39 2b b3 e6 93 a8 b3 01 be 7e b3
       -1.1404019e-08 -3.986672e-08 -7.850012e-08 -5.931179e-08
000280 8a 59 15 b3 be c6 c0 b2 07 a1 ac b2 1f 32 c4 b2
       -3.47732e-08 -2.244212e-08 -2.0096662e-08 -2.2840196e-08
000290 55 4d 5a b2 c6 7d 10 b3 d4 82 2a b3 14 02 0c b3
       -1.2706853e-08 -3.3642003e-08 -3.9700197e-08 -3.259818e-08
0002a0 69 63 5d b2 f0 81 70 b2 57 94 67 b2 94 3e c9 b2
       -1.2886496e-08 -1.3999383e-08 -1.3479698e-08 -2.3427937e-08
0002b0 48 1d db b1 db 56 25 b1 b4 ed 81 b2 62 13 24 b2
       -6.3770678e-09 -2.4060032e-09 -1.5125671e-08 -9.5504635e-09
0002c0 e8 02 26 b2 7f d7 58 b2 13 2c b4 b2 9d 1e b5 b2
       -9.6631325e-09 -1.2621853e-08 -2.09748e-08 -2.1085095e-08
0002d0 01 30 15 b2 5e 1e df b2 3f c0 13 b3 ca 2d 4f b2
       -8.683856e-09 -2.5974426e-08 -3.440095e-08 -1.2059397e-08
0002e0 f5 3d b0 b2 30 aa 56 b2 5e 07 82 b2 2a 5e f6 b2
       -2.0517271e-08 -1.2495136e-08 -1.5137342e-08 -2.868099e-08
0002f0 c2 02 c8 b2 6e 93 82 b4 f2 e4 68 b3 71 32 43 b4
       -2.3284318e-08 -2.4321656e-07 -5.4224934e-08 -1.817914e-07
000300 7f fc eb 3c 17 72 ab bb 28 7c d6 3c ec 9b 29 3d
       0.028806923 -0.0052321064 0.02618225 0.041408464
000310 44 2c c8 3c c6 d8 ee 3c 23 96 b8 3c bc 28 f5 3c
       0.02443517 0.0291561 0.022532528 0.02992665
000320 21 27 91 3c 83 2f f8 3c 4a 9e 0d 3d 09 32 d4 3c
       0.017718853 0.030296093 0.034574784 0.025902765
000330 c4 cf ec 3c 8e bd 87 3c ce ea 97 3c 3f 8a af 3c
       0.028907664 0.016569879 0.01854458 0.021428226
000340 6a 5a 9a 3c 5d 95 d6 3c 25 5c af 3c c1 87 b2 3c
       0.01884194 0.026194269 0.021406243 0.021793248
000350 f8 6f ce 3c 93 25 fd 3c 68 1e 21 3d a0 84 0b 3d
       0.025199875 0.030901706 0.03933564 0.034062028
000360 a3 02 2e 3c 33 62 3b bc d6 63 a3 3b 27 e3 09 3c
       0.010620746 -0.011436987 0.0049862666 0.008415974
000370 97 71 4a 3c 31 96 1e 3d 85 a5 50 3d a9 dc 0f 3d
       0.0123561835 0.038717452 0.0509391 0.035122547
000380 22 dd ff 3c 71 8a 22 3d 9e 28 12 3d 4b 2c c1 3c
       0.031233374 0.03968281 0.035683267 0.02358069
000390 ef 18 14 3d 84 89 89 3c 73 3a 61 3c 5b d3 d8 3c
       0.03615659 0.016789205 0.013746846 0.02646797
0003a0 55 e1 d3 3c a2 ac d9 3c 07 5c b1 3c c3 4f fb 3c
       0.025864283 0.026571576 0.021650327 0.030677682
0003b0 e3 74 30 3d 0b 8b 0d 3d 97 17 c9 3c c0 7c 13 3d
       0.04308022 0.03455643 0.024547381 0.036007643
0003c0 51 95 e6 3c e5 b1 e1 3c e0 f1 d1 3c 42 62 2f 3d
       0.028147371 0.027550647 0.02562803 0.042818315
0003d0 b3 cf 1e 3d 81 bc b1 3c 51 62 d8 3c 37 ed 02 3d
       0.038772296 0.021696331 0.026414068 0.031964507
0003e0 d7 10 07 3d 86 92 06 3d c8 e0 f1 3c b9 13 d1 3c
       0.032975044 0.03285458 0.02952613 0.0255221
0003f0 0b 76 20 3d 8c 9e 0c 3d 73 04 1f 3d 81 e7 15 ba
       0.039175075 0.03433089 0.038822602 -0.00057183957

ar_lambda_lin.0.bias f4 [32]
000000 4a 5e a2 3d e3 12 4d b6 90 35 38 b3 a3 59 19 3d
       0.079281405 -3.0558374e-06 -4.2889553e-08 0.037439
000010 70 9e 7b b5 20 47 44 3d 1a ed 28 a5 4c eb 24 95
       -9.3735343e-07 0.047919393 -1.465201e-16 -3.3305153e-26
000020 4c ab ae 35 06 bf a3 b2 3f 2c 09 9f e8 1d 4b af
       1.3013864e-06 -1.9062565e-08 -2.9047478e-20 -1.8473367e-10
000030 6f 4c 9d 3c 5d f9 00 36 14 27 79 b4 38 be 92 3d
       0.019201485 1.9218635e-06 -2.3204149e-07 0.071651876
000040 3c 62 6a 3d 18 02 1f b5 e0 86 b4 3d de f5 c0 34
       0.05722259 -5.923516e-07 0.08814788 3.594168e-07
000050 29 73 ab 3c a7 27 13 af 88 34 bf 3d 01 35 a9 3d
       0.020928936 -1.338366e-10 0.093361914 0.08262063
000060 9d 98 c0 b3 21 24 53 b8 0c 3f 78 39 a1 00 e8 af
       -8.968457e-08 -5.0339968e-05 0.0002367461 -4.2201e-10
000070 ca ec ce b1 89 b0 f4 b4 a6 ec 4c 3d 20 e8 e8 b4
       -6.022309e-09 -4.5576988e-07 0.050030373 -4.338226e-07

ar_lambda_lin.2.weight f4 [1, 32]
000000 5c dd f3 3e c3 cd f2 b8 e9 cd a2 b7 cc 97 58 3e
       0.4762982 -0.00011577785 -1.940779e-05 0.21151656
000010 3b f5 a5 b7 91 94 8d 3e e5 a4 a9 a7 08 a7 29 b8
       -1.9783727e-05 0.2765241 -4.70857e-15 -4.04483e-05
000020 65 e7 62 b9 58 4e 04 b7 dd a3 8c 9f cc 5c 0b b3
       -0.00021639241 -7.886054e-06 -5.9563395e-20 -3.2447858e-08
000030 ba b0 d9 3d ba d0 45 37 0c d7 9d b7 69 29 da 3e
       0.10629411 1.1790713e-05 -1.8815997e-05 0.42609718
000040 8f 81 ab 3e 94 28 ab b7 61 1e 09 3f e7 63 1b b9
       0.33497283 -2.0403684e-05 0.5356198 -0.00014819168
000050 49 f9 e9 3d 19 05 83 b1 54 cb 11 3f db b4 ff 3e
       0.114245005 -3.8131813e-09 0.5695088 0.4994267
000060 c4 0a 24 b7 05 50 24 bb e4 c2 c1 3a ac c3 0e b3
       -9.777668e-06 -0.002507211 0.0014782813 -3.3239914e-08
000070 1c 72 2e b9 0c e0 0b b8 e1 2d 94 3e bc 71 98 b6
       -0.00016636442 -3.3348842e-05 0.28941253 -4.5431934e-06

feat_lambda_net.0.weight f4 [100, 1080]
000000 ae 1e 92 bc 17 bc 00 00 04 bb 00 00 39 15 00 80
       -0.017836895 6.7474e-41 6.7089e-41 -7.613e-42
000010 96 29 00 80 5a 2b 00 80 cb a5 03 80 2f 2b 00 80
       -1.4918e-41 -1.5552e-41 -3.34982e-40 -1.5491e-41
000020 09 14 00 80 84 24 97 bc 1a 1e 00 80 23 bc 00 00
       -7.187e-42 -0.01845003 -1.0798e-41 6.7491e-41
000030 e7 20 00 80 4c 34 00 00 fd 0f 00 80 90 b0 03 00
       -1.1803e-41 1.876e-41 -5.736e-42 3.38845e-40
000040 ce 43 00 80 e8 20 b8 b7 9e 75 a0 3d 12 35 0c 80
       -2.4324e-41 -2.1949832e-05 0.07834934 -1.121064e-39
000050 e6 3c 01 80 c0 2e 00 00 ec 07 00 80 6a 5a 00 80
       -1.13682e-40 1.6771e-41 -2.842e-42 -3.2434e-41
000060 51 35 05 00 30 36 00 80 15 6f 04 80 e9 a5 98 bc
       4.78304e-40 -1.9439e-41 -4.07191e-40 -0.0186338
000070 2a d6 0a 00 9f a1 02 80 8e 3b 00 00 ba 1a 55 80
       9.95183e-40 -2.4165e-40 2.1364e-41 -7.815605e-39
000080 da 37 00 80 5d 48 00 00 a9 02 00 80 15 7a 03 80
       -2.0036e-41 2.5959e-41 -9.54e-43 -3.19301e-40
000090 98 6e 1c bc c2 1c 00 00 81 1c 00 80 49 ef 0b 00
       -0.009547852 1.0316e-41 -1.0225e-41 1.09603e-39
0000a0 c2 7d 81 31 9b 57 00 80 e5 4b 00 00 78 e3 04 80
       3.768691e-09 -3.1427e-41 2.7226e-41 -4.48942e-40
0000b0 62 1e 00 80 b2 60 71 bb 77 24 00 80 29 14 00 80
       -1.09e-41 -0.0036831317 -1.3081e-41 -7.232e-42
0000c0 82 29 00 00 89 46 00 00 42 54 00 00 d1 4f 00 00
       1.489e-41 2.5303e-41 3.0226e-41 2.8633e-41
0000d0 18 41 01 80 dc 45 00 80 85 7c e7 bc 79 01 00 00
       -1.15187e-40 -2.5061e-41 -0.028257618 5.28e-43
0000e0 31 eb 0a 00 36 60 01 80 99 10 01 80 a2 03 00 00
       1.002726e-39 -1.2635e-40 -9.779e-41 1.303e-42
0000f0 12 e5 42 37 da 2b 1d 80 82 ac 00 80 6e ad bd bc
       1.1616636e-05 -2.67896e-39 -6.1884e-41 -0.023153987
000100 a3 2b 03 80 fe 1b 00 00 78 d3 31 00 f8 0a 00 80
       -2.9116e-40 1.0042e-41 4.5758e-39 -3.935e-42
000110 a5 30 00 80 65 25 00 80 ab 23 00 80 37 0e 00 00
       -1.745e-41 -1.3415e-41 -1.2795e-41 5.1e-42
000120 8c 46 4e bd 65 12 00 00 99 47 00 80 09 e1 01 00
       -0.050360247 6.599e-42 -2.5684e-41 1.72563e-40
000130 d0 3b 00 80 b9 31 00 80 e8 4c 00 00 9f 45 00 80
       -2.1457e-41 -1.7837e-41 2.7589e-41 -2.4975e-41
000140 6f 22 00 80 80 49 63 bc 13 a0 01 00 8c 25 00 80
       -1.2352e-41 -0.013872504 1.4926e-40 -1.3469e-41
000150 31 50 02 80 ef 59 00 80 79 c2 00 00 2f 09 00 00
       -2.12438e-40 -3.2262e-41 6.9764e-41 3.294e-42
000160 bb 8e 03 00 2a 43 00 80 31 38 1f 3c ef 3c 01 00
       3.26709e-40 -2.4094e-41 0.009717987 1.13694e-40
000170 fb 13 04 00 d2 3b 00 00 4d 28 00 80 68 31 00 80
       3.7451e-40 2.146e-41 -1.4457e-41 -1.7724e-41
000180 63 4e 00 80 ee 1a 01 80 c6 d1 12 00 cf 6b 50 bc
       -2.812e-41 -1.01496e-40 1.728291e-39 -0.012721016
000190 82 c5 51 18 9d 48 00 80 ac 55 00 00 a7 d1 01 80
       2.7112333e-24 -2.6049e-41 3.0733e-41 -1.67045e-40
0001a0 00 70 01 80 27 5d 00 00 5a 1d 00 00 0c f8 25 80
       -1.32014e-40 3.3417e-41 1.053e-41 -3.486896e-39
0001b0 84 9a 4c bc a4 14 00 00 5d da 01 80 69 17 00 00
       -0.012488011 7.404e-42 -1.7017e-40 8.398e-42
0001c0 38 4d 00 00 ee 09 00 00 50 11 00 80 4d 8f 02 00
       2.7701e-41 3.562e-42 -6.21e-42 2.35078e-40
0001d0 8c ce 00 80 fa f3 f7 bc a1 9a 00 00 0b 36 00 00
       -7.4095e-41 -0.030267704 5.547e-41 1.9387e-41
0001e0 81 08 01 00 d6 84 88 2d e7 26 00 00 52 4a 02 80
       9.4886e-41 1.5520401e-11 1.3956e-41 -2.10332e-40
0001f0 26 25 00 80 2a 28 00 00 c5 83 8d bd a4 3a 00 00
       -1.3326e-41 1.4408e-41 -0.06909899 2.1036e-41
000200 ac 40 00 80 77 e2 00 80 c0 f2 00 80 05 03 00 80
       -2.32e-41 -8.124e-41 -8.7082e-41 -1.083e-42
000210 c9 31 00 80 0f 29 00 00 f3 99 00 80 c5 b1 f6 3c
       -1.786e-41 1.4729e-41 -5.5227e-41 0.030114064
000220 11 f5 09 00 2e 1c 00 00 10 fe 00 80 37 2f 00 80
       9.14433e-40 1.0109e-41 -9.114e-41 -1.6937e-41
000230 9c ab 00 00 c1 03 00 80 6d 32 00 00 68 54 01 80
       6.1562e-41 -1.347e-42 1.809e-41 -1.22115e-40
000240 0f 38 d9 3c 1e 0b 41 32 7b 55 00 00 5e 0b 08 00
       0.026515989 1.1236606e-08 3.0665e-41 7.38762e-40
000250 9e 44 00 80 9e 5e 00 80 28 25 00 00 86 20 00 80
       -2.4615e-41 -3.3942e-41 1.3329e-41 -1.1667e-41
000260 b4 40 00 00 a9 9e 1d bd 2b 03 00 00 da ac 3d 23
       2.3211e-41 -0.03848139 1.136e-42 1.0282313e-17
000270 ff 52 00 80 58 48 00 80 39 55 00 80 6e 3b 00 80
       -2.9773e-41 -2.5952e-41 -3.0572e-41 -2.132e-41
000280 ea 95 00 00 1f 77 03 00 12 5c c4 3c 67 90 01 80
       5.3779e-41 3.18239e-40 0.023969684 -1.43637e-40
000290 02 07 00 00 3e 6e 01 00 d6 00 03 80 3e 0b 00 80
       2.514e-42 1.31383e-40 -2.75806e-40 -4.033e-42
0002a0 08 b0 04 80 a1 7d 0d 80 e4 98 00 00 0e 2f 25 3d
       -4.3049e-40 -1.238929e-39 5.4847e-41 0.040328078
0002b0 9a 21 00 00 d0 f3 01 00 65 4d 01 00 63 0f 00 80
       1.2054e-41 1.79299e-40 1.196e-40 -5.52e-42
0002c0 60 ac 05 80 9a 1c 03 00 d5 0e 00 00 11 4d 00 80
       -5.21014e-40 2.85767e-40 5.321e-42 -2.7646e-41
0002d0 51 cf 42 bc 78 5b 00 00 77 9c bc 1c fc 20 00 80
       -0.011890248 3.2813e-41 1.2481242e-21 -1.1833e-41
0002e0 99 02 01 80 8d 29 00 80 4e 94 00 80 71 21 31 80
       -9.2767e-41 -1.4906e-41 -5.3202e-41 -4.511936e-39
0002f0 f0 09 08 00 96 9d c3 bd e6 52 00 80 fc 2e 00 00
       7.38249e-40 -0.095515415 -2.9738e-41 1.6855e-41
000300 93 0a 00 00 63 02 00 80 cf 0b 00 80 38 5d 01 80
       3.793e-42 -8.56e-43 -4.236e-42 -1.25276e-40
000310 38 8a 02 00 ca 1e 00 80 65 72 62 b9 5d 60 00 00
       2.33255e-40 -1.1045e-41 -0.00021595655 3.4569e-41
000320 df 49 01 00 cb b4 00 80 08 a7 00 00 1a 58 00 80
       1.18335e-40 -6.4856e-41 5.992e-41 -3.1605e-41
000330 2a a5 00 00 d5 51 00 00 cf 16 00 00 53 16 bd bc
       5.925e-41 2.9356e-41 8.182e-42 -0.023081934
000340 de 4d 00 00 26 93 82 80 0e 3b 00 00 49 48 00 00
       2.7933e-41 -1.1991401e-38 2.1185e-41 2.5931e-41
000350 ac 17 00 00 e3 1c 00 00 58 d3 00 00 ae 6c 02 00
       8.492e-42 1.0363e-41 7.5816e-41 2.22658e-40
000360 af 21 b7 bc 4d 60 00 00 1d 27 00 00 97 1a 01 00
       -0.022354929 3.4546e-41 1.4031e-41 1.01374e-40
000370 83 19 00 00 18 7b 1b 80 86 01 00 00 49 55 15 00
       9.152e-42 -2.523716e-39 5.47e-43 1.95914e-39
000380 3b 3f 00 00 e1 ed 29 3d f3 79 04 80 ae 8c 00 80
       2.2683e-41 0.041486625 -4.11089e-40 -5.0466e-41
000390 af 55 01 80 1f a0 02 80 51 3f 00 80 07 0d 00 00
       -1.22573e-40 -2.41112e-40 -2.2714e-41 4.673e-42
0003a0 f4 43 00 00 66 b9 05 00 88 f5 49 3c fd 59 00 00
       2.4377e-41 5.25686e-40 0.012326606 3.2282e-41
0003b0 49 05 00 80 fe 3d 00 00 01 5b 00 80 4b 39 00 80
       -1.896e-42 2.2239e-41 -3.2646e-41 -2.0553e-41
0003c0 be 5a 95 2f 7a 10 00 00 e1 3b 01 00 34 9a 1e bd
       2.7167418e-10 5.91e-42 1.13316e-40 -0.03872128
0003d0 83 1a 00 00 8b 3a 00 00 10 b8 01 00 8b 09 00 80
       9.51e-42 2.1001e-41 1.57865e-40 -3.423e-42
0003e0 de c3 01 00 77 12 00 00 c9 2d 00 80 3b fe 00 80
       1.621e-40 6.624e-42 -1.6425e-41 -9.1201e-41
0003f0 ab 6e 03 3d b2 02 11 00 35 ba 00 00 a0 0c 00 80
       0.032087963 1.56217e-39 6.6798e-41 -4.529e-42

feat_lambda_net.0.bias f4 [100]
000000 81 57 74 bc f0 7c 77 3c ba 2d 3b 3b 46 47 ca bc
       -0.014913441 0.015105471 0.002856119 -0.024692189
000010 1f d9 9c 3b 5b fc 58 3b e8 60 1e 3c 10 74 8a 3c
       0.004786625 0.00331094 0.009666659 0.016901046
000020 a2 cf 16 3b e7 87 dc 3b b9 f9 80 3b 59 51 38 94
       0.0023011942 0.006730068 0.0039360193 -9.305669e-27
000030 be 7a 6f bc 16 4b 7a 3c 77 81 1e 3b 4f 25 66 b9
       -0.014616666 0.015276691 0.0024186054 -0.00021948408
000040 66 fc bf ba a8 ee 21 bc 0f 2a cc 3b 6f e8 51 3c
       -0.0014647364 -0.00988356 0.0062305997 0.012811764
000050 00 97 72 3c 3f 26 09 3d e0 4d 0e 3c 47 73 00 bc
       0.014806509 0.03348374 0.008685559 -0.007839984
000060 08 41 36 3d dc 88 88 3c 09 14 df bb 5c 7c a7 3b
       0.044495612 0.016666822 -0.0068078083 0.0051112603
000070 87 3d 77 3c 71 00 96 3c 25 ad 32 bc 70 72 da 3b
       0.015090353 0.018310757 -0.010905539 0.006666474
000080 e9 7a 49 3b b0 77 90 a4 0b 67 10 3d 63 46 9c 3c
       0.0030743426 -6.2652804e-17 0.03525452 0.019076532
000090 0b 78 f5 3c 65 c8 b2 3b 2d 24 92 3c 31 f9 ac bc
       0.029964468 0.005456018 0.017839516 -0.021114917
0000a0 ec f9 ef 3b aa 06 24 3c 50 28 40 3c 24 b9 9d 3c
       0.007323494 0.010011354 0.011728361 0.019253321
0000b0 35 07 c6 3c 22 46 92 3c f9 04 82 3a bd 05 f0 3b
       0.024173358 0.017855708 0.0009919695 0.007324903
0000c0 9e d2 8f 3c 4e 0a d2 3c 8e 5d dc bb f2 f6 e8 b0
       0.017556485 0.02563968 -0.00672502 -1.6950408e-09
0000d0 e9 3f e3 ba a3 c4 f5 3c 97 0b 7e 3c 25 26 89 ba
       -0.0017337772 0.03000099 0.015505693 -0.0010463638
0000e0 0d 3c 77 3c 25 24 b7 bc 74 57 67 3c e9 3c 7e bc
       0.015090001 -0.022356102 0.014119972 -0.015517452
0000f0 d9 27 32 3d 70 8a 8b 3b c8 68 01 3c 8e 8b 51 bc
       0.043495033 0.0042584464 0.007898517 -0.01278962
000100 b1 f2 93 3b 44 c2 d1 3c 27 9c 09 3c 8f 9a ad 3b
       0.004515015 0.025605328 0.008399046 0.005297966
000110 5d 33 ab 3c ec c8 91 3b 4c ca fd bb 24 48 ce 3b
       0.020898515 0.0044490006 -0.007745063 0.006295221
000120 4d e7 05 3d 8f 35 60 3a cb 21 64 ba d8 79 20 3c
       0.03269129 0.0008552903 -0.00087025453 0.009794675
000130 05 20 3d 3d 75 47 cd 3c f6 c2 89 3c 5c fd 30 bc
       0.046173114 0.025058487 0.016816597 -0.010802593
000140 ae 3d 94 ba 3f 37 fd 3b 2e bd 78 3a a2 42 1d 3c
       -0.0011309886 0.007727533 0.0009488639 0.009598406
000150 dc 0a 95 3c 95 2a 40 3c 20 77 96 3c d1 17 58 3c
       0.018193655 0.011728902 0.01836735 0.013189272
000160 99 79 b9 3c 7c d4 2f 3a e8 02 12 3c a6 13 98 3a
       0.02264099 0.0006707383 0.008911826 0.0011602535
000170 a4 45 7f 3a 65 d9 1a 3d c2 78 1a 3d f2 ee 8f 3b
       0.0009737855 0.03780498 0.03771282 0.004392498
000180 4c b2 80 3c ae 36 97 bc 09 7f ab 39 5d 75 47 3d
       0.015710019 -0.01845869 0.0003271031 0.04869591

feat_lambda_net.2.weight f4 [1, 100]
000000 31 72 c8 3e a0 bb 5b be 5f ff 9a be ce 28 9e 3e
       0.3914962 -0.21458292 -0.30272958 0.30890507
000010 44 bd e9 3d 05 a3 c4 bd 9a 3c d6 3d fe 59 e0 3e
       0.11413053 -0.09601406 0.104607776 0.4381866
000020 30 5e 9a be c4 77 62 be 0c d3 48 3e b6 30 4b 15
       -0.30149984 -0.22116 0.19611758 4.103395e-26
000030 5a 57 b2 3e e8 99 83 3e d2 27 18 be f8 c3 17 bb
       0.3483227 0.2570336 -0.1485894 -0.0023157578
000040 90 6f 95 3c a3 dc ad 3e 21 a8 a8 3e f3 29 54 be
       0.018241674 0.33957395 0.32940772 -0.20719127
000050 11 53 30 be ff 1f 4f be 30 c4 87 3e 49 5b 66 be
       -0.17219187 -0.2022705 0.26516867 -0.2249576
000060 ca bd 8d be 75 f5 57 be 1a 84 be 3e 6f ed 0f 3e
       -0.2768386 -0.21089728 0.3721016 0.14055417
000070 9a 42 ce 3e 56 f5 a3 be 06 df 51 3e fc eb b1 3e
       0.40285188 -0.32023114 0.20495233 0.34750354
000080 d1 06 6e bd 16 98 7e 26 d0 81 a6 be 25 ab 7f be
       -0.05811197 8.833007e-16 -0.32520914 -0.2496763
000090 a5 2f 81 be a4 b4 23 3e 21 94 0e be cd 6f 26 3e
       -0.25231662 0.15986878 -0.13923694 0.16253586
0000a0 b6 37 87 be 07 74 5c be b5 fe 12 3e b6 cb 31 be
       -0.26409692 -0.21528636 0.14354976 -0.17362866
0000b0 33 4e f1 3e 3c 5e 26 be fb 6b f7 bd 5f 08 65 be
       0.47129974 -0.16246885 -0.120811425 -0.22366475
0000c0 b9 1e e6 3e f9 c4 09 3f b5 3e 32 3d 1c e1 a6 af
       0.44945315 0.5381618 0.043516833 -3.0355174e-10
0000d0 66 a7 63 3e e9 b9 5e be 2e f5 70 be 76 39 68 bd
       0.22231826 -0.21750607 -0.23531029 -0.056695424
0000e0 ed da 87 3e f5 a5 84 3e 62 d4 2a be 4c f5 0a 3f
       0.26534215 0.25907865 -0.1668258 0.54280543
0000f0 2b 5b 8c be 44 e9 4d 3e c7 a7 8c bd 53 bf a3 3e
       -0.27413306 0.20108515 -0.068679385 0.31981906
000100 30 da 4a 3e af e9 9a 3e f7 85 33 be 1b 8b c0 bd
       0.19809794 0.3025641 -0.17531572 -0.09401532
000110 ba 3b 25 3e 38 d1 c9 3d 1b 95 e6 3e 48 f8 54 be
       0.16136065 0.098543584 0.45035633 -0.20797837
000120 47 f4 a5 be a9 10 5f be 02 5b 51 3b 08 3a 8c 3e
       -0.3241293 -0.21783699 0.0031945114 0.27388024
000130 b0 18 9c be 49 d0 4f be 6e 6c 77 be 5e fb 93 3e
       -0.30487585 -0.20294298 -0.24162456 0.28902715
000140 24 21 8f bc 35 a3 c9 bd ae a3 db bd 6f fe bf bd
       -0.017471857 -0.098455824 -0.10724579 -0.09374701
000150 ee cb 4c be 4d 8b e6 bd b3 31 81 be 19 79 47 be
       -0.19999668 -0.11257038 -0.2523323 -0.19479789
000160 de f1 b5 3e 07 16 f5 3d 0e d7 f4 3d c6 e4 f9 bc
       0.35536093 0.11967092 0.11955081 -0.030504595
000170 e7 c1 86 3e d7 2e c0 be cc db 69 be 48 e9 6a 3e
       0.2631981 -0.37535736 -0.22837752 0.22940552
000180 d0 35 83 be 51 d7 7b 3e 2c 34 3d be 8e d0 14 3f
       -0.25626993 0.24593855 -0.18476933 0.5813073
