experiments/konrad/saved_models/online_monthly/inverse_gaussian/model.pt (torch, 448431 bytes, 12 tensors)

A_gate f4 [9]
000000 0b a6 4a 3f e3 77 2e be 73 f3 63 3e f0 52 57 be
       0.7915961 -0.1703792 0.22260837 -0.21027732
000010 93 9d 3a bf 09 ae 54 be c5 51 8c be e9 aa b4 3d
       -0.7289669 -0.20769514 -0.27406135 0.08821661
000020 81 56 96 3e
       0.29362872

B_gate f4 [120]
000000 82 f4 a2 be 84 86 8c bd 7c 6f b8 3d ac 2f 0a 3e
       -0.3182717 -0.06861594 0.09005639 0.13494748
000010 ab e9 33 a7 13 b7 1e bf 30 0c 8a be 65 4e a0 3a
       -2.4967912e-15 -0.619981 -0.26962423 0.0012230395
000020 07 9e 3b 38 3f e1 c6 be b5 63 b3 b4 a2 0b 00 80
       4.473145e-05 -0.38843724 -3.3413895e-07 -4.173e-42
000030 f5 89 44 3d 20 97 4e bd 93 b8 00 00 34 af 4a be
       0.04798313 -0.050437093 6.6213e-41 -0.19793397
000040 b8 f7 5f 3a 54 28 00 00 16 90 87 be a8 6d 69 b2
       0.0008543688 1.4467e-41 -0.26477116 -1.3587318e-08
000050 d0 c8 b6 bc 53 fd cb be bb 61 d9 b4 12 d4 af 2f
       -0.022312552 -0.3984171 -4.0490508e-07 3.1983e-10
000060 06 4d 93 bd 57 7f 8f 3e 37 86 aa bb 88 3b 88 be
       -0.071924254 0.2802684 -0.005203988 -0.2660792
000070 c0 6d cc 23 31 53 00 00 f9 e8 28 3d 02 4a 7d 3b
       2.2164205e-17 2.9843e-41 0.041237805 0.0038648848
000080 69 19 a3 3d df 09 bc bc fd 1f 00 80 42 52 fe bd
       0.07963831 -0.022953926 -1.1475e-41 -0.12418033
000090 fe e5 10 3c 67 28 80 3e 1d 3c 47 3f f4 14 0f bc
       0.008843897 0.25030825 0.778261 -0.008733023
0000a0 25 05 5d 3c 2a c3 87 15 50 5e e5 bd 2a 7a a6 b4
       0.013489996 5.483398e-26 -0.11199629 -3.1008796e-07
0000b0 6d 3b 9c a1 7c 96 d6 3d 4b 11 27 be 97 d7 84 3c
       -1.0586701e-18 0.10477921 -0.1631519 0.016216082
0000c0 34 c6 0e be 38 f6 91 b2 4b 67 bf be 4e 47 87 be
       -0.13942796 -1.6992189e-08 -0.37383494 -0.2642159
0000d0 0d af 08 3b 59 5e e8 3c a3 de 89 3e 24 1e 09 30
       0.0020856292 0.028365301 0.2692767 4.988314e-10
0000e0 95 2c 2e ba 9c a4 04 3d 79 47 00 80 14 6d cd 34
       -0.00066442165 0.032383546 -2.564e-41 3.826359e-07
0000f0 ad 1b ae bd 30 ca a0 ad 60 a4 f8 25 72 e7 2f 3f
       -0.085013725 -1.8279683e-11 4.3132527e-16 0.6871253
000100 8c 4c 00 80 42 f0 1e ad e9 6b f9 3c 77 5b 9f 0b
       -2.746e-41 -9.034608e-12 0.030446963 6.1382193e-32
000110 ef 5b 2b b6 1a 9f 04 3e 3c 17 50 af 36 9a 6d b8
       -2.5534498e-06 0.12951317 -1.8925744e-10 -5.6648823e-05
000120 39 4b b0 3e 6b cc 99 3e 44 b1 be 2d c5 d4 0e be
       0.3443239 0.3003877 2.1679221e-11 -0.13948353
000130 73 40 00 00 01 fb 44 bb 50 f5 d3 3c b7 17 00 00
       2.312e-41 -0.0030056837 0.02587381 8.507e-42
000140 80 6b 73 34 a1 13 30 bd 68 ec 24 3e 83 f1 86 3d
       2.2670247e-07 -0.04298747 0.16105807 0.065890335
000150 c2 5b 33 bd 98 20 00 00 28 06 bf be 4c fd c7 3d
       -0.04378868 1.1692e-41 -0.37309384 0.097651094
000160 12 2d 00 80 3e 46 47 2f 05 49 4e be 50 e2 61 37
       -1.6168e-41 1.81239e-10 -0.20145042 1.3463738e-05
000170 db f5 15 3b 14 00 0c bf d1 01 00 80 36 65 b3 35
       0.0022882137 -0.5468762 -6.52e-43 1.3365996e-06
000180 92 2f 00 3e e7 19 48 ba 62 1f d0 39 2e c2 89 3d
       0.12518147 -0.0007633254 0.00039696234 0.0672649
000190 78 23 20 bc fe 10 00 00 e0 00 1b be 6a 64 9d 39
       -0.009774081 6.096e-42 -0.15137053 0.00030020188
0001a0 ce 3c 67 3f 9c 9f 8b 3e c3 a1 91 8a 23 3c 2e 3b
       0.90327156 0.2727021 -1.402384e-32 0.0026586137
0001b0 96 83 ef 3b 61 53 4d bd 81 63 9e 06 42 b8 62 bc
       0.0073093874 -0.050128344 5.95792e-35 -0.013837876
0001c0 a8 d4 45 3a ae d6 01 00 ff ae 6f 3e 6b 09 00 80
       0.0007546642 1.68848e-40 0.234066 -3.379e-42
0001d0 bb 19 72 36 c9 ba 09 bd 09 6d d0 3e b7 40 06 05
       3.6075787e-06 -0.033625398 0.40708187 6.312536e-36

A_mean f4 [9]
000000 52 e2 c9 2e ce a6 29 3c e2 08 1c 3a 53 80 bb 2e
       9.180624e-11 0.010354711 0.00059522514 8.5265704e-11
000010 33 59 40 3d 3d 99 8a ba c9 a3 dc ae ab fe bb 3c
       0.046960067 -0.0010574233 -1.0033536e-10 0.022948584
000020 f8 62 19 3a
       0.00058512343

B_mean f4 [120]
000000 00 85 03 aa ac 99 00 00 b5 4c 14 00 e8 75 99 39
       -1.1681281e-13 5.5127e-41 1.864227e-39 0.0002927028
000010 c0 71 f5 31 31 38 03 00 64 65 97 3c 75 ed 07 80
       7.1433703e-09 2.95664e-40 0.018480964 -7.28032e-40
000020 29 6d 08 00 a6 7e fa 2d e7 c6 00 00 4b c4 05 00
       7.73843e-40 2.8477953e-11 7.1353e-41 5.29594e-40
000030 e0 d4 dd b7 15 57 01 00 50 27 04 00 5c 0d 77 3c
       -2.644438e-05 1.23075e-40 3.81445e-40 0.015078869
000040 1f b8 04 80 a4 6f 09 00 68 cf 98 2e 93 94 01 00
       -4.33392e-40 8.66569e-40 6.9490025e-11 1.45134e-40
000050 87 48 00 80 4c d6 c6 39 5c 21 00 00 e6 46 01 00
       -2.6018e-41 0.00037925167 1.1967e-41 1.17269e-40
000060 9b 45 88 3c 94 ce 09 00 05 19 04 80 c6 e3 df ac
       0.016634753 9.00626e-40 -3.76317e-40 -6.363329e-12
000070 41 4a 01 00 9b 50 00 80 4a b5 08 3a dc 21 00 00
       1.18473e-40 -2.8916e-41 0.00052150025 1.2146e-41
000080 a2 e5 00 80 78 e3 a1 3c 00 71 00 80 3a a0 02 80
       -8.2377e-41 0.019761786 -4.0537e-41 -2.4115e-40
000090 ca c1 c1 ae 71 d5 d5 23 fa 1b 01 00 37 73 cb b9
       -8.811048e-11 2.3183902e-17 1.01872e-40 -0.0003880502
0000a0 14 78 91 30 96 33 02 80 b8 79 bc 3c e4 12 00 00
       1.0584267e-09 -2.02177e-40 0.023007259 6.777e-42
0000b0 0c 38 00 00 cb d4 e2 2e 63 c4 01 80 79 7f 01 80
       2.0106e-41 1.031509e-10 -1.62286e-40 -1.37564e-40
0000c0 e3 e0 42 ba ec 2a 01 00 80 6f 00 00 7d 70 b1 3c
       -0.00074340234 1.07233e-40 3.9999e-41 0.021660084
0000d0 98 8b 00 00 8e 5f 03 80 54 ba 76 2e 8b 01 01 80
       5.0077e-41 -3.09785e-40 5.6099417e-11 -9.2389e-41
0000e0 49 4d 01 00 22 74 b5 b8 4b 6a 02 80 46 1f 00 80
       1.1956e-40 -8.652384e-05 -2.21802e-40 -1.1219e-41
0000f0 1c 9b 92 3c 90 42 00 80 24 d1 0a 00 70 d5 9a ae
       0.017896228 -2.3878e-41 9.9338e-40 -7.041023e-11
000100 d5 01 00 80 96 31 00 80 a7 05 ee b9 a9 27 06 00
       -6.57e-43 -1.7788e-41 -0.0004539911 5.6524e-40
000110 ec 94 0d 00 c7 fb 7d 3c d6 24 04 00 98 5d 02 00
       1.247285e-39 0.015501923 3.80556e-40 2.17246e-40
000120 12 b8 f6 ad bb 2f 00 00 a3 d2 0c 00 58 3b 0a ba
       -2.8048706e-11 1.7122e-41 1.177588e-39 -0.0005273125
000130 32 40 03 80 1d 21 06 80 f2 c9 1e 3c ee 4c 01 00
       -2.98535e-40 -5.62892e-40 0.009691702 1.19433e-40
000140 0f 29 02 80 68 14 0e 2c cb 54 00 80 a8 23 01 00
       -1.984e-40 2.0190741e-12 -3.0418e-41 1.04627e-40
000150 58 94 69 b8 ff 54 0b 00 1a 50 01 80 ec c4 0e 3c
       -5.5689685e-05 1.040681e-39 -1.2057e-40 0.008713942
000160 75 5a 00 00 44 06 00 80 2b 09 aa 2d d2 5b 01 00
       3.245e-41 -2.248e-42 1.9330834e-11 1.24774e-40
000170 31 0f 00 00 c4 38 2a b9 46 86 00 80 91 1a 04 80
       5.45e-42 -0.0001623361 -4.8168e-41 -3.76872e-40
000180 6d ae 03 3c 2a 31 0f 80 9e 35 00 80 2a 1a a8 2d
       0.008037192 -1.395169e-39 -1.9234e-41 1.9111008e-11
000190 0e 4d 01 80 ba 6b 1e 00 15 79 90 b9 a9 f0 00 00
       -1.19478e-40 2.79371e-39 -0.00027556033 8.6333e-41
0001a0 b4 a1 02 00 be bc 52 3c be b7 01 80 b0 d4 01 80
       2.41679e-40 0.012862382 -1.5775e-40 -1.68133e-40
0001b0 1c c2 00 ad 61 2a 00 00 f0 44 02 00 78 cd cb 37
       -7.3190586e-12 1.5203e-41 2.08401e-40 2.4295165e-05
0001c0 7a 21 00 80 a6 71 04 00 30 79 a6 3c d5 a2 01 00
       -1.2009e-41 4.08111e-40 0.020321459 1.50249e-40
0001d0 53 1a 00 00 80 9f ec 2b 7d 2a 11 00 26 37 00 00
       9.443e-42 1.6813079e-12 1.576445e-39 1.9784e-41

ar_gate_lin.weight f4 [1, 64]
000000 89 76 02 bc 59 2c d2 3c 90 c3 c8 bd 72 a8 43 bd
       -0.007962831 0.025655912 -0.098029256 -0.047768064
000010 1a f5 b8 bd a3 83 0d 3d 82 b4 b7 bd 51 c8 e2 3c
       -0.090311244 0.034549367 -0.08969976 0.027683409
000020 68 59 5f 3e 54 45 4d 3c 2d db 48 bd 93 a7 27 bd
       0.2181145 0.012528736 -0.049037147 -0.040931296
000030 a8 cf d6 3b 70 2f 89 bc 2f ed d6 bc f0 20 55 be
       0.0065555163 -0.016746253 -0.026236145 -0.20813346
000040 55 d3 88 3d bd 9d 3c 3c d3 8c ba bd 3e 45 1b be
       0.066809334 0.011512217 -0.09108891 -0.15163133
000050 06 77 76 3d 4b 39 97 bd c5 91 0a bd d6 b5 4d 3c
       0.060172103 -0.07383975 -0.033830423 0.01255556
000060 8a d2 64 bd e1 0f ee bc 18 18 31 3d cc 6b 22 bd
       -0.05586485 -0.029060306 0.04323587 -0.039653584
000070 b8 f7 5a bd e2 e9 99 3d 30 8e bd bc a4 8a 57 3c
       -0.0534589 0.07515313 -0.02313909 0.013155613
000080 83 6d 00 3d 12 6b 97 3c 3e 2a 02 3d d5 04 bd bd
       0.03135444 0.018483672 0.031778567 -0.09229437
000090 42 d0 ea bd 33 af 13 3d a1 88 10 bd c4 b3 e0 3c
       -0.11465503 0.036055755 -0.03528655 0.027429469
0000a0 80 11 c0 bd f5 90 c2 3c 0e 8e ff 3c cb 32 8b be
       -0.09378338 0.023750762 0.031195667 -0.2718719
0000b0 0b 94 25 bd b9 87 6a bc 62 16 5a 3c f2 bc 98 3d
       -0.040424388 -0.014314585 0.013311001 0.074579135
0000c0 73 fa 8d bd 2c 97 a1 bd ff b7 27 3d 19 b9 f2 3c
       -0.06932535 -0.07890162 0.040946957 0.029629277
0000d0 c8 03 68 3c de 8d 3f bd f2 50 88 3d 07 8b 9d bc
       0.014161058 -0.046766154 0.06656064 -0.019231332
0000e0 62 98 22 3d 4a 01 b9 be 0d 5b 77 3c c9 bd b6 3c
       0.039696105 -0.36133796 0.015097392 0.022307293
0000f0 a4 c8 4e bd 20 bd e3 bd 4a a3 f9 3d 9d 7f 87 be
       -0.050484315 -0.11120057 0.12189348 -0.2646455

ar_mean_lin.weight f4 [1, 64]
000000 c6 27 5c be 7d cc 11 bd 9a ea db bd e1 4e 9f bd
       -0.21499547 -0.035595406 -0.10738106 -0.07778717
000010 61 9a 1b be 0c 5b 59 3d 9b c4 8e bd 6d d3 24 3d
       -0.1519561 0.053065345 -0.06971093 0.040240694
000020 58 b5 89 3d 67 1b 05 bd 76 9c af bb eb d6 40 bd
       0.06724042 -0.032496836 -0.005359228 -0.04707996
000030 e0 91 00 be ad a4 44 3d d0 ab f5 bd e1 7d a7 be
       -0.12555647 0.04800861 -0.11995661 -0.32713225
000040 74 cf 9d 3d d5 63 c5 bd d5 d0 5a 3b 5a 66 91 bd
       0.07705584 -0.09638182 0.0033388634 -0.070996
000050 16 8b 5c be 41 b2 05 bd 24 ae 94 bd 19 6d 4c be
       -0.21537432 -0.0326407 -0.07259777 -0.19963492
000060 39 24 3a be c8 27 ce be 8b cd 8d be ce 1a 64 bd
       -0.1817788 -0.40264726 -0.2769588 -0.055689625
000070 2d cc 97 be c1 4c 3c be fc 3d d4 be 4c e4 88 bd
       -0.2964796 -0.18388654 -0.4145354 -0.06684169
000080 a2 4a 21 3d 34 62 1e bd 9a 11 3d be 1f 84 1d be
       0.039377816 -0.038667873 -0.18463746 -0.15382431
000090 40 71 12 be 97 54 e1 3d 37 46 52 be 59 c6 25 3d
       -0.14301014 0.11002462 -0.20534597 0.040472362
0000a0 d5 98 37 bd ea 95 16 bd 70 c7 06 bd c9 4c 00 3e
       -0.044823486 -0.036764063 -0.032905042 0.12529291
0000b0 dd 8b ed 3b d9 29 9a 3d 6d 2c d7 ba 03 b2 74 3d
       0.007249339 0.07527513 -0.0016416438 0.059740078
0000c0 be 8e 22 be cb 35 61 be 43 1a 99 bd 3c 15 19 bd
       -0.15874764 -0.21993177 -0.07475712 -0.037373766
0000d0 92 a7 55 bb a5 e6 ed bc 14 1f 26 bd d0 ba 7c bd
       -0.00326011 -0.029040644 -0.040556982 -0.061701596
0000e0 69 28 45 bd 20 f8 50 bd af c2 4f bc 80 a3 77 3d
       -0.04813424 -0.05101788 -0.0126806935 0.06045866
0000f0 05 2a b5 bd 28 00 8c 3e f4 1d 64 3e ee ad bc 3e
       -0.08845905 0.2734387 0.22277051 0.36851448

ar_lambda_lin.0.weight f4 [32, 64]
000000 72 26 1c 3d 1c ae 1e 3d d4 1e 9b 3d 38 3f 3c 3d
       0.0381226 0.038740262 0.075742394 0.045958728
000010 f5 ca ab 3d 5a a8 e1 3d 9d f7 27 bd 61 96 82 3d
       0.0838832 0.11018439 -0.041007627 0.06376339
000020 15 11 47 3d f0 d1 b0 3d f5 20 8c 3c 33 d6 78 bb
       0.048600275 0.086337924 0.017105559 -0.003796947
000030 62 59 93 ba f1 b6 63 3c ed 8d 29 3d ac 6f 3b 3d
       -0.0011241848 0.013898597 0.041395117 0.045760795
000040 e0 49 a9 3d c8 1e 6e bd 6a 1a 71 bd 6d 52 95 3d
       0.08266044 -0.058134824 -0.05886308 0.07291112
000050 cb bb a8 3d 2f 50 af 3b 51 0d 18 bd a3 01 c5 bd
       0.08238944 0.005350135 -0.037122075 -0.09619453
000060 7a da 7a bd 9e 1f 37 bd 5b e2 88 3c 0e cd 4a ba
       -0.06124351 -0.044707887 0.016709497 -0.0007736244
000070 7e cf d9 bc 5a c2 8d bd e7 b6 71 bd d3 df 98 3c
       -0.026588198 -0.06921835 -0.05901232 0.018661415
000080 e0 19 02 3d 0c 24 d1 bc 38 73 35 3d ba 77 7a 3d
       0.031762958 -0.025529884 0.044299334 0.061149336
000090 da 4e ad 3d 00 d8 78 3d a3 1d bc 3c 33 48 5b 3d
       0.08462305 0.06075287 0.02296335 0.05353565
0000a0 76 8a 8b 3d 33 d8 06 3d 6d dd 00 bd 67 24 c7 3b
       0.06813519 0.032921027 -0.031461168 0.0060773375
0000b0 98 1d be 3c ca d7 6d 3d 9d ab 84 3d 7b 03 3c 3d
       0.02320747 0.05806712 0.06478045 0.045901757
0000c0 8c 74 00 bd 3e 98 23 3d 1e e2 a6 3d c5 88 b3 bb
       -0.031361148 0.03994011 0.08148597 -0.0054789507
0000d0 4a a1 83 3d 48 a6 2a 3d 96 f9 b4 3d 11 00 8f 3d
       0.06427248 0.041662484 0.08836667 0.069824345
0000e0 09 9f 24 3d a0 78 fa 3c 53 a5 86 3d e4 3c e2 3d
       0.04019073 0.030575097 0.06574502 0.1104677
0000f0 3c ed e4 3d 4e 12 60 3c da 3a 00 bd c6 54 c7 3c
       0.11178061 0.013676239 -0.031306125 0.024332415
000100 b0 8b f4 3c b1 34 f6 3c b0 86 6d 3d 8f cd 0f 3d
       0.029851764 0.030054422 0.057989776 0.035108145
000110 8e e5 80 3d 7d 11 a7 3d bd 9f f5 bc 84 db 3a 3d
       0.06293784 0.081576325 -0.029983396 0.045619503
000120 3d 5f 1c 3d ea 0f 8a 3d 67 b9 64 3c 4e c8 65 bb
       0.038176764 0.067413166 0.013960219 -0.0035062018
000130 39 93 cb b9 a3 eb 3a 3c 33 ad 05 3d a5 b8 0e 3d
       -0.00038828867 0.011408719 0.03263588 0.03484406
000140 b1 b6 84 3d 7f c6 4d bd 1d ea 32 bd a5 7b 62 3d
       0.06480158 -0.05023813 -0.0436803 0.055293698
000150 cf 9d 80 3d 63 34 5b 3b 6e 1c e1 bc 95 94 95 bd
       0.062800996 0.0033447973 -0.027479377 -0.073037304
000160 d7 8d 39 bd 32 9c e7 bc ed 7e 66 3c fb 4f 83 b9
       -0.045301285 -0.028272722 0.014068347 -0.00025045857
000170 21 90 9c bc 0a 65 69 bd 3f 5b 29 bd 88 8a 70 3c
       -0.019111695 -0.056981124 -0.041346785 0.014681466
000180 c8 bc b5 3c ab 0d 97 bc 1e fc 05 3d 0f 21 3a 3d
       0.022184744 -0.018439135 0.03271114 0.045441683
000190 0f 45 84 3d 98 f7 40 3d a0 0d 8f 3c 59 1b 25 3d
       0.064584844 0.047111124 0.017462552 0.040309284
0001a0 fa 8e 53 3d 3c 42 cb 3c 34 bb c4 bc 72 b9 a3 3b
       0.051650025 0.024811856 -0.024015047 0.004996472
0001b0 e5 49 9c 3c 47 18 36 3d 1b 88 4c 3d 4a e8 0b 3d
       0.019078204 0.044456746 0.049934488 0.034157075
0001c0 a3 90 cf bc 24 25 04 3d 60 e6 79 3d f3 b6 96 bb
       -0.025337523 0.032261983 0.06101072 -0.004599446
0001d0 eb 79 47 3d 77 d8 06 3d c0 4b 8c 3d ff d1 59 3d
       0.048700254 0.03292128 0.06850386 0.053178784
0001e0 6d 5d f1 3c 8a c3 b9 3c 11 8e 4e 3d 4a d8 ad 3d
       0.029463494 0.022676248 0.050428454 0.084885195
0001f0 12 ab ad 3d d7 8a 2f 3c 05 2c db bc 3c 12 9a 3c
       0.08479895 0.010714254 -0.026754389 0.018807523
000200 f8 ad 80 3b 8c 3e 9c 3b 24 65 05 3c 44 15 9f 3b
       0.0039269887 0.0047681984 0.00814179 0.00485483
000210 aa d6 f0 3b e8 a6 34 3c aa 60 58 bb 69 44 cf 3b
       0.0073498087 0.011026122 -0.00330166 0.006325294
000220 5d ec df 3b 73 61 2f 3c 08 da 36 3b c6 32 81 ba
       0.0068335966 0.010704386 0.0027900953 -0.0009857051
000230 15 d1 8c 3a d9 15 32 3b 59 20 ca 3b 87 82 96 3b
       0.0010743464 0.0027173667 0.006168407 0.004593197
000240 d0 21 2d 3c c1 bd 00 bc ff 96 a9 bb 72 18 f2 3b
       0.010567144 -0.007857741 -0.005175471 0.007388168
000250 b0 db 19 3c fe 13 9f 3a 55 cf 20 bb 74 36 0c bc
       0.0093907565 0.0012136695 -0.0024537642 -0.0085579045
000260 09 73 c7 bb 11 23 01 bb 61 a7 28 3b fc 11 98 3a
       -0.0060867113 -0.001970474 0.0025734531 0.001160204
000270 19 ed e6 ba 39 ec cb bb 30 5e 86 bb bb c0 51 3b
       -0.0017618268 -0.0062232283 -0.0041005835 0.0032005745
000280 57 4c 2c 3b 17 7a fa ba da e1 a2 3b c9 a7 de 3b
       0.002629062 -0.0019109872 0.0049707713 0.006794904
000290 65 66 1d 3c bc a6 e6 3b c6 6e 64 3b 54 73 c2 3b
       0.009606932 0.0070389193 0.0034856065 0.0059341583
0002a0 44 7a f1 3b fa 24 97 3b 9c ed 07 bb 71 e8 a4 3a
       0.0073693115 0.0046125622 -0.0020740991 0.001258148
0002b0 0b 18 74 3b c6 24 c5 3b 20 d4 02 3c 0a e8 a5 3b
       0.0037245776 0.0060163466 0.007985145 0.0050630616
0002c0 d3 26 2d bb 2e fb c7 3b 72 bf 00 3c 5f 02 58 3a
       -0.0026420846 0.006102941 0.007858144 0.00082400994
0002d0 3c b8 ba 3b 4e 08 90 3b 94 3b 2c 3c bf db eb 3b
       0.005698232 0.0043955212 0.010512251 0.0071978266
0002e0 a0 e5 88 3b ec 00 33 3b 60 38 cf 3b 78 c3 3c 3c
       0.004177764 0.0027313782 0.006323859 0.011521213
0002f0 75 60 32 3c 55 9d 76 3a 5f c8 85 bb 6a ab 9e 3b
       0.010887255 0.00094075996 -0.004082724 0.0048422115
000300 3b 55 5e bc 48 fd 21 bc e9 9d 0e bd 44 c9 11 bc
       -0.013570125 -0.009887047 -0.034818564 -0.008898083
000310 d3 9b 16 bd 0e 5e 1a bd 9b be 32 3d c2 4d 33 bc
       -0.0367697 -0.037687354 0.043638807 -0.010943832
000320 6a fc 06 bc 91 95 84 bc 80 c0 52 3c f9 83 aa 3c
       -0.008238891 -0.0161846 0.012863278 0.020814883
000330 4d 79 9e 3c d1 8c d7 3b 88 ee e8 bb 90 8c 7b bc
       0.01934495 0.006578066 -0.0071085133 -0.015353337
000340 5b 19 ca bc 2d d7 8c 3d 13 92 88 3d 36 22 e7 bc
       -0.024670294 0.06876979 0.066684864 -0.028214555
000350 f9 60 a8 bc 5f fe 8e 3c ad 06 58 3d 5f 34 c4 3d
       -0.020554053 0.017455278 0.05274074 0.095803015
000360 b4 70 8d 3d 2f 06 65 3d fe 57 aa 3c c0 ef 82 3c
       0.06906262 0.0559141 0.020793911 0.015983462
000370 ca 14 13 3d b0 83 92 3d c3 ca 8a 3d e8 48 82 3c
       0.035908498 0.07154024 0.06776955 0.015903905
000380 a1 22 be bc 4c e2 34 3d b6 3e d1 3a 50 74 b1 bc
       -0.023209872 0.044161126 0.0015964124 -0.021661907
000390 9c 1d fc bc 77 a4 ad bb e8 db 36 3c ed 0b 55 bc
       -0.030775838 -0.0052991468 0.011160828 -0.013003332
0003a0 6c 17 cf bc c9 96 4e 3b 0d 2c 2d 3d fb 27 01 3c
       -0.025279723 0.003152298 0.04227834 0.007883067
0003b0 76 78 36 3c 20 7a 1f bc 7b e1 ca bb 71 be 45 bc
       0.011137119 -0.009733707 -0.00619143 -0.012069331
0003c0 d5 03 bf ba cb e1 6a bc d1 bc c7 bc 00 f9 df 3c
       -0.0014573286 -0.01433606 -0.024382027 0.027340412
0003d0 08 e1 8d bc 35 49 b4 bb ac 1f ea bc 56 1f 68 bc
       -0.017319217 -0.005501891 -0.028579555 -0.014167627
0003e0 bc bc 03 3c 5b 33 dd bb c6 b8 8f bc 14 9f 43 bd
       0.008040603 -0.006750507 -0.017544162 -0.04775913
0003f0 8b 3c 26 bd 91 1d a9 bc 5b 1e 47 bc b0 8e de bc
       -0.040585082 -0.020643981 -0.012153233 -0.027167648

ar_lambda_lin.0.bias f4 [32]
000000 7d d8 0d 3c 6b 75 bf 3b 0d 93 d6 3a 9a 49 39 3d
       0.008657572 0.0058428547 0.0016370729 0.045236208
000010 de f1 11 3d 23 67 f0 3c 20 6b b4 3b 03 21 31 3d
       0.035631053 0.029346054 0.0055059344 0.043244373
000020 84 f1 fb 3b 9d 83 cd 3b b0 90 db 3b 83 26 5d 3b
       0.007688703 0.006271793 0.0067005977 0.0033744879
000030 18 af 28 3d b5 b1 c3 3b b3 f5 c0 3b 5b a8 25 3d
       0.041182607 0.005972112 0.0058886646 0.04044376
000040 4a 35 04 3d 1c a8 46 1d 51 8c 30 3d 20 45 1b 3d
       0.032277383 2.6291992e-21 0.043102566 0.03790772
000050 b1 69 96 9b c9 49 eb 3c ea 3c b3 3c fa 40 d2 3c
       -2.488372e-22 0.028721707 0.021879632 0.025665749
000060 5b 67 09 3d f8 04 06 3d db 12 c6 3c c1 d1 cc 3b
       0.033545833 0.032719582 0.024178913 0.0062505906
000070 41 8f c0 3b 67 51 1a 3d ad 6f 88 39 cc 8e 2c 3d
       0.005876452 0.037675288 0.00026023146 0.04212837

ar_lambda_lin.2.weight f4 [1, 32]
000000 4a 35 db 3e fa 0d a6 3e 1c 6e 2c 3d 6e da 82 be
       0.42814094 0.32432538 0.042097196 -0.25557274
000010 e9 18 47 be c5 8a 24 be c6 fc c5 3e 55 ad 76 be
       -0.19443096 -0.16068561 0.38669413 -0.24089558
000020 f8 c5 d7 3e 5d 9d be 3e 76 47 b4 3e c7 ce 30 3e
       0.42143226 0.37229434 0.3521077 0.1726638
000030 46 08 5f be c1 7a b7 3e a2 51 aa 3e f8 af 69 be
       -0.217805 0.3583584 0.33265406 -0.22821033
000040 96 75 37 be 64 ee 06 ae e4 99 7c be 8a 0e 57 be
       -0.17915949 -3.0679806e-11 -0.2466808 -0.2100164
000050 e3 51 1d 1c 71 f7 20 be 7b c1 f3 bd e3 fa 0e be
       5.205278e-22 -0.15719391 -0.11902138 -0.13962893
000060 a0 77 46 be 48 f6 47 be d2 83 06 be 29 30 98 3e
       -0.19381571 -0.19527543 -0.13136223 0.29724243
000070 be 80 c7 3e 50 ee 5e be cf 3a c7 3b f1 e8 66 be
       0.3896541 -0.21770597 0.0060800086 -0.22549798

feat_lambda_net.0.weight f4 [100, 1080]
000000 1d 57 ad bb 8a 2e 00 00 e0 12 00 80 aa 2e 00 80
       -0.0052899257 1.6695e-41 -6.771e-42 -1.674e-41
000010 60 3b 00 00 87 b3 00 00 ea 3c 00 00 85 16 01 80
       2.13e-41 6.4402e-41 2.1852e-41 -9.9914e-41
000020 09 02 05 80 1a d0 6f 3c 34 5f 00 80 6d ea 00 00
       -4.59908e-40 0.014637018 -3.4152e-41 8.4096e-41
000030 99 c4 09 80 26 db 95 80 5d 10 00 00 eb bf 00 00
       -8.97045e-40 -1.3762105e-38 5.87e-42 6.8847e-41
000040 7a 3e 00 80 7a 75 01 00 0b e8 bb 3c b4 0b 69 28
       -2.2412e-41 1.33978e-40 0.022937795 1.2936636e-14
000050 c8 48 00 80 9a 4b 01 00 2b 83 15 00 36 8a 02 00
       -2.6109e-41 1.18956e-40 1.9756e-39 2.33252e-40
000060 59 12 00 00 e6 76 99 32 06 4b 00 80 6e aa 0a bc
       6.582e-42 1.7865613e-08 -2.6913e-41 -0.008463485
000070 ca ca 00 00 f5 4d 00 80 f4 a1 01 00 78 5b 00 00
       7.2747e-41 -2.7966e-41 1.49933e-40 3.2813e-41
000080 aa 34 00 80 66 1c 00 80 c6 5e 00 80 a2 8b 01 00
       -1.8892e-41 -1.0187e-41 -3.3998e-41 1.41926e-40
000090 b3 cd c1 bc 2d 33 00 00 47 3a 00 00 ce ed 00 80
       -0.023657655 1.8358e-41 2.0906e-41 -8.5308e-41
0000a0 80 3b 00 00 c6 dc fd a1 72 20 00 80 4c 00 00 80
       2.1345e-41 -1.7202385e-18 -1.1639e-41 -1.06e-43
0000b0 b6 06 00 00 4d 6c 9b bb f0 67 b1 27 ef 74 01 00
       2.407e-42 -0.004743135 4.924006e-15 1.33783e-40
0000c0 8e 16 00 80 0f 1f 00 00 a6 ef 01 00 d2 2e 00 80
       -8.091e-42 1.1142e-41 1.77805e-40 -1.6796e-41
0000d0 17 c9 78 34 29 14 00 80 28 49 a8 bc d5 72 01 00
       2.3169956e-07 -7.232e-42 -0.020542696 1.3303e-40
0000e0 7f 0a 00 00 50 73 01 80 a2 25 00 00 0f 36 00 00
       3.765e-42 -1.33202e-40 1.35e-41 1.9393e-41
0000f0 b7 dd 00 80 32 3f 00 80 0f 5a 00 80 51 83 c7 bc
       -7.9536e-41 -2.267e-41 -3.2307e-41 -0.024354609
000100 22 57 04 80 6e 24 01 00 99 28 00 80 f1 59 00 00
       -3.986e-40 1.04904e-40 -1.4564e-41 3.2265e-41
000110 47 2b 01 80 c9 93 00 80 65 3a 01 80 a1 4f 00 80
       -1.0736e-40 -5.3015e-41 -1.12784e-40 -2.8565e-41
000120 56 0c 96 3c 43 1c 00 00 b0 99 00 80 3b b9 00 80
       0.01831643 1.0138e-41 -5.5133e-41 -6.6448e-41
000130 fe 02 00 80 37 2c 00 00 e5 0f 02 80 2e 09 00 80
       -1.073e-42 1.5861e-41 -1.89373e-40 -3.293e-42
000140 2c 39 00 80 33 25 9b ba 39 3e 01 00 39 4c 00 00
       -2.051e-41 -0.0011836648 1.14157e-40 2.7344e-41
000150 a6 16 00 80 bd 11 00 00 6b bf 00 00 23 b9 00 80
       -8.125e-42 6.363e-42 6.8668e-41 -6.6415e-41
000160 18 59 00 80 82 22 00 00 22 89 44 bc 6a 9b 01 00
       -3.1961e-41 1.2379e-41 -0.011995586 1.47588e-40
000170 4c 76 0a 00 b3 32 00 00 0d 58 00 00 f3 1e 00 00
       9.60792e-40 1.8187e-41 3.1587e-41 1.1102e-41
000180 1a 20 00 80 ad 1f 00 80 eb 8b 00 00 36 a9 3e bc
       -1.1516e-41 -1.1363e-41 5.0193e-41 -0.011637023
000190 52 c7 00 00 dc 26 00 00 14 3d 00 80 12 42 00 00
       7.1503e-41 1.394e-41 -2.1911e-41 2.3702e-41
0001a0 f1 13 02 00 f6 29 00 80 fb 0e 00 00 2f 15 00 80
       1.90825e-40 -1.5053e-41 5.374e-42 -7.599e-42
0001b0 6e 4a 3d bb 0e 25 36 21 f7 36 2b 00 46 06 01 00
       -0.0028883475 6.171304e-19 3.968644e-39 9.4086e-41
0001c0 8c 03 00 80 e8 8f 01 80 6e 4c 18 a5 c3 7d 02 00
       -1.272e-42 -1.4346e-40 -1.3209794e-16 2.28786e-40
0001d0 96 7f 02 80 6e 66 80 3b 41 03 00 00 85 a5 05 00
       -2.2944e-40 0.0039184606 1.167e-42 5.18555e-40
0001e0 69 5f 00 80 5a 07 00 00 39 3a 00 80 cd 49 00 00
       -3.4227e-41 2.637e-42 -2.0886e-41 2.6475e-41
0001f0 19 07 03 00 e2 00 00 80 36 15 58 bc 34 27 00 00
       2.78053e-40 -3.17e-43 -0.013188651 1.4063e-41
000200 9c 1a 00 00 56 00 00 00 83 3d 00 80 09 56 00 80
       9.546e-42 1.2e-43 -2.2066e-41 -3.0864e-41
000210 c8 0d 00 80 38 da 01 00 86 ae 10 80 07 86 8c 3c
       -4.944e-42 1.70118e-40 -1.531975e-39 0.017153753
000220 3a 15 00 00 43 b3 00 00 66 11 00 00 0c 58 00 00
       7.615e-42 6.4307e-41 6.241e-42 3.1585e-41
000230 d6 52 01 80 40 1d 00 00 64 83 01 00 a8 23 00 80
       -1.21551e-40 1.0493e-41 1.3897e-40 -1.2791e-41
000240 47 bb b4 3b 4a 57 00 80 7a a9 00 00 2b 93 44 80
       0.0055154893 -3.1313e-41 6.0797e-41 -6.297608e-39
000250 ff 37 00 80 44 84 02 80 01 21 00 80 df 07 00 00
       -2.0088e-41 -2.31119e-40 -1.184e-41 2.824e-42
000260 e5 63 01 00 f7 c7 26 bc ec 23 15 00 a4 84 00 00
       1.27671e-40 -0.010179511 1.941432e-39 4.7582e-41
000270 4e 06 00 80 04 2d 00 80 7d 36 00 00 f4 6d d7 19
       -2.262e-42 -1.6149e-41 1.9547e-41 2.2274889e-23
000280 92 0b 00 00 f8 7f 01 00 7e d1 92 ba e1 67 01 80
       4.15e-42 1.37742e-40 -0.001120135 -1.291e-40
000290 40 16 9c 32 ea 54 00 80 b2 ae 00 80 13 22 00 80
       1.8170908e-08 -3.0461e-41 -6.2669e-41 -1.2224e-41
0002a0 e8 46 60 a5 e0 3d 00 80 31 18 00 80 ea d6 b8 bc
       -1.9452927e-16 -2.2197e-41 -8.678e-42 -0.022563417
0002b0 0f 2e 01 80 72 40 00 80 bc 41 00 80 14 e7 84 8a
       -1.08358e-40 -2.3119e-41 -2.3581e-41 -1.279806e-32
0002c0 ed 24 00 80 03 13 01 00 50 aa 01 00 76 45 03 00
       -1.3246e-41 9.8656e-41 1.52932e-40 3.00424e-40
0002d0 36 35 a9 3b b3 4f 00 80 43 ab 00 80 b8 4a 00 80
       0.005163814 -2.859e-41 -6.1437e-41 -2.6804e-41
0002e0 7f 68 04 00 07 a8 01 1b 50 8a 00 00 26 3a 00 00
       4.04828e-40 1.0724922e-22 4.9617e-41 2.086e-41
0002f0 e3 3c 00 80 bd 8d e3 bb 0e 0a 00 00 4a 5c 00 80
       -2.1842e-41 -0.0069443868 3.607e-42 -3.3107e-41
000300 6b eb 00 80 d1 16 00 80 98 ae 00 00 f9 e4 00 00
       -8.4452e-41 -8.185e-42 6.2632e-41 8.214e-41
000310 7a ab 00 80 11 1b 7e b4 b1 7c 3f 3c b3 4b 00 00
       -6.1514e-41 -2.366544e-07 0.011687444 2.7156e-41
000320 3c 4b 00 80 55 21 00 80 b7 1c 04 00 e4 44 00 80
       -2.6989e-41 -1.1957e-41 3.77643e-40 -2.4713e-41
000330 ea 39 00 00 a0 91 01 00 d8 83 05 00 f2 89 32 bb
       2.0776e-41 1.44076e-40 5.06474e-40 -0.0027242866
000340 cc 14 00 80 91 f0 07 00 fb 36 00 80 85 39 00 00
       -7.46e-42 7.29147e-40 -1.9723e-41 2.0634e-41
000350 39 1f 00 00 fc c1 01 80 92 05 00 80 ed 68 01 00
       1.12e-41 -1.61424e-40 -1.998e-42 1.29476e-40
000360 59 23 83 3c cd 61 00 00 24 25 03 00 1e 96 03 80
       0.016008066 3.5084e-41 2.8883e-40 -3.29358e-40
000370 af 1d 00 80 4a 5e 00 00 8b 3c 00 80 0e 4a 00 00
       -1.0648e-41 3.3825e-41 -2.1719e-41 2.6566e-41
000380 7a d6 00 00 89 a7 40 3b 49 3c 00 80 17 30 00 80
       7.694e-41 0.0029396734 -2.1626e-41 -1.7251e-41
000390 89 02 00 80 1c dd 00 80 f8 5c 00 80 0f 80 00 00
       -9.1e-43 -7.9319e-41 -3.3351e-41 4.5939e-41
0003a0 76 23 00 00 c0 f8 01 00 9e d3 43 3c 52 c7 01 80
       1.2721e-41 1.8107e-40 0.011952309 -1.63338e-40
0003b0 fa 22 00 80 fa 45 00 80 dd 3f 00 00 cb 09 00 00
       -1.2547e-41 -2.5103e-41 2.291e-41 3.513e-42
0003c0 57 07 00 00 65 3d 00 00 50 21 00 00 36 2b 95 3c
       2.633e-42 2.2024e-41 1.195e-41 0.018209081
0003d0 04 83 0f 00 0a 07 02 00 74 60 00 00 86 c3 02 80
       1.424532e-39 1.86196e-40 3.4601e-41 -2.53812e-40
0003e0 f8 2d 00 80 88 21 0e 80 c0 48 08 80 77 54 00 00
       -1.649e-41 -1.297726e-39 -7.60782e-40 3.03e-41
0003f0 b0 02 1f bb 1f 32 00 00 47 67 05 00 b2 0a 00 00
       -0.0024263076 1.798e-41 4.96226e-40 3.837e-42

feat_lambda_net.0.bias f4 [100]
000000 2e 70 3d 3c e4 6a 0a ba 65 1e ef 3c 96 05 09 3d
       0.01156239 -0.000528021 0.029189298 0.033452593
000010 d4 1c 83 3c 29 49 75 3c 97 31 f0 b4 9a ed ec 95
       0.016004957 0.014971056 -4.4739565e-07 -9.569451e-26
000020 05 32 a5 bb 09 27 b4 bb 12 3f cf 39 04 2e 41 ba
       -0.005041363 -0.0054978174 0.00039529108 -0.00073692226
000030 3c 6d 6e 3c 2b b7 a8 bc 79 c0 e1 3b c4 2c be 39
       0.014552411 -0.020595154 0.0068893996 0.00036272977
000040 c0 79 e3 3a b5 26 92 3c 3a dd d7 b0 2e 9b 16 3c
       0.001735501 0.017840723 -1.5706185e-09 0.009192271
000050 fc 6c bb 3b 2a 80 14 bc c8 82 5f 3b 36 8f c1 3c
       0.005719779 -0.00906376 0.0034105051 0.023627859
000060 d8 83 ce 3c ac 17 08 3c 35 19 74 bb 1c ff 0e 3d
       0.025209352 0.008306425 -0.003724647 0.03491126
000070 1d 64 12 bc 97 cc 59 3c fc af 0b 3d e2 ba aa 3c
       -0.008935002 0.013293407 0.03410338 0.020841066
000080 59 7b 30 3c f9 a7 1a 3c 09 21 6d 3c e3 e7 8b 3c
       0.010771596 0.009439462 0.014473208 0.017078346
000090 ab 18 a0 bb 64 be 33 bc 5d d0 22 ba bc dd b8 bb
       -0.004885753 -0.010970686 -0.0006210858 -0.005641667
0000a0 6e 66 56 3c 79 37 41 3b b4 33 9f bb 40 7f 17 bc
       0.013085945 0.0029482527 -0.0048584584 -0.009246647
0000b0 b5 ba 89 b8 ca 16 6b b9 5a 5a 1b 3c d4 9f 0e 3c
       -6.567446e-05 -0.00022419836 0.009481991 0.008705098
0000c0 8a c2 78 3c 59 b1 bd 18 a0 56 43 3c be dc 0f bc
       0.0151831005 4.903443e-24 0.0119225085 -0.008780656
0000d0 a8 0e 18 9e ca 94 84 3c 77 97 47 3c 59 04 87 3c
       -8.049844e-21 0.01618423 0.012182108 0.016481565
0000e0 42 6d 8a 3c a7 42 2f 3b 84 18 3d 3b fd 0e b8 bb
       0.016897801 0.0026742609 0.0028853724 -0.005617021
0000f0 fc 5a aa 3b 44 a9 7b b8 b7 4b 1e 3c 88 bf 06 3c
       0.0051988345 -6.0000704e-05 0.0096616065 0.008224376
000100 92 66 ab 3b 93 06 9c 3a 45 6e 54 bc 70 2f 16 3c
       0.005230733 0.0011903815 -0.012965743 0.009166583
000110 7f bd 26 3d fc e2 5e 3d a8 b3 d0 3b 62 d2 04 bc
       0.04070806 0.054415688 0.006369073 -0.0081068
000120 c0 58 1a 3a d8 a2 d6 a7 ff 75 89 b9 34 d2 8f 3b
       0.00058878586 -5.9573487e-15 -0.0002621859 0.004389072
000130 3d bd 8a 3b 17 0b 57 3d 51 8a 66 bb ba e4 f7 b8
       0.0042339847 0.05250081 -0.0035177658 -0.000118204814
000140 59 d0 e8 3b 9e 3e 81 3b 34 33 fd b7 40 1b 14 bb
       0.007104915 0.003944232 -3.0183794e-05 -0.002259925
000150 37 3a 87 3c ee f8 90 bb 43 00 e7 bc 54 a5 1f bc
       0.016507251 -0.004424206 -0.028198367 -0.009744007
000160 b0 48 c1 3c 50 ab ed 3a 0e 36 ad ba 53 b6 65 3c
       0.02359423 0.001813272 -0.0013214962 0.01402052
000170 e9 17 1e 3c 38 a1 c4 3b 9d c3 2e 3d d0 f7 72 3c
       0.009649255 0.006000664 0.04266702 0.014829591
000180 5c ae 01 3d 98 ca 31 3d 31 00 86 bc 00 83 05 3b
       0.031660423 0.0434061 -0.016357513 0.0020372272

feat_lambda_net.2.weight f4 [1, 100]
000000 62 50 22 be 7f a0 5c be 17 dc ca 3e 84 17 a7 be
       -0.15850976 -0.215456 0.3962104 -0.32635128
000010 0e 25 24 be 07 e0 14 be 1d 08 30 36 a0 b2 33 14
       -0.1602976 -0.14538585 2.6230766e-06 9.072418e-27
000020 4b 1e c3 bd 19 50 43 be 29 d8 12 3e 17 ed ae 3d
       -0.09527262 -0.19073524 0.14340271 0.08541315
000030 b2 98 0c be 89 9e b5 be e2 ca b9 bd 7b b9 a3 be
       -0.13730124 -0.35472515 -0.090719 -0.31977448
000040 7d b6 42 3e 85 40 f0 bd 8b 6c 05 32 63 e4 99 bd
       0.19014926 -0.11731056 7.766299e-09 -0.075142644
000050 a7 ea 0c be 07 08 d8 bd b3 25 45 be 5d 00 b2 3e
       -0.13761388 -0.10548406 -0.19252662 0.34765902
000060 0f bd a5 3e 73 94 8f be bb de 21 be 2d 77 a5 3e
       0.32370803 -0.28042945 -0.15807621 0.32317486
000070 82 4a 16 be 7f c5 de 3e 95 c1 b8 be a8 81 49 be
       -0.1467686 0.43510053 -0.3608519 -0.19678366
000080 01 9d d7 bd f6 ec 3d be 72 a7 72 be 3c 69 68 be
       -0.10527993 -0.18547425 -0.23696688 -0.22696394
000090 78 2b d8 3d 9e d6 3a be b0 1e 11 3c 51 9d 11 be
       0.10555166 -0.18245932 0.008857414 -0.14220168
0000a0 e7 52 e4 3d ce 59 c0 3e 68 dc 83 3d 2f 04 79 be
       0.11148625 0.37568516 0.064385235 -0.24318002
0000b0 f2 69 ad 39 d4 b5 f4 3a 5c 94 6a be d1 04 b3 bd
       0.00033076067 0.0018669912 -0.22908157 -0.08741153
0000c0 1d 5a 4d be 8b dd b1 9b 45 68 57 3e 2d f5 90 3e
       -0.20053907 -2.9425362e-22 0.2103587 0.28312054
0000d0 84 8e da 9e f2 df 13 3e f5 27 00 be 40 8b 15 3e
       -2.3140591e-20 0.14440897 -0.12515242 0.14603901
0000e0 3f a3 53 3e 5a 84 24 3e 06 aa 8c 3e b9 89 1d be
       0.20667742 0.16066113 0.27473468 -0.15384568
0000f0 38 51 6c be ee 60 80 3c 9f bd a4 be e9 9d 32 3e
       -0.23077857 0.01567122 -0.3217592 0.1744305
000100 a1 19 4d 3e 7a 17 fd 3d 74 ad 64 be f9 de 87 3e
       0.20029308 0.123579934 -0.22331792 0.26537302
000110 63 2c e4 3e b3 10 c9 3e c5 ed 15 3e 8b b9 ac 3e
       0.44565114 0.39270553 0.14641483 0.33735308
000120 c0 55 6e be f0 bc 4c ab d6 32 52 bb 4c 36 4a be
       -0.23274899 -7.273756e-13 -0.0032073758 -0.19747275
000130 0b d0 b5 be d7 a7 87 be 4e 75 81 bd 37 30 ca 3d
       -0.35510287 -0.2649524 -0.06321202 0.098724775
000140 1c 1f 31 3e ce e2 a2 3e 58 2e 1d bb 45 97 73 be
       0.17297024 0.31813663 -0.0023983922 -0.23788173
000150 5d 32 2e be 96 3b 90 3e fe e7 ab be 26 e2 9c be
       -0.170114 0.2817046 -0.33575433 -0.30641288
000160 fe 32 84 3e 35 c8 b0 bd 57 85 50 3e 54 9d c6 be
       0.25820154 -0.086319365 0.20363365 -0.38791907
000170 9e b7 69 3e db 72 55 be b7 07 8b be 76 ef 12 be
       0.2282395 -0.20844595 -0.27154323 -0.1434916
000180 4a 9b a2 3e 2a 10 f8 3e ea 55 48 be 89 9c 86 be
       0.317591 0.48449832 -0.19564024 -0.26291302
