experiments/konrad/saved_models/online_expanding/hinge_inverse_gaussian/model_step_1.pt (torch, 881746 bytes, 13 tensors)

A_gate f4 [9]
0	0xbe7e1ae1	-0.24814941
1	0x3f24232b	0.6411616
2	0x3eb7c72f	0.35894153
3	0xbe3fb264	-0.18720394
4	0x3e7469bd	0.23868461
5	0x3d150d86	0.03638985
6	0xbe980f0e	-0.29698986
7	0x3e8850bb	0.26624092
8	0x3e816c50	0.25277948

B_gate f4 [120]
0	0x3dfac6c7	0.12244945
1	0x938e63aa	-3.5944116e-27
2	0x000032c8	1.8217e-41
3	0xbce50d39	-0.027960407
4	0x3d8d5660	0.0690124
5	0x000058f1	3.1906e-41
6	0xbe916d18	-0.28403544
7	0xb6cc7db0	-6.0943057e-06
8	0xb4054720	-1.2412465e-07
9	0x3db6286d	0.08894429
10	0x35b3bb07	1.3390971e-06
11	0xb6d7dbec	-6.4331016e-06
12	0xbe51a946	-0.20474729
13	0x2e73be34	5.5420737e-11
14	0x3b63f838	0.00347854
15	0xbe9b063b	-0.3027819
16	0xbd205817	-0.03914651
17	0xa8c15672	-2.1464794e-14
18	0x3ca2e090	0.01988247
19	0x090fce8c	1.7310117e-33
20	0x3b07ad33	0.00207026
21	0xbc46f520	-0.012143403
22	0xb9f6e0cc	-0.00047088263
23	0xbd407774	-0.04698892
24	0xbe8f6c61	-0.28012374
25	0x00000d99	4.878e-42
26	0xbe034434	-0.12818986
27	0x3dc93ec7	0.09826427
28	0xba9df163	-0.0012050088
29	0x8000656b	-3.6382e-41
30	0xbe2c344f	-0.16816829
31	0x3c0d87c6	0.008638328
32	0x2fd6ac70	3.9048897e-10
33	0xbe70aa31	-0.23502423
34	0x34bbd4f2	3.4986402e-07
35	0x8000135d	-6.946e-42
36	0x3dd95914	0.106126934
37	0xb88be15c	-6.670013e-05
38	0xbc800ab3	-0.015630102
39	0xbd82c371	-0.06384934
40	0xba82aee7	-0.0009970338
41	0xbb5050b7	-0.003178639
42	0xbe2feb35	-0.17179568
43	0x86543304	-3.991025e-35
44	0x360c549f	2.0910882e-06
45	0x3dc4e7d5	0.09614531
46	0xaf8c1ec9	-2.5487726e-10
47	0xa8cac1ca	-2.2510548e-14
48	0xbd7080ed	-0.058716703
49	0x2bda85a3	1.5526923e-12
50	0xb6caeb97	-6.0474954e-06
51	0xbe595918	-0.21225393
52	0xb90f018a	-0.00013638116
53	0x3d27fc3b	0.04101203
54	0x3de85e84	0.113461524
55	0xbdd2b208	-0.10287863
56	0x3b4a13ba	0.0030834512
57	0x3d08ed88	0.033429652
58	0x38f6ffef	0.000117778654
59	0x3a4e5bac	0.00078719365
60	0xbd758805	-0.05994417
61	0xb31fe284	-3.7226087e-08
62	0x3c70ecb1	0.014704869
63	0x3dea610a	0.1144429
64	0x2d06f718	7.671884e-12
65	0x3c306d95	0.010768314
66	0xbd12129d	-0.035662282
67	0xba767173	-0.00094010605
68	0x800067b8	-3.7207e-41
69	0xbd99fc03	-0.075187705
70	0x39b0298d	0.00033600294
71	0x398b5c42	0.00026580883
72	0x3e18588d	0.1487753
73	0xbc0a92fb	-0.008457894
74	0xbdcb6230	-0.09930837
75	0xbe955574	-0.29166758
76	0x00005c51	3.3117e-41
77	0x00003010	1.7242e-41
78	0xbd409548	-0.047017366
79	0x3a907ade	0.0011022945
80	0xb0864a6b	-9.770934e-10
81	0x3e167fb3	0.14697151
82	0x226afad2	3.1845697e-18
83	0x00002af5	1.541e-41
84	0x3de7f947	0.11326843
85	0x03892540	8.0606885e-37
86	0x000024f4	1.3256e-41
87	0xbda37c22	-0.07982661
88	0xb819b27d	-3.6644273e-05
89	0xadc9ffb0	-2.2964602e-11
90	0x3e075700	0.13216782
91	0xb968ba3e	-0.00022194625
92	0x3a1ebe43	0.0006055573
93	0x3c34e2de	0.0110404175
94	0x12187ea5	4.8118844e-28
95	0xba9e63c9	-0.0012084182
96	0xbe16d415	-0.1472934
97	0x0000607a	3.4609e-41
98	0x000045d9	2.5057e-41
99	0x3e6891b6	0.22711834
100	0x366c1de6	3.5184144e-06
101	0xbf04908f	-0.5178308
102	0xbe3e9ea6	-0.18615207
103	0x280c91ab	7.803148e-15
104	0x3e054fa5	0.13018663
105	0xbe37b828	-0.17941344
106	0x800065e6	-3.6554e-41
107	0xb60ce2db	-2.0993673e-06
108	0x3db81c06	0.0898972
109	0x3077fd9c	9.0218477e-10
110	0xba77d08c	-0.0009453378
111	0x3dc26776	0.0949239
112	0xbd4acfa3	-0.049514424
113	0xb692fb79	-4.3804143e-06
114	0xbe59381e	-0.21212813
115	0x80005894	-3.1776e-41
116	0xbe7f7162	-0.24945596
117	0x3e48009e	0.19531485
118	0x00000495	1.644e-42
119	0xbbf18e18	-0.007371675

ar_gate_lin.weight f4 [1, 64]
0	0xbba2ced3	-0.004968503
1	0xbde1355b	-0.10996505
2	0x3dbe9433	0.093056105
3	0x3caf5f28	0.021407679
4	0xbe1f2c82	-0.15544322
5	0x3cab8f2a	0.02094229
6	0xbd70a755	-0.05875333
7	0xbe03a413	-0.12855558
8	0xbc7a0442	-0.015259804
9	0x3d5b980e	0.053611808
10	0x3cfd37cf	0.0309104
11	0xbd75dd18	-0.060025305
12	0xbcac7524	-0.02105195
13	0x3dad5768	0.08463937
14	0x3dccc6f1	0.099988826
15	0xbdb89bfa	-0.09014125
16	0xbcd989da	-0.02655499
17	0x3c959f89	0.018264549
18	0x3d5c24dc	0.05374609
19	0x3d8e8ee8	0.06960851
20	0xbd12bd53	-0.035825085
21	0x3c553303	0.01301265
22	0xbd9e80ca	-0.07739408
23	0xbd577ecf	-0.05261117
24	0x3d4762fb	0.04867838
25	0xbd50752f	-0.050893005
26	0xbc5a2ba3	-0.013316068
27	0xbdd74198	-0.10510558
28	0xbcd07c9f	-0.025450049
29	0xbd98c6c2	-0.07459785
30	0x3be812e4	0.00708233
31	0x3e01fc21	0.12693836
32	0xbe128d0e	-0.1431162
33	0xbe1630b1	-0.14667012
34	0x3e062f78	0.13104045
35	0x3d47a1c0	0.04873824
36	0x3d2ce2af	0.04220837
37	0xbd1b24d2	-0.03787691
38	0x3ae26373	0.001727207
39	0x3d2e8ea0	0.042616487
40	0x3d50bead	0.050963093
41	0x3c088b5d	0.008334008
42	0x3d871eb0	0.0659765
43	0xbd0862d5	-0.03329738
44	0xbbc826eb	-0.006108155
45	0x3d947106	0.0724812
46	0xbaf77280	-0.0018878728
47	0x3d880a0b	0.066425405
48	0xbdb2c70d	-0.08729372
49	0xbcc99ba1	-0.024610342
50	0xbe7babd3	-0.24577264
51	0x3d09f72e	0.033682995
52	0x3d9d46ad	0.07679496
53	0xbc1e384e	-0.009656979
54	0xbd857abe	-0.06517552
55	0x3d879603	0.06620409
56	0x3df9ff6b	0.1220692
57	0xbcda404a	-0.026641984
58	0x3cb235ee	0.021754231
59	0xbd6fed5e	-0.05857598
60	0x3d8c99ed	0.068652965
61	0xbcd3d85c	-0.025860004
62	0x3d576e7e	0.052595608
63	0x3de49c5d	0.111626364

ar_mean_net.weight f4 [1, 64]
0	0x3d611c44	0.054958597
1	0x3e02cc5f	0.12773274
2	0xbd446490	-0.047947466
3	0xbbf4c797	-0.007470082
4	0x3cf6566e	0.03007051
5	0xbd4dfd5c	-0.05029045
6	0x3d99d991	0.075122006
7	0xbbe4ac08	-0.0069785155
8	0x3c562c88	0.0130721405
9	0xbdfee0d5	-0.12445227
10	0x3d8511cc	0.06497535
11	0xbd8c5ee3	-0.06854036
12	0xbdfc2b22	-0.123129144
13	0xbc5525f3	-0.013009536
14	0x3d1d159c	0.038350686
15	0x3d4446ba	0.047919013
16	0xbd6454d4	-0.05574496
17	0x3a0574db	0.000509096
18	0x3cefad32	0.02925739
19	0xbbecb75e	-0.0072240075
20	0x3dfb8bc7	0.1228252
21	0x3da84f9e	0.08218311
22	0xbcb3680e	-0.021900203
23	0xbdc70028	-0.09716827
24	0x3de7e9ca	0.113238886
25	0x3d05be4f	0.032652196
26	0xbce8c920	-0.028416216
27	0x3d7ef852	0.062248535
28	0x3da9f5ec	0.08298859
29	0xbc6bfa0c	-0.014402878
30	0xbcd7b511	-0.026331456
31	0x3c92e2d3	0.017930424
32	0xbcfb5a0d	-0.030682588
33	0xbb805e22	-0.0039174715
34	0xbcad6b7c	-0.021169417
35	0xbd9389fc	-0.07204053
36	0x3d916936	0.071001455
37	0x3ce59b8f	0.028028278
38	0x3c7e55e6	0.0155234095
39	0xbd4498b2	-0.047997184
40	0x3b1336f3	0.0022463172
41	0x3cfc723f	0.030816196
42	0x3d2840d8	0.041077465
43	0x3bfb7f56	0.0076750917
44	0x3cbdc24e	0.02316394
45	0xbd6f7be1	-0.05846775
46	0x3ddcefb0	0.10787904
47	0x3c1c49e9	0.009539106
48	0xbd9fdac1	-0.07805396
49	0xbd0543ac	-0.03253524
50	0xbd171a8f	-0.036890563
51	0x3cd8659e	0.026415642
52	0x3d44a615	0.04800995
53	0xbce4ac6f	-0.027914254
54	0x3d1133fb	0.035449963
55	0x3d057414	0.032581404
56	0x3c4b3e33	0.012404966
57	0xbcc373c0	-0.023858905
58	0xbcd98f18	-0.02655749
59	0xba2c5400	-0.0006573796
60	0x3d167aef	0.036738332
61	0x3c9c1f78	0.019057974
62	0x3e2c193b	0.168065
63	0x3e5bfb71	0.21482636

ar_sigma_net.0.weight f4 [32, 64]
0	0xbd261e01	-0.040555958
1	0xbba3894e	-0.004990733
2	0x3d015d2d	0.031583
3	0xbca01984	-0.019543417
4	0xbc19634e	-0.009362055
5	0xbbf08570	-0.0073401257
6	0xbd11fff2	-0.03564448
7	0xbc879328	-0.016549662
8	0x3a7aa89a	0.0009561867
9	0x3c46f1ef	0.012142642
10	0x3cdc3c7b	0.026884308
11	0x3ba19732	0.004931354
12	0x3cce3564	0.025171943
13	0x3ceee9b1	0.029164167
14	0x3cefe89e	0.029285725
15	0xbc0200e2	-0.007934781
16	0x3a5df2f5	0.00084666844
17	0x3bfab935	0.007651473
18	0x3c1e34c9	0.00965614
19	0xba7968ba	-0.00095142017
20	0xbabd19a9	-0.0014427203
21	0xbc1e60e6	-0.009666657
22	0x3b314ad8	0.0027052667
23	0xbc8df496	-0.017328542
24	0xbb8ce622	-0.004299895
25	0x3c9fd612	0.019511256
26	0xbbb612ea	-0.005556454
27	0xbad225c6	-0.0016032986
28	0xbc443be8	-0.011977173
29	0xbbd08e31	-0.006364607
30	0xbc8e619a	-0.017380524
31	0xbc3d122f	-0.01153998
32	0xbc2bfea5	-0.010497724
33	0xbb7ecd82	-0.0038879816
34	0x3cc63c22	0.024198595
35	0x3c2b08dd	0.010439125
36	0x3ba9b9a9	0.005179603
37	0x3ce81c0a	0.028333683
38	0x3b3d4913	0.0028882667
39	0x3c844884	0.01614786
40	0x3c8160fd	0.015793318
41	0xbcda5bb1	-0.02665505
42	0x3ca17822	0.019710604
43	0x3ca40e89	0.020026462
44	0x3c800dd1	0.015631588
45	0x3c9519fd	0.018200869
46	0xbcfb5ac1	-0.030682923
47	0x3ce65982	0.028118853
48	0x3c6cba5f	0.014448731
49	0x3ce4bccf	0.027922062
50	0xbc469f6f	-0.012122973
51	0xbb718fb3	-0.0036859333
52	0xbae3ff21	-0.001739476
53	0x3c8c4a67	0.017125322
54	0x3ca1604c	0.019699238
55	0x3cae992e	0.021313276
56	0x3bceee57	0.0063150334
57	0xbcd3696e	-0.025807109
58	0xba8a4dcc	-0.001055175
59	0xba9549de	-0.0011389812
60	0x3a2a2abe	0.00064913544
61	0x3c848e80	0.01618123
62	0xbc3bbf90	-0.011459246
63	0xbcabe33e	-0.020982381
64	0xba8f2e72	-0.0010923876
65	0xbaecb8ed	-0.0018060483
66	0xbb29219a	-0.0025807382
67	0xbb0c1259	-0.002137324
68	0xbac3e272	-0.0014944805
69	0xbac39722	-0.001492236
70	0xba947cf0	-0.0011328738
71	0xba84d80f	-0.0010135191
72	0xba9ee2aa	-0.0012121995
73	0xbad50952	-0.0016253388
74	0xbaa0ecc4	-0.0012277593
75	0xbaa7e7a5	-0.0012810124
76	0xbabf25f9	-0.001458346
77	0xbb11332c	-0.0022155745
78	0xbb2a5d0a	-0.0025995397
79	0xbadc512a	-0.0016808857
80	0xbb05bfa8	-0.0020408425
81	0xbb13bf3c	-0.0022544404
82	0xbae90efa	-0.0017780953
83	0xba504afd	-0.00079457444
84	0xba5192f0	-0.00079946127
85	0xba99a5d1	-0.0011722391
86	0xba3c7490	-0.0007189
87	0xba623fbf	-0.0008630715
88	0xba428bc5	-0.000742134
89	0xba954313	-0.0011387788
90	0xba8b51dd	-0.0010629256
91	0xba674101	-0.0008821637
92	0xba5e1cf5	-0.0008472943
93	0xbaab8338	-0.0013085371
94	0xba313881	-0.0006760434
95	0xba4d71ca	-0.0007837085
96	0xba8dd8e4	-0.0010822085
97	0xbaafb907	-0.0013406583
98	0xbaafa026	-0.0013399168
99	0xbaa8cfe4	-0.0012879339
100	0xba8d88de	-0.0010798236
101	0xba9ff109	-0.0012202571
102	0xbab08136	-0.0013466242
103	0xbad12e72	-0.0015959276
104	0xbab1a2cc	-0.0013552546
105	0xbab11471	-0.001351012
106	0xbaa36f94	-0.0012469166
107	0xbad6b5c0	-0.001638107
108	0xba3561e1	-0.0006919187
109	0xbb0c555c	-0.0021413183
110	0xbad54f29	-0.0016274202
111	0xbab74bf8	-0.0013984432
112	0xbad1dcfe	-0.0016011295
113	0xbaab5aaa	-0.0013073285
114	0xbaafc9c1	-0.0013411568
115	0xba53219c	-0.00080540194
116	0xbaa557e9	-0.00126147
117	0xba877716	-0.0010335173
118	0xbb175c89	-0.0023095927
119	0xbac5fa00	-0.0015104413
120	0xbab8242a	-0.0014048864
121	0xba64dc0a	-0.0008730298
122	0xba828b8a	-0.0009959799
123	0xba5c0473	-0.0008392997
124	0xbb017e93	-0.0019759282
125	0xbb06050b	-0.0020449783
126	0xbad1ee48	-0.0016016448
127	0xbad84912	-0.0016501269
128	0xbdd56aa0	-0.10420728
129	0xb9ccbf96	-0.00039052655
130	0x3db4dac0	0.08830786
131	0xbd09517c	-0.033524975
132	0xbc0c924a	-0.0085798
133	0xbc4ebf73	-0.012618887
134	0xbd816c5a	-0.063194945
135	0xbd02645d	-0.031833995
136	0x3becafd5	0.0072231092
137	0x3d03aa0e	0.0321446
138	0x3da0acfb	0.078454934
139	0x3cf7d0b8	0.030250892
140	0x3d905200	0.0704689
141	0x3d837c5b	0.06420203
142	0x3db126e0	0.08649993
143	0xbc50a4f6	-0.012734642
144	0x3c140ccb	0.009036253
145	0x3c116ee5	0.008876537
146	0x3d2b8f83	0.04188491
147	0x391c6ec0	0.00014918577
148	0xbc289594	-0.010289568
149	0xbc6e5a75	-0.014547934
150	0x3c36fea8	0.011169113
151	0xbd2a69be	-0.04160475
152	0xbbc29344	-0.0059379656
153	0x3d6d1537	0.05788156
154	0xbbbfe435	-0.005856062
155	0x3bf0d4f3	0.0073496043
156	0xbcb136c4	-0.02163256
157	0x3a5a110a	0.0008318579
158	0xbd6edfbb	-0.058318835
159	0xbcc576a0	-0.024104416
160	0xba7ba950	-0.00096001197
161	0x3b95c809	0.004570965
162	0x3d818713	0.063245915
163	0x3d30210a	0.04300026
164	0x3d384eda	0.044997074
165	0x3d7a0252	0.06103737
166	0x3cb1cec2	0.021705035
167	0x3d3d0190	0.04614407
168	0x3d71ace9	0.05900279
169	0xbd20e39d	-0.03927957
170	0x3d66077d	0.056159485
171	0x3d7d4a76	0.06183859
172	0x3d7739f6	0.06035801
173	0x3d71eb1f	0.05906212
174	0xbdbaa7bc	-0.09114024
175	0x3db01cc4	0.085992366
176	0x3d552b0f	0.052043017
177	0x3dc08237	0.093998365
178	0xbd053f4b	-0.032531064
179	0x3b557565	0.0032571193
180	0x3d1e0a9a	0.03858433
181	0x3d34f3e2	0.044177897
182	0x3d742bc9	0.05961207
183	0x3d6491fe	0.05580329
184	0x3d009ab3	0.031397533
185	0xbd410098	-0.047119707
186	0xbb83f0b5	-0.0040264972
187	0x3bc5d021	0.006036774
188	0x3c839559	0.016062425
189	0x3d47fd59	0.048825596
190	0xbd0bfa57	-0.03417429
191	0xbd980e1b	-0.074245654
192	0xa9eb05e4	-1.0437118e-13
193	0xa919bb5a	-3.4135326e-14
194	0xa8b9f8cd	-2.0647026e-14
195	0xa8a1fb0a	-1.7983462e-14
196	0xa87d870e	-1.4073607e-14
197	0xa84b9792	-1.130163e-14
198	0xa8a0213d	-1.7777983e-14
199	0xa7faf2f5	-6.9652354e-15
200	0xa90ef47f	-3.17424e-14
201	0xa8c86c7e	-2.2251511e-14
202	0xa9b86edc	-8.1904725e-14
203	0xaab0d383	-3.1410646e-13
204	0xaa3279e1	-1.5851861e-13
205	0xa9c2e45f	-8.654947e-14
206	0xa9bab9ff	-8.2923245e-14
207	0xa9cec7e9	-9.1829166e-14
208	0xa9a311f0	-7.241766e-14
209	0xa9cb72aa	-9.034902e-14
210	0xaa281309	-1.4928002e-13
211	0xaa29b1ef	-1.5071948e-13
212	0xa9a6900a	-7.396868e-14
213	0xa9c35708	-8.674837e-14
214	0xaa10ac00	-1.2849444e-13
215	0xa98be1e1	-6.212024e-14
216	0xa9aec08f	-7.760556e-14
217	0xa91b0e7a	-3.442947e-14
218	0xa92837fe	-3.735206e-14
219	0xa9401803	-4.265339e-14
220	0xab0b5f5d	-4.9515063e-13
221	0xaaa7c1a3	-2.9799522e-13
222	0xaa49692d	-1.7888876e-13
223	0xaa8dc641	-2.5184198e-13
224	0xaa8e1ed6	-2.5245664e-13
225	0xaaa4f0f5	-2.929945e-13
226	0xaa693d29	-2.0715776e-13
227	0xaa6d91a7	-2.1100362e-13
228	0xa9f14ace	-1.07155265e-13
229	0xa9e5039e	-1.01702704e-13
230	0xa9c09a85	-8.553318e-14
231	0xa9d7c24e	-9.5816245e-14
232	0xa9dd4b25	-9.827407e-14
233	0xa9d3d4f3	-9.407223e-14
234	0xaa2ba7f9	-1.5246128e-13
235	0xaa95af0e	-2.6589185e-13
236	0xaa1e68da	-1.4069597e-13
237	0xa9d1874d	-9.3049354e-14
238	0xa9c046df	-8.538807e-14
239	0xaa21a726	-1.4357664e-13
240	0xaa0800f7	-1.2079561e-13
241	0xa923b7e2	-3.6352764e-14
242	0xa8ef9377	-2.6598283e-14
243	0xaa027473	-1.1586721e-13
244	0xa9c35b12	-8.675538e-14
245	0xa92971c0	-3.76242e-14
246	0xa939f151	-4.128756e-14
247	0xa952105d	-4.664356e-14
248	0xaa1ca578	-1.3912992e-13
249	0xa9c1c9fd	-8.605961e-14
250	0xa9c8ede2	-8.92305e-14
251	0xa9bf4bab	-8.49523e-14
252	0xa99029dd	-6.402147e-14
253	0xaa04a6fb	-1.1781888e-13
254	0xa99584c9	-6.639964e-14
255	0xa9dcd07b	-9.806128e-14

ar_sigma_net.0.bias f4 [32]
0	0xbb334451	-0.0027353952
1	0xba93928a	-0.0011258882
2	0xbc0c1cc7	-0.008551783
3	0xa95103e4	-4.6410697e-14
4	0x94bdedd9	-1.9177937e-26
5	0x3d5bac7d	0.053631295
6	0x2954de76	4.726641e-14
7	0xbb178d89	-0.0023125133
8	0xbb05f44c	-0.0020439802
9	0xb352e5a6	-4.91033e-08
10	0xbb92419e	-0.0044633886
11	0xbbdd7b89	-0.0067591113
12	0x1c2d4838	5.733424e-22
13	0x90b533de	-7.1471826e-29
14	0x8006101d	-5.56793e-40
15	0xa70959aa	-1.9061176e-15
16	0x24279257	3.6336307e-17
17	0x3cd27095	0.025688449
18	0x349eb115	2.9558637e-07
19	0xbbcfd532	-0.0063425535
20	0xaa11dea5	-1.2955832e-13
21	0x319ed1d2	4.622259e-09
22	0xbbc32ac3	-0.0059560253
23	0x3d0ba401	0.034091953
24	0xb8af2a66	-8.3525476e-05
25	0xbb253cdc	-0.0025213277
26	0xbb8550e7	-0.004068482
27	0x1f5b345b	4.641836e-20
28	0x08c231f0	1.16876905e-33
29	0xb590651c	-1.0758263e-06
30	0xbbfe48f1	-0.00776016
31	0xbc1b0726	-0.009462154

ar_sigma_net.2.weight f4 [1, 32]
0	0xbda17e10	-0.07885373
1	0x3c199166	0.009373045
2	0xbe878429	-0.26468018
3	0xaff7e222	-4.5089715e-10
4	0x156282c7	4.5743502e-26
5	0x3eb8d63c	0.36100948
6	0xbacdac9d	-0.0015691702
7	0xbd32dd4f	-0.043668088
8	0xbd446350	-0.047946274
9	0xb7e17856	-2.6878126e-05
10	0xbe14c5c7	-0.14528571
11	0xbe508c72	-0.20366076
12	0x9cedca5e	-1.5735655e-21
13	0xb94ae38a	-0.00019348986
14	0xad0a0257	-7.844911e-12
15	0xbaa9346e	-0.0012909302
16	0xa699c2fb	-1.0669357e-15
17	0x3e541999	0.2071289
18	0xb6224fb6	-2.418628e-06
19	0xbe46159d	-0.19344182
20	0xbaaaee48	-0.0013040984
21	0xbb62ebdd	-0.0034625449
22	0xbe35c399	-0.17750396
23	0x3e8a4a91	0.27010015
24	0xbb344a00	-0.0027509928
25	0xbd8fa5de	-0.070140585
26	0xbe060338	-0.13087165
27	0xa16236f4	-7.664451e-19
28	0xb3df73d2	-1.0405314e-07
29	0x382ff554	4.195173e-05
30	0xbe6855f9	-0.22689046
31	0xbe84f9b2	-0.25971752

feat_mean_net.0.weight f4 [100, 1080]
0	0x3d015ce8	0.031582743
1	0x0000126e	6.611e-42
2	0x800041f5	-2.3661e-41
3	0x00003432	1.8724e-41
4	0x80001024	-5.79e-42
5	0x80039034	-3.27237e-40
6	0x802084cd	-2.986376e-39
7	0x00002781	1.4171e-41
8	0x00019bfb	1.47791e-40
9	0xbc17cc3e	-0.009265004
10	0x000055bd	3.0757e-41
11	0x27d833ed	6.000834e-15
12	0x8000c6cc	-7.1315e-41
13	0x8000006e	-1.54e-43
14	0x0000044f	1.546e-42
15	0x80006128	-3.4853e-41
16	0x8000753f	-4.206e-41
17	0x878b1b78	-2.093054e-34
18	0x3c02d43e	0.007985173
19	0x00006d3d	3.9187e-41
20	0x00405c97	5.910687e-39
21	0x0000236b	1.2706e-41
22	0x00000b50	4.058e-42
23	0x80002c33	-1.5856e-41
24	0x00006948	3.7768e-41
25	0x000069ab	3.7907e-41
26	0x80004efa	-2.8331e-41
27	0x3caf3fb1	0.021392675
28	0x800044e7	-2.4718e-41
29	0x8000280b	-1.4365e-41
30	0x80002b84	-1.561e-41
31	0x000fb024	1.44072e-39
32	0x80008b72	-5.0024e-41
33	0x000038af	2.0334e-41
34	0x00003bd4	2.1462e-41
35	0x80003c09	-2.1537e-41
36	0xbc51765c	-0.012784567
37	0x00373ee9	5.07352e-39
38	0x00023314	2.01994e-40
39	0x000017b9	8.51e-42
40	0x00002cd9	1.6088e-41
41	0x805a2a7a	-8.280432e-39
42	0x94f44948	-2.4666608e-26
43	0x00000f25	5.433e-42
44	0x01021bab	2.389708e-38
45	0x3c20117f	0.009769796
46	0xadefd200	-2.7264413e-11
47	0x000072e4	4.1215e-41
48	0x005923fb	8.186267e-39
49	0x000121d7	1.03975e-40
50	0x80035515	-3.06028e-40
51	0x0000225b	1.2324e-41
52	0x80006ec6	-3.9738e-41
53	0x0000072c	2.573e-42
54	0xbcef28d7	-0.029194279
55	0x001180cc	1.607407e-39
56	0x80004742	-2.5562e-41
57	0x000382ea	3.2247e-40
58	0x8000739e	-4.1476e-41
59	0x81ac296c	-6.324226e-38
60	0x80005268	-2.9562e-41
61	0x80006e42	-3.9553e-41
62	0x80006d0a	-3.9116e-41
63	0x3c83977c	0.016063444
64	0x0000639f	3.5737e-41
65	0x80004e2a	-2.804e-41
66	0x0001b8cd	1.5813e-40
67	0x000047df	2.5782e-41
68	0x80001be2	-1.0002e-41
69	0x0000601e	3.448e-41
70	0x800674ea	-5.92954e-40
71	0x00000914	3.257e-42
72	0xbc8009f5	-0.015629748
73	0x80001162	-6.236e-42
74	0x0004f75a	4.56075e-40
75	0x00002072	1.1639e-41
76	0x0003cb4a	3.48433e-40
77	0x00003eca	2.2524e-41
78	0x80000204	-7.23e-43
79	0x00004811	2.5853e-41
80	0x8002ba39	-2.50475e-40
81	0x3d1dfb6d	0.038569856
82	0x8000346e	-1.8808e-41
83	0x80000c40	-4.394e-42
84	0x80005f3f	-3.4168e-41
85	0x8001f71a	-1.80479e-40
86	0x00002252	1.2312e-41
87	0x800142cd	-1.15799e-40
88	0xaa202e58	-1.4226933e-13
89	0x800019d6	-9.268e-42
90	0xbcc0aaf3	-0.023519015
91	0x000016dc	8.2e-42
92	0x8000110d	-6.117e-42
93	0x00004272	2.3836e-41
94	0x80000eb4	-5.274e-42
95	0x80000c92	-4.51e-42
96	0x1a305d22	3.647118e-23
97	0x800463d2	-4.03151e-40
98	0x80003c22	-2.1572e-41
99	0xbd0a14d6	-0.033711277
100	0x80016e8c	-1.31492e-40
101	0x00000c49	4.407e-42
102	0x8000169e	-8.114e-42
103	0x800036c7	-1.965e-41
104	0x0000227a	1.2368e-41
105	0x80002722	-1.4038e-41
106	0x0000487b	2.6001e-41
107	0x800044bf	-2.4661e-41
108	0x3d6a47d3	0.057197403
109	0x00000b57	4.068e-42
110	0x000162b2	1.27241e-40
111	0x0002d3a4	2.59593e-40
112	0x000b18ce	1.019089e-39
113	0x8000747f	-4.1791e-41
114	0x80010067	-9.198e-41
115	0x000002a9	9.54e-43
116	0x80003daa	-2.2121e-41
117	0x3cc54595	0.02408103
118	0x80001301	-6.817e-42
119	0x83e31326	-1.3346257e-36
120	0x802c81f6	-4.087383e-39
121	0x80003c48	-2.1625e-41
122	0x800062a9	-3.5393e-41
123	0x80003b71	-2.1324e-41
124	0x80003d63	-2.2021e-41
125	0x00001821	8.656e-42
126	0xbcbd98b5	-0.023144105
127	0x8003c251	-3.45214e-40
128	0x0003973a	3.29756e-40
129	0x005b8d80	8.407791e-39
130	0x8001f40e	-1.79386e-40
131	0x80002a85	-1.5253e-41
132	0x80005f7a	-3.425e-41
133	0xa76ed3be	-3.314392e-15
134	0x8000109f	-5.963e-42
135	0xbc97d9b9	-0.018536435
136	0x0006fa60	6.4083e-40
137	0x00004547	2.4852e-41
138	0x000019e1	9.284e-42
139	0x80000acb	-3.872e-42
140	0x000018de	8.92e-42
141	0x80006c76	-3.8908e-41
142	0x80006333	-3.5586e-41
143	0x80022a1b	-1.98776e-40
144	0xbd0a74e8	-0.033802897
145	0x00004ba6	2.7138e-41
146	0x8016567d	-2.051407e-39
147	0x8000a883	-6.045e-41
148	0x80003f9d	-2.282e-41
149	0x800e0277	-1.286581e-39
150	0x80003277	-1.8103e-41
151	0xb02c2e90	-6.2639405e-10
152	0x00000fbb	5.643e-42
153	0xbceaf5fe	-0.028681751
154	0x00041a4a	3.76773e-40
155	0x000010a9	5.977e-42
156	0x00002e2b	1.6562e-41
157	0x9dac5e2c	-4.5625392e-21
158	0x00006f73	3.998e-41
159	0x0002ab6f	2.4517e-40
160	0x0000570f	3.1231e-41
161	0x800011f9	-6.447e-42
162	0xbd126db1	-0.03574914
163	0x80002f3b	-1.6943e-41
164	0x80003379	-1.8465e-41
165	0x800b0778	-1.01287e-39
166	0x0000373f	1.9819e-41
167	0x80004047	-2.3058e-41
168	0x0000541a	3.017e-41
169	0x8034b9a9	-4.842048e-39
170	0x80002d9c	-1.6362e-41
171	0x3c7f5244	0.0155835785
172	0x0004a0cb	4.25024e-40
173	0x80375a07	-5.083248e-39
174	0x00030bc6	2.7973e-40
175	0x000014d6	7.475e-42
176	0x8003189b	-2.84333e-40
177	0x80004e49	-2.8083e-41
178	0x0003778f	3.18396e-40
179	0x8007ec8a	-7.27703e-40
180	0x3cfd4638	0.030917272
181	0x000040f3	2.33e-41
182	0x002fb145	4.37986e-39
183	0x8003489e	-3.01557e-40
184	0x80005a0a	-3.23e-41
185	0x00012cdc	1.07928e-40
186	0x000021e5	1.2159e-41
187	0x000b61a6	1.04522e-39
188	0x80217a4a	-3.07444e-39
189	0xbc01ce87	-0.007922775
190	0x000003e5	1.397e-42
191	0x8000385f	-2.0222e-41
192	0x0000d0b6	7.4871e-41
193	0x00001963	9.107e-42
194	0x00071930	6.51884e-40
195	0x2b23b9de	5.8167176e-13
196	0x0001acd9	1.53842e-40
197	0x000031de	1.7889e-41
198	0x3c952ac5	0.01820887
199	0x80002e40	-1.6591e-41
200	0x0000214c	1.1945e-41
201	0x00019d63	1.48295e-40
202	0x80a260a0	-1.4912013e-38
203	0x8002b76e	-2.49473e-40
204	0x8012156e	-1.660726e-39
205	0x800037b1	-1.9978e-41
206	0x000026c9	1.3913e-41
207	0xbd124a63	-0.035715472
208	0x8013f47a	-1.832576e-39
209	0x00006377	3.5681e-41
210	0x00004df0	2.7959e-41
211	0x0000587c	3.1742e-41
212	0x00159652	1.98247e-39
213	0xaf9328bc	-2.6768088e-10
214	0x80002afa	-1.5417e-41
215	0x800a3ff8	-9.41303e-40
216	0xbcc67965	-0.024227807
217	0x80082b5a	-7.50236e-40
218	0x80000f16	-5.412e-42
219	0x8000105d	-5.87e-42
220	0x00007991	4.361e-41
221	0x80001a03	-9.331e-42
222	0x311159d5	2.115134e-09
223	0x00002811	1.4373e-41
224	0x0000709e	4.04e-41
225	0xbd7470e5	-0.059677977
226	0x00004f24	2.839e-41
227	0x000071b5	4.079e-41
228	0x80001da1	-1.0629e-41
229	0x00005a8d	3.2483e-41
230	0x00088396	7.81888e-40
231	0x00020216	1.84419e-40
232	0x000dc8ed	1.26594e-39
233	0x80002dda	-1.6448e-41
234	0xbcf9ab72	-0.03047726
235	0x00001b10	9.708e-42
236	0x800040ef	-2.3294e-41
237	0x000050f8	2.9046e-41
238	0x800044c8	-2.4674e-41
239	0x2e9321e2	6.690805e-11
240	0x28804c99	1.4244074e-14
241	0x80024326	-2.0776e-40
242	0x86c3dbee	-7.3674005e-35
243	0xbcb5b737	-0.02218209
244	0x1e8304ae	1.38721e-20
245	0x00020d8c	1.8853e-40
246	0x80003e5f	-2.2375e-41
247	0x0000319e	1.7799e-41
248	0x80002470	-1.3071e-41
249	0x800156fd	-1.23041e-40
250	0x00005d99	3.3577e-41
251	0x00052986	4.74073e-40
252	0xbccef574	-0.025263526
253	0x80006e20	-3.9505e-41
254	0x0000715e	4.0668e-41
255	0x00006219	3.5191e-41

feat_mean_net.0.bias f4 [100]
0	0x3d7c5648	0.06160572
1	0xbd97faad	-0.074208595
2	0xbc8b9f6e	-0.017043795
3	0xbdbe2ccb	-0.09285887
4	0xbe0301e2	-0.12793687
5	0xbd4ed48e	-0.050495677
6	0xbdfcf21e	-0.12350868
7	0x3c2428a7	0.010019458
8	0xbde1a90a	-0.1101857
9	0xbcc5c006	-0.024139415
10	0xbdb25fcc	-0.08709678
11	0xbd8618f9	-0.06547732
12	0xbc107f85	-0.0088194655
13	0x3c3fb0d6	0.011699876
14	0xbb53465d	-0.0032237985
15	0xbad51934	-0.0016258121
16	0xbdc0b8ca	-0.09410246
17	0xb9b99261	-0.0003539501
18	0x3cf90685	0.030398617
19	0xbd79adb0	-0.060956657
20	0xb972921e	-0.00023133351
21	0xbdc5bc8f	-0.09655105
22	0xbbfce10b	-0.007717257
23	0x3cf2ad3b	0.029623618
24	0xbe00e4d7	-0.12587295
25	0xbcf19bae	-0.02949318
26	0xbde099b6	-0.10966818
27	0xbdbf722f	-0.09347951
28	0x3d2aa9c1	0.041665796
29	0xbde977f6	-0.11399834
30	0xbdb27255	-0.08713213
31	0x3c7193c3	0.014744702
32	0xbca7148c	-0.02039554
33	0xb5315b65	-6.6070635e-07
34	0xbdf7fc64	-0.121086866
35	0x3b850ccb	0.004060363
36	0xbaf00c0c	-0.0018314137
37	0xbd6d8f8c	-0.057998225
38	0xbcc02037	-0.023452861
39	0xb0f613b0	-1.7904451e-09
40	0xbdb519cd	-0.08842812
41	0xbd3fe0ab	-0.04684512
42	0x3c74fef7	0.0149533665
43	0xbdf5e901	-0.120073326
44	0x3d940f5d	0.07229493
45	0xbd8f4d10	-0.069971204
46	0xba9ca136	-0.00119499
47	0x3d33db0c	0.04391007
48	0xb9d54ac0	-0.0004068222
49	0xbdf368b7	-0.11885207
50	0xbdf9275e	-0.12165712
51	0xb9547899	-0.00020262822
52	0xbc37ec36	-0.011225751
53	0xbccb1a54	-0.024792828
54	0xbdb0d7dc	-0.08634922
55	0xbdcb4a80	-0.09926319
56	0xbc042548	-0.008065529
57	0xbdf0162c	-0.11722979
58	0xbdb68918	-0.08912867
59	0x3c44bdd9	0.012008154
60	0xbe008700	-0.12551498
61	0xb3384dd4	-4.2911623e-08
62	0xbdd741fa	-0.10510631
63	0x3ce2feae	0.027709331
64	0x3c878105	0.016541013
65	0x3d7771c2	0.060411222
66	0xba0098ff	-0.00049056107
67	0xbe03f388	-0.12885869
68	0xbe1e9014	-0.15484649
69	0xbbba380e	-0.005682952
70	0xbdd59463	-0.10428693
71	0x3aecdced	0.0018071212
72	0xb8f288d6	-0.00011564947
73	0xbdf43adc	-0.11925289
74	0xbdea51b5	-0.11441366
75	0x3d17d52f	0.037068542
76	0xbd96b859	-0.0735938
77	0xbdea6178	-0.11444372
78	0xbd6aaef0	-0.05729574
79	0xbe204667	-0.15651856
80	0xb509e934	-5.137583e-07
81	0xb4980561	-2.831612e-07
82	0xbe0d9c19	-0.13829078
83	0xbe1cd163	-0.1531425
84	0xbd960f32	-0.07327117
85	0xbc31068d	-0.0108047845
86	0x3c266223	0.010155234
87	0xbe0020bd	-0.12512489
88	0xbe21d8cb	-0.15805356
89	0xb651150f	-3.1155685e-06
90	0x3cc1c3b0	0.023652881
91	0xbe04a01a	-0.12951699
92	0xbdfa50f9	-0.122224756
93	0xbdb20b5a	-0.086935714
94	0xbddace0d	-0.10683832
95	0xbe250c52	-0.16117981
96	0xbe1498d6	-0.14511427
97	0xbd57de5a	-0.052702285
98	0xbbf103a1	-0.007355169
99	0xbde12361	-0.10993076

feat_mean_net.2.weight f4 [1, 100]
0	0xbe20bb4a	-0.15696445
1	0x3df2bcec	0.1185244
2	0xbe20606a	-0.15661779
3	0x3e417f98	0.1889633
4	0x3ebd5a4c	0.36982954
5	0x3d70f218	0.05882463
6	0x3ebe7fb6	0.3720681
7	0xbdacd866	-0.08439712
8	0x3e9b1e86	0.30296725
9	0xbce6a260	-0.028153598
10	0x3e9fb511	0.3119283
11	0x3e1fb401	0.1559601
12	0xb9e2783a	-0.00043195655
13	0xbdbb4d63	-0.0914562
14	0xbcd34137	-0.025787933
15	0xbe4f2c37	-0.2023171
16	0x3e580518	0.21095693
17	0xbe3806ea	-0.17971388
18	0xbe012037	-0.12609945
19	0x3e203aa8	0.15647376
20	0xb8eb76c1	-0.00011227793
21	0x3e0307ff	0.12796019
22	0xbdc8b139	-0.097994275
23	0xbe97d2ac	-0.29652917
24	0x3e82c8a5	0.25543705
25	0xbe4384fb	-0.19093697
26	0x3e46564b	0.19368856
27	0x3ebe6e1e	0.37193388
28	0xbe048796	-0.12942347
29	0x3e6e9b3e	0.23301408
30	0x3e67a12d	0.22620077
31	0xbd45e008	-0.048309356
32	0xbe9e24b0	-0.30887365
33	0x3402c8c5	1.2180233e-07
34	0x3e3b2667	0.18276368
35	0xbd0a0362	-0.033694632
36	0xbc4a16c8	-0.012334533
37	0xbe899a9f	-0.2687578
38	0xbd3ca952	-0.046059914
39	0x301a255d	5.607797e-10
40	0x3e92bc24	0.28659165
41	0x3dba3686	0.09092431
42	0xbe5ea9fb	-0.2174453
43	0x3e85048a	0.25980026
44	0xbe14b69a	-0.14522782
45	0x3eb65991	0.3561521
46	0xbd0741da	-0.033021785
47	0xbe55660c	-0.20839709
48	0xb82313cd	-3.888067e-05
49	0x3e8a5838	0.2702043
50	0x3eaea772	0.34112126
51	0xbbf36955	-0.007428328
52	0xbe3f037d	-0.18653674
53	0xbdb1531c	-0.0865843
54	0x3e8594ee	0.26090187
55	0x3eade68f	0.33964965
56	0xbcb4ed4d	-0.02208581
57	0x3e4fd7ff	0.2029724
58	0x3e280971	0.16409852
59	0xbe3f4b3d	-0.18681045
60	0x3ebf9ea9	0.37425736
61	0x3176f3b4	3.593624e-09
62	0x3e2e6b0f	0.17033027
63	0xbd73f3e9	-0.059558783
64	0xbe05f5d0	-0.13082051
65	0xbddac385	-0.10681824
66	0xb8c50044	-9.3937415e-05
67	0x3ec33caf	0.38132235
68	0x3ead6985	0.33869568
69	0x3b20040e	0.002441648
70	0x3e9996c9	0.29997852
71	0xbb888e8a	-0.0041673826
72	0x370bb6ce	8.327608e-06
73	0x3eca5fc0	0.39526176
74	0x3e82f32c	0.2557615
75	0xbd3e364b	-0.046438497
76	0x3ed903a2	0.42385584
77	0x3ea0c4d9	0.31400183
78	0x3db9597e	0.090502724
79	0x3e99ecfb	0.30063614
80	0x36435257	2.9105192e-06
81	0xb15c6750	-3.207294e-09
82	0x3eef349e	0.4671983
83	0x3e845e06	0.25852984
84	0x3e121651	0.14266326
85	0xbdb5e2a9	-0.088811226
86	0xbe1535c9	-0.14571299
87	0x3e74af48	0.2389499
88	0x3efb0add	0.49031726
89	0x33e29648	1.0551281e-07
90	0xbe166259	-0.14685954
91	0x3ea0162a	0.3126691
92	0x3e589868	0.21151888
93	0x3e806366	0.25075835
94	0x3e92a9a0	0.2864504
95	0x3edab0f0	0.42713118
96	0x3e7ebfd4	0.24877864
97	0xbd9f4da6	-0.07778482
98	0xbe0fb5eb	-0.1403424
99	0x3e9fd8b2	0.31220013

feat_lambda_net.0.weight f4 [100, 1080]
0	0x3b2f4d60	0.0026749
1	0x00000c93	4.511e-42
2	0x0026145e	3.497055e-39
3	0x00006708	3.696e-41
4	0x00003b4e	2.1275e-41
5	0x8000e026	-8.041e-41
6	0x0000389c	2.0308e-41
7	0xa411c420	-3.1607987e-17
8	0x00006be9	3.8711e-41
9	0x3c8e44eb	0.017366847
10	0x80265c57	-3.522874e-39
11	0x8000558c	-3.0688e-41
12	0x00003a39	2.0886e-41
13	0x80020a32	-1.87328e-40
14	0x80000ea1	-5.248e-42
15	0x80014877	-1.17831e-40
16	0x00003e39	2.2321e-41
17	0x80004c6d	-2.7416e-41
18	0x3bbcbe78	0.0057600103
19	0x00016e63	1.31435e-40
20	0x800037ac	-1.9971e-41
21	0x00013a96	1.12852e-40
22	0x0dc0f328	1.1891451e-30
23	0x000ad75f	9.95616e-40
24	0x8022223a	-3.134685e-39
25	0x00013e60	1.14211e-40
26	0x80004228	-2.3732e-41
27	0x3a551565	0.0008128493
28	0x00026a4b	2.21802e-40
29	0x80004fcf	-2.863e-41
30	0x00149afd	1.892309e-39
31	0x00000a49	3.69e-42
32	0x00001fe6	1.1443e-41
33	0x0006bb1e	6.18138e-40
34	0x800010f1	-6.077e-42
35	0x80004f91	-2.8543e-41
36	0x3ce1e57e	0.02757525
37	0x00000130	4.26e-43
38	0x00003371	1.8454e-41
39	0x80003364	-1.8435e-41
40	0x800031a0	-1.7802e-41
41	0x8000076b	-2.661e-42
42	0x800027ec	-1.4321e-41
43	0x00016781	1.28966e-40
44	0x0000051b	1.831e-42
45	0x3b60e20f	0.003431443
46	0x000025cf	1.3563e-41
47	0x800000ce	-2.89e-43
48	0x800018dc	-8.918e-42
49	0x00001aa4	9.557e-42
50	0x00006a51	3.8139e-41
51	0x80000de9	-4.99e-42
52	0x800027c6	-1.4268e-41
53	0x00004ab0	2.6793e-41
54	0xbbe4eda3	-0.0069863363
55	0x00016abc	1.30125e-40
56	0x00186923	2.241768e-39
57	0x00004fd0	2.8631e-41
58	0x00015b7e	1.24657e-40
59	0x000e8f76	1.337161e-39
60	0x000013e1	7.131e-42
61	0x0ab68458	1.7575745e-32
62	0x8001578a	-1.23239e-40
63	0x3c2eac4a	0.010661194
64	0x001582af	1.975426e-39
65	0x80020253	-1.84505e-40
66	0x80452c5d	-6.352564e-39
67	0x00004f3a	2.8421e-41
68	0x80000c05	-4.312e-42
69	0x00006244	3.5251e-41
70	0x0001a254	1.50068e-40
71	0x00004400	2.4394e-41
72	0x3b745156	0.0037279925
73	0x80022e8d	-2.0037e-40
74	0x8002573d	-2.14966e-40
75	0x8005382e	-4.79331e-40
76	0x000055a6	3.0725e-41
77	0x80003b89	-2.1357e-41
78	0x800a7b01	-9.6248e-40
79	0x80000cbe	-4.571e-42
80	0x800056b9	-3.111e-41
81	0x3cb0567a	0.02152561
82	0x80031302	-2.82325e-40
83	0x80002b6d	-1.5578e-41
84	0x8000129d	-6.677e-42
85	0x36ab79b8	5.110367e-06
86	0x00001431	7.243e-42
87	0x80004ac8	-2.6826e-41
88	0x80001d3a	-1.0485e-41
89	0x00057e4c	5.04484e-40
90	0x3bf1346c	0.0073609855
91	0x20bfe57b	3.2508516e-19
92	0x80039e9e	-3.32408e-40
93	0x800035a9	-1.925e-41
94	0x80004f30	-2.8407e-41
95	0x07c1fd50	2.9188296e-34
96	0x000022c9	1.2479e-41
97	0x8000422d	-2.374e-41
98	0x80000ed2	-5.317e-42
99	0x3c6ed03b	0.014576013
100	0x0000232b	1.2616e-41
101	0x80001829	-8.667e-42
102	0x00069e79	6.07862e-40
103	0x0002c428	2.54039e-40
104	0x800271cd	-2.24495e-40
105	0x000006a0	2.377e-42
106	0x80092b03	-8.41949e-40
107	0x00001234	6.53e-42
108	0x3c6d8fe8	0.014499642
109	0x00000c2a	4.364e-42
110	0x000fa23d	1.435733e-39
111	0x0001f4bb	1.79628e-40
112	0x80005947	-3.2027e-41
113	0x801a40bd	-2.410947e-39
114	0x80000c06	-4.313e-42
115	0x80004b83	-2.7089e-41
116	0x80003128	-1.7634e-41
117	0x3c6d1c5c	0.014472093
118	0x000d3add	1.214978e-39
119	0xb7e5e7fc	-2.7406953e-05
120	0x0003b46d	3.40231e-40
121	0x800031aa	-1.7816e-41
122	0x80005377	-2.9942e-41
123	0x000e5ebe	1.319684e-39
124	0x00003a37	2.0884e-41
125	0xb08d2b5c	-1.0271424e-09
126	0xbbb77688	-0.005598847
127	0x80002a6b	-1.5217e-41
128	0x800ab243	-9.82303e-40
129	0x80003810	-2.0111e-41
130	0x1053aa1f	4.174347e-29
131	0x0000284b	1.4454e-41
132	0x00003f37	2.2677e-41
133	0x80000890	-3.072e-42
134	0x80006e15	-3.949e-41
135	0x3bfd71f2	0.0077345306
136	0x00000922	3.276e-42
137	0x80000284	-9.02e-43
138	0x80005f8f	-3.428e-41
139	0x8038ec6a	-5.227597e-39
140	0x00005a4e	3.2395e-41
141	0x80000a41	-3.678e-42
142	0x00003c23	2.1573e-41
143	0x8000591b	-3.1965e-41
144	0x3c9a4862	0.018833343
145	0x00017952	1.35357e-40
146	0x00041c73	3.77548e-40
147	0xa056276a	-1.8139546e-19
148	0x80001ee1	-1.1077e-41
149	0x800038df	-2.0402e-41
150	0x80022f60	-2.00666e-40
151	0x00001ca2	1.0272e-41
152	0x000049f8	2.6535e-41
153	0x3ab080ec	0.0013466156
154	0x80001987	-9.157e-42
155	0x80004e8c	-2.8177e-41
156	0x80001e31	-1.083e-41
157	0xa924dcda	-3.6606873e-14
158	0x00005b44	3.274e-41
159	0x8002554d	-2.14271e-40
160	0x0000d59b	7.6627e-41
161	0x80004fec	-2.867e-41
162	0x3b4ae3b1	0.0030958469
163	0x80003464	-1.8794e-41
164	0x800907b4	-8.29283e-40
165	0x0003ff14	3.67011e-40
166	0x00000272	8.77e-43
167	0x80139e00	-1.801554e-39
168	0x80006be8	-3.871e-41
169	0x8fd74453	-2.1226954e-29
170	0x0001105a	9.7701e-41
171	0x3ab11921	0.0013511517
172	0x800015bc	-7.797e-42
173	0x001bae28	2.542034e-39
174	0x80000b46	-4.044e-42
175	0x00006ddb	3.9409e-41
176	0x80006fa3	-4.0048e-41
177	0x00050480	4.60792e-40
178	0x80002872	-1.4509e-41
179	0x00003ef3	2.2582e-41
180	0x3c26d6b3	0.010183024
181	0x800113c3	-9.8925e-41
182	0x359fa87d	1.189546e-06
183	0x00001276	6.623e-42
184	0x000022fa	1.2547e-41
185	0xaf24023a	-1.4916504e-10
186	0x0000670c	3.6966e-41
187	0x80085a92	-7.67174e-40
188	0x00002dc1	1.6413e-41
189	0x3cef5ff5	0.02922056
190	0x000043c7	2.4314e-41
191	0x80035447	-3.0574e-40
192	0x80001eeb	-1.1091e-41
193	0x003b8f96	5.469803e-39
194	0x0004554f	3.97945e-40
195	0xb3cd7875	-9.5679674e-08
196	0x80002587	-1.3462e-41
197	0x8001ff36	-1.83388e-40
198	0x3c0d5879	0.008627051
199	0x0001233b	1.04474e-40
200	0x80003c7c	-2.1698e-41
201	0x80004572	-2.4912e-41
202	0x00004009	2.2971e-41
203	0x8000a984	-6.0811e-41
204	0x00004549	2.4855e-41
205	0x80002d92	-1.6348e-41
206	0x8005c3b7	-5.29387e-40
207	0xbc1e1102	-0.00964761
208	0x80003e6b	-2.2391e-41
209	0x20ac3d8c	2.9178662e-19
210	0x8000275f	-1.4124e-41
211	0x8003f753	-3.6423e-40
212	0x8000648b	-3.6068e-41
213	0x800925c3	-8.40066e-40
214	0x80013005	-1.09062e-40
215	0x00005956	3.2048e-41
216	0x3c96eb3f	0.018422721
217	0xaf340364	-1.6372109e-10
218	0x00000a5b	3.715e-42
219	0x80000cab	-4.544e-42
220	0x800019f8	-9.316e-42
221	0x80005dc2	-3.3634e-41
222	0x00006619	3.6626e-41
223	0x000020b5	1.1733e-41
224	0x800063df	-3.5827e-41
225	0xbc155594	-0.009114642
226	0x80002bc4	-1.57e-41
227	0x000061ed	3.5129e-41
228	0x00004421	2.444e-41
229	0x000057ec	3.154e-41
230	0x0000427f	2.3854e-41
231	0x00006fa6	4.0052e-41
232	0x800015f2	-7.872e-42
233	0x80038272	-3.22301e-40
234	0x3c3ccb30	0.011523053
235	0x800018cf	-8.9e-42
236	0x2d2b3290	9.731452e-12
237	0x00005124	2.9108e-41
238	0x000dc22d	1.263519e-39
239	0x008720a6	1.2409504e-38
240	0x80005254	-2.9534e-41
241	0x80016918	-1.29536e-40
242	0x86b30f08	-6.73544e-35
243	0x3c993be8	0.018705323
244	0x80000643	-2.246e-42
245	0x80015950	-1.23875e-40
246	0x8001d00f	-1.66473e-40
247	0x000007fc	2.864e-42
248	0x8005c6b0	-5.30453e-40
249	0x00047a27	4.11162e-40
250	0x80002f2e	-1.6925e-41
251	0x00000f82	5.563e-42
252	0xbc2ee4ab	-0.010674636
253	0x00002e2a	1.656e-41
254	0x80003bf1	-2.1503e-41
255	0x8029fa8c	-3.855135e-39

feat_lambda_net.0.bias f4 [100]
0	0x3e23551a	0.15950432
1	0x97f253c8	-1.5660033e-24
2	0xb568517e	-8.654532e-07
3	0x3ec812b2	0.39076763
4	0x22437241	2.6487913e-18
5	0xb409117b	-1.2765479e-07
6	0x3e2cbd60	0.16869116
7	0x3e6f8ef7	0.2339438
8	0xb4960530	-2.7943452e-07
9	0xb182cd15	-3.806813e-09
10	0xbaf6740a	-0.0018802893
11	0x9f16d736	-3.1941754e-20
12	0x3e0810d8	0.13287675
13	0x3e6262ed	0.2210805
14	0xb906bb6c	-0.00012849056
15	0xb4406a59	-1.7920082e-07
16	0x3e707961	0.23483802
17	0x3e378d96	0.17925104
18	0x3e2ba164	0.16760784
19	0x3e3ab6ac	0.18233746
20	0x19e37592	2.3518736e-23
21	0x3e27c786	0.16384706
22	0x2aea89de	4.1662415e-13
23	0xb8477749	-4.755639e-05
24	0xb86158db	-5.3726933e-05
25	0x3e81c218	0.25343394
26	0x3e2097eb	0.15682952
27	0x3e2ae66c	0.16689461
28	0x1d2dd27d	2.300518e-21
29	0x1a3ca100	3.9007544e-23
30	0x3e11a662	0.14223626
31	0x17a16842	1.04307e-24
32	0xad057e77	-7.5882555e-12
33	0x3e88731e	0.26650327
34	0x3e298555	0.16554768
35	0x3e049dc5	0.1295081
36	0x3e4f412a	0.20239702
37	0x228fd2e2	3.898351e-18
38	0x9b1ad00c	-1.2805805e-22
39	0xb4a5dec9	-3.0895742e-07
40	0x3dccdc46	0.10002951
41	0x1cf09a4f	1.5921756e-21
42	0x9ebd644b	-2.0052634e-20
43	0xa83fd567	-1.0648904e-14
44	0x3e384328	0.17994368
45	0xb81212a3	-3.482647e-05
46	0x1a0440f6	2.7349435e-23
47	0x3e06957f	0.13142966
48	0x3e231762	0.15926889
49	0x1b0e976b	1.179489e-22
50	0x3e1d83cc	0.15382308
51	0x3e1e65a4	0.1546846
52	0x23b698e0	1.9797225e-17
53	0x13e41c6c	5.7583318e-27
54	0x3e0b5dc1	0.13609983
55	0x9782fc28	-8.464706e-25
56	0x3e3b693b	0.18301861
57	0x3e8455e6	0.25846785
58	0xb988a779	-0.00026064718
59	0xb42f2aee	-1.6313763e-07
60	0x292546de	3.6698827e-14
61	0x3e4005ec	0.18752259
62	0x3e19c27c	0.15015596
63	0x3e1c6075	0.1527117
64	0x253b7f4f	1.6262798e-16
65	0x3e35e31d	0.17762418
66	0x3e3e74c6	0.18599233
67	0xb54e7fd3	-7.692699e-07
68	0x280e63ce	7.904225e-15
69	0xbbc3ae91	-0.0059717377
70	0x3df7bda8	0.12096721
71	0x3782a8b6	1.557577e-05
72	0x3e3d7ffe	0.18505856
73	0x3e2ea008	0.17053235
74	0x3dd462a0	0.10370374
75	0x3dfd0e42	0.12356235
76	0x3e892d87	0.26792547
77	0x3e47f686	0.19527635
78	0x3e3b3e2d	0.18285437
79	0x3e3cd11d	0.18439145
80	0x3e14ac6c	0.14518899
81	0x3e45824d	0.19287987
82	0x3e3cc02d	0.18432684
83	0x3dec25e0	0.115306616
84	0xba03dd07	-0.0005030189
85	0x255110fc	1.8133615e-16
86	0xb3ccfad5	-9.545116e-08
87	0x3e92eb8f	0.28695342
88	0x3e3e0143	0.18555169
89	0x3e2a95ba	0.16658679
90	0x3df57c6c	0.11986622
91	0x3e35d844	0.1775828
92	0x3e926bb8	0.28597808
93	0x2705238b	1.8476726e-15
94	0x2565b2d2	1.992317e-16
95	0x27a9468d	4.6983414e-15
96	0x3dda701b	0.10665914
97	0xb4d8e1f0	-4.0397526e-07
98	0xbbb00f53	-0.0053729205
99	0xb980392b	-0.00024456656

feat_lambda_net.2.weight f4 [1, 100]
0	0x3e9cbaa0	0.30611134
1	0x97b3bb58	-1.1614896e-24
2	0xb62c6b7e	-2.5692566e-06
3	0x3f240379	0.640678
4	0x23073471	7.3294696e-18
5	0xb49e9768	-2.9539956e-07
6	0x3ea1bd80	0.3158989
7	0x3ebd181d	0.3693246
8	0xb56a6ca5	-8.732989e-07
9	0xb21f0988	-9.257185e-09
10	0xbbf25c01	-0.0073962216
11	0x9f7361ea	-5.1538244e-20
12	0x3e787f37	0.24267279
13	0x3ee3edad	0.4451727
14	0xb9d81d6a	-0.00041220646
15	0xb4ef224f	-4.4542182e-07
16	0x3ec24e47	0.37950346
17	0x3e9b6c07	0.30355856
18	0x3e8ba8b8	0.2727716
19	0x3eb10d6c	0.34580553
20	0x1a71e240	5.0020395e-23
21	0x3e9137ca	0.28362876
22	0x2b8b664d	9.904938e-13
23	0xb923f370	-0.00015635579
24	0xb93a4b9c	-0.00017766509
25	0x3edf1679	0.43571833
26	0x3e9efb36	0.31051034
27	0x3ea97653	0.33098087
28	0x1dedc7fd	6.294016e-21
29	0x1afb80bf	1.0401917e-22
30	0x3e9cfbc8	0.30660844
31	0x198e1e17	1.4694609e-23
32	0xad55c79b	-1.21519695e-11
33	0x3efb977d	0.49139014
34	0x3ea1f5ee	0.31632942
35	0x3e8e953f	0.2784824
36	0x3ec2cc46	0.38046473
37	0x231c1082	8.460273e-18
38	0x1d0ff1fd	1.9050997e-21
39	0xb58d8fa4	-1.0547124e-06
40	0x3e5c18e8	0.21493876
41	0x1dcc88ea	5.4139916e-21
42	0x9ee6e4dd	-2.4446853e-20
43	0xa8a6f1e6	-1.8534609e-14
44	0x3ead8fde	0.33898824
45	0xb8efc44e	-0.00011432973
46	0x1aa6c224	6.896964e-23
47	0x3e708603	0.23488621
48	0x3eace279	0.33766535
49	0x1ba45950	2.718924e-22
50	0x3e922203	0.28541574
51	0x3e973198	0.29530025
52	0x2463e90c	4.9420177e-17
53	0x147d786b	1.2796984e-26
54	0x3e8d6ed5	0.2762362
55	0x980102b5	-1.6674226e-24
56	0x3ecc311c	0.39881217
57	0x3ef0e649	0.47050694
58	0xba8022fb	-0.000977605
59	0xb50f5f9d	-5.3410787e-07
60	0x29ac3ad7	7.6485415e-14
61	0x3eb545bd	0.3540477
62	0x3ea9b123	0.33142957
63	0x3ea66fad	0.32507077
64	0x25d6da50	3.7271017e-16
65	0x3eb78ee7	0.35851213
66	0x3ea5c237	0.32374737
67	0xb60d39cc	-2.104428e-06
68	0x28956f7d	1.6590673e-14
69	0xbcc0cd0b	-0.023535272
70	0x3e853db0	0.26023626
71	0x381061d2	3.4423378e-05
72	0x3ec057cf	0.37566993
73	0x3ea875d7	0.32902405
74	0x3e53124e	0.20612451
75	0x3e903804	0.28167737
76	0x3f00e923	0.5035574
77	0x3ec7ea15	0.39045778
78	0x3eb8b579	0.36075953
79	0x3eb2aca9	0.34897354
80	0x3e9c13d8	0.3048389
81	0x3eba599c	0.36396492
82	0x3ecd6a1d	0.4012002
83	0x3e7d8d4c	0.24760932
84	0xbaf6434f	-0.001878837
85	0x25dc53bc	3.8220657e-16
86	0xb49b7a48	-2.895997e-07
87	0x3f0505ea	0.5196215
88	0x3eb0ac9e	0.34506696
89	0x3e966999	0.2937744
90	0x3e846779	0.25860193
91	0x3ea813f6	0.3282773
92	0x3ef11258	0.47084308
93	0x2762cfa7	3.147637e-15
94	0x25fbe3ce	4.3695926e-16
95	0x28457d7a	1.0962905e-14
96	0x3e66a00e	0.22521994
97	0xb5ba06b2	-1.3860029e-06
98	0xbcaffc40	-0.021482587
99	0xba567901	-0.0008181483
