experiments/konrad/saved_models/online_expanding/hinge_inverse_gaussian/model_step_7.pt (torch, 881746 bytes, 13 tensors)

A_gate f4 [9]
000000 eb 35 9f 3e 04 1d bd 3e 86 a7 6a 3e ca 58 36 3e
       0.31095824 0.369362 0.22915468 0.17807308
000010 ff ed 92 3e 57 78 db 3e 8b 71 c4 3e fb e9 b2 3e
       0.28697202 0.4286525 0.38367876 0.34944138
000020 dd e7 f3 3e
       0.47637835

B_gate f4 [120]
000000 b9 c2 7b bd 2c 51 00 80 cd 58 b4 26 02 77 2f be
       -0.061465 -2.9119e-41 1.2514079e-15 -0.17135242
000010 a8 4a 5d 17 ac 54 be b1 74 4f 1d be 91 3e 00 00
       7.150318e-25 -5.539354e-09 -0.1536234 2.2445e-41
000020 cd 43 00 80 4e e8 fb bd d9 9e 37 97 4b cb bb 85
       -2.4322e-41 -0.12300168 -5.9330983e-25 -1.7660074e-35
000030 cf 72 85 be ad 05 00 80 9c 3d 00 00 a1 e9 a3 bd
       -0.26064155 -2.036e-42 2.2101e-41 -0.080035456
000040 08 45 b2 b6 c4 32 00 00 70 a0 2a be 68 ac 9d 95
       -5.3128497e-06 1.8211e-41 -0.16662765 -6.3683804e-26
000050 5a c3 7d 26 ac 37 7c be 34 2c 00 00 d1 b8 1a 15
       8.804176e-16 -0.24630612 1.5857e-41 3.1245847e-26
000060 e2 76 c5 bd 75 3f 00 80 8e 2f 00 80 02 e3 de bd
       -0.09641816 -2.2764e-41 -1.706e-41 -0.10883142
000070 f3 14 bc 16 03 71 8f af 1a 34 47 be b0 9a dd 38
       3.038626e-25 -2.6091848e-10 -0.19453469 0.00010566914
000080 44 3f 00 00 20 f0 b5 bd 25 1c 00 80 19 0a ba 1f
       2.2695e-41 -0.08883691 -1.0096e-41 7.879077e-20
000090 b8 67 2f be 7e 4e 00 80 48 47 00 80 c3 4d 52 be
       -0.1712941 -2.8158e-41 -2.5571e-41 -0.20537476
0000a0 fa 60 00 00 4c 28 00 00 87 5d f6 bd 90 63 00 80
       3.4789e-41 1.4456e-41 -0.12029558 -3.5716e-41
0000b0 60 39 00 80 e7 00 07 be d6 02 00 80 2a 1e 00 00
       -2.0582e-41 -0.13183938 -1.017e-42 1.0821e-41
0000c0 89 8e 03 be 85 76 87 11 0a 1c 00 00 6c 79 38 be
       -0.12847342 2.1372288e-28 1.0059e-41 -0.18015069
0000d0 7f 48 00 80 fe f7 e9 2b a5 40 06 be 53 44 7c b1
       -2.6007e-41 1.6624477e-12 -0.13110597 -3.6709664e-09
0000e0 6c 05 00 00 8b e2 95 be ba 27 00 00 08 1b 00 00
       1.945e-42 -0.292744 1.4251e-41 9.697e-42
0000f0 56 f7 2b be 80 c7 42 aa ee 23 00 00 73 7e be bd
       -0.1679357 -1.7299877e-13 1.2889e-41 -0.09301462
000100 9d 71 00 80 61 b3 02 8f c4 aa e6 bc 5d 3e 00 80
       -4.0757e-41 -6.444042e-30 -0.0281576 -2.2372e-41
000110 63 33 28 95 44 f4 52 be 02 43 00 00 e6 97 c6 9b
       -3.3967867e-26 -0.20600992 2.4038e-41 -3.2854514e-22
000120 61 d2 3c be 1a d9 a4 14 64 01 00 80 b5 24 c6 bd
       -0.18439628 1.66454e-26 -4.99e-43 -0.0967497
000130 14 4f 00 80 98 61 00 80 46 32 47 be 12 2c b5 a7
       -2.8368e-41 -3.501e-41 -0.19452772 -5.0285373e-15
000140 ce 48 00 00 2e f8 1b be b1 05 00 00 a8 18 0e 17
       2.6117e-41 -0.15231392 2.042e-42 4.5913795e-25
000150 1b bc 29 be ef 38 3b 27 8d 68 d6 28 af 22 48 be
       -0.16575663 2.5982327e-15 2.3804114e-14 -0.1954448
000160 18 08 00 80 4c f6 c1 31 e4 2c 2c be 66 41 64 ae
       -2.903e-42 5.64504e-09 -0.16814 -5.1899283e-11
000170 ca 17 6f b6 1f 46 14 be cf 23 00 80 c6 bf ef 25
       -3.5627622e-06 -0.14479874 -1.2846e-41 4.1589842e-16
000180 ae 2a 96 be 80 0d 00 80 d6 10 00 80 06 38 2a be
       -0.29329437 -4.843e-42 -6.04e-42 -0.16622934
000190 a3 11 00 00 ce 2d 00 00 cf c5 44 be 52 38 00 00
       6.327e-42 1.6432e-41 -0.19216083 2.0204e-41
0001a0 6c 91 3f 1c e5 95 df bd a0 10 00 80 67 30 00 80
       6.338455e-22 -0.10917262 -5.964e-42 -1.7363e-41
0001b0 ab 6a 20 be 7a 37 00 80 09 e5 0c 2d 55 04 07 be
       -0.1566569 -1.9901e-41 8.008935e-12 -0.13185246
0001c0 0c 6c 00 00 68 24 00 80 a1 f0 12 be a5 e0 87 34
       3.876e-41 -1.306e-41 -0.14349605 2.530916e-07
0001d0 b6 e4 da 0f d6 1d 03 be 29 1d 00 00 f1 e7 c9 a7
       2.1584556e-29 -0.1280435 1.046e-41 -5.604018e-15

ar_gate_lin.weight f4 [1, 64]
000000 2c 71 73 3d fb 15 80 bd 0b 96 35 3d 35 58 12 bd
       0.0594341 -0.062541924 0.044332545 -0.035728652
000010 fc af 8a bd 24 72 b4 3c 2d 51 7a bc 59 ad 08 3d
       -0.067718476 0.022027083 -0.015278143 0.033368442
000020 22 bc 21 bd 4c ed a3 3c a1 03 51 3d 95 93 08 bd
       -0.039486058 0.020010613 0.05102885 -0.03334387
000030 d5 df e7 3b 1f f2 11 bd c5 27 56 3d 67 fd 0e bd
       0.0070762434 -0.035631295 0.05228402 -0.034909632
000040 5b 28 0e bc 95 bb 87 3c 2a 77 1b be 64 34 a1 bd
       -0.008676614 0.016568938 -0.15182176 -0.07871321
000050 4b b3 8d 3c 0e 67 43 bd ac f7 d2 bc c1 5e d4 3c
       0.017297408 -0.047705702 -0.025752865 0.025924088
000060 72 8a fe bc 3c 71 d6 3c 13 8e 52 bc 05 55 1a 3d
       -0.031071875 0.026177041 -0.012851256 0.037678737
000070 b3 8e 45 bd ae 1d dc b9 cc 88 c8 3c 92 db 11 bd
       -0.04823179 -0.00041983783 0.024479292 -0.03560979
000080 cb c6 d7 3b 0a f8 14 bd 0a c0 09 3b ee f7 56 bc
       0.0065849773 -0.03636936 0.0021019005 -0.0131206345
000090 98 de 96 3d 10 3f 7b bd 3d ee 50 3d 3a 0f 0a bd
       0.07366675 -0.061339438 0.05100845 -0.033705927
0000a0 e4 a1 64 bd 37 f8 fa bb a9 a5 3a bc 10 1c 99 3a
       -0.055818453 -0.007658984 -0.0113920355 0.0011681337
0000b0 a3 56 e8 3c 23 60 f3 bc 62 54 21 bc 60 6e 5e bc
       0.028361624 -0.029708927 -0.009846779 -0.01357612
0000c0 23 23 42 3d 73 f0 9d bc 2a f1 da bc 2f ab a7 bc
       0.04739679 -0.019279694 -0.026726324 -0.020467369
0000d0 23 36 b3 bc 12 00 9e bd ec b1 31 bc fc 08 0d 3d
       -0.0218764 -0.07714857 -0.010845643 0.034432396
0000e0 fb 5a db bc 4b bf a6 bb 2c 6f 71 3b 7c d7 8c bc
       -0.026776781 -0.005088722 0.0036839945 -0.017192595
0000f0 28 f8 77 bc 78 42 ba bc 93 91 26 be f2 4d 4e be
       -0.015134849 -0.022736773 -0.1626647 -0.20146921

ar_mean_net.weight f4 [1, 64]
000000 0d 99 c5 3b a1 7e b5 3c 77 0a b2 3d 40 b9 a2 bd
       0.006030208 0.022155108 0.08693402 -0.0794549
000010 f5 9e df 3b b4 41 e1 bc d4 5a cb bc 2a 5d 44 3d
       0.006824369 -0.02749715 -0.024823584 0.04794041
000020 82 54 ee 3c 0a 75 e8 3d de de 10 3d 8d ac b9 bd
       0.02909303 0.113504484 0.035368793 -0.090661146
000030 00 94 5c 3c c1 06 35 be fe c5 ff bb 49 d8 f1 bd
       0.01346302 -0.17678358 -0.007805585 -0.11808831
000040 19 57 56 3c fc 71 5b bd a0 bd 24 be 27 87 19 be
       0.013082289 -0.0535755 -0.16087961 -0.14992963
000050 72 b8 0d 3d a5 1d f2 bd b4 a1 09 be 2d f9 9b bd
       0.03459973 -0.118220605 -0.13440591 -0.07615886
000060 c5 29 bb bc 1b ca 89 3c 73 3e 21 3c c5 0d 6d bb
       -0.022847066 0.016820004 0.009841549 -0.0036171537
000070 00 10 e8 bb 61 dd 0a be b6 96 3d 3d 2d 81 da bd
       -0.0070819855 -0.13561012 0.046286307 -0.106691696
000080 0f 71 ae 3d 44 4a a4 bd 31 e7 8d bc 97 28 c6 bd
       0.08517658 -0.080219775 -0.017322155 -0.09675711
000090 2d 2d fa bd 08 06 36 3d b5 56 d8 bd 12 98 9d 3d
       -0.12215648 0.044439346 -0.10563413 0.07695021
0000a0 34 e7 b5 3c 10 1b 9f 3d e0 7c c2 3d fd 93 eb b9
       0.022204973 0.07768834 0.09496474 -0.00044932953
0000b0 cd c6 3b 3d 8d 51 e1 bd 84 00 8d bd 28 00 06 be
       0.045843888 -0.11001883 -0.06884864 -0.13085997
0000c0 0d 92 59 3b 97 84 98 3c 98 4d 86 3d 61 2b 8b 3b
       0.0033198625 0.018617911 0.065577686 0.0042471145
0000d0 9c a7 f2 bd e9 9c a5 bd df fe 47 bd 43 9f 26 3e
       -0.11848375 -0.08086569 -0.04882705 0.16271691
0000e0 d3 6a c5 3c 91 c5 ca 3b eb 5f f4 3d 52 db 3f 3e
       0.02409879 0.0061881025 0.119323574 0.18736008
0000f0 ea c8 38 3d c6 88 c9 3c 87 1a 84 3e 08 49 84 3e
       0.04511348 0.024601351 0.2580149 0.25836968

ar_sigma_net.0.weight f4 [32, 64]
000000 a2 58 8a 3d 5d d2 ca bc d8 fe 38 3d 29 04 4c 3d
       0.067551866 -0.024758512 0.045164913 0.049808655
000010 57 e6 01 bc b4 56 19 3d 5d 08 b4 3c fe e4 99 bc
       -0.007928452 0.037436202 0.021976644 -0.01878595
000020 58 c5 0d 3d e7 3d 95 3c 4e 80 89 3d dd fb 0c bc
       0.03461203 0.018217994 0.06713925 -0.008604971
000030 12 93 1a 3c d5 ad a2 3c 80 6b af 3d 85 28 bf 3c
       0.009434478 0.01985828 0.08565426 0.02333475
000040 c0 56 03 3d 08 a4 5e 3c 11 81 e1 3c 0b f9 5f 3d
       0.032065153 0.013588913 0.027527364 0.054680865
000050 2f da 25 3c 9f df a9 3c 75 8a 18 bd 51 91 48 3d
       0.01012282 0.020736514 -0.037241418 0.04896671
000060 64 0d 1b 3d 58 54 e1 3c de ca 85 3d a0 de 14 3d
       0.037854567 0.027506039 0.065328345 0.036345124
000070 64 c7 88 bc 40 9b 93 3c a4 19 12 bd 1a 32 06 3c
       -0.01669664 0.018018365 -0.035668984 0.008190656
000080 a0 ed 84 3c 01 3c cc bb a7 aa 77 3c 27 d8 2f 3d
       0.01622659 -0.006232739 0.01511637 0.04293075
000090 5b 79 90 3d 45 22 28 3d 20 a3 7a 3d 4c d2 c2 3c
       0.07054397 0.041048307 0.061190724 0.023781918
0000a0 e5 01 93 3c df c3 52 3c fa 2b bb bb a2 34 4f 3c
       0.01794524 0.012864082 -0.0057120295 0.012646826
0000b0 cd 31 be 3d 94 1c 0b 3d f9 30 b9 3b 00 7e 52 3d
       0.092868425 0.0339628 0.00565159 0.051389694
0000c0 bc 61 7b 3d 25 74 59 3d f8 6c 62 3d 70 99 bc 3c
       0.061372504 0.05308928 0.055279702 0.023022383
0000d0 53 cd 5c 3d 2a 34 06 3c d8 64 aa 3c 68 95 84 bc
       0.05390675 0.008191148 0.02080004 -0.016184524
0000e0 a1 95 2c 3c 83 85 b7 3c 51 74 f5 3b 9c bd 31 3d
       0.010533721 0.02240253 0.0074906726 0.043393716
0000f0 0b dd b1 3c ac 3b e0 bc eb 8b 20 bb 19 24 91 3c
       0.021711847 -0.027372204 -0.002449746 0.017717408
000100 77 7e 91 ad b9 85 04 ae 80 cd 8c ae 34 69 9f ad
       -1.6540753e-11 -3.0132095e-11 -6.402967e-11 -1.8122927e-11
000110 69 df cd ad 8f 20 9f ad 0b 19 be ad 5d 7f d1 ad
       -2.3405016e-11 -1.8090666e-11 -2.161162e-11 -2.381711e-11
000120 1b 1e 94 ad a8 05 32 ae 29 60 4f ae db 12 46 ae
       -1.6839021e-11 -4.0477538e-11 -4.7151758e-11 -4.5036735e-11
000130 34 c1 f0 2d 6c ce ff ac 84 e9 10 2d 7b b5 55 ad
       2.737064e-11 -7.2704533e-12 8.237303e-12 -1.2147945e-11
000140 5b 93 cd ad 93 01 87 ad 85 b7 19 ad 8c bf 49 ae
       -2.337124e-11 -1.5348422e-11 -8.737793e-12 -4.5872237e-11
000150 88 74 20 ae 79 28 6e ad fe f9 5d ad 4e a8 76 ad
       -3.648329e-11 -1.353772e-11 -1.2617905e-11 -1.4020852e-11
000160 bd 5a bc ad 94 65 45 ad 1e bc 0b ad a8 f8 94 ad
       -2.1413421e-11 -1.1220708e-11 -7.943006e-12 -1.6936078e-11
000170 20 13 3c ad 92 b4 29 ae 29 7b d6 ad c5 46 d4 ad
       -1.0690809e-11 -3.858653e-11 -2.4383677e-11 -2.4133038e-11
000180 6e 90 b2 ac a1 1c ab 2c 6e 16 00 ac 73 aa d2 ad
       -5.075099e-12 4.8632908e-12 -1.8202345e-12 -2.394993e-11
000190 83 f1 8e ac f7 b3 88 ad 3f 1b 26 ad bc b7 11 ad
       -4.062696e-12 -1.554133e-11 -9.442057e-12 -8.283093e-12
0001a0 8c 1c 62 ad c2 e9 71 ad 00 56 a3 ad 00 0a ab ad
       -1.2852951e-11 -1.3751169e-11 -1.8569146e-11 -1.944489e-11
0001b0 5e f7 dc ad f9 f2 b0 ad 82 47 41 2d 66 ec 9b ac
       -2.5120957e-11 -2.0116785e-11 1.0986658e-11 -4.4316105e-12
0001c0 7a d4 24 ae f4 4e a3 2c 41 ea ef ac c8 ba 8d ad
       -3.7478e-11 4.641504e-12 -6.818796e-12 -1.6112792e-11
0001d0 f3 08 81 ad 85 eb 2a ad ba 90 f3 ac 49 84 f1 2b
       -1.4669576e-11 -9.715677e-12 -6.9225433e-12 1.7160796e-12
0001e0 29 40 bd ac 5b b0 53 ad c5 04 00 ad 6c 68 ce ab
       -5.3788263e-12 -1.203312e-11 -7.277017e-12 -1.4666163e-12
0001f0 39 f9 1d ad d4 30 85 2c 2c e7 7c ac 2e 78 1c ad
       -8.979755e-12 3.7855084e-12 -3.593968e-12 -8.894259e-12
000200 5b 60 11 28 b0 db d0 27 e5 6c 58 27 cc 03 34 27
       8.070011e-15 5.7969783e-15 3.0035054e-15 2.4982076e-15
000210 63 3b c5 26 a1 f6 a4 25 7a 00 6b 27 b3 85 92 27
       1.3685718e-15 2.8616587e-16 3.261306e-15 4.0668097e-15
000220 90 a2 ed 27 2e cb bb 27 da 6d 47 27 12 9f 8d 27
       6.5956965e-15 5.2123214e-15 2.7676348e-15 3.9307826e-15
000230 4b 81 9e 27 56 18 55 28 0f 18 96 27 46 4a c4 27
       4.399399e-15 1.1829152e-14 4.1659448e-15 5.4481456e-15
000240 4f a8 bb 27 a9 d7 ba 26 ae cb 31 27 9b d2 44 27
       5.2085407e-15 1.2964797e-15 2.46741e-15 2.7314634e-15
000250 c2 46 e7 27 df 1b 44 27 f1 94 a2 27 90 53 ae 26
       6.4192095e-15 2.7215573e-15 4.5125515e-15 1.2096325e-15
000260 96 a7 54 27 6a 9f b5 27 16 42 8f 27 64 b9 2d 25
       2.9511759e-15 5.041043e-15 3.9762124e-15 1.5068171e-16
000270 6e 6f c1 26 25 83 2a 27 2e 0b 61 28 31 ce 19 28
       1.3422268e-15 2.3663333e-15 1.2492433e-14 8.537917e-15
000280 3c 77 a0 27 a2 08 1e 28 9e d3 06 28 3e d9 28 28
       4.4538195e-15 8.772634e-15 7.4843814e-15 9.37298e-15
000290 1e e2 d0 27 a6 80 b8 27 bd 0a 5b 28 96 84 e9 27
       5.7976754e-15 5.120974e-15 1.2159271e-14 6.481424e-15
0002a0 7c 76 27 28 14 73 03 28 00 75 e0 27 2a 4a 8f 27
       9.2960545e-15 7.296914e-15 6.229934e-15 3.977088e-15
0002b0 6a b9 5e 27 09 2b 10 28 3d 22 bb 27 50 45 e5 a5
       3.0909202e-15 8.0029375e-15 5.1940048e-15 -3.9772136e-16
0002c0 68 47 f4 26 f4 8f 98 27 f2 27 d9 27 02 36 93 27
       1.6950256e-15 4.234455e-15 6.0272908e-15 4.085925e-15
0002d0 c7 5c 94 26 62 d5 fc 26 ee 4b 73 27 20 eb 1c a8
       1.029471e-15 1.754385e-15 3.3764186e-15 -8.710724e-15
0002e0 6c 3b 1c a6 be f8 84 27 bb 4f a6 27 bc 3c 87 27
       -5.4203904e-16 3.6907047e-15 4.61607e-15 3.7535875e-15
0002f0 cb bd d4 27 48 04 80 27 38 f3 69 27 6f af a4 26
       5.9047594e-15 3.553178e-15 3.2467095e-15 1.1427337e-15
000300 f1 92 29 b3 c0 2c 02 b4 22 b9 12 b3 54 3a 4a b3
       -3.948202e-08 -1.2123473e-07 -3.416165e-08 -4.708484e-08
000310 2a e5 ff b2 71 e7 96 b2 d1 e8 ba b2 f4 81 ea b2
       -2.9790119e-08 -1.7567546e-08 -2.1759123e-08 -2.7300281e-08
000320 b9 82 c8 b2 1a ad 37 b3 97 bb 5f b3 98 0f b4 b2
       -2.334251e-08 -4.2765443e-08 -5.2091846e-08 -2.096185e-08
000330 80 e1 09 b3 d8 15 1a b3 e8 c7 2a b3 1e 92 ee b2
       -3.210289e-08 -3.5875786e-08 -3.9763023e-08 -2.7773293e-08
000340 4b b1 54 b3 07 e6 4e b3 68 56 98 b0 46 aa 6b b2
       -4.9521343e-08 -4.817232e-08 -1.1084014e-09 -1.3717516e-08
000350 81 de b0 b2 12 c7 1a b3 e8 99 11 b1 5e da cf b2
       -2.059028e-08 -3.6036973e-08 -2.1187763e-09 -2.4197274e-08
000360 10 17 3f b1 d4 c9 bd b2 0a ae 87 b2 2b f9 15 b3
       -2.7807268e-09 -2.2094277e-08 -1.5795212e-08 -3.4918383e-08
000370 c4 92 5d b2 38 6d 34 b3 b7 a6 42 b3 ba 87 0a b3
       -1.2897264e-08 -4.200885e-08 -4.532077e-08 -3.225407e-08
000380 05 0d 85 b2 20 93 6e b1 df 70 d7 b2 05 08 db b2
       -1.5489158e-08 -3.471719e-09 -2.5080622e-08 -2.5498602e-08
000390 a2 1d 18 b3 2e 52 fe b2 5e e2 d0 b2 ae bc 95 b2
       -3.541721e-08 -2.9606863e-08 -2.4317327e-08 -1.7431685e-08
0003a0 ad 88 96 b2 d0 2f 98 b2 54 7c 04 b1 22 29 3e b2
       -1.7524451e-08 -1.7716872e-08 -1.92792e-09 -1.1068808e-08
0003b0 70 77 a1 b2 a8 34 6f b2 b2 8f a1 b2 09 af 9e b2
       -1.879718e-08 -1.3923604e-08 -1.8808212e-08 -1.8473218e-08
0003c0 be 62 ed b1 bd 73 06 b3 73 09 43 b2 47 43 c9 b2
       -6.9088335e-09 -3.130457e-08 -1.1352642e-08 -2.3430074e-08
0003d0 db cd bc b2 60 c5 d4 b1 e7 86 9a b1 cf fa 5f b2
       -2.1979693e-08 -6.192451e-09 -4.4973265e-09 -1.3037336e-08
0003e0 18 31 e2 b0 62 57 c6 b2 6f 8e 13 b2 8e ff d1 b2
       -1.6457617e-09 -2.308997e-08 -8.588912e-09 -2.4447015e-08
0003f0 9b 0f e8 b2 27 6e 9f b2 72 d1 67 b2 20 57 e1 b2
       -2.7015451e-08 -1.8560128e-08 -1.3493592e-08 -2.6233067e-08

ar_sigma_net.0.bias f4 [32]
000000 ac 98 45 3d af 1c 88 ad 9c 25 f0 27 a2 09 53 b3
       0.048241302 -1.5474148e-11 6.6654158e-15 -4.9136027e-08
000010 7c 3b 56 3d fe 11 4b 3d 15 0c 0a 3d 59 11 00 80
       0.052302822 0.049577706 0.03370293 -6.223e-42
000020 4c cd 25 13 69 77 00 80 ce 25 30 99 d3 b4 03 9d
       2.0927147e-27 -4.2836e-41 -9.106621e-24 -1.743119e-21
000030 a9 63 19 9e 6d 16 36 3d 71 0c 00 80 ff 80 08 3d
       -8.120362e-21 0.04445498 -4.463e-42 0.033326145
000040 9e 77 9b 8c 6c da 18 91 c0 3d 0b 3d cd 5e e2 3c
       -2.3953523e-31 -1.2057992e-28 0.033994436 0.027633095
000050 b6 e1 e9 89 df 62 42 8b 87 36 b2 9d fb d4 35 3d
       -5.6304967e-33 -3.7437423e-32 -4.7172588e-21 0.044392567
000060 3e e1 3a 3d 74 ee 7a a7 76 69 f7 98 a5 a9 c3 ae
       0.045624964 -3.4823735e-15 -6.395449e-24 -8.897708e-11
000070 6e 5f e6 9f 30 a4 90 b4 f7 5c 20 ab 68 43 46 3c
       -9.7566664e-20 -2.6941552e-07 -5.6972433e-13 0.012101032

ar_sigma_net.2.weight f4 [1, 32]
000000 a2 2a 84 be 50 75 b4 2e 34 9d c2 28 df a7 a2 32
       -0.25813776 8.206291e-11 2.1606503e-14 1.8935621e-08
000010 2d 15 8f be 25 c3 87 be 5b 54 3a be 73 73 00 80
       -0.27945843 -0.2651607 -0.18196242 -4.1415e-41
000020 72 9f b7 13 a2 0a 00 80 ce 1d cb 19 60 24 70 1d
       4.635292e-27 -3.814e-42 2.1001746e-23 3.178254e-21
000030 57 f3 88 1e 2d fd 73 be b4 75 00 00 85 50 38 be
       1.4500203e-20 -0.23827048 4.2224e-41 -0.17999466
000040 a1 2b 42 0c 44 79 1b 12 c3 e4 3b be 66 d7 19 be
       1.4958345e-31 4.9058848e-28 -0.18348984 -0.15023574
000050 eb ce 3f 0a 9c 95 77 0c a1 0e a2 a3 09 a8 73 be
       9.2352324e-33 1.9073209e-31 -1.757027e-17 -0.23794569
000060 21 48 7a be 26 2c 06 27 ea df 48 17 4e 5f e8 af
       -0.24441577 1.8620169e-15 6.4906105e-25 -4.2268272e-10
000070 e3 67 8d 1f 70 2b 05 b4 80 b1 91 2c 70 2c b4 3c
       5.988769e-20 -1.2402393e-07 4.1408543e-12 0.021993846

feat_mean_net.0.weight f4 [100, 1080]
000000 3e 98 b6 3d 5e 23 00 00 41 62 b5 29 b1 0b 00 00
       0.08915757 1.2687e-41 8.055059e-14 4.194e-42
000010 74 f5 ec 2d 2b 11 00 80 e8 16 00 80 8c 92 12 a9
       2.6939097e-11 -6.159e-42 -8.217e-42 -3.254562e-14
000020 2b 3b 00 00 c6 2f e1 bb e0 9b 69 94 59 3d 00 80
       2.1225e-41 -0.00687215 -1.1794235e-26 -2.2007e-41
000030 1a 98 cd 2a 3a a0 4f 36 40 c1 0e a0 46 35 00 80
       3.6520857e-13 3.0938668e-06 -1.2091809e-19 -1.9111e-41
000040 10 c2 cc b5 23 18 00 80 e2 66 42 3d da 15 00 00
       -1.5255664e-06 -8.659e-42 0.047461398 7.839e-42
000050 eb 59 09 00 e9 0d 00 80 dc a6 11 85 b8 80 4a 86
       8.58776e-40 -4.99e-42 -6.8485145e-36 -3.8086545e-35
000060 d6 3f 00 00 bd 4e 00 80 16 2b 00 80 d1 18 ad bc
       2.29e-41 -2.8246e-41 -1.5456e-41 -0.021129997
000070 d9 a7 ca b6 73 af a4 b4 13 5a 19 00 04 1f 00 80
       -6.039609e-06 -3.0675037e-07 2.3282e-39 -1.1126e-41
000080 64 95 5c 1e 07 4e 00 80 16 15 00 80 6a 93 1f 80
       1.1677596e-20 -2.7991e-41 -7.564e-42 -2.899783e-39
000090 95 a1 88 bc 11 c3 0a 00 d4 16 00 00 0e 05 00 00
       -0.01667861 9.88332e-40 8.189e-42 1.813e-42
0000a0 6f b6 c6 01 5f 05 00 80 ad 28 3f 00 9e 5b 00 00
       7.299549e-38 -1.927e-42 5.800228e-39 3.2866e-41
0000b0 be 24 00 00 e6 59 85 3d f0 7e 16 2b db 18 00 00
       1.318e-41 0.065112874 5.3466866e-13 8.916e-42
0000c0 ac 52 00 00 c4 4f 00 80 d7 33 00 00 9c 09 00 00
       2.9657e-41 -2.8615e-41 1.8597e-41 3.447e-42
0000d0 ca 9e 0b 00 34 76 c0 37 bf 15 2c bd 98 24 00 00
       1.067153e-39 2.2943226e-05 -0.042012926 1.3127e-41
0000e0 80 aa 0a 00 f9 36 00 00 9c 07 00 80 80 5d 6d 1e
       9.79519e-40 1.972e-41 -2.73e-42 1.2566011e-20
0000f0 c2 04 00 00 12 84 c4 87 74 48 00 00 bd 4d 65 bd
       1.707e-42 -2.9568426e-34 2.5991e-41 -0.05598234
000100 c7 da 5a 88 7e ce 1d 00 d6 cb 5d a3 cc 00 60 9b
       -6.585916e-34 2.737305e-39 -1.2023598e-17 -1.8529103e-22
000110 50 8b b7 8f de 63 1c 03 80 9b ac 2b 9b 2a 00 00
       -1.8098854e-29 4.595892e-37 1.2264495e-12 1.5284e-41
000120 ca 94 7e 3d 0e 40 00 00 2f 45 00 80 94 2c 00 00
       0.062153615 2.2978e-41 -2.4818e-41 1.5992e-41
000130 20 11 00 00 3c be 40 37 3d 30 0a 00 4b 0e 00 00
       6.143e-42 1.1488384e-05 9.3566e-40 5.127e-42
000140 bc 2d 00 80 21 0c 80 bc 21 1f 00 80 02 99 06 80
       -1.6406e-41 -0.015630784 -1.1167e-41 -6.05902e-40
000150 62 24 00 00 df 4d 00 00 86 24 00 00 c4 30 00 00
       1.3052e-41 2.7935e-41 1.3102e-41 1.7494e-41
000160 de ec db 07 e4 5d 10 80 22 33 ad bd 0d e7 09 00
       3.3090676e-34 -1.50305e-39 -0.084570184 9.09405e-40
000170 61 21 14 80 fe 3b 09 00 be 17 00 80 2d 3b 00 80
       -1.848684e-39 8.4804e-40 -8.517e-42 -2.1228e-41
000180 ee c7 52 39 97 14 00 80 0c 45 00 00 f8 14 1a 3c
       0.0002010164 -7.386e-42 2.477e-41 0.009404413
000190 56 55 00 00 f5 2d 00 80 4f ec 23 00 f2 14 00 80
       3.0613e-41 -1.6486e-41 3.299014e-39 -7.514e-42
0001a0 bc 1d 00 00 f0 a9 1d 80 9e 51 00 80 65 01 00 00
       1.0667e-41 -2.724191e-39 -2.9279e-41 5e-43
0001b0 74 b3 a3 3d b5 1a 00 00 5b 16 00 80 0b 17 00 00
       0.07993212 9.58e-42 -8.02e-42 8.266e-42
0001c0 70 9f ad b6 3e 1b 00 00 91 13 00 80 09 1f 00 00
       -5.1743627e-06 9.773e-42 -7.019e-42 1.1133e-41
0001d0 e4 89 84 2a f3 d3 55 3d 92 b3 44 8e 78 50 00 00
       2.354359e-13 0.052204084 -2.4245325e-30 2.8867e-41
0001e0 32 3a 00 00 61 51 31 93 00 9b b2 83 f0 ec 14 00
       2.0877e-41 -2.2380664e-27 -1.0497486e-36 1.921707e-39
0001f0 9e b9 75 07 70 ff f1 83 a7 88 85 bd fa 39 00 80
       1.8486299e-34 -1.42233525e-36 -0.06520205 -2.0798e-41
000200 6b 07 00 00 bc 58 00 00 88 30 00 80 e7 1f 00 80
       2.661e-42 3.1832e-41 -1.741e-41 -1.1444e-41
000210 54 1f 00 80 d8 35 00 80 3e ce 0a 18 1a 90 09 3e
       -1.1238e-41 -1.9315e-41 1.7940208e-24 0.13433877
000220 eb 34 00 80 34 26 00 00 d4 df 52 25 de 44 00 80
       -1.8983e-41 1.3705e-41 1.8290432e-16 -2.4705e-41
000230 96 2a 00 80 34 89 06 80 8e a1 19 00 dc 4a 00 00
       -1.5277e-41 -6.00232e-40 2.353842e-39 2.6854e-41
000240 a4 5a c9 3b 4f 0f 00 80 d7 00 26 af 7c e3 35 b8
       0.0061448384 -5.492e-42 -1.509791e-10 -4.3365624e-05
000250 2d 24 18 00 e7 52 00 00 6c 37 00 00 bc 24 0e 1a
       2.21703e-39 2.974e-41 1.9882e-41 2.9394586e-23
000260 92 5a 00 80 c6 09 7f 3c 0a 18 00 00 83 3b 00 80
       -3.249e-41 0.015566295 8.624e-42 -2.1349e-41
000270 c6 27 00 80 aa 26 8c b1 85 55 00 00 f5 53 00 80
       -1.4268e-41 -4.078932e-09 3.0679e-41 -3.0118e-41
000280 a9 4e 00 00 64 41 00 00 9e 97 a0 3d c3 22 00 00
       2.8218e-41 2.3458e-41 0.07841419 1.247e-41
000290 fe 45 3c 09 2a 44 00 80 c1 0b 00 00 2a 59 00 00
       2.2662587e-33 -2.4453e-41 4.217e-42 3.1986e-41
0002a0 e1 02 00 00 49 53 00 00 cd 06 00 80 40 cd 8a bd
       1.033e-42 2.9877e-41 -2.44e-42 -0.067774296
0002b0 9c 4a 00 80 13 f7 0f 80 84 de 7f 07 4a 10 00 80
       -2.6765e-41 -1.466166e-39 1.9249459e-34 -5.843e-42
0002c0 c3 01 00 80 a0 85 22 39 ff 1a 00 00 bf 23 00 80
       -6.32e-43 0.00015499303 9.684e-42 -1.2823e-41
0002d0 71 74 13 be 41 08 00 80 00 db e7 30 ca bf 6c 25
       -0.14399888 -2.961e-42 1.6869706e-09 2.0534718e-16
0002e0 99 07 00 00 af 57 00 00 77 85 f2 81 04 13 00 80
       2.726e-42 3.1455e-41 -8.9088273e-38 -6.822e-42
0002f0 38 49 61 a6 57 31 95 bd 72 58 00 80 75 26 00 00
       -7.8161786e-16 -0.072848015 -3.1728e-41 1.3796e-41
000300 23 55 00 80 79 49 00 00 38 8c be 86 4f 86 11 80
       -3.0541e-41 2.6357e-41 -7.167609e-35 -1.609384e-39
000310 b6 b1 13 22 12 20 00 80 6b 6f ec 3d f8 9e 45 22
       2.0016294e-18 -1.1505e-41 0.11544689 2.6782636e-18
000320 3a 24 00 00 8a 11 28 b0 45 e7 21 2f db 43 00 00
       1.2996e-41 -6.114297e-10 1.4725028e-10 2.4342e-41
000330 f2 d9 12 94 d8 2a 00 00 89 a9 09 00 e8 ab 3b bd
       -7.4140984e-27 1.537e-41 8.87337e-40 -0.04581824
000340 99 24 00 00 33 50 00 00 e8 c4 01 a3 0d 09 99 0a
       1.3129e-41 2.877e-41 -7.0348005e-18 1.4736769e-32
000350 20 48 00 80 bf 19 00 80 60 5e 00 00 3f 0c 00 00
       -2.5874e-41 -9.236e-42 3.3855e-41 4.393e-42
000360 4c 7d b4 bd 81 49 00 80 6f 32 00 80 5a e5 47 85
       -0.08812961 -2.6368e-41 -1.8092e-41 -9.39906e-36
000370 32 23 00 00 54 40 00 80 cf 5b 00 80 25 23 00 00
       1.2626e-41 -2.3077e-41 -3.2935e-41 1.2607e-41
000380 9c 13 00 80 21 19 3a 3c 60 26 19 00 21 c3 1d 80
       -7.035e-42 0.01135853 2.309654e-39 -2.733228e-39
000390 f3 55 1b 80 80 45 00 00 1f 4c 00 80 56 6b 06 80
       -2.510391e-39 2.4932e-41 -2.7307e-41 -5.89518e-40
0003a0 17 39 00 00 c8 28 f5 1a 7c bb ae 3d 3d ab 2b 80
       2.048e-41 1.0139551e-22 0.085318536 -4.010355e-39
0003b0 7b 0b 00 00 f3 18 00 80 b3 d5 ea b2 b8 35 00 80
       4.118e-42 -8.95e-42 -2.7338364e-08 -1.927e-41
0003c0 40 7a ac 98 37 23 00 00 d8 05 73 a3 f2 86 80 3d
       -4.45844e-24 1.2633e-41 -1.3174294e-17 0.06275739
0003d0 1b 29 00 80 a0 2f 00 80 a3 2e 00 00 48 16 6e 1f
       -1.4746e-41 -1.7085e-41 1.673e-41 5.041689e-20
0003e0 b7 1b 00 00 5b b5 1f 80 f3 4b 00 80 e9 da 95 ae
       9.942e-42 -2.911958e-39 -2.7245e-41 -6.814622e-11
0003f0 00 2a 91 3d 9f 09 00 80 77 3b 00 00 9c 4d 00 00
       0.07088089 -3.451e-42 2.1332e-41 2.7841e-41

feat_mean_net.0.bias f4 [100]
000000 41 c8 42 be a0 fe 02 b8 ca 76 3c 3c 70 33 4d bd
       -0.19021703 -3.1231553e-05 0.011502931 -0.050097883
000010 27 d1 99 bd 7c 10 a2 bd e5 eb 17 be 90 0e c6 3c
       -0.07510596 -0.079133004 -0.1483608 0.024176866
000020 8a 18 56 be b3 ad 45 bd 26 eb 99 3b 64 cc 18 ba
       -0.20907798 -0.048261356 0.0046972213 -0.00058287964
000030 c1 6c 36 bb d6 60 5c bb 07 fa e2 bd 34 3f a0 b7
       -0.0027835818 -0.0033627055 -0.11082845 -1.9102918e-05
000040 78 7f fc bb de 42 b8 3c 1d e8 60 b7 e7 05 e6 ba
       -0.007705625 0.022492822 -1.34054835e-05 -0.0017549366
000050 21 21 79 b8 b6 de 3c bc 76 3a 7b bd 1e 11 4a b8
       -5.939708e-05 -0.011527708 -0.06133505 -4.8176495e-05
000060 b0 0f 8b b9 4b 80 95 ac 7f 53 51 b2 24 e0 0b b5
       -0.00026523834 -4.249078e-12 -1.2184386e-08 -5.21077e-07
000070 a2 10 0b ba 00 09 0d 3b 73 f0 73 bd c6 ea 88 b9
       -0.00053049077 0.0021520257 -0.059555482 -0.0002611486
000080 f9 c8 19 be 7a f4 d4 bc 0e 7e a3 bc 6f 1c 91 b4
       -0.15018071 -0.025995482 -0.019957568 -2.7029043e-07
000090 e2 b6 36 b4 d5 bc e1 3c 0c 41 3b b9 a0 97 9c bc
       -1.7016603e-07 0.027555862 -0.00017857942 -0.01911527
0000a0 10 20 08 3e 07 b3 84 bb fe 60 00 be dd 46 2e ba
       0.13293481 -0.004049662 -0.12537 -0.00066481327
0000b0 22 1f 46 b3 e9 da da b2 86 84 4f b6 40 b7 c4 bd
       -4.6128783e-08 -2.5478089e-08 -3.0922542e-06 -0.09605265
0000c0 3d a4 25 ba ea 2b 2d be 20 fb 1a be cb 24 06 3c
       -0.0006318724 -0.16911283 -0.15134859 0.008187483
0000d0 75 63 84 be 44 e4 89 b9 2e db 25 b6 fc ef 05 be
       -0.2585713 -0.00026300747 -2.4714495e-06 -0.13079828
0000e0 27 17 1d be 8e bf fb ba 25 0d bb bd f9 2e 18 be
       -0.15340863 -0.0019206868 -0.091333665 -0.14861669
0000f0 fd 03 a7 b7 eb 23 6a bc f3 8d 12 bd 0e 02 27 b5
       -1.9909809e-05 -0.01429079 -0.035779905 -6.221534e-07
000100 91 0a 3c bd 3c a8 77 b3 22 b4 f5 ba a2 83 6b b9
       -0.045908514 -5.7662177e-08 -0.00187457 -0.00022460383
000110 5a 0f e2 b5 85 33 3b ba 99 92 c1 b9 bb de 24 3a
       -1.684278e-06 -0.0007141161 -0.00036921052 0.0006289293
000120 2f 89 88 b9 fc 45 91 bd 40 5d fb b8 ba 72 bd b7
       -0.0002604215 -0.070934266 -0.00011985982 -2.258398e-05
000130 eb 7c 8b 3d 0c fd 1c be 3e 91 8e bb 38 6a 52 bd
       0.068109356 -0.15330905 -0.0043508103 -0.05137083
000140 c2 3c f2 ba 79 1b de bd 7e e2 3a bd 5d 83 03 b7
       -0.0018481242 -0.10845084 -0.045626156 -7.838794e-06
000150 02 77 13 ba a0 22 0b be d4 83 f8 3d 8e 0a 98 3c
       -0.00056253385 -0.13587427 0.12134519 0.01855972
000160 fa 57 af ba cd d4 06 b9 4b 0b b5 b6 db af 56 bc
       -0.001337766 -0.0001285851 -5.395535e-06 -0.013103451
000170 50 ff e2 b8 9c 9d ea bc 02 a6 c1 bc c5 9f 38 be
       -0.000108240754 -0.028639607 -0.023638729 -0.18029697
000180 8b 09 b0 bd 58 69 27 b6 1c 10 44 be cf 33 38 b5
       -0.0859557 -2.4946257e-06 -0.1914677 -6.8620733e-07

feat_mean_net.2.weight f4 [1, 100]
000000 44 5b 03 3f 06 af 4f 36 21 7a f8 be 93 6b 50 3d
       0.51311135 3.094728e-06 -0.48530677 0.05088384
000010 0b 31 6a be bf 12 78 be 45 a1 eb 3d ba 3d c5 be
       -0.22870271 -0.24225901 0.11505369 -0.38523656
000020 c2 24 06 3f 91 5f 03 be 2e ee 4b 3d 96 81 c6 38
       0.5239984 -0.12829424 0.049787693 9.465513e-05
000030 fb 33 dc be 5d 6a ef 3a 60 da f4 3e 11 1e ad 34
       -0.43008408 0.0018265952 0.47822857 3.2245637e-07
000040 67 fe aa 3b 18 3b c1 be 14 ff 00 36 b6 94 31 39
       0.0052183154 -0.37740397 1.9221961e-06 0.00016935435
000050 bd 25 28 38 06 ad 92 be 67 a3 98 3e a2 26 a2 b6
       4.0089468e-05 -0.2864763 0.29812166 -4.8324737e-06
000060 45 31 ef 39 80 20 8c ab 12 c0 22 31 d0 f9 48 32
       0.0004562234 -9.956619e-13 2.3683282e-09 1.1698333e-08
000070 50 01 0b b4 b2 eb 4e be 87 8e 6b be 2a bd 3e b8
       -1.2945861e-07 -0.20207098 -0.23003589 -4.5475703e-05
000080 11 b0 d2 3e 9c 03 71 be 77 f8 b7 be cb bf 4e b2
       0.41149953 -0.23536533 -0.3593175 -1.2034387e-08
000090 9b 30 b6 32 a8 d0 13 be 41 d3 bd b7 84 bb b7 be
       2.1209692e-08 -0.14435065 -2.2628928e-05 -0.3588525
0000a0 ee 5c d2 be dd 01 99 be c5 5b 03 3f c1 82 ce b9
       -0.41086525 -0.29884234 0.51311904 -0.000393888
0000b0 de 2b 59 31 74 39 83 b0 e1 55 2d 34 6b de bf 3e
       3.1602592e-09 -9.547834e-10 1.6143123e-07 0.3747438
0000c0 4e 3a a7 35 c9 03 fb 3e ef 2f 72 3e 05 25 c0 be
       1.2459438e-06 0.49026325 0.23651098 -0.37528244
0000d0 2b e9 d8 3e e5 f7 3c b8 02 ea d5 b4 b8 e7 e9 3e
       0.42365393 -4.5053563e-05 -3.9844605e-07 0.456846
0000e0 1c 58 04 3f cc b2 fc 3d 52 dc c2 3e f8 eb 3d 3f
       0.51696944 0.1233879 0.38058716 0.74188185
0000f0 c3 17 d7 b5 9f b5 e2 be 5c 1a 13 be 18 c9 9f 33
       -1.6025664e-06 -0.4427919 -0.14365524 7.440593e-08
000100 39 50 e1 3c 40 fa 99 b1 b7 9d 24 3a 81 06 2f 37
       0.027504073 -4.481336e-09 0.0006279605 1.0432327e-05
000110 dd 5c a5 35 24 ab 16 39 be e9 90 b8 6f 28 97 be
       1.2320485e-06 0.0001436887 -6.909993e-05 -0.29523036
000120 18 c8 14 38 52 e7 5e be 3e 74 89 37 ed c1 89 35
       3.54723e-05 -0.21767929 1.6385802e-05 1.0263735e-06
000130 b2 45 d5 be 6d 15 e3 3e c8 26 ff ba 37 be 3a 3d
       -0.41654736 0.44352284 -0.0019466514 0.04559156
000140 56 1a d4 38 a3 ea cb 3e 40 e7 53 bd 49 93 32 35
       0.00010113853 0.3982745 -0.05173421 6.6524495e-07
000150 b8 9c 8b be 69 23 d9 3e bc 67 67 be 9b 32 24 3e
       -0.27268004 0.42409828 -0.22598165 0.1603493
000160 69 00 b3 bd e8 16 d8 b5 1d 2b 64 34 bf 3e e1 be
       -0.087403126 -1.6099921e-06 2.1249839e-07 -0.43993184
000170 bf c5 03 37 0e f6 be bd 00 9e 5f be 4a f2 18 3f
       7.85425e-06 -0.09324275 -0.21837616 0.59744704
000180 94 00 0a 3f 86 c8 5f 35 12 32 19 3f ae b5 b4 35
       0.5390713 8.3365774e-07 0.59842026 1.3463921e-06

feat_lambda_net.0.weight f4 [100, 1080]
000000 a1 96 34 3c b2 0e 00 80 72 f0 0a 00 50 8b fa a4
       0.011022241 -5.272e-42 1.00461e-39 -1.0865622e-16
000010 00 20 00 00 d2 72 97 00 89 d0 b4 a3 e0 ba b5 0d
       1.148e-41 1.390835e-38 -1.9603957e-17 1.1199975e-30
000020 7c e1 cb b8 7d bf 5a bc 30 03 00 00 b2 87 10 22
       -9.721794e-05 -0.013351318 1.143e-42 1.9587476e-18
000030 98 fe a1 14 3b 28 00 00 19 70 1f 00 6c b1 39 80
       1.6357265e-26 1.4432e-41 2.887113e-39 -5.29827e-39
000040 ff 10 0a 80 ff 41 00 00 d0 a1 a9 bc 5d 20 00 80
       -9.24452e-40 2.3675e-41 -0.020707041 -1.161e-41
000050 b8 88 af a4 19 61 ce ae 02 0e 00 80 fc 52 08 80
       -7.612576e-17 -9.3850434e-11 -5.025e-42 -7.64453e-40
000060 50 49 00 80 18 43 04 00 ca e4 4a 86 45 f1 69 3b
       -2.63e-41 3.9141e-40 -3.8160065e-35 0.0035696786
000070 e8 16 00 80 53 e1 0e 00 8c 70 3d 22 df 00 28 aa
       -8.217e-42 1.366528e-39 2.5673858e-18 -1.49217e-13
000080 e2 0b 00 80 ef 14 00 80 db 2f 00 00 5a c5 6d a9
       -4.263e-42 -7.51e-42 1.7167e-41 -5.2795747e-14
000090 aa 0c f2 bb ab 33 cc a1 d8 9b 18 85 12 2c 00 80
       -0.0073867636 -1.3837254e-18 -7.1756296e-36 -1.581e-41
0000a0 49 46 00 80 d3 40 00 00 c3 9e 79 35 24 b9 7d 02
       -2.5214e-41 2.3255e-41 9.2990757e-07 1.8640637e-37
0000b0 c7 59 00 80 93 ca fd bb 89 de 0e 00 72 3b 22 00
       -3.2206e-41 -0.007745096 1.365528e-39 3.143732e-39
0000c0 9c 6e 16 a8 80 35 00 80 81 08 00 80 55 18 00 00
       -8.350657e-15 -1.9192e-41 -3.05e-42 8.729e-42
0000d0 de 07 00 00 55 32 00 00 34 38 0d 3b c4 36 f9 1b
       2.822e-42 1.8056e-41 0.0021548392 4.1228986e-22
0000e0 b6 56 00 00 3e 03 00 2d 1a 04 00 00 55 01 00 80
       3.1106e-41 7.2766775e-12 1.471e-42 -4.78e-43
0000f0 0b 05 00 00 5c 37 00 80 fb 60 00 00 00 11 b1 bb
       1.809e-42 -1.9859e-41 3.479e-41 -0.005403638
000100 8b 58 00 00 1c 58 9f 36 29 17 00 00 ee af 7b 98
       3.1763e-41 4.7488265e-06 8.308e-42 -3.2529811e-24
000110 6f 30 00 00 46 1e 00 00 c4 ae 95 32 a0 08 91 ab
       1.7375e-41 1.086e-41 1.7425357e-08 -1.0305264e-12
000120 4a 61 9e 3b d1 ab 07 00 cc b5 38 03 b8 3d 00 80
       0.004833375 7.04485e-40 5.4281433e-37 -2.214e-41
000130 ba 6f 4b a7 30 03 00 80 a0 4b 6d ad 68 67 79 a7
       -2.8232476e-15 -1.143e-42 -1.3488682e-11 -3.4611748e-15
000140 49 4b 00 80 8d e5 2f bc 88 5c 00 80 5b 64 0a 94
       -2.7007e-41 -0.0107358815 -3.3194e-41 -6.987011e-27
000150 5d 22 00 00 60 3c 00 80 b8 51 02 09 ba f6 83 0f
       1.2327e-41 -2.1658e-41 1.5686605e-33 1.3012633e-29
000160 5b 4c 00 00 43 34 00 80 cf 27 90 bc 8c 92 93 b6
       2.7391e-41 -1.8748e-41 -0.017597107 -4.3980017e-06
000170 28 62 61 ad 98 31 00 00 c7 0a 00 00 cf 35 00 00
       -1.2811564e-11 1.7791e-41 3.866e-42 1.9303e-41
000180 61 45 00 00 e0 78 1e b3 96 9a 1b b7 e2 22 58 bc
       2.4888e-41 -3.6897177e-08 -9.274712e-06 -0.01319191
000190 19 15 00 80 33 2b 00 00 b0 54 ae 01 80 5f 04 ae
       -7.568e-42 1.5497e-41 6.4039026e-38 -3.0098146e-11
0001a0 cd 1e 00 80 90 7f 0e 38 a6 54 00 00 2c 39 05 00
       -1.1049e-41 3.397424e-05 3.0366e-41 4.79687e-40
0001b0 50 60 13 bd 00 9d f7 af 1c 26 00 80 74 d6 ae 02
       -0.035980523 -4.5040593e-10 -1.3671e-41 2.5690092e-37
0001c0 d3 19 0c 00 0e 53 13 39 64 03 00 80 f7 36 00 80
       1.11129e-39 0.00014049953 -1.216e-42 -1.9718e-41
0001d0 d2 d8 0f 00 ea 6b db bc 9a 1b 00 00 ba 3e 00 00
       1.455313e-39 -0.026784856 9.902e-42 2.2502e-41
0001e0 46 30 00 80 50 0b 84 2e 30 3e ab 01 11 3f 00 00
       -1.7317e-41 6.0046745e-11 6.2904714e-38 2.2624e-41
0001f0 43 85 0c 00 30 68 68 a3 9e b2 bf bc 00 5b 00 00
       1.149831e-39 -1.2598808e-17 -0.023400601 3.2645e-41
000200 81 3c 00 00 fa c0 a3 93 64 b2 06 00 ce 5e 6a b4
       2.1705e-41 -4.1337274e-27 6.15007e-40 -2.1827438e-07
000210 7c 24 00 00 5f 41 00 00 b8 3d 00 80 68 97 f0 bc
       1.3088e-41 2.3451e-41 -2.214e-41 -0.029369071
000220 b7 0f 00 80 df 12 00 80 87 50 00 80 1e 26 00 80
       -5.637e-42 -6.77e-42 -2.8888e-41 -1.3674e-41
000230 f9 58 24 80 b8 38 00 80 d8 f9 05 80 0f 24 00 80
       -3.337995e-39 -2.0347e-41 -5.48805e-40 -1.2935e-41
000240 9b de 91 3c 2c 19 47 ab d8 10 0b 80 f0 b2 06 21
       0.017806342 -7.0733935e-13 -1.016233e-39 4.563779e-19
000250 58 46 00 80 99 b5 8f b0 84 58 00 00 17 56 00 80
       -2.5235e-41 -1.0456233e-09 3.1753e-41 -3.0883e-41
000260 b5 2c 00 00 d3 0c ba 3c 20 93 16 80 56 ca 42 80
       1.6038e-41 0.022711193 -2.07316e-39 -6.133727e-39
000270 4e bc 05 22 6b 14 00 80 02 3f 00 80 8f c0 12 9e
       1.8124549e-18 -7.325e-42 -2.2603e-41 -7.768996e-21
000280 be 30 00 80 10 37 00 80 b6 bc 54 bc ea 0b 00 80
       -1.7485e-41 -1.9753e-41 -0.012984445 -4.274e-42
000290 17 62 00 80 e2 25 be 2b 04 48 00 00 c8 14 8e 9b
       -3.5188e-41 1.3510827e-12 2.5834e-41 -2.350536e-22
0002a0 3f 1b 00 80 a7 2b 00 80 20 61 00 80 7f 5e 69 3b
       -9.774e-42 -1.566e-41 -3.4842e-41 0.0035609303
0002b0 a6 07 00 80 a8 57 ac 38 af 17 00 00 3b 07 00 80
       -2.744e-42 8.2179264e-05 8.496e-42 -2.594e-42
0002c0 e8 33 96 9f 10 18 00 80 9e 3d 00 80 90 17 00 80
       -6.361334e-20 -8.632e-42 -2.2104e-41 -8.453e-42
0002d0 c4 59 35 3b 48 bf 5e 9d 2c 9a 37 ae 63 f9 08 80
       0.0027671913 -2.9480345e-21 -4.1746315e-11 -8.24147e-40
0002e0 8c 56 09 80 0f 4d 5c 21 e0 5a 00 80 e3 29 00 00
       -8.57567e-40 7.4640886e-19 -3.26e-41 1.5026e-41
0002f0 3f 41 d6 0d 17 ed 6e bb 9f 15 06 ba 0d 20 00 80
       1.3204476e-30 -0.0036457235 -0.0005114916 -1.1498e-41
000300 37 25 00 80 1c 5c 00 00 b2 9a 37 9f 7e 46 00 00
       -1.335e-41 3.3043e-41 -3.8879718e-20 2.5288e-41
000310 75 60 00 80 c3 35 00 00 68 62 4e bc 2a 01 8b 97
       -3.4602e-41 1.9286e-41 -0.012596704 -8.982958e-25
000320 99 c6 14 23 2e 00 00 80 97 67 1f 84 0a 27 00 80
       8.065151e-18 -6.4e-44 -1.8737926e-36 -1.4005e-41
000330 a0 29 0e 80 2a a3 09 b0 c0 43 43 9f 9c 11 35 bc
       -1.300629e-39 -5.007218e-10 -4.1348898e-20 -0.011051562
000340 ca 28 00 00 9a 1b 00 80 41 3c 00 00 d1 47 00 00
       1.4632e-41 -9.902e-42 2.1615e-41 2.5763e-41
000350 23 5a 00 00 1a 30 00 80 5e 49 1f 86 e7 39 00 80
       3.2335e-41 -1.7256e-41 -2.9958478e-35 -2.0771e-41
000360 c2 cb 0c bc 87 07 00 00 01 5a 00 80 14 1e 00 80
       -0.0085935015 2.7e-42 -3.2287e-41 -1.079e-41
000370 86 38 00 00 61 29 00 80 0e 43 00 80 51 26 00 00
       2.0277e-41 -1.4844e-41 -2.4055e-41 1.3745e-41
000380 ff 3c 00 00 2f 42 c1 bb 3d 22 00 00 f0 1b 00 00
       2.1881e-41 -0.0058977823 1.2282e-41 1.0022e-41
000390 a7 54 00 80 9c 06 70 81 61 13 00 00 89 36 00 80
       -3.0368e-41 -4.408578e-38 6.952e-42 -1.9564e-41
0003a0 2c 72 55 b4 2c 34 00 00 51 e6 c0 bc 24 62 00 80
       -1.9878706e-07 1.8716e-41 -0.023547323 -3.5206e-41
0003b0 58 15 00 00 c2 19 00 80 4c 58 00 00 9c 0f 00 00
       7.657e-42 -9.24e-42 3.1675e-41 5.6e-42
0003c0 45 51 00 00 49 24 00 80 6e c7 22 21 e0 66 89 3c
       2.9154e-41 -1.3017e-41 5.515168e-19 0.016772687
0003d0 44 0a 00 00 80 3a 00 80 64 c5 07 80 5f 00 00 80
       3.683e-42 -2.0986e-41 -7.13659e-40 -1.33e-43
0003e0 53 05 00 80 f8 ea 0f 80 54 3b 00 80 3a 20 00 00
       -1.91e-42 -1.461823e-39 -2.1283e-41 1.1561e-41
0003f0 a4 c4 82 3b 2b 04 31 80 9f d9 33 38 ef 6b 4e 2d
       0.0039907265 -4.501434e-39 4.28796e-05 1.173371e-11

feat_lambda_net.0.bias f4 [100]
000000 ae 38 9e bd 11 8f e4 3d 01 64 9f 3e 28 77 1e b1
       -0.077256545 0.111601 0.31130984 -2.3059759e-09
000010 68 a5 5c 1f 6e b8 93 3e 58 38 db 31 0c a8 26 27
       4.6723633e-20 0.28851646 6.3801444e-09 2.3128226e-15
000020 72 f6 80 3c c2 af f8 19 0f a7 da 17 13 9d 1c 2e
       0.015742514 2.5713587e-23 1.4130091e-24 3.5609803e-11
000030 72 ed 0e 3e dd fd b1 3e 73 1d 17 3e 30 f4 03 bc
       0.13957766 0.34763995 0.14757328 -0.008053824
000040 0b b2 6e 3e 2b 5c 3b 34 74 d8 a0 3a 83 ad c2 bd
       0.23310106 1.7449263e-07 0.0012271539 -0.09505751
000050 9e a1 d1 3e ad 3e ac 3d db a1 0b 3e 84 b5 5e 29
       0.40943617 0.08410392 0.13635962 4.9451342e-14
000060 62 92 71 25 fa 83 b7 29 50 b0 8c 30 f8 fa 19 a8
       2.0953014e-16 8.149727e-14 1.0236452e-09 -8.547626e-15
000070 71 e2 5a 3e fc 65 b3 3e fd 76 9c 31 d5 42 71 b7
       0.21375443 0.35038745 4.553725e-09 -1.438028e-05
000080 f5 77 da bc 77 de 7a 19 72 0e 3d 26 36 58 35 9b
       -0.026668528 1.29696235e-23 6.5592124e-16 -1.5000472e-22
000090 97 1d e1 2d 9e 8f 99 3d 30 35 d6 3e 53 01 ae 3e
       2.5592679e-11 0.07498096 0.41837454 0.33985385
0000a0 80 73 98 3e 5d d2 ea 37 4f ac a5 3e 71 dd b3 3b
       0.2977562 2.7992932e-05 0.32358024 0.0054890444
0000b0 03 c9 00 2c 5c 97 11 21 5d 92 7a bd 6c 59 05 2b
       1.8301478e-12 4.9328233e-19 -0.06117474 4.737519e-13
0000c0 7b 00 a7 bd 92 26 3b b8 da 9c 4b 32 5f f5 1b 3e
       -0.081543885 -4.4620196e-05 1.1851819e-08 0.1523032
0000d0 91 9a 14 3e aa 6e 8c 25 f1 4e fa 2d 0b 5a 4b 3e
       0.14512087 2.4361118e-16 2.8456766e-11 0.19858567
0000e0 b6 a5 13 2c b7 1e da 3b fc 34 85 a6 d7 61 23 af
       2.0981944e-12 0.0066564935 -9.24309e-16 -1.4859523e-10
0000f0 01 88 ad bc d1 3f 65 3b dd f3 00 9e 3d 07 0e 3e
       -0.021183016 0.0034980664 -6.826693e-21 0.13869949
000100 a0 12 53 3e 15 9d 42 3e bd 89 6a 3e 05 ef 49 3e
       0.20612574 0.19005235 0.22904105 0.19720085
000110 c3 2b 0a b5 a6 f3 06 bc 9f d0 8a 3d f1 48 52 a3
       -5.147269e-07 -0.008236801 0.067780726 -1.1399569e-17
000120 7c 0c 64 30 f0 a5 d2 3d a0 91 83 3e 21 12 98 3d
       8.296366e-10 0.10285556 0.2569704 0.07425333
000130 5c 85 48 36 53 cb 8d 3e 14 30 92 a5 ec 32 c5 3e
       2.9879948e-06 0.27694187 -2.5359542e-16 0.38515413
000140 33 33 30 20 26 29 0a bc a7 74 68 3b 33 26 18 3e
       1.492472e-19 -0.008432662 0.003546992 0.14858322
000150 8d 08 9b 25 17 e3 1a 27 12 3c 2c 2d fe 4e 64 38
       2.6894008e-16 2.1494899e-15 9.790406e-12 5.4433003e-05
000160 ae 95 24 bd 58 ca aa bc fc 2f ab 3e c2 d4 39 bd
       -0.04018181 -0.020848438 0.33435047 -0.045368917
000170 65 6d 5a b4 9d 14 f0 3e cc 96 7a 18 c4 81 b4 9f
       -2.034263e-07 0.46890727 3.2387876e-24 -7.6447644e-20
000180 ab a3 50 b9 3f 00 f7 3e 4f f1 2c 3e bc cc ad 3e
       -0.00019897397 0.48242375 0.16888927 0.33945262

feat_lambda_net.2.weight f4 [1, 100]
000000 dc 86 41 be 76 e5 4f 3e fb 44 f5 3e 11 bd 1e b1
       -0.18899101 0.20302376 0.4790419 -2.3099498e-09
000010 a5 05 1f 20 50 8f dd 3e c3 89 b0 32 da a2 f5 27
       1.3469691e-19 0.432734 2.0551743e-08 6.8177724e-15
000020 9c 5d 28 3d d7 cb 9e 1a 08 bb 32 18 33 aa cb 2e
       0.041104898 6.567659e-23 2.3100387e-24 9.261605e-11
000030 b3 a9 61 3e 3b 1e ea 3e 94 40 ba 3e f9 13 83 bc
       0.22037391 0.4572619 0.36377394 -0.016000735
000040 91 8d ac 3e 1e bd ed 34 00 58 1c 3b c3 e5 71 be
       0.33701757 4.428229e-07 0.0023856163 -0.23622803
000050 b5 17 3a 3f 5e fc 0b 3e 01 ac 4e 3e f0 13 14 2a
       0.72692424 0.13670489 0.20182802 1.3151958e-13
000060 88 48 17 26 af 90 82 2a 06 43 06 31 16 f1 a5 28
       5.2486947e-16 2.3193033e-13 1.9537665e-09 1.8423234e-14
000070 a4 26 a4 3e b5 ff 07 3f 00 85 e5 31 f3 50 8d b7
       0.3206073 0.5312455 6.6798975e-09 -1.6846205e-05
000080 1e 6c 6f bd 67 1b ed 19 93 0c 0a 27 4b 6e b6 9b
       -0.058452718 2.4516293e-23 1.9158164e-15 -3.018065e-22
000090 a7 69 92 2e a3 af 3c 3e da 6a 2f 3f e4 c9 01 3f
       6.658079e-11 0.18426375 0.6852242 0.50698686
0000a0 16 2e d5 3e 15 f4 a5 38 b7 6b ff 3e dd ee 76 3c
       0.41636723 7.913277e-05 0.49886867 0.015071598
0000b0 5d 30 a3 2c 7a ce 2a 21 16 56 16 be da b5 b1 2b
       4.638108e-12 5.787151e-19 -0.14681277 1.262708e-12
0000c0 94 23 4d be 40 28 52 39 64 dd fe 32 30 57 a3 3e
       -0.20033103 0.00020042155 2.9670169e-08 0.31902456
0000d0 3c 13 b9 3e b6 7d aa 25 76 f4 bb 2e d3 e3 b6 3e
       0.36147487 2.9575484e-16 8.5472004e-11 0.3572069
0000e0 a8 f3 e3 2c 19 87 9a 3c 04 38 c2 a6 71 71 b4 ae
       6.4787793e-12 0.018863248 -1.3476637e-15 -8.2056036e-11
0000f0 bf 75 3a bd 35 4f 1c 3c 2c a9 ad 1e 53 b2 9e 3e
       -0.045522448 0.009540369 1.8387055e-20 0.30995426
000100 6e 76 a6 3e 26 0a 9d 3e c5 96 b7 3e 64 da 95 3e
       0.3251223 0.30671805 0.35857216 0.2926818
000110 8a 8e 16 b5 76 8a 86 bc c3 d8 2b 3e b8 19 35 24
       -5.6086776e-07 -0.016423445 0.16781907 3.9269903e-17
000120 40 39 11 31 36 d2 1a 3e a5 eb cf 3e 56 77 3b 3e
       2.113282e-09 0.15119252 0.4060947 0.18307242
000130 6f 2f 04 37 0f 16 d4 3e 94 14 d2 25 b6 a0 06 3f
       7.878857e-06 0.4142308 3.6443137e-16 0.52588975
000140 d6 7c 76 20 d3 82 89 bc bf b6 23 3c 44 c1 bd 3e
       2.0878315e-19 -0.016786015 0.0099923005 0.37061512
000150 c7 72 32 26 1a 21 d8 27 b5 42 22 2e 45 f2 0d 39
       6.191171e-16 5.998793e-15 3.6893783e-11 0.0001353706
000160 6b 1f bd bd fb f0 37 bd 77 54 ed 3e 9c 02 d8 bd
       -0.09234508 -0.04490755 0.46353504 -0.10547373
000170 38 51 c8 34 a5 7a 50 3f 35 e1 ec 19 48 64 b1 1f
       3.7311997e-07 0.8143714 2.4492788e-23 7.512832e-20
000180 46 9e d8 b9 67 6c 42 3f fb fd 74 3e 45 a4 0d 3f
       -0.00041316653 0.7594666 0.23925011 0.5532878
