experiments/konrad/saved_models/online_expanding/hinge_inverse_gaussian/model_step_9.pt (torch, 881746 bytes, 13 tensors)

A_gate f4 [9]
00000000: 540a 0000 e3b6 0b27 8139 f628 2d69 0080
00000010: 377c d0a8 f597 f328 650b 0080 00ac 7f26
00000020: 22b7 4f27
3.705e-42 1.9389268e-15 2.7336425e-14 -3.773e-41 -2.3146509e-14 2.704432e-14 -4.088e-42 8.8704e-16
2.8826297e-15

B_gate f4 [120]
00000000: 9520 0080 f288 0080 662e 1629 54f1 d8a7
00000010: cdfc bbab ff59 0080 ca88 1927 ee4e 0f2b
00000020: fcb0 45a4 7119 0000 5c34 04a6 2b26 0080
00000030: db55 4b26 725e 0000 9f6c 0000 74f8 faa6
00000040: b736 0000 8caa f185 1c26 0080 3644 0000
00000050: f950 0080 0e1e 5327 0e1c 0000 9d2e 0000
00000060: fa51 2826 6d14 0080 09ac d4a4 8708 0000
00000070: 7741 0080 d962 0000 94e1 fd25 973b 9824
00000080: e550 0000 aba7 2727 fe0d 0080 4984 0000
00000090: 1233 0080 7b38 0000 2b57 0000 6998 9a2a
000000a0: 7568 d536 7534 0000 66b5 4926 5c31 0000
000000b0: 6d24 0000 1902 0080 b063 0080 a324 0080
000000c0: cc07 0b26 22a0 0000 b32e 0080 e471 af26
000000d0: 8b10 0080 ab3d 101b 8848 0080 9ce7 69b5
000000e0: 0072 0080 3dde 12a7 b137 0000 da46 0080
000000f0: c29c 8ca6 ff9d 0214 1901 0000 eb65 0000
00000100: fc43 0000 9794 0a9f 718c 8fa7 de30 0000
00000110: 1567 0000 2315 8a26 b064 0000 fc2a 0080
00000120: 2b5e 0080 b30b 0080 826f 292d 6070 efa7
00000130: 0363 0000 b166 0000 d71a ea25 8e12 0000
00000140: 4389 0000 ff2c 0080 692a a80d 7563 8c09
00000150: 24ea e2a7 575a 0000 7139 10a3 5ef3 7fa6
00000160: 1e6f 7ba0 1b33 3b2d e84d 0000 c54e 0080
00000170: b6f2 7794 3920 7ea7 993c 0000 7135 0000
00000180: 8656 f5a5 0458 0000 a48b 9e0c b47a 0080
00000190: b57b a611 2ba9 3132 f197 6ca7 803b b099
000001a0: 271e 0080 a5ef 2fa7 863e 0080 6f42 0080
000001b0: 6772 0080 8966 d420 567c 7e27 eb32 d8a7
000001c0: 4fe3 338f ef76 0080 9ec1 03a7 cc21 0000
000001d0: d613 0080 c6ba 0080 f947 0080 f447 0080
-1.1688e-41 -4.9127e-41 3.3346935e-14 -6.021369e-15 -1.3357315e-12 -3.2285e-41 2.1307169e-15 5.091334e-13
-4.2867477e-17 9.127e-42 -4.586766e-16 -1.3692e-41 7.054613e-16 3.388e-41 3.8966e-41 -1.7414578e-15
1.9628e-41 -2.272618e-35 -1.3671e-41 2.447e-41 -2.9048e-41 2.9298425e-15 1.0064e-41 1.6722e-41
5.839781e-16 -7.327e-42 -9.223178e-17 3.059e-42 -2.3484e-41 3.546e-41 4.4041362e-16 6.602044e-17
2.902e-41 2.3266799e-15 -5.02e-42 4.7455e-41 -1.832e-41 2.0261e-41 3.127e-41 2.746165e-13
6.360055e-06 1.8818e-41 6.9981724e-16 1.7707e-41 1.3067e-41 -7.52e-43 -3.5761e-41 -1.3143e-41
4.823588e-16 5.7445e-41 -1.6753e-41 1.2173934e-15 -5.934e-42 1.1931327e-22 -2.602e-41 -8.71363e-07
-4.0895e-41 -2.0382046e-15 1.9978e-41 -2.5417e-41 -9.756941e-16 6.594482e-27 3.94e-43 3.6561e-41
2.4388e-41 -2.9345547e-20 -3.984274e-15 1.753e-41 3.6979e-41 9.581403e-16 3.612e-41 -1.542e-41
-3.3781e-41 -4.197e-42 9.6312975e-12 -6.6457663e-15 3.5519e-41 3.6839e-41 4.0610717e-16 6.656e-42
4.924e-41 -1.6142e-41 1.0364009e-30 3.3797303e-33 -6.2981457e-15 3.2408e-41 -7.818419e-18 -8.880072e-16
-2.1297293e-19 1.0641067e-11 2.7947e-41 -2.8257e-41 -1.25181795e-26 -3.526705e-15 2.1738e-41 1.9171e-41
-4.2559356e-16 3.1574e-41 2.4427798e-31 -4.4018e-41 2.6266422e-28 1.034122e-08 -3.2833947e-15 -1.8222005e-23
-1.0817e-41 -2.441604e-15 -2.2429e-41 -2.3832e-41 -4.104e-41 3.598205e-19 3.5316984e-15 -6.000725e-15
-8.8691594e-30 -4.2665e-41 -1.8284862e-15 1.2124e-41 -7.116e-42 -6.7002e-41 -2.5819e-41 -2.5812e-41

ar_gate_lin.weight f4 [1, 64]
00000000: ad55 a6bb 3203 9eb9 ce02 86bd 7287 753b
00000010: 3c2e 9b3b f85f 193d 07c9 43bc 2f74 8ebc
00000020: c0e0 963c 1641 763d 0de5 95bd 5811 6fbc
00000030: a109 b1bd 131e 0d3c 1432 48be fb63 b13c
00000040: 9308 083d 71bd 27bd bb1e 1d3d 06fc 69bd
00000050: 7293 17bd d33d 8cbd 85b3 a3bd 0be1 49bd
00000060: 11ba cd3c 46a5 003d f7db adbd 4915 4dbc
00000070: 17e7 04bd 439d 12be 7e24 a9bd 6ef1 95bd
00000080: 498f c93c 6e5d 7c3c 48c5 4d3d cac0 ac3a
00000090: 2b07 1ebd c052 ab3d b270 92ba 6f84 a8bd
000000a0: ba7c b1bd 8708 843d 0aa2 353c 7530 5ebd
000000b0: 7444 8c3d ae7f c33c c355 853d d3c1 27bd
000000c0: e289 a73a 205c 4fbd 98ed 723d 3f8a 113d
000000d0: 39a5 3abe b32a b2bd c87c ddbd dc25 8c3c
000000e0: 9f37 883d 7aee 923c 40f6 5ebd 2cc9 1e3c
000000f0: 38ac c2bc 2f10 12be 4d04 85bd 6fbe aabd
-0.0050761313 -0.0003013849 -0.06543504 0.0037464765 0.004735736 0.03744504 -0.011949784 -0.017389385
0.018417716 0.060120665 -0.073190786 -0.014591537 -0.08644415 0.008613127 -0.19550353 0.02165412
0.033211302 -0.04095215 0.038359385 -0.057125114 -0.03700585 -0.068477295 -0.07993225 -0.049286883
0.025113137 0.031407617 -0.084892206 -0.012517282 -0.032446947 -0.14317803 -0.082589135 -0.0732144
0.024604456 0.015403135 0.05023697 0.0013180014 -0.038581055 0.08365393 -0.0011172502 -0.08228385
-0.08666368 0.06446939 0.011085996 -0.05424543 0.06848994 0.023864593 0.065104984 -0.04095633
0.0012782181 -0.050624967 0.05930862 0.035532232 -0.1822709 -0.086995505 -0.10814816 0.017107897
0.06651234 0.01793598 -0.05443406 0.009691518 -0.02376376 -0.14263986 -0.06494961 -0.083371036

ar_mean_net.weight f4 [1, 64]
00000000: 253c e6bb 4dfa babc 5dcd f7bb 58ac 773d
00000010: 7124 883c 7802 bc3d 4a4e bd3c 39ca a73c
00000020: 6275 32bc 01ff babd cb28 883c d3f6 a53c
00000030: 1d56 c03a 3625 3dbc dfef d4bb cd3e 133d
00000040: 7f34 d93d e444 0b3d 69ad c03c 9816 1abc
00000050: be80 cdbc 4d16 44bc 91f0 a1bb b361 4c3d
00000060: 77d0 e83d 626c bebc 78b3 aebc 2904 a6bc
00000070: 6a37 943b 2c13 20bc 6ed9 e1b9 ebf2 9dbb
00000080: 7335 763d 00de 9e3b 89f4 81bd 1a8c 983d
00000090: b5a7 b93c eb31 363d 839d 12bc 780a 8f3c
000000a0: 684b d03c 7f56 013d eafe a8bd aeda 14bd
000000b0: b904 303d bb8e 013e f783 b23c ddaa a03c
000000c0: 9457 a0bd 172c 4bbc 808c 9c3d 2447 81bd
000000d0: 3a11 e4bc 3ce3 0ebd 3a63 a3bc 2cc8 a43c
000000e0: cc04 d4bb 879b 623d 4841 ee3c fdc7 223d
000000f0: 87dc b93c a968 0abc 9d88 be3a 087d 453c
-0.0070262128 -0.02282443 -0.007562323 0.060467094 0.01661894 0.091801584 0.02310862 0.02048217
-0.010892244 -0.091306694 0.016621014 0.020259297 0.0014674101 -0.011544516 -0.0064983214 0.035948563
0.10605716 0.034001246 0.023520188 -0.009404801 -0.025085803 -0.011968208 -0.004942008 0.04989786
0.113678865 -0.02324504 -0.021325812 -0.020265656 0.0045232074 -0.009770196 -0.00043077342 -0.004820218
0.060109567 0.004848242 -0.063454695 0.07448597 0.022662977 0.0444812 -0.0089486865 0.017461047
0.025426582 0.03157663 -0.08251746 -0.03634136 0.042973254 0.12652104 0.021791441 0.019612724
-0.07829204 -0.012400649 0.07643986 -0.06312397 -0.027840246 -0.034884676 -0.019944776 0.02011498
-0.0064702984 0.055324104 0.029083863 0.039741505 0.022688163 -0.0084478045 0.0014536564 0.012053736

ar_sigma_net.0.weight f4 [32, 64]
00000000: c05b 0080 8b2e 0080 76a2 0080 6ea4 0080
00000010: e792 0000 2853 0080 ab03 0080 7964 0080
00000020: ef19 0000 5f25 0000 482d 0080 e901 0000
00000030: f369 0080 8a5d 0080 7c39 0080 7b04 0000
00000040: ab86 0080 6b88 0080 4b2d 0000 e844 0000
00000050: 153b 0000 475c 0080 2363 0080 d264 0000
00000060: 5038 0000 c148 0080 164b 0080 9b4b 0080
00000070: 5f3c 0080 906f 0080 f745 0080 1285 0080
00000080: fd7c 0080 eb12 0000 8945 0000 c725 0000
00000090: ac82 0080 4942 0080 0a0b 0080 0039 0000
000000a0: 9f7d 0000 1069 0080 ef0f 0080 392a 0080
000000b0: c627 0000 9219 0080 4f02 0080 2e1e 0080
000000c0: 2d88 0000 6549 0000 b572 0080 7475 0080
000000d0: cf2e 0000 e41c 0080 2f63 0080 c74e 0000
000000e0: b535 0180 f147 0080 9a6d 0080 3e8e 0080
000000f0: a127 0000 ef4f 0080 ad03 0000 0553 0080
00000100: f8cd 7e85 d3e2 1d84 fd35 4984 5e4b 1f05
00000110: c66f 5686 58a1 9285 a812 2385 e4b7 b484
00000120: 76c2 9804 f0ea 0f85 b2cf 0a85 4030 1d85
00000130: f813 4284 37ce 4d85 e57e 9a85 f207 1c05
00000140: 8edb 5c05 1b85 2d86 a2c9 5486 5cb4 b685
00000150: dce5 2305 fac6 8305 5f0d 4404 8cfc 9086
00000160: cc26 3c85 dea5 0006 b7e7 b384 beba 3504
00000170: a459 ba85 ca81 a285 1a63 3404 e740 3e05
00000180: 7e19 1885 782b 2906 1d54 1e06 c628 8a85
00000190: 24f8 c584 c497 1d86 d440 1b86 e42c ba04
000001a0: 538a 5904 c891 c885 e5f8 8905 f947 8983
000001b0: 5eff 6a86 cf2c a386 f398 b685 bf03 dd04
000001c0: a4d5 9f84 99ba 4685 1bc6 2087 bced 9285
000001d0: 2567 0a85 b33c 7c85 83c8 9b85 5cf3 bd85
000001e0: 8011 bd84 0a0a 4585 3887 2e83 63fc 8586
000001f0: f743 5186 2971 b305 d98a 1b85 dac0 7d85
00000200: 853c 0000 e32a 0080 110a 0080 49b9 0080
00000210: fe90 0080 d52b 0000 d11c 0080 4514 0080
00000220: 857f 0000 003e 0080 0661 0080 e729 0080
00000230: 7c0a 0000 0a22 0000 311a 0000 0a3b 0000
00000240: d14f 0000 391b 0080 4442 0080 efaf 0080
00000250: 7878 0080 259a 0080 4b0f 0000 ae26 0080
00000260: 1703 0000 063b 0080 412a 0080 fc32 0000
00000270: 8a05 0000 baa2 0080 1931 0080 5011 0000
00000280: 4b64 0000 0579 0080 b303 0000 f043 0080
00000290: 840d 0080 985f 0080 496a 0080 2a62 0080
000002a0: c063 0000 c704 0000 9b22 0000 c9a2 0080
000002b0: f72b 0000 3039 0080 4d5d 0080 8536 0080
000002c0: 8b57 0080 8043 0080 7d75 0080 9934 0080
000002d0: 6328 0080 193d 0000 4064 0080 ff83 0000
000002e0: c02c 0080 8b9c 0080 d85c 0000 8514 0080
000002f0: 6901 0000 9578 0080 8d61 0080 4142 0000
00000300: 4431 0000 0c49 0080 4630 0000 6944 0080
00000310: 9723 0000 bf3a 0080 b522 0080 c147 0080
00000320: 6b00 0000 c568 0080 dc05 0000 cd8e 0080
00000330: fc1f 0000 4d77 0080 6e2a 0080 2536 0080
00000340: 3d79 0080 ae9f 0000 8d38 0080 467c 0080
00000350: 9922 0000 110b 0000 0412 0000 389b 0080
00000360: 4404 0080 ba29 0000 8440 0000 ad07 0080
00000370: ab4c 0000 1085 0080 7415 0000 cb00 0000
00000380: 4108 0080 6a3e 0000 513f 0080 b31a 0080
00000390: 0e61 0000 435a 0080 f68b 0000 6446 0080
000003a0: e404 0080 5513 0080 6166 0080 8515 0080
000003b0: e101 0000 907e 0080 976a 0080 141d 0080
000003c0: cb31 0000 7f82 0000 e733 0000 f073 0080
000003d0: e10b 0000 f93b 0000 8733 0080 af0d 0000
000003e0: d95a 0000 468e 0080 1807 0080 140e 0000
000003f0: a85c 0000 4aa1 0080 481b 0000 e70f 0080
-3.2914e-41 -1.6696e-41 -5.828e-41 -5.8986e-41 5.2699e-41 -2.9831e-41 -1.316e-42 -3.6043e-41
9.303e-42 1.3406e-41 -1.6244e-41 6.85e-43 -3.8007e-41 -3.3555e-41 -2.0622e-41 1.607e-42
-4.831e-41 -4.8938e-41 1.6248e-41 2.4719e-41 2.1195e-41 -3.3103e-41 -3.5564e-41 3.6168e-41
2.0201e-41 -2.6099e-41 -2.6936e-41 -2.7122e-41 -2.1657e-41 -4.0021e-41 -2.5099e-41 -4.7737e-41
-4.4837e-41 6.786e-42 2.4945e-41 1.3552e-41 -4.6876e-41 -2.3779e-41 -3.96e-42 2.0448e-41
4.5064e-41 -3.769e-41 -5.716e-42 -1.5147e-41 1.4268e-41 -9.173e-42 -8.28e-43 -1.0826e-41
4.885e-41 2.6329e-41 -4.1149e-41 -4.2134e-41 1.6792e-41 -1.0364e-41 -3.558e-41 2.826e-41
-1.11102e-40 -2.5808e-41 -3.9318e-41 -5.1027e-41 1.4216e-41 -2.8675e-41 1.319e-42 -2.9782e-41
-1.1980853e-35 -1.8559414e-36 -2.3652227e-36 7.489987e-36 -4.0331045e-35 -1.3789042e-35 -7.66765e-36 -4.2486673e-36
3.5913612e-36 -6.766979e-36 -6.5268764e-36 -7.390967e-36 -2.281376e-36 -9.6769294e-36 -1.4528704e-35 7.336544e-36
1.0384676e-35 -3.2635474e-35 -4.0020905e-35 -1.7181451e-35 7.706442e-36 1.2392273e-35 2.3045829e-36 -5.4537864e-35
-8.8468434e-36 2.4195984e-35 -4.2295494e-36 2.1362196e-36 -1.7524285e-35 -1.5282084e-35 2.1204404e-36 8.945678e-36
-7.151688e-36 3.1817303e-35 2.9778294e-35 -1.2992435e-35 -4.654236e-36 -2.9639918e-35 -2.9199888e-35 4.3769615e-36
2.5571743e-36 -1.8861461e-35 1.2974847e-35 -8.06866e-37 -4.4198123e-35 -6.1379626e-35 -1.7171382e-35 5.196029e-36
-3.757692e-36 -9.344188e-36 -1.209528e-34 -1.3817104e-35 -6.5076735e-36 -1.1860132e-35 -1.4649786e-35 -1.786287e-35
-4.4449758e-36 -9.2647394e-36 -5.128923e-37 -5.039989e-35 -3.9358464e-35 1.6874648e-35 -7.313567e-36 -1.1931424e-35
2.171e-41 -1.5385e-41 -3.611e-42 -6.6468e-41 -5.2013e-41 1.5724e-41 -1.0337e-41 -7.271e-42
4.5745e-41 -2.2241e-41 -3.4805e-41 -1.5032e-41 3.761e-42 1.2211e-41 9.396e-42 2.1179e-41
2.8633e-41 -9.766e-42 -2.3772e-41 -6.3113e-41 -4.3216e-41 -5.5297e-41 5.486e-42 -1.3876e-41
1.108e-42 -2.1174e-41 -1.5158e-41 1.829e-41 1.987e-42 -5.8375e-41 -1.7613e-41 6.21e-42
3.5978e-41 -4.3414e-41 1.327e-42 -2.4371e-41 -4.848e-42 -3.4293e-41 -3.8128e-41 -3.5215e-41
3.5784e-41 1.714e-42 1.2414e-41 -5.8396e-41 1.5772e-41 -2.0515e-41 -3.347e-41 -1.9558e-41
-3.1404e-41 -2.4214e-41 -4.2147e-41 -1.8868e-41 -1.4488e-41 2.1918e-41 -3.5963e-41 4.7351e-41
-1.6053e-41 -5.6157e-41 3.3306e-41 -7.361e-42 5.06e-43 -4.3257e-41 -3.4995e-41 2.3767e-41
1.7673e-41 -2.6204e-41 1.7317e-41 -2.4541e-41 1.2767e-41 -2.1074e-41 -1.245e-41 -2.574e-41
1.5e-43 -3.7584e-41 2.102e-42 -5.1227e-41 1.1474e-41 -4.2797e-41 -1.5221e-41 -1.9423e-41
-4.3492e-41 5.7282e-41 -2.0287e-41 -4.4581e-41 1.2411e-41 3.97e-42 6.463e-42 -5.5682e-41
-1.53e-42 1.4969e-41 2.3144e-41 -2.754e-42 2.7503e-41 -4.7734e-41 7.696e-42 2.84e-43
-2.961e-42 2.239e-41 -2.2714e-41 -9.578e-42 3.4817e-41 -3.238e-41 5.0209e-41 -2.5251e-41
-1.754e-42 -6.935e-42 -3.6727e-41 -7.72e-42 6.74e-43 -4.5402e-41 -3.8237e-41 -1.0431e-41
1.7862e-41 4.6813e-41 1.8619e-41 -4.159e-41 4.261e-42 2.1514e-41 -1.8485e-41 4.909e-42
3.259e-41 -5.1038e-41 -2.545e-42 5.05e-42 3.3239e-41 -5.786e-41 9.787e-42 -5.705e-42

ar_sigma_net.0.bias f4 [32]
00000000: fa61 0000 4bad da85 3378 0000 eb53 0000
00000010: b575 0000 0390 1b3b 7a72 2315 bf3f 2887
00000020: 0ce9 0c3c d368 d83b 6801 0000 eb72 f383
00000030: 5c07 a680 2a36 7b8e 3d3a 0080 4297 0080
00000040: f27e 5700 f4e7 dd0b ed33 0000 7004 3327
00000050: 7fa5 198c b683 5019 8105 2100 155b 260d
00000060: 60ca 1d83 4514 0080 d352 0000 f825 778d
00000070: 9ef6 2d3b 4a09 0000 ea4c 0780 ed36 0080
3.5147e-41 -2.0564279e-35 4.312e-41 3.0104e-41 4.2225e-41 0.002373696 3.3007894e-26 -1.2657649e-34
0.008600485 0.006604293 5.04e-43 -1.430864e-36 -1.5247332e-38 -3.0964218e-30 -2.0892e-41 -5.4261e-41
8.035228e-39 8.547511e-32 1.8627e-41 2.4843646e-15 -1.1836493e-31 1.0779947e-23 3.032546e-39 5.1262335e-31
-4.637047e-37 -7.271e-42 2.9712e-41 -7.6158455e-31 0.00265447 3.332e-42 -6.7044e-40 -1.9704e-41

ar_sigma_net.2.weight f4 [1, 32]
00000000: 6f84 0000 7c5f 5a06 d030 0000 551b 0080
00000010: e321 0100 57ea 0abe d00c 2b95 6d04 ee06
00000020: cc36 90be 36ae 6bbe ab8b 0080 be93 9184
00000030: 8b65 e480 9970 088e 0163 0000 be1c 0080
00000040: 8f02 1d03 da41 160e 150d 0080 7452 83a9
00000050: e1cd 628d 790d 681a 5dd7 2f00 adfc 8c0e
00000060: d1b2 3383 5554 0080 3000 0080 5373 408e
00000070: f9e3 10be 441d 0100 907f 0200 cb76 0080
4.7508e-41 4.1071394e-35 1.751e-41 -9.805e-42 1.03992e-40 -0.13565956 -3.4543282e-26 8.953215e-35
-0.28166807 -0.23015675 -5.0103e-41 -3.4225016e-36 -2.097492e-38 -1.6817508e-30 3.5516e-41 -1.0311e-41
4.614109e-37 1.8520634e-30 -4.693e-42 -5.831872e-14 -6.9889445e-31 4.798736e-23 4.393526e-39 3.4755983e-30
-5.2808643e-37 -3.0253e-41 -6.7e-44 -2.3721354e-30 -0.14149465 1.02334e-40 2.29432e-40 -4.2615e-41

feat_mean_net.0.weight f4 [100, 1080]
00000000: aadc 1a3d 264b 372a c832 0080 1624 0080
00000010: 1e3d 0080 935f 0000 98a0 b326 bc1d 0080
00000020: 88c0 6eb1 d531 c93d 195e bd9d 864c 0000
00000030: 04e5 aa16 da18 0080 4247 0080 c852 0000
00000040: 3c35 0080 6bb3 609f 2c4f 0bbe a82f 0080
00000050: e261 2025 e21d 0080 e612 0000 b2e4 1318
00000060: 3b27 0080 f60f 0080 4e0a 0080 85a7 67bd
00000070: b0a4 1a14 86e8 4606 6823 0000 9603 0000
00000080: 2a1e 0080 c845 0080 4a37 8a85 1e16 0000
00000090: 7f35 8dbc 542b 0080 f407 f2ae 9043 0000
000000a0: 0b08 0000 1857 0080 4439 0080 b02f 8a37
000000b0: 9f14 0000 0868 543b 2621 0000 e682 843a
000000c0: f93b 0080 6e38 0000 7550 772f 470a 0000
000000d0: c8be 6712 fa51 0000 84c7 9f3d c2bd 8ead
000000e0: cf2e 0080 390e 0080 52dc b916 48d8 d52a
000000f0: 582a 0000 6e2e 60b2 7952 0080 26a1 5f3c
00000100: 1f38 0000 8c27 0000 faef 0193 50f8 240e
00000110: 31a0 4028 ee9c 5700 7c42 0000 6649 bf39
00000120: 4418 0c3c 45d8 8f29 6337 0080 c44a 72a2
00000130: 1841 07a6 110b 0080 f378 253a a566 e582
00000140: 7c07 9219 d70c 1f3d 8143 0080 7732 0000
00000150: 3c2e 0080 d311 0080 9127 0000 7e5a 0000
00000160: 6111 0080 8457 581a cbc9 25bc 0f02 8f01
00000170: 3778 1297 ca58 4003 b003 0080 936c 89b0
00000180: 4944 0000 9eae 5c2c 0a1e 4620 2066 f63d
00000190: 7808 302f 8d01 0000 c903 8130 ca02 0080
000001a0: 9330 0080 3b03 0080 5455 0000 931f 0000
000001b0: 348c a8bd eedb 9fb7 c641 0080 147c f223
000001c0: fa43 0000 343d 9f33 4a2d 0080 c74c 0080
000001d0: 7c0a 0080 aa31 453d 7150 0080 5c39 0000
000001e0: c10f 0080 4153 3b2b 6813 0080 87e8 388c
000001f0: 4e27 0000 64a9 a281 b639 bf3c 3b33 0080
00000200: 7e78 1c2b a314 0080 58ff 14a5 7f0d 0080
00000210: 5204 0080 e6ba 3988 2866 a896 bd57 2d3d
00000220: d724 0000 7b24 0000 3880 8408 3906 c13a
00000230: 549d 832e 9536 2681 6001 0000 b660 0000
00000240: f415 01be 7617 ffa5 7e55 0080 f0ed a4ac
00000250: c917 0000 6c54 7b39 438e 2192 2112 0080
00000260: f12e 3706 4933 dbbb 5751 0080 4d02 0080
00000270: b46d 9188 ac5d 0000 011d 0080 312c 0080
00000280: a8dd 172e 3f47 0000 2b4a 34bd 2534 0000
00000290: fd3a 0080 98a4 5403 93e1 8027 a496 7f12
000002a0: ca24 0080 2e46 0505 2553 0000 d8dd 013d
000002b0: b213 0080 1758 0000 a716 0000 c462 79ae
000002c0: ef17 0080 cd59 eca1 3000 0000 c427 0000
000002d0: c4f0 b2bd 0454 0000 9628 0080 404f 0080
000002e0: 2855 3602 fc01 0080 ca24 0080 861a 0080
000002f0: b94d 0080 96e3 193c e844 0000 731e 0000
00000300: 00f2 ab38 ec0b 0080 4993 811c 132d 0000
00000310: d807 0000 785e 0080 125d d83c ef53 0080
00000320: e018 0000 e326 0000 3129 0000 b258 0080
00000330: 2f10 0080 9c73 212b 8e55 0080 63a3 343e
00000340: b70a 0000 4048 b6a4 604e bd9e 2cb2 05b8
00000350: 4217 0080 a148 0080 8800 0000 5472 84ae
00000360: a40f a33d 0749 0000 a778 b02a 6213 0080
00000370: e303 0000 6c4c 0080 1a3c 0080 0149 0080
00000380: 0802 0080 0613 063d fe80 e0b3 09cd 5a80
00000390: b42a 0080 cd09 0080 ea07 0000 773a 3236
000003a0: 5f32 0080 5e2d 0080 8142 e23b dd0b 0000
000003b0: 2d07 780c a80f 0080 364e 0000 f118 0080
000003c0: 823b edae 8fff ad8c 6f44 3186 2b33 3abe
000003d0: 5503 0080 9b09 0080 c9c3 90af 995b 0080
000003e0: 5b1e 0000 c2c0 441b 7657 0080 9bb3 6297
000003f0: 9ae2 493d 8667 a32c df9e b730 10d9 8685
0.037808098 1.6279737e-13 -1.8217e-41 -1.2945e-41 -2.1925e-41 3.4286e-41 1.2464149e-15 -1.0667e-41
-3.4743e-09 0.09823958 -5.012518e-21 2.7451e-41 2.760951e-25 -8.915e-42 -2.5562e-41 2.9696e-41
-1.9097e-41 -4.7582256e-20 -0.1360442 -1.7096e-41 1.3910952e-16 -1.072e-41 6.78e-42 1.9114766e-24
-1.4073e-41 -5.726e-42 -3.697e-42 -0.056556243 7.807492e-27 3.7410492e-35 1.2701e-41 1.286e-42
-1.0821e-41 -2.5033e-41 -1.2997768e-35 7.934e-42 -0.017237423 -1.5543e-41 -1.10062987e-10 2.4237e-41
2.885e-42 -3.1243e-41 -2.0543e-41 1.6473088e-05 7.397e-42 0.003241064 1.1891e-41 0.0010109812
-2.1514e-41 2.0243e-41 2.2493103e-10 3.687e-42 7.3125904e-28 2.9408e-41 0.078017265 -1.62278e-11
-1.6792e-41 -5.102e-42 3.0027404e-25 3.7986476e-13 1.519e-41 -1.3049073e-08 -2.9586e-41 0.013649261
2.0132e-41 1.4187e-41 -1.6400407e-27 2.0334119e-30 1.0692877e-14 8.045984e-39 2.385e-41 0.00036485045
0.008550707 6.3879925e-14 -1.9869e-41 -3.2836696e-18 -4.692575e-16 -3.97e-42 0.00063122733 -3.370744e-37
1.5099069e-23 0.038830604 -2.4216e-41 1.8103e-41 -1.6586e-41 -6.394e-42 1.4194e-41 3.2462e-41
-6.234e-42 4.4738448e-23 -0.010118912 5.253286e-38 -4.7326877e-25 5.6525654e-37 -1.323e-42 -9.998921e-10
2.4496e-41 3.1360812e-12 1.6781191e-19 0.120311975 1.6010115e-10 5.56e-43 9.387061e-10 -1e-42
-1.7425e-41 -1.159e-42 3.061e-41 1.1327e-41 -0.082298666 -1.905669e-05 -2.3595e-41 2.6290242e-17
2.4385e-41 7.415147e-08 -1.6247e-41 -2.7543e-41 -3.761e-42 0.048143066 -2.8857e-41 2.0577e-41
-5.651e-42 6.6551284e-13 -6.962e-42 -1.4244818e-31 1.41e-41 -5.9752465e-38 0.023342948 -1.8378e-41
5.558955e-13 -7.403e-42 -1.2923468e-16 -4.841e-42 -1.55e-42 -5.589111e-34 -2.7206334e-25 0.042320002
1.3216e-41 1.3087e-41 7.974605e-34 0.0014726586 5.9851374e-11 -3.0528545e-38 4.93e-43 3.4693e-41
-0.1260603 -4.4251346e-16 -3.0669e-41 -4.6875767e-12 8.533e-42 0.00023968675 -5.0977993e-28 -6.503e-42
3.4452962e-35 -0.0066894633 -2.9179e-41 -8.25e-43 -8.752661e-34 3.3603e-41 -1.0405e-41 -1.5853e-41
3.4530295e-11 2.5558e-41 -0.044016045 1.8706e-41 -2.1161e-41 6.2490145e-37 3.5771705e-15 8.064949e-28
-1.3197e-41 6.26652e-36 2.9827e-41 0.031705707 -7.065e-42 3.16e-41 8.126e-42 -5.6703767e-11
-8.586e-42 -1.6015752e-18 6.7e-44 1.4265e-41 -0.08737329 3.0139e-41 -1.456e-41 -2.843e-41
1.3395687e-37 -7.12e-43 -1.3197e-41 -9.515e-42 -2.7882e-41 0.00939264 2.4719e-41 1.0923e-41
8.1989914e-05 -4.277e-42 8.574576e-22 1.617e-41 2.814e-42 -3.3889e-41 0.026411567 -3.011e-41
8.923e-42 1.395e-41 1.4777e-41 -3.1818e-41 -5.806e-42 5.735913e-13 -3.0691e-41 0.17640452
3.844e-42 -7.9052314e-17 -2.0043569e-20 -3.1875607e-05 -8.343e-42 -2.6054e-41 1.9e-43 -6.022974e-11
0.079619676 2.6197e-41 3.13476e-13 -6.953e-42 1.394e-42 -2.7415e-41 -2.156e-41 -2.6189e-41
-7.29e-43 0.032732986 -1.04542764e-07 -8.338747e-39 -1.5319e-41 -3.516e-42 2.839e-42 2.6558098e-06
-1.807e-41 -1.6275e-41 0.0069049005 4.256e-42 1.9107384e-31 -5.616e-42 2.8057e-41 -8.947e-42
-1.0788083e-10 -2.680868e-31 -3.3340277e-35 -0.18183582 -1.195e-42 -3.446e-42 -2.633256e-10 -3.2859e-41
1.089e-41 1.6275023e-22 -3.1375e-41 -7.325123e-25 0.04928837 4.644232e-12 1.3360156e-09 -1.2681036e-35

feat_mean_net.0.bias f4 [100]
00000000: 9392 53be 07d4 16bd 5874 3dbe 111e b63d
00000010: 6abe 30b8 0fc5 87bd f8fd 973a 64cb 93b8
00000020: db7e 9e3b 4bae d03a 1c11 5abd 45ed 0aba
00000030: afa4 3abd 1427 d6bc 0dae 78bd 136b bab0
00000040: 128d 43bd d3a8 3fbb dad3 3abe a45d 82b9
00000050: d01d cabc 6df8 3cb7 d94a b5ba 69d2 bbbc
00000060: 5aed 0bbe 6f18 f3b9 b03a c6ba ae5b 42ae
00000070: c15b 103d 49f3 44bb 7b91 3ebe 3375 d53d
00000080: f685 14be 6db5 0eba 4ea6 f6bd 5066 69b2
00000090: 9a08 7fb8 f2c5 05ba ee08 48be d016 54b8
000000a0: 90f5 82bc 1cc8 b9b9 82cc 66bc 65fe 99b8
000000b0: 0caa 9fbd 9d90 edae 12de 30ba 0633 20b9
000000c0: 9577 31be a946 f5b6 3336 44bc 2b68 3ebe
000000d0: 4ae8 30be 0988 deba 2062 aebc 6a82 3bbb
000000e0: c684 07bd 88ee 163d efb7 4cbe 4108 c4b7
000000f0: b68c 663d ed5e 9cbd 1af2 b1b8 2ed4 0abd
00000100: 8500 abb5 d16f 29bd 0faf a9ba 5901 81bd
00000110: 8d23 e5bb 7dc1 84bd 9249 19bd 9ba9 6cbe
00000120: 8e85 f3bb 7766 94bb d94e 6cb7 1068 4d3b
00000130: 5635 42bd 13e5 24bb 8d0c 81bc efa4 25bc
00000140: 182b 06bd 5d69 dfbd 06ee 98b9 e6bc 00be
00000150: 5c01 e1bb 031d 54be d66b 63be 5216 2fb9
00000160: 9925 96b2 680f 033d b6e4 98b9 2cd3 ec3c
00000170: cbb7 56bd b99d d8b0 186e 1cb5 2e33 63b8
00000180: 998c 87ba 2637 3fb5 023d 67bc 542b e6bb
-0.20661382 -0.0368233 -0.18501413 0.088924535 -4.2139007e-05 -0.06629383 0.0011596074 -7.047391e-05
0.0048368997 0.0015921084 -0.053238973 -0.0005299638 -0.04556721 -0.02614168 -0.060712863 -1.3563713e-09
-0.047741957 -0.0029244914 -0.18244877 -0.000248653 -0.024672419 -1.1263514e-05 -0.001383151 -0.02292748
-0.13664761 -0.00046366776 -0.0015123691 -4.419192e-11 0.035243753 -0.0030052236 -0.18610184 0.104227446
-0.14504227 -0.00054439047 -0.12043439 -1.3585648e-08 -6.080475e-05 -0.00051030435 -0.19534656 -5.0565985e-05
-0.015986234 -0.00035435043 -0.014086844 -7.342993e-05 -0.07796106 -1.0803201e-10 -0.0006746958 -0.00015277797
-0.17330773 -7.309795e-06 -0.011975813 -0.18594424 -0.17276111 -0.0016977797 -0.021287024 -0.0028611668
-0.033085607 0.036848575 -0.1999204 -2.3368864e-05 0.056286536 -0.07635293 -8.4851126e-05 -0.033893757
-1.2740644e-06 -0.041366402 -0.0012945848 -0.06299085 -0.0069927634 -0.064822175 -0.037423678 -0.23111574
-0.0074316924 -0.0045288163 -1.4085054e-05 0.0031342544 -0.047414146 -0.0025160953 -0.015753055 -0.010110124
-0.03275594 -0.10908768 -0.0002916904 -0.12572059 -0.006866617 -0.20714192 -0.22209105 -0.00016697616
-1.7479396e-08 0.031997114 -0.00029162102 0.028909288 -0.052421372 -1.5760896e-09 -5.8274736e-07 -5.4168682e-05
-0.0010341584 -7.1233296e-07 -0.0141136665 -0.007024208

feat_mean_net.2.weight f4 [1, 100]
00000000: 4768 0a3f e940 9bbe 4fc4 fc3e 126b d8be
00000010: 2632 8937 da81 413e 5fd6 bebe 570f 93be
00000020: ddb5 81be 6e65 a0bb 0d75 1a3e 9800 28b9
00000030: 2534 2b3e 4311 d2be 8de2 9e3e 4bfd c7af
00000040: f6aa 72be c00e 9a3b 9f40 193f 270b 6b3a
00000050: d4c1 a8be 5f67 6cb6 2cee b9b8 7285 2dbe
00000060: 0c29 cf3e 9cf8 9437 296d 9bbe 0a9b 8b2b
00000070: 66fe e1be ebe9 c239 e33a 243f 852b 8fbe
00000080: f339 293f 5e41 41b9 1b94 d33e dcc7 4c32
00000090: 96f4 e938 782b d8b8 18dd 023f ce8f 37b7
000000a0: 9d2f 7dbd e118 59b7 c47f 86be a32d 9d39
000000b0: 8308 a5be b866 8f2e 2517 e638 f358 f939
000000c0: 7f0f 233f 4691 0236 d070 9dbb 6fde 063f
000000d0: 89c0 d73e 8bd0 f339 6d0a fcbd b29f ca38
000000e0: 6bf8 35be 7082 1abe 76d6 0e3f 44fe bab6
000000f0: c64b d8be 95ee 5a3e 1eac 7036 e55e e4be
00000100: 5264 e7b4 a73c 28be 00ad 8b39 f0a3 9d3d
00000110: 59f0 8b3c 4a1f 543e e580 213e 6824 033f
00000120: 7a50 11ba 4b57 be39 6f82 72b6 9b59 b1bc
00000130: dd91 babd 7a74 feb9 8169 8fbe 5509 a6be
00000140: 2427 35be c4b9 91be 996c c4b7 fcc9 f73e
00000150: 06ca 233c ea89 0b3f d9ec 0d3f c9d2 c636
00000160: 0f10 7732 740e c5be a4af bab6 582a d9be
00000170: cfed 5fbe 2acb 68af 55cb 19b4 9a68 b6b5
00000180: 1929 023a 773b 8735 d2fa 1ebb 4bba b1be
0.54065365 -0.3032296 0.49368522 -0.42269188 1.6355025e-05 0.1889719 -0.37272927 -0.2872264
-0.25334063 -0.004894904 0.15083714 -0.0001602195 0.1671911 -0.41028795 0.3103222 -3.6377865e-10
-0.23698029 0.0047014654 0.5986423 0.00089662004 -0.3296038 -3.522691e-06 -8.8658504e-05 -0.16945437
0.40461004 1.7758743e-05 -0.3035672 9.919576e-13 -0.44139403 0.00037176846 0.64152354 -0.2796289
0.6610405 -0.00018430265 0.41323933 1.1919806e-08 0.000111558635 -0.00010307779 0.5111861 -1.0941132e-05
-0.061812986 -1.29400005e-05 -0.26269352 0.00029979376 -0.32233056 6.5211336e-11 0.00010971566 0.00047559253
0.6369552 1.945607e-06 -0.004804708 0.52683157 0.4213908 0.00046503948 -0.12306676 9.661856e-05
-0.17770545 -0.1508882 0.5579599 -5.5728324e-06 -0.4224531 0.21380074 3.5862972e-06 -0.4460365
-4.3100096e-07 -0.16429387 0.0002664104 0.07697284 0.01708238 0.20715061 0.15771826 0.51227427
-0.0005543303 0.00036304662 -3.6136732e-06 -0.021649173 -0.091098525 -0.00048533437 -0.2801018 -0.32428995
-0.17690712 -0.2846204 -2.341559e-05 0.4839629 0.009996897 0.54507315 0.55439526 5.9253985e-06
1.43809435e-08 -0.3848759 -5.563679e-06 -0.42415118 -0.2186806 -2.1172455e-10 -1.4323207e-07 -1.35905e-06
0.00049652305 1.007559e-06 -0.0024258387 -0.34712443

feat_lambda_net.0.weight f4 [100, 1080]
00000000: 1184 6abc 6005 0080 0236 0080 7859 e207
00000010: 8466 fdab 9dc5 beb3 1f33 0080 f806 0000
00000020: 84e2 dba6 d64d 0cbc f05c d287 b394 9490
00000030: 7b52 0080 2b2c 0000 fa2d 6f04 80e5 880b
00000040: 312b 0000 9727 0080 caa1 5dbc 0451 0f34
00000050: 836c 2e32 a93f 0080 5508 0080 c302 0080
00000060: 0344 0000 e729 0080 444b 2c2e 38e4 d0ba
00000070: 7e0b 0080 6050 0000 c0fd 9334 9f2a 0080
00000080: f65b 0080 b07f b438 3839 0080 7a01 0080
00000090: 4f37 0a3c 280a 0080 86cf 8786 94c8 fc07
000000a0: 0141 bc91 c60d 0000 9b53 0080 661e 0080
000000b0: dc31 0080 9119 f8ba 1336 0000 be3f 40a3
000000c0: de05 0080 8046 0622 6f1b 0080 7059 0000
000000d0: dda3 5e8c e45c 0080 4a86 0c3b 7f43 5881
000000e0: 6312 0000 b13b 0000 e347 0000 b0ed c10c
000000f0: e10d 0000 1ca8 618c 471c 0000 d8bc a9bb
00000100: 9a4d 9001 7143 0080 ff81 322a 1448 2401
00000110: 2141 0080 f425 0000 2807 0080 8efa 7baf
00000120: 801d 20bc 343e 0000 1f04 0080 fcff 688b
00000130: 1957 0080 b66e 4281 6e31 0000 5647 bc1e
00000140: 2b96 2c96 70eb 6bbc e938 0080 8018 0000
00000150: 7e14 0000 961d 0080 cf3a 0000 e627 0080
00000160: 583d 0000 0c4c 0080 7637 7d3b 6395 2881
00000170: d21d 0080 3b4c 0000 7250 bb86 e205 0000
00000180: d32c 0000 7606 0000 3730 0000 1c2b 1abc
00000190: 4f53 0080 bf04 0080 3c23 0000 a905 60b4
000001a0: afdf 5925 215b 0080 1b21 0080 510d 1a00
000001b0: 19cc 90bc 2fbc 9029 f914 23a8 b426 0080
000001c0: 0b41 0080 e926 0000 76db 2005 b702 0000
000001d0: 0552 0000 7c7b 44bc f841 0000 a709 0000
000001e0: 3c3f 0080 7929 0080 f82e 0080 c812 0000
000001f0: ac28 29af 4419 0000 9268 20bc efb7 8e16
00000200: 3e59 e405 f816 0000 904a 0080 9f04 0000
00000210: 7b21 0000 2cba 0d2d b470 2681 7e3f 34bc
00000220: c4a0 5bac 0452 0080 8b06 0000 f134 0000
00000230: ce20 2ab3 90f4 2c1f ced0 1bb3 6c10 f101
00000240: 5c01 433c cbb7 00b2 ab35 0080 6449 0080
00000250: d812 689d f249 0000 7238 0080 1980 f423
00000260: 3b49 0000 d7bf 043c 911b 0080 9a13 1a3a
00000270: 20c4 5cad 0cb7 e88a 59b9 5ba9 3126 0080
00000280: dfec 538a d645 0000 cd7e 4c3b 44bc ae2c
00000290: 3e0c 22b8 de7a 8aa5 29ef ce2c 3651 002e
000002a0: 030e 0080 295d 0000 020c 2d96 fe23 ca3b
000002b0: 763d 0080 dc78 0215 fba6 7b38 c42f 64ad
000002c0: 2041 0080 7c64 638e 0728 0000 2d16 0080
000002d0: 1998 f93b 1a24 0000 94d6 6d33 d960 0000
000002e0: 1cd4 a506 f1ba cbb6 248a 7918 8dbe 0e95
000002f0: 427f f238 084f bdba ddd6 2133 0b89 3437
00000300: 9c1a bf0b 6413 0080 6e46 a119 402e 0080
00000310: 3304 0080 aa69 0432 19e8 053b 6e04 0080
00000320: e2c9 790f 24c2 ab82 5525 0000 7e0a 0080
00000330: 6e5c 0080 8236 0000 6e32 c301 7005 50bb
00000340: 4a58 8281 9e5b 1da9 1543 0000 2f99 b63a
00000350: 2413 0080 e847 0000 120d 8f89 4e4b 1d12
00000360: da4e c7ba 4c0d 0080 7110 0000 1521 0000
00000370: 9735 0000 7eae 0eb3 055a 0000 371b 0080
00000380: ec07 0080 bb8e e9ba 6202 4aa6 ba2a 7938
00000390: dea0 c3ae 96e0 bbb7 18e1 25ac ca85 0a23
000003a0: d018 c8b0 2048 0000 92ef c6bb 8415 0080
000003b0: 2b5d 45b9 e533 0000 de06 0000 db82 062c
000003c0: 88d5 5927 3b15 0080 e551 0080 8c6b b739
000003d0: d077 3b8c c0f4 67ac 48c2 fe19 302e 0080
000003e0: b047 0080 4b35 0080 c131 0000 f4d4 8931
000003f0: ecdf abb8 3a02 1b83 e28e 3536 10ce 3b28
-0.014313714 -1.928e-42 -1.9374e-41 3.4057286e-34 -1.8005185e-12 -8.88351e-08 -1.8339e-41 2.5e-42
-1.5257575e-15 -0.008563479 -3.1651912e-34 -5.8604814e-29 -2.9588e-41 1.5844e-41 2.8115426e-36 5.273061e-32
1.5494e-41 -1.4202e-41 -0.013527343 1.3347386e-07 1.0152806e-08 -2.2837e-41 -2.989e-42 -9.91e-43
2.4398e-41 -1.5032e-41 3.917512e-11 -0.0015937155 -4.123e-42 2.8833e-41 2.756551e-07 -1.529e-41
-3.299e-41 8.6068525e-05 -2.0526e-41 -5.3e-43 0.008436038 -3.643e-42 -5.1086284e-35 3.8034635e-34
-2.9701232e-28 4.941e-42 -2.9992e-41 -1.0905e-41 -1.7886e-41 -0.0018928518 1.9398e-41 -1.0421839e-17
-2.105e-42 1.8197709e-18 -9.841e-42 3.2084e-41 -1.7151569e-31 -3.3323e-41 0.0021442347 -3.972136e-38
6.596e-42 2.1413e-41 2.5788e-41 2.9879411e-31 4.979e-42 -1.7383958e-31 1.0144e-41 -0.0051799826
5.30086e-38 -2.4193e-41 1.5854677e-13 3.0173756e-38 -2.3364e-41 1.3615e-41 -2.567e-42 -2.2917332e-10
-0.009772658 2.2314e-41 -1.478e-42 -4.4874156e-32 -3.1245e-41 -3.5711604e-38 1.7732e-41 1.9934778e-20
-1.3941434e-25 -0.014399394 -2.0416e-41 8.789e-42 7.351e-42 -1.0613e-41 2.1097e-41 -1.4313e-41
2.2006e-41 -2.728e-41 0.0038637794 -3.0963906e-38 -1.0698e-41 2.7346e-41 -7.0459786e-35 2.11e-42
1.608e-41 2.318e-42 1.7296e-41 -0.009409692 -2.9885e-41 -1.703e-42 1.264e-41 -2.0863685e-07
1.8897537e-16 -3.2691e-41 -1.1876e-41 2.3925e-39 -0.017675446 6.427529e-14 -9.052865e-15 -1.3884e-41
-2.3333e-41 1.3958e-41 7.5634725e-36 9.74e-43 2.9423e-41 -0.011992332 2.3665e-41 3.463e-42
-2.2684e-41 -1.4878e-41 -1.6849e-41 6.737e-42 -1.538491e-10 9.064e-42 -0.0097905565 2.3057416e-25
2.14738e-35 8.24e-42 -2.6748e-41 1.658e-42 1.201e-41 8.0562605e-12 -3.0570245e-38 -0.011001466
-3.1211015e-12 -2.9422e-41 2.347e-42 1.8992e-41 -3.9611045e-08 3.6624714e-20 -3.6278657e-08 8.855298e-38
0.01190218 -7.49237e-09 -1.9252e-41 -2.6328e-41 -3.0714686e-21 2.6527e-41 -2.0249e-41 2.6508784e-17
2.627e-41 0.008102379 -9.889e-42 0.00058775546 -1.2549101e-11 -2.2409642e-32 -4.8788532e-14 -1.37e-41
-1.0203831e-32 2.5052e-41 0.003120351 4.966279e-12 -3.863521e-05 -2.4022442e-16 5.8814243e-12 2.917596e-11
-5.026e-42 3.342e-41 -1.3978618e-25 0.0061688414 -2.2048e-41 2.6348632e-26 5.9998576e-05 -1.2970906e-11
-2.3362e-41 -2.8028292e-30 1.4359e-41 -7.955e-42 0.0076170084 1.2951e-41 5.537602e-08 3.4742e-41
6.237777e-35 -6.0716343e-06 3.2252239e-24 -2.882699e-26 0.00011563163 -0.0014443109 3.768115e-08 1.0760744e-05
7.361056e-32 -6.956e-42 1.6675456e-23 -1.6591e-41 -1.506e-42 7.7074365e-09 0.002043253 -1.589e-42
1.2315529e-29 -2.5237623e-37 1.3392e-41 -3.764e-42 -3.3158e-41 1.9554e-41 7.170405e-38 -0.0031741522
-4.7881147e-38 -3.4940468e-14 2.4064e-41 0.001393115 -6.866e-42 2.5795e-41 -3.443829e-33 4.9633285e-28
-0.0015205995 -4.77e-42 5.898e-42 1.1868e-41 1.9224e-41 -3.322065e-08 3.2293e-41 -9.763e-42
-2.842e-42 -0.0017819026 -7.008606e-16 5.940602e-05 -8.896149e-11 -2.2396718e-05 -2.3572862e-12 7.509326e-18
-1.4558967e-09 2.5874e-41 -0.0060710395 -7.718e-42 -0.00018822092 1.8616e-41 2.463e-42 1.9115185e-12
3.0230555e-15 -7.616e-42 -2.9378e-41 0.0003498461 -1.4442011e-31 -3.2962938e-12 2.6341454e-23 -1.6569e-41
-2.5717e-41 -1.9118e-41 1.7848e-41 4.0114347e-09 -8.195624e-05 -4.555296e-37 2.705427e-06 1.0425268e-14

feat_lambda_net.0.bias f4 [100]
00000000: 276f b9bc 82e0 83bb 7f34 91bc fab5 adb8
00000010: daac 753e 7516 2f2f 9d18 033e 332c e43d
00000020: dfb3 653e ca06 41aa 59b4 743e 0d3d 15bd
00000030: f2ba 683e 87ad 4eb0 fd0e 1a3e 075d 61bc
00000040: b9e4 a521 7c98 efba 788c 473e 3c37 cdba
00000050: ed4a dcaf 4499 8cb6 5e5d 6b12 ac76 82bd
00000060: 24c9 16a1 b405 c004 0a87 62ba 1f12 16bd
00000070: 00e9 840e 9ec0 2c0e 31e7 4fb7 4a6c ebbc
00000080: 3ad0 85bc 7790 bc9b 20eb 0b99 b6d4 b199
00000090: ba01 3e11 9cfe 9681 d7bc 9c87 f639 22bd
000000a0: aa34 783e 13c8 cd3b 97d3 c106 1d52 fe1f
000000b0: 8d16 be9c 8e30 6b18 8cc7 e088 8c97 c498
000000c0: 6a15 ea3c 3e7b 51b8 985f 8dbb d3c7 04b9
000000d0: 788e 0338 58d0 d93d 78ff fa87 c868 683e
000000e0: 8b9a b73e ee23 c73b 15e8 86b7 e79f 723e
000000f0: 3546 883e 0fb8 2a12 9669 043e d354 883e
00000100: c979 903e 5456 5f3e a5b4 19b3 3753 22bc
00000110: 7380 8ab4 d942 e5bc 8fab b5b6 fb5b e206
00000120: afc4 a917 da1f 3696 6c2e 593a 7896 35bd
00000130: 7554 8f3e fb76 93a8 a38c fdb9 2dba 6488
00000140: 0786 18bd ca59 213e 2955 3634 be0a 08a5
00000150: b1bd fcbc bf38 97a4 b169 1abd eb85 39b9
00000160: 80f8 5c3e c22b a63e 6840 ed81 d9bb b3aa
00000170: 72aa 473e 6553 bc3e 2018 ffba 04c4 5999
00000180: 3e95 6627 4b6b a49c 64ce 93b9 b871 f4b7
-0.02263601 -0.004024566 -0.017725227 -8.2831786e-05 0.23991719 1.5924136e-10 0.12802358 0.11141243
0.22431897 -1.7144199e-13 0.23896922 -0.036435176 0.22727564 -7.518896e-10 0.1504478 -0.01375509
1.1241377e-18 -0.0018279697 0.19487178 -0.001565672 -4.0071005e-10 -4.1901676e-06 7.426801e-28 -0.06370291
-5.1088184e-19 4.514422e-36 -0.0008641338 -0.036638375 3.2764883e-30 2.1293379e-30 -1.239199e-05 -0.02873816
-0.016334642 -3.119535e-22 -7.233615e-24 -1.8387284e-23 1.4988889e-28 -5.5466644e-38 -2.3583261e-34 -0.039606057
0.2423884 0.006279954 7.2909434e-35 1.0770903e-19 -1.2578975e-21 3.0397552e-24 -1.3528423e-33 -5.0817836e-24
0.028574664 -4.994426e-05 -0.004314374 -0.00012662941 3.136552e-05 0.106354415 -3.776597e-34 0.22696221
0.35860094 0.006077281 -1.6082116e-05 0.2369381 0.26616064 5.386941e-28 0.12930903 0.26627216
0.28217915 0.21810275 -3.5787384e-08 -0.009907535 -2.5797962e-07 -0.027985977 -5.4141924e-06 8.5146905e-35
1.0971019e-24 -1.4711893e-25 0.00082848105 -0.04433295 0.27994123 -1.6371878e-14 -0.00048360703 -6.8830103e-34
-0.037237193 0.15756908 1.6981052e-07 -1.1799759e-16 -0.03085217 -6.558194e-17 -0.03769845 -0.00017692863
0.2157917 0.3245526 -8.715247e-38 -3.1927133e-13 0.19498613 0.36782375 -0.0019462146 -1.1258222e-23
3.1999816e-15 -1.0880344e-21 -0.00028191798 -2.9140021e-05

feat_lambda_net.2.weight f4 [1, 100]
00000000: 3ff7 a1bd 5239 60ba 59b8 edbd 18af 0739
00000010: 56cd ee3e beca 92af cf81 823e 94b0 803e
00000020: 5970 ea3e c2ca 3a2b 60a3 fe3e 91d0 43be
00000030: f39e 0d3f 7dd4 61af f3ef dc3e 2f29 49bd
00000040: 15ee a4a2 b7c7 b7bb b4d1 ba3e cb8a 9d3b
00000050: c650 9daf 4e25 2037 12a5 b492 049b 74be
00000060: 9f86 cfa1 ee32 8487 96e9 5c3a 53b2 70be
00000070: 72b7 0b8e 6093 7c8d 9ea4 66b7 72a4 cfbd
00000080: 7294 63bd c18f be1b a9aa 469a de5f bb1a
00000090: 599d a491 9290 3484 ab2a 3189 7eb9 12be
000000a0: 508e 153f f89c 59bc 1271 0188 9a05 24a0
000000b0: fdee 1c9e f2e6 7e99 7e71 568b 1c96 b017
000000c0: aff8 803d fce2 4037 0c10 55bc 2623 b5b9
000000d0: 3b02 2a39 5986 583e 849c 2f8a 9cf7 db3e
000000e0: f49c 563f 1d8b 8c3c d497 2d38 fbd3 fd3e
000000f0: c6f1 083f caa9 7493 a2cf 803e b613 073f
00000100: f946 0f3f e68a 0c3f 5494 2eb2 d3be 58bd
00000110: cd02 8635 aa6c c6bd e064 2337 d6e0 1587
00000120: c0e3 8496 8208 0518 87c2 ce3b a833 8bbe
00000130: 2e20 123f de0b 9ca8 ea0e adba d7e1 8f89
00000140: 5765 73be faa3 ae3e 445a 4335 e2fb 70a4
00000150: 2568 40be 319c a324 da4a 0bbe b70f c0b8
00000160: 454d e03e 4119 2d3f 975d cc82 73e0 d52a
00000170: c63a da3e bb58 353f 5188 2dbc 0656 2199
00000180: 5ec6 6d29 c07f 3b9b cddd 5aba a4c8 48b7
-0.079084866 -0.0008553463 -0.11607427 0.00012939831 0.46641034 -2.6701302e-10 0.2548966 0.25134718
0.4578884 6.636186e-13 0.4973402 -0.1912253 0.5532066 -2.0539122e-10 0.43151817 -0.04911154
-4.470437e-18 -0.0056085247 0.36488116 0.004807805 -2.8615527e-10 9.545429e-06 -1.140029e-27 -0.23887259
-1.40625e-18 -1.9891086e-34 0.0008427141 -0.23505525 -1.7221398e-30 -7.783089e-31 -1.3747396e-05 -0.10138787
-0.05556149 3.1525762e-22 -4.10833e-23 7.749627e-23 -2.597161e-28 -2.1225282e-36 -2.1325662e-33 -0.14328572
0.58420277 -0.013282053 -3.895244e-34 -1.3893194e-19 -8.307993e-21 -1.3178131e-23 -4.1300283e-32 1.1411626e-24
0.06297433 1.1496941e-05 -0.013004314 -0.00034549198 0.00016213294 0.21145 -8.455381e-33 0.42962348
0.8383324 0.017156178 4.1387815e-05 0.4957579 0.53493917 -3.0880842e-27 0.2515841 0.5276445
0.5596767 0.5489944 -1.0161859e-08 -0.05291636 9.984593e-07 -0.09688695 9.739044e-06 -1.1275587e-34
-2.146948e-25 1.7194142e-24 0.0063098106 -0.27187848 0.5708035 -1.7324626e-14 -0.0013203297 -3.4638377e-33
-0.23769127 0.3410948 7.2774515e-07 -5.2255057e-17 -0.18789728 7.095458e-17 -0.13602772 -9.1582006e-05
0.43808952 0.6761666 -3.0028824e-37 3.7992144e-13 0.42622966 0.70838517 -0.010591582 -8.340877e-24
5.2796627e-14 -1.5509556e-22 -0.0008349091 -1.1967644e-05
