experiments/konrad/saved_models/online_monthly/lognormal/model.pt (torch, 580438 bytes, 15 tensors)

A_gate f4 [9]
000000 34 30 6d bc df a0 da bb c5 31 14 bd c4 7b 89 ba
       -0.014476825 -0.0066720094 -0.036180276 -0.0010489156
000010 49 2d 04 be ed f4 24 3f 9b f8 06 be 88 f2 ec 3c
       -0.129079 0.6443623 -0.13180773 0.028924242
000020 4d 70 ab 3d
       0.08371029

B_gate f4 [120]
000000 05 5d 0e bd d4 a4 cb 3c 45 29 8a b3 4a 5c 56 3e
       -0.03475668 0.02485887 -6.433633e-08 0.20933643
000010 ad d6 df 39 b6 6b 09 80 f5 64 b8 bd 0c 8a 7b bd
       0.0004269382 -8.65159e-40 -0.09003631 -0.06141095
000020 26 ca 2c b2 5a ac 0f bd 5b 36 00 80 aa a6 2a 3a
       -1.0057681e-08 -0.035076477 -1.9499e-41 0.000650982
000030 01 07 49 3e 53 8e b5 3e 87 6c f9 bd 13 a5 3b bd
       0.19631578 0.35460147 -0.12178903 -0.045811724
000040 b6 33 1d 35 26 34 00 00 d8 ec 7b bd 64 7e d8 36
       5.8562307e-07 1.8707e-41 -0.06150517 6.4520154e-06
000050 72 ec cd 3d 41 7d ed 3d c7 14 c6 31 cb ba 89 1c
       0.10054864 0.11596156 5.7649205e-09 9.114184e-22
000060 19 39 1e bd b8 00 c8 af 35 fb 00 3c 6e 9a 1c bd
       -0.03862867 -3.63803e-10 0.007872392 -0.038233213
000070 4f fa 53 3d 64 50 70 87 46 a8 19 3e 8c 1d eb 3d
       0.051752385 -1.8079218e-34 0.15005597 0.11480245
000080 40 d0 a0 bb 6c af 15 bd c5 15 88 3d b5 cd 80 3a
       -0.004907638 -0.03654425 0.06644777 0.000982693
000090 66 53 f3 ba b0 aa 5d 38 cc 22 9a 3d c7 25 a2 bd
       -0.0018564283 5.284947e-05 0.07526168 -0.07917362
0000a0 ef 16 00 80 3f bf 4b b6 dc 43 ae bc fa aa 27 3b
       -8.227e-42 -3.0360677e-06 -0.021272592 0.0025584088
0000b0 41 e0 07 b1 9a e4 c2 bc 2b de 41 3e 2c 10 dd 33
       -1.977256e-09 -0.023790646 0.18932407 1.0294056e-07
0000c0 6c c3 bc 3c 58 2f fa 3e a7 73 a7 1f 11 a4 af bc
       0.023042403 0.48864245 7.091858e-20 -0.021440538
0000d0 e4 ac f5 ba 5b 23 2c bc 72 37 22 bd db a3 13 37
       -0.0018743542 -0.010506476 -0.039603658 8.800033e-06
0000e0 32 6a ab 8e a8 26 c6 3d 47 e4 3f bd a0 e2 2a 35
       -4.2257017e-30 0.09675342 -0.04684856 6.365972e-07
0000f0 62 ca b9 bd b7 4d 6e b8 cc a5 70 2e b2 e1 21 bd
       -0.090718046 -5.6816e-05 5.471694e-11 -0.03952188
000100 81 1e 43 32 f2 94 5f 3b d8 7e dd 3d b5 9b 41 b8
       1.135743e-08 0.0034115878 0.10815209 -4.61598e-05
000110 69 5e 9f ba 81 68 ea bc c0 96 43 b8 54 c2 35 b7
       -0.0012158874 -0.028614284 -4.663202e-05 -1.0833686e-05
000120 79 d4 3a bd 32 fa ea 3b 09 b2 6b 10 5d 3d 3a 3e
       -0.045612786 0.007170939 4.648273e-29 0.1818747
000130 4a 14 00 00 a6 a6 73 bf b0 b2 17 bd 06 67 23 3e
       7.278e-42 -0.9517616 -0.037035644 0.15957269
000140 15 8e b3 3e bc 6d a7 bd f5 b0 e2 be ca 66 f9 32
       0.35069337 -0.08175227 -0.44275633 2.9034158e-08
000150 55 8a 6c 3e 27 8d e6 3c de 62 93 38 71 0c 53 bc
       0.23099644 0.028143479 7.027922e-05 -0.012881384
000160 39 70 6f bb 12 0f 00 00 c1 6b 0b be 4e 71 34 bd
       -0.0036535396 5.406e-42 -0.13615324 -0.04405337
000170 13 86 80 b9 ed 75 5c 3e 24 5c 00 80 e1 fc 58 be
       -0.00024513956 0.2152936 -3.3054e-41 -0.21190216
000180 82 ff ed bd 11 1e 00 00 8d 42 81 bf f6 db 4f be
       -0.11621 1.0786e-41 -1.0098435 -0.20298752
000190 ec 63 e9 bc 2e 57 bb 03 41 a7 2d 3e 1a b3 4c 32
       -0.02849003 1.1010888e-36 0.16958334 1.1915086e-08
0001a0 e5 47 15 3c 2b a0 97 ba fe 91 a6 be 8f 82 a3 b7
       0.009111379 -0.001156812 -0.32533258 -1.949191e-05
0001b0 b8 03 e0 bb 32 ab 10 93 23 fb 4a bb 55 fe 23 3e
       -0.006836381 -1.8259761e-27 -0.0030972443 0.16014989
0001c0 eb 9e 78 35 6f 09 00 00 f5 f8 d8 3c 75 5d 00 00
       9.2618455e-07 3.384e-42 0.0264859 3.3526e-41
0001d0 62 d4 58 bb 59 e6 2e 3c 68 06 37 b9 b9 4a af 32
       -0.0033085574 0.010675036 -0.00017454627 2.0406661e-08

A_mean f4 [9]
000000 44 9e e7 37 86 29 7d 37 b0 e5 fe b1 4a 79 1b 37
       2.7611044e-05 1.5089643e-05 -7.4184854e-09 9.26696e-06
000010 0f e1 00 38 2f 34 87 b1 5e 13 ac 37 2f ee e0 38
       3.072718e-05 -3.9349497e-09 2.0513016e-05 0.000107255175
000020 98 0c 4f b2
       -1.2051849e-08

B_mean f4 [120]
000000 08 ad 2d b5 62 6b cb 9b 9e 6d c4 0a c0 2d ae 2f
       -6.4699316e-07 -3.3652927e-22 1.8915347e-32 3.1682923e-10
000010 e4 5f 4a 9a 80 86 04 2e 18 b5 71 b7 2d 8d ad b9
       -4.185008e-23 3.0132785e-11 -1.4406884e-05 -0.00033102316
000020 a4 f4 e9 9b 84 20 63 36 8e 84 9a 2a c5 e3 32 2e
       -3.8704712e-22 3.3844562e-06 2.7447874e-13 4.0674814e-11
000030 e0 28 41 30 0f 43 84 ac 54 b6 a1 38 11 5e 9c 38
       7.027108e-10 -3.7591106e-12 7.7110395e-05 7.456181e-05
000040 93 fe 11 80 80 ba f9 a9 68 ec a2 b7 29 77 3c a7
       -1.652527e-39 -1.1090174e-13 -1.942199e-05 -2.6154838e-15
000050 be be b2 2b 18 93 15 30 83 29 cd 26 19 03 00 80
       1.2700602e-12 5.4414917e-10 1.4235984e-15 -1.111e-42
000060 e2 eb 65 b8 83 7a 05 00 26 d7 c8 a2 46 61 cc b6
       -5.4817538e-05 5.03126e-40 -5.4437906e-18 -6.090998e-06
000070 bf 5b 8b 2c 2e c0 4b a4 6c c4 2c b2 aa 80 62 a6
       3.9608035e-12 -4.418139e-17 -1.0056379e-08 -7.8583873e-16
000080 1f f5 1c a1 89 f5 a1 38 75 1b 06 00 89 a6 d0 9f
       -5.317927e-19 7.722813e-05 5.60863e-40 -8.8366936e-20
000090 89 28 30 b7 3a f6 0f 26 c4 29 86 30 90 9b e6 31
       -1.0499855e-05 4.994679e-16 9.761654e-10 6.7115664e-09
0000a0 02 0b 67 39 48 33 30 21 96 14 8a 37 74 75 4e 31
       0.00022033977 5.969899e-19 1.6460468e-05 3.004371e-09
0000b0 7a bb 07 b8 ce 4b f0 35 97 ba e6 31 0e 70 10 b3
       -3.236111e-05 1.7903456e-06 6.715094e-09 -3.3629526e-08
0000c0 92 d5 2d 32 c0 c9 77 b7 51 bf 9b 9d 81 6c 9c b8
       1.0118486e-08 -1.4769321e-05 -4.1225975e-21 -7.45887e-05
0000d0 ba d8 a4 2d 74 7f 26 b3 cc 20 85 36 7e ad cc 20
       1.8740887e-11 -3.8765805e-08 3.967527e-06 3.4673752e-19
0000e0 b7 38 1b 80 25 ae 3a 32 5c 1e 01 00 d8 d9 70 b2
       -2.499904e-39 1.0866221e-08 1.02726e-40 -1.40193706e-08
0000f0 be 0b c6 38 a1 ab 01 30 99 21 4c a1 4e f9 23 37
       9.443563e-05 4.7173826e-10 -6.9162355e-19 9.773603e-06
000100 a0 72 a9 24 f0 c7 9c ad 25 dd ab 32 da 4b 38 33
       7.348625e-17 -1.7823937e-11 2.0007585e-08 4.2909825e-08
000110 60 14 1d 80 0a 04 1a 37 f0 f4 0f 1f c8 12 69 2c
       -2.670539e-39 9.180056e-06 3.0484035e-20 3.3121717e-12
000120 68 e2 a7 b6 c8 13 87 a2 76 e0 02 aa 4a 6b bd 32
       -5.003345e-06 -3.6612768e-18 -1.1624195e-13 2.2051285e-08
000130 03 53 08 35 10 40 0b 80 9c 55 9b b8 63 c3 4d 39
       5.0784746e-07 -1.033172e-39 -7.406922e-05 0.0001962311
000140 8c 70 34 0e 0f f0 81 36 f6 cc 90 1d 54 ad bd 2c
       2.2240902e-30 3.872446e-06 3.8328407e-21 5.3909464e-12
000150 1b dc b7 b1 ba 40 27 80 dc 63 30 a2 90 41 5b b8
       -5.351024e-09 -3.604804e-39 -2.3905313e-18 -5.227473e-05
000160 0a 5b 88 9b 13 82 3d 2f a8 70 b9 b5 36 54 f8 ac
       -2.2558145e-22 1.7235662e-10 -1.3816361e-06 -7.0579332e-12
000170 e6 4f 10 80 c9 1c 27 b2 b2 0f 5d 00 fa 4f 34 33
       -1.49803e-39 -9.727224e-09 8.546332e-39 4.1982254e-08
000180 b0 16 48 38 bb 02 2b b0 0e 17 37 24 10 93 30 36
       4.7704845e-05 -6.221332e-10 3.9701328e-17 2.6311645e-06
000190 c9 5a bb 33 18 18 32 9f 0e 62 fe b1 00 60 09 af
       8.72438e-08 -3.7712896e-20 -7.4035205e-09 -1.2494183e-10
0001a0 7c 44 07 9b 39 c5 b1 38 98 d4 2d ad 34 5a 2c af
       -1.1189067e-22 8.476753e-05 -9.881117e-12 -1.5675355e-10
0001b0 48 cf eb 35 30 3a d3 a5 b1 29 84 a1 d0 d3 e0 b2
       1.7569191e-06 -3.6642095e-16 -8.955704e-19 -2.6173353e-08
0001c0 70 04 a6 28 c2 02 3f 9d b7 b8 72 b8 25 08 3c aa
       1.8431627e-14 -2.5280065e-21 -5.7869325e-05 -1.670058e-13
0001d0 de 49 b6 9c 3d e7 a1 b6 b3 a4 a2 a5 e1 e2 a9 9a
       -1.2062844e-21 -4.8250936e-06 -2.8214125e-16 -7.0263304e-23

A_logvar f4 [9]
000000 a0 53 ee 8b 26 ea 7a b6 02 d3 5f 35 db 87 68 0c
       -9.180009e-32 -3.7389195e-06 8.338103e-07 1.7913512e-31
000010 b4 24 27 36 0c bf ed 34 13 03 5c 0a 9c a7 68 b6
       2.4906303e-06 4.4283695e-07 1.0593193e-32 -3.4668255e-06
000020 4a 8e b5 34
       3.3817406e-07

B_logvar f4 [120]
000000 5e 70 bc 8b f0 f7 7f 1c de 19 02 80 3f 32 16 b5
       -7.258404e-32 8.4692874e-22 -1.9295e-40 -5.595247e-07
000010 ee 02 3e 1f 12 26 0a 29 04 b3 f5 b6 90 1f 19 00
       4.0236488e-20 3.0675176e-14 -7.322409e-06 2.30721e-39
000020 d0 19 6c 2f f5 8a df 0b d8 ab 16 00 04 82 64 1f
       2.1473245e-10 8.6105555e-32 2.082027e-39 4.8388424e-20
000030 aa d9 c4 34 25 3a b1 1c f3 34 06 00 18 3e 3c 36
       3.6666216e-07 1.1727907e-21 5.70008e-40 2.8050326e-06
000040 5b ec 43 b2 50 d6 ff 20 3e 05 34 0c 9c 09 66 b8
       -1.1404235e-08 4.33405e-19 1.3868273e-31 -5.4845223e-05
000050 a3 90 01 00 b0 62 af 34 12 5f 16 80 da 35 b9 1d
       1.43721e-40 3.2668095e-07 -2.054486e-39 4.9024773e-21
000060 63 43 28 b6 24 c4 8a b6 b9 0d c4 2f 0a af 71 0b
       -2.5073175e-06 -4.1355543e-06 3.5661943e-10 4.6546596e-32
000070 ac 61 33 1c b4 7c bc 1d 52 fc f6 34 d4 54 0e 00
       5.935237e-22 4.9892126e-21 4.6004658e-07 1.316128e-39
000080 a9 ce 07 80 8e 99 7a b5 f7 28 83 a3 e0 00 de 1d
       -7.16984e-40 -9.335571e-07 -1.4220398e-17 5.8763815e-21
000090 78 33 8b 0b 1a 5f 0f 80 c5 be e3 b0 a2 e7 84 34
       5.3618294e-32 -1.411648e-39 -1.6570644e-09 2.475545e-07
0000a0 1d 93 06 80 a5 10 21 1b 9f e4 1c b6 44 53 8f b2
       -6.03787e-40 1.3322986e-22 -2.3378886e-06 -1.6685256e-08
0000b0 f3 dd 58 23 98 55 f2 8b 79 30 8a b0 3e 88 c9 36
       1.1756383e-17 -9.3343796e-32 -1.0054598e-09 6.0061275e-06
0000c0 92 23 e9 33 0c 50 01 1c 18 43 85 32 c0 ca 82 36
       1.0856378e-07 4.278598e-22 1.5513749e-08 3.897905e-06
0000d0 fb af 04 80 bf 7b 2c 80 a6 f8 28 8b 51 80 63 1f
       -4.30472e-40 -4.085154e-39 -3.2542685e-32 4.817526e-20
0000e0 d1 5c 4c 00 8f aa 18 b5 03 3e 4d 2b 7c b4 94 9e
       7.012794e-39 -5.687261e-07 7.291669e-13 -1.5744756e-20
0000f0 c0 5c 69 36 e0 db c8 ac 70 98 80 98 93 54 49 8c
       3.4773693e-06 -5.708753e-12 -3.3241147e-24 -1.5509927e-31
000100 b5 b0 96 9b 05 4b 34 b3 67 4f e6 b4 c1 cb 0d a4
       -2.4929613e-22 -4.1977746e-08 -4.289861e-07 -3.0747088e-17
000110 f3 49 00 00 3b e5 0b 37 4a 3f 35 38 62 53 e7 b3
       2.6528e-41 8.3384175e-06 4.3212705e-05 -1.0771943e-07
000120 88 25 37 8c 68 71 ea 28 c5 7f 46 35 d9 29 13 b5
       -1.4109101e-31 2.6028401e-14 7.3946677e-07 -5.4822664e-07
000130 56 64 46 31 3e 16 89 b3 99 76 17 b6 ba 43 1d a8
       2.8869827e-09 -6.3836055e-08 -2.2569786e-06 -8.729937e-15
000140 48 b9 45 2f 9e b8 86 0b d8 96 80 a5 78 19 18 00
       1.7982871e-10 5.1892704e-32 -2.2306676e-16 2.213188e-39
000150 07 66 97 b4 5a eb 03 1c 90 4a d0 33 57 55 26 36
       -2.8200176e-07 4.364845e-22 9.6993176e-08 2.4785602e-06
000160 25 06 4b 2a 78 82 94 aa f4 b1 87 0a 38 be e7 9b
       1.8032154e-13 -2.6380612e-13 1.3066966e-32 -3.833867e-22
000170 09 03 9e 92 f3 2c b5 b4 2c b8 a2 a9 30 c0 87 af
       -9.97195e-28 -3.3746582e-07 -7.226194e-14 -2.4692914e-10
000180 5e d8 8d b6 f2 e2 2a 9c 9c 5b fd 32 54 e8 77 8c
       -4.227316e-06 -5.65416e-22 2.9494736e-08 -1.9098102e-31
000190 4c 5b 25 80 08 9e 14 a2 40 ea fd 32 8c ce 07 05
       -3.430665e-39 -2.0141401e-18 2.9559601e-08 6.385606e-36
0001a0 ec 59 17 1d 0b 85 98 b5 f6 84 d9 9f 79 0c f0 a1
       2.0031172e-21 -1.1363603e-06 -9.212304e-20 -1.6266334e-18
0001b0 20 9f 79 09 c0 cf a7 a9 eb 7f 04 80 6e 1a 0d 35
       3.0047105e-33 -7.452329e-14 -4.1323e-40 5.2565053e-07
0001c0 78 5a 2a 80 a9 f2 0e 00 30 69 b7 b4 7d ea 1c a3
       -3.889545e-39 1.372747e-39 -3.416294e-07 -8.506432e-18
0001d0 cc 85 33 2b b2 9c 05 8b c3 34 1e 80 f8 8f 9a b1
       6.3779255e-13 -2.5732753e-32 -2.773992e-39 -4.4983572e-09

ar_gate_lin.weight f4 [1, 64]
000000 82 81 d6 3e 89 bd f0 bd 32 70 37 3e fc c8 05 be
       0.41895682 -0.11754901 0.17913893 -0.1306495
000010 72 03 63 3c 28 30 05 be 5b dc 5f be 4a 6e 8b bc
       0.013855802 -0.13006651 -0.21861403 -0.017020363
000020 8a 3a 6f 3e af 44 d3 3c 78 95 8d 3d 89 82 32 bd
       0.23362175 0.025789587 0.069132745 -0.04358152
000030 3e ca 0c 3d 08 40 f9 3d c5 62 01 3d 90 49 3d bc
       0.03437256 0.12170416 0.031588335 -0.011553183
000040 84 90 0f 3e f3 7b 11 3e b1 4d 9e 3d 2a e2 61 be
       0.14019972 0.14207439 0.07729662 -0.22058931
000050 15 9e 20 3c 78 a3 1d be 9a 8c 8c bd f8 aa 9b bd
       0.009803315 -0.1539439 -0.06862755 -0.07600969
000060 48 80 ce bd 73 86 e1 3d 28 90 d6 bd 47 8f b8 3b
       -0.100830615 0.11011972 -0.104767144 0.0056323144
000070 4d f2 b2 3d 12 e8 80 bd c4 ef 06 be 9d 49 b6 3c
       0.087376215 -0.06294264 -0.13177401 0.022251898
000080 63 ae 27 3e 4f 44 03 be e7 f5 cd 3c 43 d4 12 be
       0.16375117 -0.12819026 0.02514167 -0.14338784
000090 2a 6b 14 be fa 32 bb bd 39 f9 d5 bd 1c ea 2c 3e
       -0.14494005 -0.091405824 -0.10447926 0.1688618
0000a0 35 62 13 be d8 a3 64 3d f0 ba 81 3d 68 8a 91 bc
       -0.14392932 0.055820316 0.063344836 -0.017766193
0000b0 a1 9c 77 bd d9 7e c4 3c c9 56 c2 bd 4c 4e 5e bd
       -0.060452107 0.023986267 -0.09489209 -0.05427389
0000c0 83 cd dd bc de dc 14 be be fd 41 3c 16 e4 90 bd
       -0.027075535 -0.14537379 0.011840282 -0.07074754
0000d0 12 78 2b bd 45 e7 8a bd a5 f3 95 bd 0f 8e a1 bc
       -0.041862555 -0.067823924 -0.07321862 -0.01972106
0000e0 d8 be 3e 3e 19 f3 a8 bc 62 cf 3e 3d 3b a9 f2 3b
       0.18627489 -0.02062373 0.046584494 0.0074054278
0000f0 47 43 b5 bd b4 bb 02 3d a3 1e 92 3b 13 ab ba be
       -0.08850723 0.03191729 0.0044592186 -0.36458644

ar_mean_lin.weight f4 [1, 64]
000000 e6 95 9f 3c 07 51 58 be bb 5b 2d 3d 7e a1 ab bd
       0.019480657 -0.2112466 0.04232381 -0.083804116
000010 bd b0 7a bd c3 58 2a be e8 e5 02 bf 0f 66 ad bd
       -0.061203707 -0.16635422 -0.5113206 -0.08466732
000020 d5 0b 52 3d b2 73 ec bb 38 7a f9 3c ca 3b 45 ba
       0.051280815 -0.0072159404 0.030453786 -0.0007523863
000030 52 b0 65 3d 59 8a f6 3c dd 97 9c 3d 53 29 80 3c
       0.056076355 0.030095266 0.07646153 0.015644705
000040 fc e7 83 3d c5 aa 0b 3d 01 87 a8 3d 2c ca 7b be
       0.06440732 0.034098405 0.08228875 -0.24588841
000050 52 c4 5e be df 57 53 be 0c 1e a4 bc f7 e7 8e be
       -0.21754578 -0.20638989 -0.020033859 -0.2791135
000060 70 64 25 3d cc 16 2a 3d de c7 61 be ee 14 8b 3d
       0.040378988 0.041525647 -0.220489 0.067911014
000070 d4 a8 03 3d 1f d6 85 be 05 dd 7f be 68 7d 1d bd
       0.03214343 -0.26139924 -0.24986656 -0.038449675
000080 6f d3 52 3d a3 2c d5 bd 0c 91 08 be 7f b5 ab bd
       0.05147117 -0.104089044 -0.13336581 -0.08384227
000090 c6 e5 e2 bd 9f 7c c6 bc 25 55 38 be 31 a4 a2 3d
       -0.11078982 -0.024229346 -0.1800123 0.07941473
0000a0 15 46 fb bd 5e ba 89 3d 7f 1e 3c 3d 02 4f 9c bd
       -0.122692265 0.06725 0.04592752 -0.07632257
0000b0 88 8b cb bd 6f 28 7e bc 94 f4 39 bd 05 09 aa 3c
       -0.09938723 -0.01551257 -0.045399264 0.020756254
0000c0 cb 95 78 bd 12 3e 09 be 27 65 bb bd ef 66 9c bd
       -0.06068973 -0.13402584 -0.09150153 -0.076368205
0000d0 a1 50 df bd c1 0a f4 3c 68 aa 42 be 4a 76 4d 3c
       -0.109040506 0.029790284 -0.19010317 0.012540409
0000e0 74 bc df bc 2e 67 28 3d ae b1 fe 3d de 2b 8b 3d
       -0.027311541 0.041114025 0.124362335 0.067954764
0000f0 2e 30 a0 bd 20 8d 1c 3e 26 12 d9 3d 7f 3e 8d 3e
       -0.078216895 0.1528821 0.10599165 0.27586743

ar_logvar_lin.weight f4 [1, 64]
000000 2d d7 39 3d 8d 16 fe 3d 69 f5 16 3e c0 cf 51 be
       0.045371223 0.12406645 0.14742054 -0.20489407
000010 dc 02 04 bd 24 54 53 3d 9a 1b 91 bd b5 ef 3c 3e
       -0.03222929 0.051593915 -0.07085343 0.18450816
000020 a3 4d 45 bd 49 20 5c be c8 fd 11 be 42 04 aa bd
       -0.048169743 -0.21496691 -0.14256966 -0.08301593
000030 ca c5 bc bd 97 8e 2c be d7 0e 35 be 36 66 cf 3d
       -0.09217413 -0.16851269 -0.17681442 0.10126917
000040 70 da 52 be a6 72 0b bd ad ba 28 bc 1f a5 2b 3c
       -0.2059114 -0.034044884 -0.010298413 0.01047638
000050 cb 2c b5 bd d2 63 5f 3e d7 59 62 bb 57 2b e1 3d
       -0.08846434 0.21815422 -0.0034538412 0.109945945
000060 bb 9c ce 3c c0 57 28 3d 76 0e 0c 3e 54 e2 a0 3d
       0.02522122 0.04109931 0.13677391 0.07855669
000070 03 a2 81 bd e5 ec bb bc b5 84 36 3e b4 e9 c1 3d
       -0.063297294 -0.022940109 0.17824061 0.094684035
000080 0f 2d 18 be a5 82 cb 3d 26 da 04 be 18 50 a0 3c
       -0.14860938 0.09937028 -0.12973842 0.019569442
000090 2c 94 48 bd d0 a6 04 bd 28 af ae bd b0 d2 2a be
       -0.048969433 -0.032385647 -0.08529502 -0.16681933
0000a0 47 0e 85 bd 53 2f 1f 3d c2 65 ef 3c 85 d7 b0 3d
       -0.06496864 0.03886349 0.029223327 0.08634857
0000b0 5f 4a c3 3d f4 ee 9f bc 6a f2 94 bd c7 e9 03 be
       0.095356695 -0.019523121 -0.07272799 -0.12882148
0000c0 db 87 20 bd b4 a4 88 3c f9 f2 02 bf b0 e1 55 be
       -0.039192062 0.0166801 -0.51151997 -0.20886874
0000d0 04 58 a5 bd 47 4e 06 be ac 91 d8 bd 7d 51 c0 bd
       -0.08073428 -0.13115798 -0.1057466 -0.09390543
0000e0 d4 b7 dc bb 09 55 93 3d f7 85 40 3d f3 64 1e be
       -0.006735781 0.071939535 0.04700276 -0.15468197
0000f0 a1 0e cb be 22 6b 38 bd 8c cb 8c be 46 f5 b1 be
       -0.39659598 -0.045024045 -0.27499044 -0.3475744

feat_mlp_sigma.0.weight f4 [32, 1080]
000000 ac 2f 00 80 93 ba 00 80 3a 61 00 00 48 45 00 00
       -1.7101e-41 -6.693e-41 3.4878e-41 2.4853e-41
000010 88 b1 10 00 93 5b 00 80 2d 2e 00 80 15 25 00 80
       1.533054e-39 -3.285e-41 -1.6565e-41 -1.3303e-41
000020 a3 ef 02 00 b6 5f 00 00 f0 ca 00 00 3e c9 00 80
       2.69636e-40 3.4335e-41 7.28e-41 -7.2192e-41
000030 22 99 00 80 48 0d 00 80 73 02 00 80 8f 5e 00 00
       -5.4934e-41 -4.764e-42 -8.79e-43 3.3921e-41
000040 19 fe 04 80 ac 08 00 80 60 4a 01 80 80 2a 00 80
       -4.58495e-40 -3.111e-42 -1.18516e-40 -1.5246e-41
000050 73 9e 00 80 99 29 00 80 94 af 01 80 cb 0f 00 00
       -5.6841e-41 -1.4922e-41 -1.54821e-40 5.665e-42
000060 ac d8 10 80 54 40 83 a2 58 4b 00 80 cd 54 00 00
       -1.547095e-39 -3.557573e-18 -2.7028e-41 3.0421e-41
000070 c1 44 00 80 1e 13 00 80 df 30 01 80 0d 9c 00 80
       -2.4664e-41 -6.858e-42 -1.09367e-40 -5.598e-41
000080 09 b8 3c b8 1a 49 0e 80 4b 39 00 00 5f 98 00 00
       -4.499409e-05 -1.311921e-39 2.0553e-41 5.466e-41
000090 fe 51 00 80 55 1b 00 00 ae 0b 01 00 e8 13 05 80
       -2.9413e-41 9.805e-42 9.6025e-41 -4.66318e-40
0000a0 f0 36 00 80 9e 1f 00 80 b1 37 00 00 6e 20 00 80
       -1.9708e-41 -1.1342e-41 1.9978e-41 -1.1634e-41
0000b0 b6 8e 01 00 c8 d2 03 80 32 3c 01 80 3e 5c 05 80
       1.4303e-40 -3.5112e-40 -1.1343e-40 -4.92268e-40
0000c0 5a 4a 00 00 22 37 00 00 ec f6 6f 80 13 4b 01 80
       2.6672e-41 1.9778e-41 -1.0282319e-38 -1.18767e-40
0000d0 5d 2d 00 00 18 9b 00 00 2e 82 03 80 69 3f 00 80
       1.6273e-41 5.5637e-41 -3.22206e-40 -2.2747e-41
0000e0 49 46 00 80 f5 57 02 00 1a 07 00 80 36 2f 00 00
       -2.5214e-41 2.15224e-40 -2.548e-42 1.6936e-41
0000f0 9f 17 00 00 b6 b5 01 80 31 09 00 00 c4 25 00 00
       8.474e-42 -1.57021e-40 3.297e-42 1.3548e-41
000100 0a 25 00 80 46 26 00 00 2c 2a 00 00 51 9c 01 80
       -1.3287e-41 1.373e-41 1.5128e-41 -1.47911e-40
000110 69 8a 01 80 e8 5d 00 80 c9 02 00 00 2e b5 00 80
       -1.41488e-40 -3.3687e-41 9.99e-43 -6.4995e-41
000120 16 11 20 b4 24 48 00 00 75 50 00 00 2c 01 01 00
       -1.4907377e-07 2.5879e-41 2.8863e-41 9.2256e-41
000130 71 22 00 00 39 5b 00 80 5d d6 00 80 e3 2d 00 00
       1.2355e-41 -3.2725e-41 -7.6899e-41 1.6461e-41
000140 81 57 00 00 1b 37 00 80 bf 31 00 80 a3 ff 00 80
       3.139e-41 -1.9768e-41 -1.7846e-41 -9.1705e-41
000150 76 3e ca af 4f 3b 00 80 ec 34 01 00 e6 12 00 00
       -3.6787967e-10 -2.1276e-41 1.1082e-40 6.78e-42
000160 a4 91 0c 80 73 da 00 80 80 9f 01 80 94 42 00 80
       -1.154272e-39 -7.8365e-41 -1.49053e-40 -2.3884e-41
000170 ef 07 00 00 d4 12 00 00 14 3e 00 00 cd df 06 80
       2.846e-42 6.754e-42 2.227e-41 -6.31298e-40
000180 64 05 00 00 4c c4 00 80 81 00 00 00 22 58 1f a6
       1.934e-42 -7.0418e-41 1.81e-43 -5.528365e-16
000190 50 21 01 80 aa 6c 85 32 7f 22 00 00 53 e0 03 80
       -1.03786e-40 1.5532652e-08 1.2375e-41 -3.55979e-40
0001a0 32 15 00 80 54 84 0f 80 83 3d 03 00 ac 4f 00 00
       -7.603e-42 -1.425003e-39 2.97573e-40 2.8581e-41
0001b0 31 00 00 00 85 3d 00 80 92 28 00 80 44 40 00 00
       6.9e-44 -2.2069e-41 -1.4554e-41 2.3054e-41
0001c0 1e 63 01 00 48 f5 00 00 fe 4f 00 00 80 54 00 80
       1.27392e-40 8.799e-41 2.8696e-41 -3.0313e-41
0001d0 e0 18 00 00 94 1f 00 00 60 44 00 80 94 51 00 80
       8.923e-42 1.1328e-41 -2.4528e-41 -2.9265e-41
0001e0 ef 3d 00 80 86 a0 11 80 ae 60 00 80 7c 20 00 80
       -2.2218e-41 -1.618788e-39 -3.4682e-41 -1.1653e-41
0001f0 90 21 00 80 bd 23 00 00 0e 43 00 80 c0 8c 00 80
       -1.204e-41 1.282e-41 -2.4055e-41 -5.0492e-41
000200 ff da 00 00 fa 03 00 80 1d a0 02 00 fa eb d2 a4
       7.8561e-41 -1.427e-42 2.41109e-40 -9.147274e-17
000210 09 07 00 80 b6 94 00 80 71 55 00 00 d8 0c 00 80
       -2.524e-42 -5.3347e-41 3.065e-41 -4.607e-42
000220 9c 06 00 80 28 2c 01 00 e2 0a 01 80 36 31 00 00
       -2.371e-42 1.07676e-40 -9.574e-41 1.7654e-41
000230 7e 08 00 80 9c f7 b6 1c 68 6f bf 29 69 3d 00 00
       -3.046e-42 1.2107755e-21 8.50143e-14 2.203e-41
000240 30 86 00 00 cc 78 09 80 06 29 00 80 a7 49 00 80
       4.8137e-41 -8.69853e-40 -1.4716e-41 -2.6421e-41
000250 40 20 00 80 ca 1e 00 80 cd 89 02 00 ef 5f 79 36
       -1.1569e-41 -1.1045e-41 2.33105e-40 3.7159732e-06
000260 5b 25 00 00 c6 ac 01 80 7d a9 07 00 09 5f 06 80
       1.34e-41 -1.53815e-40 7.0365e-40 -5.85105e-40
000270 a6 52 08 80 90 37 00 80 6a 5d 00 00 37 3a 00 80
       -7.64333e-40 -1.9932e-41 3.351e-41 -2.0884e-41
000280 3b 31 01 80 00 25 00 80 8d 07 00 80 af 99 01 80
       -1.09496e-40 -1.3273e-41 -2.709e-42 -1.46967e-40
000290 5b 29 06 80 41 28 00 80 99 2a 00 00 26 9b d2 29
       -5.65849e-40 -1.444e-41 1.5281e-41 9.3527874e-14
0002a0 8a 46 01 80 da 6d 01 00 4e 2f 30 1b a4 64 03 80
       -1.1714e-40 1.31243e-40 1.4573664e-22 -3.1161e-40
0002b0 33 71 02 00 f2 8e 0d 00 0e 05 00 00 86 5a 98 23
       2.24279e-40 1.24514e-39 1.813e-42 1.6518211e-17
0002c0 ae 0a 00 00 3e 80 03 00 47 5d 00 00 50 9c 00 80
       3.831e-42 3.21511e-40 3.3462e-41 -5.6074e-41
0002d0 d9 53 00 80 bd 31 00 00 27 25 00 00 42 73 01 00
       -3.0079e-41 1.7843e-41 1.3328e-41 1.33182e-40
0002e0 02 a1 42 b3 c0 37 9a a0 52 2d 05 80 d5 47 00 00
       -4.531558e-08 -2.6125507e-19 -4.75435e-40 2.5768e-41
0002f0 7b b5 0b 00 25 b8 00 00 c7 d5 00 80 0a 81 00 00
       1.075293e-39 6.6059e-41 -7.6689e-41 4.629e-41
000300 02 62 00 00 42 62 00 00 0b 60 00 00 d5 59 00 80
       3.5159e-41 3.5248e-41 3.4454e-41 -3.2226e-41
000310 6f 44 00 00 7c 83 00 80 e7 22 00 80 88 34 00 00
       2.455e-41 -4.7168e-41 -1.252e-41 1.8845e-41
000320 7f 61 00 80 7d 4b 00 00 52 34 00 80 45 c3 02 80
       -3.4975e-41 2.708e-41 -1.8769e-41 -2.5372e-40
000330 e7 a2 45 b3 e1 55 02 00 07 62 00 80 63 7f 05 80
       -4.6015796e-08 2.14479e-40 -3.5166e-41 -5.04875e-40
000340 51 38 00 00 73 2f 00 80 b9 30 00 00 f8 25 00 80
       2.0203e-41 -1.7022e-41 1.7478e-41 -1.362e-41
000350 9e 51 00 80 55 f0 01 00 8e 31 00 80 f1 b1 02 80
       -2.9279e-41 1.7805e-40 -1.7777e-41 -2.47504e-40
000360 8c 5b 00 80 74 9d 02 00 a2 66 02 00 40 42 a6 9b
       -3.2841e-41 2.40155e-40 2.20489e-40 -2.750521e-22
000370 3a 4e 00 00 37 2b 00 80 05 08 00 00 e5 3c 00 00
       2.8062e-41 -1.5503e-41 2.877e-42 2.1845e-41
000380 ce 0d 00 00 1d c4 00 80 22 13 00 00 6f 33 00 80
       4.952e-42 -7.0352e-41 6.864e-42 -1.8451e-41
000390 6d 59 00 00 70 2c 00 80 91 0a 00 00 af 5f 00 80
       3.208e-41 -1.5941e-41 3.79e-42 -3.4325e-41
0003a0 46 f5 00 80 fd cb 07 80 10 95 99 29 9d 55 00 80
       -8.7988e-41 -7.16026e-40 6.820423e-14 -3.0712e-41
0003b0 4e 05 00 00 0c 7a 01 80 ac 21 00 00 da 3e 00 80
       1.903e-42 -1.35618e-40 1.2079e-41 -2.2547e-41
0003c0 90 b3 01 80 f4 85 00 80 58 1e 26 9b 4b 3d 00 00
       -1.5625e-40 -4.8053e-41 -1.3741003e-22 2.1988e-41
0003d0 80 12 01 00 77 56 00 00 e5 ce 00 80 4b 0a 00 80
       9.8472e-41 3.1018e-41 -7.422e-41 -3.692e-42
0003e0 75 fc 00 80 87 0f 01 80 3a 48 00 00 99 2a 01 80
       -9.0565e-41 -9.7406e-41 2.591e-41 -1.07117e-40
0003f0 19 15 00 00 f6 22 00 00 19 30 00 80 78 4b 00 00
       7.568e-42 1.2542e-41 -1.7254e-41 2.7073e-41

feat_mlp_sigma.0.bias f4 [32]
000000 4c 07 00 00 49 0a 06 80 62 2a 00 00 8f 2f 03 00
       2.618e-42 -5.54703e-40 1.5204e-41 2.92567e-40
000010 ec 1f 01 00 a8 ac 00 80 77 de 00 80 b2 87 00 80
       1.03287e-40 -6.1937e-41 -7.9805e-41 -4.8678e-41
000020 b7 07 00 00 92 4c 00 80 f9 3b 00 80 a5 ef 01 80
       2.768e-42 -2.7468e-41 -2.1514e-41 -1.77804e-40
000030 10 79 fd 2d 0a 70 01 80 69 36 00 00 2b 1f 00 00
       2.8816532e-11 -1.32028e-40 1.9519e-41 1.1181e-41
000040 9c 51 01 80 4b 3a 00 80 b4 cc 01 00 6a 34 00 80
       -1.21111e-40 -2.0912e-41 1.65269e-40 -1.8803e-41
000050 92 fd 00 00 75 16 00 00 9d 35 00 80 df 03 00 80
       9.0964e-41 8.056e-42 -1.9233e-41 -1.389e-42
000060 4d 5a 05 80 f7 50 00 00 5f 15 00 80 11 3a 00 80
       -4.91571e-40 2.9045e-41 -7.667e-42 -2.083e-41
000070 2b 05 00 00 8d 27 00 80 8c 0f 01 80 69 28 00 00
       1.854e-42 -1.4188e-41 -9.7413e-41 1.4496e-41

feat_mlp_sigma.2.weight f4 [1, 32]
000000 c8 5d 00 80 b3 13 00 00 36 09 00 00 03 13 00 00
       -3.3642e-41 7.067e-42 3.304e-42 6.82e-42
000010 1b 1e 00 00 9a 42 00 00 80 f1 b8 9f bd 0c 00 00
       1.08e-41 2.3892e-41 -7.832656e-20 4.57e-42
000020 82 51 00 80 31 2c 00 00 91 1b 00 00 fd 20 00 80
       -2.924e-41 1.5853e-41 9.889e-42 -1.1834e-41
000030 63 1c 00 80 d8 07 00 00 1c 2c 00 00 02 2d 02 00
       -1.0183e-41 2.814e-42 1.5823e-41 1.99817e-40
000040 19 5b 00 80 82 02 00 80 7b 31 00 80 cd 17 00 80
       -3.268e-41 -9e-43 -1.775e-41 -8.538e-42
000050 69 3f 00 80 48 b6 0d 1e 53 52 00 00 82 3f 00 00
       -2.2747e-41 7.502173e-21 2.9532e-41 2.2782e-41
000060 af 09 00 00 61 41 00 80 3e 12 00 80 08 2b 00 00
       3.474e-42 -2.3454e-41 -6.544e-42 1.5437e-41
000070 0e 13 00 80 b5 06 00 00 d0 19 00 80 8b 4f 00 80
       -6.836e-42 2.406e-42 -9.26e-42 -2.8535e-41

feat_mlp_mu.0.weight f4 [100, 1080]
000000 6b 08 00 00 06 10 00 80 06 07 00 00 69 46 02 00
       3.02e-42 -5.748e-42 2.52e-42 2.0893e-40
000010 1b 0a 00 00 c1 1b 00 80 39 2e 01 80 69 40 00 00
       3.625e-42 -9.956e-42 -1.08417e-40 2.3106e-41
000020 54 af 01 00 bb d0 00 00 e8 07 06 80 6d f0 00 80
       1.54731e-40 7.4878e-41 -5.53849e-40 -8.6249e-41
000030 a5 50 00 00 12 bb 07 80 b3 42 00 80 b1 f3 01 00
       2.893e-41 -7.09957e-40 -2.3927e-41 1.79256e-40
000040 75 2d 00 80 79 4a 00 00 75 3e 00 00 5a 50 00 00
       -1.6307e-41 2.6716e-41 2.2405e-41 2.8825e-41
000050 30 30 00 80 f8 56 07 80 f0 20 00 80 4e 1a 01 00
       -1.7286e-41 -6.74047e-40 -1.1816e-41 1.01272e-40
000060 01 6d 01 80 4d 28 0b 00 6b 51 00 80 72 15 01 80
       -1.30939e-40 1.024648e-39 -2.9207e-41 -9.9529e-41
000070 e3 43 00 80 3b 21 00 80 2d 1b 00 00 b6 1a 00 00
       -2.4353e-41 -1.1921e-41 9.749e-42 9.582e-42
000080 e1 82 01 80 2d b1 00 80 23 58 03 00 5c 32 00 00
       -1.38786e-40 -6.3559e-41 3.07124e-40 1.8066e-41
000090 97 06 00 80 42 1a 00 00 4b 1f 00 00 95 00 00 80
       -2.364e-42 9.42e-42 1.1226e-41 -2.09e-43
0000a0 ea 10 00 80 82 40 06 80 69 1e 00 80 f8 85 02 80
       -6.068e-42 -5.74154e-40 -1.0909e-41 -2.3173e-40
0000b0 a7 df 0f 00 e3 46 04 00 81 0c 00 80 e3 4a 00 80
       1.457764e-39 3.92771e-40 -4.486e-42 -2.6864e-41
0000c0 d7 24 00 80 d3 58 00 80 39 5d 00 00 9a 43 26 80
       -1.3216e-41 -3.1864e-41 3.3442e-41 -3.514e-39
0000d0 ab 55 00 80 4e 5c 01 80 a6 ae 00 00 63 00 00 00
       -3.0732e-41 -1.24948e-40 6.2652e-41 1.39e-43
0000e0 39 98 02 00 aa 33 00 00 c0 26 00 00 4c 29 00 00
       2.38278e-40 1.8534e-41 1.3901e-41 1.4815e-41
0000f0 a0 2b 00 00 7d 2a 00 00 e1 1c 00 80 c9 47 00 00
       1.565e-41 1.5242e-41 -1.036e-41 2.5752e-41
000100 6e 5b 00 80 62 55 00 00 e5 3e 04 00 7f 4c 05 00
       -3.2799e-41 3.063e-41 3.89904e-40 4.86619e-40
000110 5e 5e 08 00 06 4c 00 00 f1 fd 01 80 0e 12 00 00
       7.68537e-40 2.7272e-41 -1.82933e-40 6.477e-42
000120 85 03 00 00 14 b2 02 80 61 79 03 80 e7 bc 01 80
       1.263e-42 -2.47553e-40 -3.19049e-40 -1.59601e-40
000130 d9 46 00 00 b8 4f 00 00 f8 18 00 80 4c 92 00 80
       2.5415e-41 2.8598e-41 -8.957e-42 -5.2481e-41
000140 62 c0 19 80 7f 14 00 00 9c 3e 05 80 af 0c 00 80
       -2.364901e-39 7.353e-42 -4.81637e-40 -4.55e-42
000150 ab 20 00 80 90 ac 02 00 a8 44 00 00 83 3c 00 00
       -1.1719e-41 2.45575e-40 2.4629e-41 2.1708e-41
000160 4d 02 00 00 82 04 00 00 40 09 00 00 67 52 00 00
       8.25e-43 1.617e-42 3.318e-42 2.956e-41
000170 eb 37 00 80 24 2f 00 00 1b 42 00 00 bd 29 00 80
       -2.006e-41 1.6911e-41 2.3714e-41 -1.4973e-41
000180 00 4f 00 00 cd 42 00 80 0e 02 00 00 6c 54 00 00
       2.834e-41 -2.3964e-41 7.37e-43 3.0285e-41
000190 45 ed 00 00 73 0b 00 00 44 0a 00 00 c0 34 00 00
       8.5116e-41 4.107e-42 3.683e-42 1.8923e-41
0001a0 20 51 00 80 40 4a 00 80 de ba 03 00 de 2a 00 80
       -2.9102e-41 -2.6636e-41 3.42542e-40 -1.5378e-41
0001b0 11 30 00 00 da c8 01 00 82 40 00 00 4a 03 00 80
       1.7243e-41 1.63887e-40 2.3141e-41 -1.18e-42
0001c0 d0 3d 01 00 b1 fb 00 00 b1 1d 00 80 17 3f 00 00
       1.1401e-40 9.029e-41 -1.0651e-41 2.2632e-41
0001d0 04 77 0e a2 76 4e 06 80 05 10 00 80 50 04 00 80
       -1.9307595e-18 -5.7916e-40 -5.747e-42 -1.547e-42
0001e0 61 12 06 00 72 f6 00 80 f5 37 02 00 86 0a 00 80
       5.57606e-40 -8.8408e-41 2.03745e-40 -3.775e-42
0001f0 04 2a 06 80 a3 3c 00 00 71 36 00 00 ac 31 01 80
       -5.66085e-40 2.1752e-41 1.953e-41 -1.09654e-40
000200 49 83 07 00 ce a5 1b 80 0b 1b 00 00 82 08 00 80
       6.89945e-40 -2.539038e-39 9.701e-42 -3.052e-42
000210 49 2c 00 00 d1 4e 00 80 45 09 01 80 03 a6 03 00
       1.5887e-41 -2.8274e-41 -9.5161e-41 3.3506e-40
000220 6a 6c 01 80 8e 9c 00 00 aa 07 00 00 78 08 01 00
       -1.30727e-40 5.6161e-41 2.75e-42 9.4874e-41
000230 fe 62 01 00 d1 19 00 00 62 dd 01 80 64 0d 00 00
       1.27347e-40 9.261e-42 -1.71253e-40 4.804e-42
000240 49 01 00 00 c0 55 0c 80 7c 3c 00 00 98 2a 00 80
       4.61e-43 -1.132787e-39 2.1698e-41 -1.528e-41
000250 32 e6 0d a4 76 40 00 80 da 17 00 00 c8 46 00 80
       -3.0769484e-17 -2.3124e-41 8.556e-42 -2.5392e-41
000260 64 5f 00 80 fa 56 00 00 11 2a 00 80 75 66 03 00
       -3.422e-41 3.1201e-41 -1.509e-41 3.12261e-40
000270 1d 0c 08 80 78 02 01 00 79 47 00 00 48 1a 00 00
       -7.3903e-40 9.2721e-41 2.564e-41 9.428e-42
000280 24 21 00 00 7a 2c 00 80 8f 1e 00 00 67 1f 00 80
       1.1889e-41 -1.5955e-41 1.0962e-41 -1.1265e-41
000290 db 94 06 00 43 4c 00 00 d2 12 00 80 83 1f 00 80
       6.04412e-40 2.7358e-41 -6.751e-42 -1.1304e-41
0002a0 21 29 00 00 30 b1 10 80 21 61 03 80 af 5e 00 80
       1.4754e-41 -1.532931e-39 -3.1035e-40 -3.3966e-41
0002b0 67 44 01 80 e8 96 00 00 9d 00 00 00 98 f5 07 00
       -1.16374e-40 5.4135e-41 2.2e-43 7.30951e-40
0002c0 f8 22 00 00 13 1b 00 00 f3 89 00 80 0d 01 00 00
       1.2544e-41 9.712e-42 -4.9487e-41 3.77e-43
0002d0 79 2a 00 00 92 10 00 00 48 48 00 80 66 0f 00 00
       1.5236e-41 5.944e-42 -2.593e-41 5.524e-42
0002e0 a8 e4 00 80 d4 07 0c 00 25 1c 00 00 d9 22 00 00
       -8.2026e-41 1.104834e-39 1.0096e-41 1.2501e-41
0002f0 4c 80 00 80 28 3c 00 80 a2 30 00 00 aa 61 09 00
       -4.6024e-41 -2.158e-41 1.7446e-41 8.61555e-40
000300 e1 9a 0a 80 e6 11 00 80 9b 14 02 00 5b 03 00 00
       -9.73915e-40 -6.421e-42 1.91063e-40 1.204e-42
000310 b9 03 00 00 94 a4 00 00 db a3 00 80 6d 20 00 00
       1.335e-42 5.904e-41 -5.878e-41 1.1632e-41
000320 f4 07 00 00 17 42 00 00 e7 02 00 00 e0 da 01 00
       2.853e-42 2.3709e-41 1.041e-42 1.70353e-40
000330 ca 33 00 80 2b 31 00 00 06 56 00 00 85 38 00 80
       -1.8578e-41 1.7638e-41 3.086e-41 -2.0275e-41
000340 ae 3f 02 80 ca 1a 00 00 6d 0a 03 80 c8 4d 04 00
       -2.06515e-40 9.61e-42 -2.79247e-40 3.95245e-40
000350 ea 51 00 80 49 55 00 00 f0 27 00 00 43 b1 00 00
       -2.9385e-41 3.0595e-41 1.4327e-41 6.359e-41
000360 40 0f 01 00 21 8f 03 00 a4 67 02 80 51 5d 00 80
       9.7306e-41 3.26851e-40 -2.2085e-40 -3.3476e-41
000370 fd b3 00 00 18 03 00 00 9c 27 04 80 86 07 00 80
       6.4568e-41 1.11e-42 -3.81551e-40 -2.699e-42
000380 1e 5f 00 80 67 19 00 00 f3 34 00 80 b1 22 00 80
       -3.4122e-41 9.113e-42 -1.8995e-41 -1.2445e-41
000390 53 7d bb b2 ae 36 00 00 56 30 00 80 ca a1 02 80
       -2.1826656e-08 1.9615e-41 -1.734e-41 -2.4171e-40
0003a0 c8 48 00 80 3e 5c 00 00 e2 18 00 00 fc ce 09 00
       -2.6109e-41 3.309e-41 8.926e-42 9.00771e-40
0003b0 9b 8e 00 80 2c 19 00 80 af f6 01 00 fb 05 00 80
       -5.1157e-41 -9.03e-42 1.80329e-40 -2.145e-42
0003c0 44 21 02 00 4f a2 03 80 78 a6 05 00 7c 50 00 00
       1.95604e-40 -3.33732e-40 5.18895e-40 2.8872e-41
0003d0 6c 12 00 80 96 23 00 80 c1 14 00 00 f3 54 00 80
       -6.609e-42 -1.2766e-41 7.445e-42 -3.0474e-41
0003e0 0e 22 00 00 64 5a 03 00 2f 19 00 80 a5 b8 00 80
       1.2217e-41 3.07933e-40 -9.034e-42 -6.6238e-41
0003f0 98 88 00 80 6f 32 00 00 6c 40 00 80 4a 16 00 80
       -4.9e-41 1.8092e-41 -2.311e-41 -7.996e-42

feat_mlp_mu.0.bias f4 [100]
000000 75 57 00 80 90 14 00 00 1c 2a 01 00 7a 3d 00 00
       -3.1374e-41 7.376e-42 1.06941e-40 2.2054e-41
000010 95 4c 01 80 10 92 1c 2f 03 01 00 80 1c 36 00 00
       -1.19308e-40 1.4240009e-10 -3.63e-43 1.9411e-41
000020 c2 35 00 80 2f 2f 00 00 2c 32 00 00 9c 3b 00 80
       -1.9285e-41 1.6926e-41 1.7998e-41 -2.1384e-41
000030 15 79 04 80 98 4a 47 9b ad 44 00 00 75 46 00 00
       -4.10778e-40 -1.6484997e-22 2.4636e-41 2.5275e-41
000040 48 1d 00 80 9e 8d 06 00 3a 13 01 00 1f d3 00 00
       -1.0504e-41 6.01816e-40 9.8733e-41 7.5736e-41
000050 8c 1a 01 00 2f 99 07 00 0e 53 00 00 9c 3c 00 80
       1.01359e-40 6.978e-40 2.9794e-41 -2.1743e-41
000060 e1 3b 00 80 02 3a 00 80 fc 1c 00 00 7c 2e 00 80
       -2.148e-41 -2.0809e-41 1.0398e-41 -1.6675e-41
000070 0f 17 00 80 5d 2a 00 80 d1 16 01 80 45 ce 00 00
       -8.272e-42 -1.5197e-41 -1.0002e-40 7.3996e-41
000080 98 e7 00 00 60 a2 a3 28 37 54 00 00 0d 4e 08 80
       8.308e-41 1.8167054e-14 3.021e-41 -7.62683e-40
000090 00 e4 50 9b 9c 55 03 00 56 04 00 80 45 36 01 80
       -1.7279028e-22 3.06217e-40 -1.555e-42 -1.11304e-40
0000a0 41 b9 00 00 04 20 00 80 5f 45 00 80 0b 04 00 00
       6.6457e-41 -1.1485e-41 -2.4886e-41 1.45e-42
0000b0 25 2e 02 80 1b 1c 00 80 01 28 00 00 cb 45 00 80
       -2.00225e-40 -1.0082e-41 1.435e-41 -2.5037e-41
0000c0 11 3c 00 00 ff 09 00 00 f6 fb 00 00 ba 49 00 80
       2.1548e-41 3.586e-42 9.0387e-41 -2.6448e-41
0000d0 3d 56 00 00 06 c0 01 80 c7 3f 00 00 c5 9c 06 80
       3.0936e-41 -1.6072e-40 2.2879e-41 -6.07251e-40
0000e0 4c 4e 00 80 49 02 00 00 ac 4a 00 00 3e eb 03 80
       -2.8088e-41 8.2e-43 2.6787e-41 -3.59895e-40
0000f0 b0 2b 00 00 5e 3e 00 00 8b cd 01 a6 71 04 00 00
       1.5672e-41 2.2373e-41 -4.503443e-16 1.593e-42
000100 40 ac 00 80 ca 3d 00 00 f9 46 00 00 93 5d 00 80
       -6.1792e-41 2.2166e-41 2.546e-41 -3.3568e-41
000110 65 0d 00 80 2d 30 00 00 20 96 01 00 a9 e0 01 00
       -4.805e-42 1.7282e-41 1.4569e-40 1.72428e-40
000120 8d 56 00 80 ab 1f 00 00 0e 33 00 00 91 1d 00 80
       -3.1049e-41 1.136e-41 1.8315e-41 -1.0606e-41
000130 c9 e9 00 00 87 4e 00 80 e4 b7 01 80 c3 a5 04 00
       8.3866e-41 -2.817e-41 -1.57803e-40 4.26806e-40
000140 d8 0a 00 80 a8 48 00 00 98 44 0e 80 62 26 05 80
       -3.89e-42 2.6064e-41 -1.310304e-39 -4.72947e-40
000150 0b af 00 00 34 7c 08 80 15 38 00 80 ac 31 00 00
       6.2794e-41 -7.7924e-40 -2.0118e-41 1.7819e-41
000160 77 2c 00 80 3d e9 00 80 eb 02 00 80 81 32 00 80
       -1.5951e-41 -8.367e-41 -1.047e-42 -1.8117e-41
000170 01 35 00 00 4a 62 00 00 2b 4f 01 00 50 d3 00 00
       1.9014e-41 3.526e-41 1.20236e-40 7.5805e-41
000180 4c 16 00 80 d2 93 00 00 e6 fa 00 00 60 a0 1f 80
       -7.999e-42 5.3028e-41 9.0005e-41 -2.904432e-39

feat_mlp_mu.2.weight f4 [1, 100]
000000 38 19 00 00 69 36 00 00 db 49 01 80 88 18 00 00
       9.047e-42 1.9519e-41 -1.1833e-40 8.8e-42
000010 63 41 00 80 a3 0d 00 00 eb 34 00 80 ef 54 00 00
       -2.3456e-41 4.892e-42 -1.8983e-41 3.0468e-41
000020 9b 17 00 80 cf 0e 00 00 da 29 00 00 e3 2d 00 00
       -8.468e-42 5.312e-42 1.5014e-41 1.6461e-41
000030 2e 33 00 80 40 36 00 00 99 07 03 80 fa 24 01 80
       -1.836e-41 1.9461e-41 -2.78232e-40 -1.051e-40
000040 ee 0c 00 00 1d 1a 00 80 d0 7f 06 80 88 f5 00 80
       4.638e-42 -9.368e-42 -5.96863e-40 -8.808e-41
000050 11 05 00 00 6c 2c 00 00 5c 22 00 00 9b 25 00 80
       1.817e-42 1.5936e-41 1.2326e-41 -1.349e-41
000060 78 38 02 29 83 20 00 80 fc 0e 00 00 85 53 00 80
       2.8914777e-14 -1.1663e-41 5.375e-42 -2.9961e-41
000070 29 44 00 00 8d 17 00 80 2d 5e 00 00 70 72 02 80
       2.4451e-41 -8.448e-42 3.3784e-41 -2.24723e-40
000080 33 11 40 9d 78 04 00 00 69 4a 00 00 94 4c 00 00
       -2.541988e-21 1.603e-42 2.6693e-41 2.7471e-41
000090 d1 4e 00 00 58 09 00 80 c9 4e 00 00 ea de 03 80
       2.8274e-41 -3.352e-42 2.8263e-41 -3.55473e-40
0000a0 be 52 00 80 c4 1d 00 80 10 29 00 80 af 26 00 00
       -2.9682e-41 -1.0678e-41 -1.473e-41 1.3877e-41
0000b0 1b 20 00 00 2f 11 00 80 08 3f 00 80 bc 30 00 80
       1.1517e-41 -6.164e-42 -2.2611e-41 -1.7483e-41
0000c0 f8 1f 00 80 53 0f 00 80 cb 2f 00 00 7c 3c 00 00
       -1.1468e-41 -5.497e-42 1.7145e-41 2.1698e-41
0000d0 78 18 00 00 b2 07 00 00 21 52 00 80 a4 26 00 00
       8.778e-42 2.76e-42 -2.9462e-41 1.3862e-41
0000e0 47 62 00 80 b7 14 00 00 e8 29 00 80 e9 81 00 00
       -3.5255e-41 7.431e-42 -1.5033e-41 4.6603e-41
0000f0 76 21 00 80 52 00 00 00 d3 24 00 80 e7 3e 00 80
       -1.2004e-41 1.15e-43 -1.321e-41 -2.2565e-41
000100 49 51 00 00 de 0e 00 00 19 41 00 80 9e 12 00 00
       2.916e-41 5.333e-42 -2.3353e-41 6.679e-42
000110 d6 24 00 80 15 8a 00 80 40 46 00 80 7f 49 00 00
       -1.3214e-41 -4.9534e-41 -2.5201e-41 2.6365e-41
000120 6e 34 00 80 c4 3c 00 00 03 27 00 80 88 11 00 00
       -1.8808e-41 2.1799e-41 -1.3995e-41 6.289e-42
000130 19 09 00 80 89 2b 00 00 cd 30 00 80 f3 2d 00 80
       -3.264e-42 1.5617e-41 -1.7506e-41 -1.6483e-41
000140 e4 10 00 00 a6 f3 06 00 f1 08 00 80 f5 08 00 00
       6.059e-42 6.38418e-40 -3.208e-42 3.213e-42
000150 9e 51 00 00 8e af cd a4 4c 81 00 80 92 55 00 00
       2.9279e-41 -8.920198e-17 -4.6383e-41 3.0697e-41
000160 dd 1c 00 80 00 cb 00 80 21 30 00 00 50 1b 00 80
       -1.0354e-41 -7.2823e-41 1.7265e-41 -9.798e-42
000170 1e 23 00 00 81 30 00 80 43 b7 07 80 79 2c 00 00
       1.2598e-41 -1.74e-41 -7.0859e-40 1.5954e-41
000180 03 46 00 00 e0 27 00 80 2a 0e 02 80 e1 33 00 00
       2.5115e-41 -1.4304e-41 -1.88752e-40 1.861e-41
