experiments/konrad/saved_models/online/normal/model_step_3.pt (torch, 7434 bytes, 9 tensors)

A_gate f4 [9]
0	0xbe1832f4	-0.14863187
1	0x3d052841	0.032509092
2	0xbeb4731d	-0.35244074
3	0x3e93c59e	0.28861707
4	0x3b117d7a	0.0022200034
5	0xbdc554b8	-0.096352994
6	0xbe043087	-0.12909137
7	0x3d3298ca	0.043602742
8	0x3d9d2cd6	0.076745674

B_gate f4 [120]
0	0x3d553853	0.052055668
1	0xbb5f74c3	-0.0034096695
2	0xb9924a32	-0.0002790257
3	0xbbb2e307	-0.0054591927
4	0x30cef13d	1.5057037e-09
5	0x0b4fd43e	4.0026423e-32
6	0x3ab90b74	0.0014117793
7	0x2b0a5056	4.9138937e-13
8	0x0000524e	2.9525e-41
9	0x3d324b99	0.043529127
10	0x324c2232	1.1882138e-08
11	0x3dcfcf4a	0.10146959
12	0xbdcbf1da	-0.09958239
13	0x2f19bdbe	1.3982679e-10
14	0xb32b36ee	-3.9864e-08
15	0xbba7d985	-0.005122366
16	0x3e9a86d2	0.30180985
17	0x280c5dcc	7.7919e-15
18	0x3d00df0a	0.031462707
19	0x368e66a3	4.2438783e-06
20	0xbf4f5543	-0.80989474
21	0x3da56f96	0.08077924
22	0xbd475042	-0.048660524
23	0xb9e564bc	-0.00043753337
24	0xbc837a86	-0.016049635
25	0xbcd8c085	-0.026458988
26	0x347bb343	2.3441412e-07
27	0x3d5a68c1	0.053322557
28	0xbcbda25a	-0.023148704
29	0x9674f7a1	-1.9788301e-25
30	0xbce9d7ca	-0.028545279
31	0xb9ec8a79	-0.00045116598
32	0x00002928	1.4764e-41
33	0xba5d21f7	-0.0008435542
34	0x251f9497	1.3841396e-16
35	0x00002c3d	1.587e-41
36	0x3cd9ee1b	0.026602795
37	0x3d275ce2	0.040860064
38	0x308d6249	1.0287035e-09
39	0x3dce616c	0.100771755
40	0x3e20f0e8	0.15716898
41	0x3a43a874	0.0007463761
42	0xbc1d32ea	-0.009594658
43	0xada32bcb	-1.8550403e-11
44	0x00057669	5.01655e-40
45	0x3c2071d9	0.009792768
46	0x3425dd3f	1.5447311e-07
47	0x3ce33d16	0.027739089
48	0x3d2b7913	0.041863512
49	0xb9bfe623	-0.00036601824
50	0x3e1f5f87	0.15563785
51	0xbd9e409d	-0.07727168
52	0x000047a3	2.5698e-41
53	0x373b630c	1.116913e-05
54	0xbf69a722	-0.9127065
55	0x3118fa02	2.2261024e-09
56	0x3198af5f	4.4437196e-09
57	0xbe6759d5	-0.22592862
58	0x389f0963	7.583459e-05
59	0x3e3273ce	0.17426988
60	0xba70fabc	-0.0009192636
61	0xae24a28a	-3.7433646e-11
62	0x3c0f70b6	0.0087549
63	0x3e38f5bc	0.1806249
64	0xb2bc51ea	-2.192333e-08
65	0x3fc45d41	1.5340959
66	0xbc88d5d7	-0.01670353
67	0x98167bac	-1.9449484e-24
68	0xb4cf2e46	-3.8590423e-07
69	0xbca69862	-0.020336334
70	0x00000864	3.01e-42
71	0x3e0fc121	0.14038517
72	0xbe430417	-0.19044529
73	0x3814b4ce	3.5454337e-05
74	0x2bb72248	1.3012447e-12
75	0x3d01de26	0.031705998
76	0x0000163f	7.98e-42
77	0x3761836c	1.3441644e-05
78	0x3dd08715	0.10182015
79	0x991fcf20	-8.261936e-24
80	0x2e3a632c	4.2379586e-11
81	0xbd156942	-0.036477335
82	0xbea6881d	-0.3252572
83	0xb82af676	-4.0760693e-05
84	0x3e13211b	0.14368097
85	0x000012b3	6.708e-42
86	0xaea1a23c	-7.350251e-11
87	0x3b198f90	0.0023431517
88	0x1009bb80	2.716293e-29
89	0xae0acba5	-3.155844e-11
90	0x3bbe833f	0.0058139856
91	0x00002d60	1.6277e-41
92	0x3e2aeed0	0.16692662
93	0x3d7cbd41	0.061703924
94	0x3bc23749	0.0059270007
95	0xb8391331	-4.412531e-05
96	0x3afe46b1	0.001939973
97	0xbe128006	-0.1430665
98	0x39ef9863	0.0004569917
99	0x3df49e5d	0.11944268
100	0xb0183968	-5.5378857e-10
101	0x3b38ece1	0.0028217363
102	0xbd6dd60d	-0.058065463
103	0x80000b23	-3.995e-42
104	0xb6f89e92	-7.409436e-06
105	0x3b64a01b	0.003488547
106	0x39f1cf31	0.00046121472
107	0xa693d4ce	-1.0257855e-15
108	0x3d29e228	0.041475445
109	0xbb233272	-0.0024901894
110	0x8000100c	-5.757e-42
111	0xbdb02c8b	-0.08602246
112	0x3e17c71d	0.1482205
113	0xbe9163b6	-0.28396386
114	0xbd19c6fe	-0.03754329
115	0xbdb0aeef	-0.08627116
116	0xae6f4079	-5.439957e-11
117	0x3bdc62da	0.006725651
118	0xbc4f18e9	-0.012640216
119	0x3daf2337	0.085516386

A_mean f4 [9]
0	0x2e6c0d24	5.367186e-11
1	0xae7a56f6	-5.6920656e-11
2	0xa43d61f8	-4.1065825e-17
3	0xafedc515	-4.3250084e-10
4	0x2f3e58d2	1.7311955e-10
5	0xa663567a	-7.8873643e-16
6	0xae68b2b0	-5.29094e-11
7	0xae6cbde8	-5.3828858e-11
8	0xa48f4c68	-6.21458e-17

B_mean f4 [120]
0	0x2f6b8185	2.141914e-10
1	0x38c52292	9.400131e-05
2	0xb7c3a29c	-2.3321532e-05
3	0x25813361	2.2412749e-16
4	0x2e8718d3	6.143499e-11
5	0x83125509	-4.300316e-37
6	0xaf7e9662	-2.3154592e-10
7	0x804d4226	-7.095063e-39
8	0x802cf436	-4.128368e-39
9	0xaed068f0	-9.4773855e-11
10	0x28bacd76	2.0739253e-14
11	0x21658fd7	7.777859e-19
12	0x26048107	4.5971564e-16
13	0x0e7d32c6	3.1209104e-30
14	0x888eaa20	-8.58631e-34
15	0x2ef9728f	1.1343559e-10
16	0x2ce854d6	6.6032553e-12
17	0xa30ed9a0	-7.743919e-18
18	0x2ec5acd2	8.989222e-11
19	0xa8d006b3	-2.3095544e-14
20	0xae5930d4	-4.9383456e-11
21	0xa68d3f77	-9.801043e-16
22	0xa25ac20b	-2.9647235e-18
23	0x263d27e8	6.562663e-16
24	0x2f5615ea	1.9470972e-10
25	0xb8902dc4	-6.8749796e-05
26	0x3784c41a	1.5826943e-05
27	0x2e9b74a5	7.069304e-11
28	0x2db08248	2.006674e-11
29	0x803c6ee3	-5.549908e-39
30	0x254cd122	1.7765036e-16
31	0x0130ad1b	3.2450292e-38
32	0xb5b280ee	-1.3299557e-06
33	0x2fbeeca2	3.4728936e-10
34	0x81965546	-5.522366e-38
35	0xacebdba4	-6.7034867e-12
36	0x2f0e3638	1.2934087e-10
37	0x389374f4	7.0312904e-05
38	0x28416952	1.073649e-14
39	0x2455addc	4.6334277e-17
40	0xb255e7c0	-1.2450926e-08
41	0x80a4ae7e	-1.5123617e-38
42	0x2e93aa25	6.71501e-11
43	0xaa546711	-1.8865141e-13
44	0xa5061d7a	-1.1632634e-16
45	0xaeab66a8	-7.794415e-11
46	0x80d3ee93	-1.9462874e-38
47	0x322d60f4	1.009197e-08
48	0x241e44d8	3.43191e-17
49	0x9c62d680	-7.505436e-22
50	0x3873d810	5.813694e-05
51	0x2f8514e7	2.420741e-10
52	0xa30730f0	-7.3287276e-18
53	0xa757d82f	-2.9954437e-15
54	0xaf924b00	-2.6610536e-10
55	0x8076d78c	-1.0913912e-38
56	0x34e4bae2	4.2604285e-07
57	0x25e25c32	3.9267225e-16
58	0x24ddd4d4	9.620402e-17
59	0x360b42b9	2.0751452e-06
60	0x2f1984db	1.3962469e-10
61	0x37705f60	1.4327321e-05
62	0x397da915	0.00024190948
63	0xaf404448	-1.7486557e-10
64	0x2b851c95	9.458151e-13
65	0x31c5e354	5.759299e-09
66	0x25fd20e0	4.391078e-16
67	0xa8791ea1	-1.3828918e-14
68	0x2009e3d8	1.1679739e-19
69	0xaed09d8e	-9.486732e-11
70	0xa5afceed	-3.049788e-16
71	0x9f5db824	-4.6950888e-20
72	0xaf0d669c	-1.286033e-10
73	0x21d49dda	1.4407462e-18
74	0x378b58cf	1.6611446e-05
75	0x268c1711	9.720704e-16
76	0xb7b5dc98	-2.1679603e-05
77	0xa78921b0	-3.8061663e-15
78	0x2f90c097	2.633029e-10
79	0xb041ca74	-7.0500694e-10
80	0x3391718e	6.772744e-08
81	0x2fca8257	3.6836198e-10
82	0xb8bdde34	-9.053611e-05
83	0xaf89904c	-2.5022684e-10
84	0x26844781	9.178721e-16
85	0xb06c6002	-8.5992735e-10
86	0x341ee2a8	1.4797354e-07
87	0xae9b2bf8	-7.0563944e-11
88	0x000b2fac	1.027292e-39
89	0xaeb9397c	-8.423037e-11
90	0xaf99bb1c	-2.7963487e-10
91	0x81431980	-3.583414e-38
92	0x2c12462a	2.0786797e-12
93	0x262b0ec1	5.934754e-16
94	0xaae0d7f1	-3.9940233e-13
95	0x24073e46	2.9326206e-17
96	0x2f48dd65	1.8268549e-10
97	0xb2c42a94	-2.2836765e-08
98	0xb4017ab9	-1.2058707e-07
99	0xaf53184e	-1.9198973e-10
100	0xa2e8ec20	-6.3133733e-18
101	0xa4bfb969	-8.314714e-17
102	0xa4674030	-5.014451e-17
103	0x2fd032fe	3.7871212e-10
104	0xa4da6ba0	-9.472475e-17
105	0xaeb4a64c	-8.2149926e-11
106	0x39bbd477	0.00035825718
107	0x25b0fe99	3.0703655e-16
108	0x2f240a77	1.4919431e-10
109	0x2d206020	9.116291e-12
110	0xa976951d	-5.4752308e-14
111	0x262b549a	5.94422e-16
112	0x80026990	-2.2154e-40
113	0xb3e1a56c	-1.0507469e-07
114	0x2f9cd403	2.8526878e-10
115	0x200ce678	1.1934717e-19
116	0x31ca5d46	5.8895777e-09
117	0xad2c1da0	-9.783646e-12
118	0x1d8c457a	3.712953e-21
119	0x00005144	2.9153e-41

A_logvar f4 [9]
0	0xbeec1db7	-0.4611642
1	0x3eed0165	0.46290126
2	0x3efc9f84	0.4934045
3	0x3f051f88	0.5200124
4	0xbf0a0578	-0.53914595
5	0xbe8d5266	-0.27601928
6	0xbef40852	-0.47662598
7	0xbe469e5b	-0.19396345
8	0x3edf8c64	0.43661797

B_logvar f4 [120]
0	0x3e946195	0.289807
1	0x0e0398f9	1.622065e-30
2	0x311fc8cb	2.3251683e-09
3	0xbe43c5e0	-0.19118452
4	0x2ad5907e	3.7936662e-13
5	0xb272b27b	-1.4126836e-08
6	0x3ec26224	0.379655
7	0xb86d1846	-5.652781e-05
8	0xae9eeaa4	-7.226689e-11
9	0x3dd4eb60	0.10396457
10	0x37c616ec	2.3614113e-05
11	0xad68c8ae	-1.3232233e-11
12	0x3c295af8	0.01033663
13	0x31b89aa8	5.372687e-09
14	0xb5d2f9ec	-1.5718956e-06
15	0x3ec96710	0.39336443
16	0xb9191a8f	-0.00014601111
17	0x25e9170e	4.043468e-16
18	0x3ebbd13f	0.3668308
19	0xae2768b8	-3.8064413e-11
20	0xa7841efe	-3.667096e-15
21	0xbecaaddd	-0.39585772
22	0x3588fc2c	1.0206181e-06
23	0x80f8f69c	-2.286367e-38
24	0x3e5fd5b8	0.21858871
25	0x3736a1cc	1.0885717e-05
26	0xa5850731	-2.3076695e-16
27	0x3ecfe109	0.40601376
28	0x000c5b6e	1.134825e-39
29	0x892090d0	-1.932739e-33
30	0x3e8344f7	0.25638554
31	0xa1af08dd	-1.1860807e-18
32	0x2f82b578	2.3775804e-10
33	0x3ebfe765	0.37481228
34	0x39abfba0	0.00032803137
35	0x30380c30	6.695613e-10
36	0x3ebf9709	0.37419918
37	0xb9478427	-0.0001902735
38	0xb6a06392	-4.779963e-06
39	0xbe90c197	-0.28272697
40	0xa7ce7072	-5.72984e-15
41	0x30ecde4d	1.7234442e-09
42	0xbe9b34a3	-0.30313596
43	0x0014c3b2	1.906912e-39
44	0x393247c3	0.00017002136
45	0x3d38b265	0.045092005
46	0x01b70416	6.7229446e-38
47	0xa1f9a714	-1.6917122e-18
48	0xbe29e3d8	-0.16590822
49	0x365d96d9	3.301937e-06
50	0x1a81aae4	5.362924e-23
51	0x3e804af4	0.25057185
52	0xae68cc00	-5.293188e-11
53	0xaa3f26e3	-1.69777e-13
54	0xbe6ac393	-0.22926168
55	0x02ac3993	2.5306175e-37
56	0xb98a7526	-0.00026408694
57	0xbe15b8ce	-0.14621279
58	0x00551079	7.811926e-39
59	0xb1d4c960	-6.1929057e-09
60	0x3e0ba4d2	0.13637093
61	0x38598f6a	5.1870396e-05
62	0x362309ba	2.4294554e-06
63	0x3e530bef	0.20610021
64	0xa7223035	-2.250815e-15
65	0xb331c84a	-4.1393186e-08
66	0x3dc4cf49	0.09609849
67	0x0c65f97a	1.7716592e-31
68	0xabd9acc6	-1.5466732e-12
69	0xbd1455d8	-0.03621468
70	0x396871cc	0.00022167637
71	0xb94b14a8	-0.00019367284
72	0x3e1c239d	0.1524796
73	0x0009a08d	8.84114e-40
74	0xaaee38ce	-4.231671e-13
75	0x3eb5f036	0.3553483
76	0xb2409eda	-1.121199e-08
77	0x80c9d89c	-1.853664e-38
78	0x3ea67cb2	0.3251701
79	0xb6207022	-2.3907128e-06
80	0x2c964eaf	4.271992e-12
81	0xbec1da92	-0.37862068
82	0x8028b3b7	-3.73789e-39
83	0x36adb628	5.1770076e-06
84	0xbe573880	-0.21017647
85	0x39bb0ce2	0.00035677018
86	0xb253e580	-1.2333999e-08
87	0xbe3dd8ec	-0.1853978
88	0x09dd97bc	5.3346505e-33
89	0x89098e3f	-1.6557659e-33
90	0xbe0f6ba3	-0.14005904
91	0x9dd1f5de	-5.557606e-21
92	0x83402ce4	-5.647526e-37
93	0x3de58d9a	0.11208649
94	0xb8cf4746	-9.883805e-05
95	0x82589fed	-1.591507e-37
96	0x3e961e80	0.29320145
97	0x89da4060	-5.254213e-33
98	0xb4b778f0	-3.41744e-07
99	0x3e9cc203	0.3061677
100	0xb1703f38	-3.4960532e-09
101	0xb94445da	-0.00018718038
102	0x3e9979af	0.2997565
103	0x01801a94	4.705791e-38
104	0x813a469a	-3.421346e-38
105	0xbeb36659	-0.35039023
106	0x9f2b19c0	-3.623196e-20
107	0x2741f020	2.6914302e-15
108	0x3ee6d3c2	0.45083433
109	0xab933590	-1.0459845e-12
110	0x825f9ddc	-1.6428756e-37
111	0x3e9befe8	0.3045647
112	0xb45aaec0	-2.0366406e-07
113	0xb794eeb0	-1.7754122e-05
114	0xbdc1c8aa	-0.09462102
115	0x804de076	-7.151855e-39
116	0x8049b5eb	-6.769251e-39
117	0xbeb76576	-0.35819596
118	0x245d4910	4.7983622e-17
119	0x3243e1b5	1.1401814e-08

ar_gate_lin.weight f4 [1, 64]
0	0xbb83fb4b	-0.004027759
1	0xbdc12fea	-0.09432967
2	0xbd69e001	-0.057098392
3	0x3d4aa3e1	0.049472693
4	0xbde75af2	-0.11296643
5	0x3e35949f	0.17732476
6	0xbc8c345c	-0.01711481
7	0xbca5b0d4	-0.02022592
8	0x3bb2ac1d	0.0054526464
9	0xbd5163fb	-0.05112074
10	0xbdd93269	-0.10605318
11	0xbc24b888	-0.010053761
12	0xbde651d2	-0.11246075
13	0x3d646e34	0.05576916
14	0xbbdc4c4a	-0.0067229616
15	0xbb37b40d	-0.0028030903
16	0x3d4fe99c	0.050759897
17	0xbe0bcf3b	-0.13653271
18	0xbe1e4752	-0.15456894
19	0x3c8e3437	0.017358882
20	0x3d079293	0.03309877
21	0xbdd366df	-0.103223555
22	0xbc4649df	-0.012102573
23	0xbdb65441	-0.08902789
24	0xbcbb2004	-0.022842415
25	0x3d29ca25	0.041452546
26	0x3b793404	0.0038025388
27	0x3d0b2f72	0.033980794
28	0xbc0db4ee	-0.008649094
29	0xbcbb6181	-0.022873642
30	0xbd67e648	-0.056616098
31	0x3e2409ae	0.16019318
32	0xbe00b7a2	-0.1257005
33	0xbd434fcf	-0.047683533
34	0xbc01c077	-0.007919422
35	0xbc178275	-0.009247412
36	0x3d6ce935	0.05783959
37	0xbd892e48	-0.066982806
38	0xbdb64fec	-0.08901963
39	0x3d1e11be	0.03859114
40	0xbb9f9ef0	-0.0048712417
41	0xbc95d18b	-0.018288394
42	0xbd54c3fa	-0.05194471
43	0xbd06175f	-0.032737132
44	0x3dc007ff	0.09376525
45	0x3dc3aeb4	0.09554806
46	0xbd1bd61f	-0.038046
47	0x3da6d235	0.081455626
48	0xbe3dc64d	-0.18532677
49	0x3dba52b6	0.09097807
50	0x3e1dea89	0.154215
51	0xbcaeaf71	-0.021323891
52	0x3d99645d	0.07489846
53	0xbbea3b27	-0.007148165
54	0xbd3a96a4	-0.04555382
55	0xbc884af2	-0.0166373
56	0xbd908411	-0.0705644
57	0x3cbf0f4f	0.02332273
58	0x3ba25644	0.0049541313
59	0xbd2b90bb	-0.041886073
60	0x3b21a3fc	0.0024664393
61	0xbbf8dce0	-0.0075946897
62	0xbd50483b	-0.050850134
63	0xbd353895	-0.044243414

ar_mean_lin.weight f4 [1, 64]
0	0xbc4abc8d	-0.012374056
1	0xbcd97e96	-0.026549619
2	0xbd12eddd	-0.035871375
3	0xbab4d36a	-0.0013795916
4	0x3ce7896d	0.028263772
5	0x3c3f232a	0.011666099
6	0x3d0ac592	0.033879824
7	0xbc812b5c	-0.015767746
8	0x3d0841c4	0.033265844
9	0xbb047153	-0.0020209148
10	0xbd1d5db5	-0.038419444
11	0xbc94a487	-0.018144859
12	0xbcd974a8	-0.026544884
13	0xbb833634	-0.0040042643
14	0x3d03c318	0.032168478
15	0x3a2eba76	0.0006665358
16	0xbbd263d5	-0.0064205923
17	0xbd322c2b	-0.043499153
18	0x3d11c66f	0.03558963
19	0x3c31e39e	0.010857491
20	0x3cc5faac	0.024167381
21	0xbd845318	-0.064611614
22	0x3be56fe8	0.0070018657
23	0xbc7df864	-0.0155011155
24	0xbbdc3826	-0.0067205606
25	0x3b0c3d60	0.0021398887
26	0x3bd688cf	0.0065470706
27	0xbc80feb9	-0.015746461
28	0x3ce2e725	0.027698109
29	0x3c87b576	0.01656602
30	0x3c1e4093	0.00965895
31	0xbcde25b6	-0.027117591
32	0x3d1663cd	0.03671627
33	0xbcdd1e31	-0.026991935
34	0x3d0b0776	0.033942662
35	0xbced1fef	-0.028945891
36	0x3ca167a3	0.019702738
37	0xbc0424ff	-0.008065461
38	0x3b2f0073	0.0026703149
39	0xbc9e01a4	-0.019287892
40	0x3d72027a	0.059084393
41	0x3d15f787	0.036613014
42	0xbccc89df	-0.024968086
43	0xb936f600	-0.00017448515
44	0x3c553f0e	0.013015522
45	0x3c08b501	0.008343936
46	0xbc56ea39	-0.0131173665
47	0xbc0d26b6	-0.008615186
48	0x3cb900bb	0.022583356
49	0x3d0213f7	0.03175732
50	0x3cf1e38b	0.029527446
51	0x3cd0bbb8	0.025480136
52	0xbbd2d752	-0.0064343596
53	0x3ca320b5	0.019913057
54	0x3ceeb7a4	0.029140301
55	0x3d2a820f	0.04162794
56	0x3c1c9258	0.009556375
57	0xbaa0ccff	-0.0012268125
58	0xbc972b8a	-0.018453378
59	0x3d9fb1ce	0.077975854
60	0xbb9cfd15	-0.004790912
61	0xbbd995bc	-0.006640164
62	0x3de663d6	0.11249511
63	0x3e8aa2cd	0.27077332

ar_logvar_lin.weight f4 [1, 64]
0	0xbe8bd3f8	-0.27310157
1	0xbe964049	-0.2934592
2	0xbdb300d6	-0.08740394
3	0x3d54562b	0.05183999
4	0xbd0efbca	-0.034908094
5	0x3cfda868	0.030964091
6	0xbd05bed8	-0.032652706
7	0xbd4c4b5f	-0.049876567
8	0x3d57cc41	0.052685026
9	0xbeab5da7	-0.3346989
10	0xbe864de7	-0.2623131
11	0xbe549f4d	-0.20763893
12	0xbeb88d1c	-0.36045158
13	0xbd733a7c	-0.059381947
14	0x3b6e724c	0.0036384044
15	0xbe398444	-0.18116862
16	0xbd942e19	-0.07235355
17	0xbda95368	-0.082678616
18	0x3dd85f67	0.105650716
19	0x3d98e54a	0.074656084
20	0x3a98041a	0.0011597902
21	0xbe4759d5	-0.19467862
22	0xbda32df4	-0.07967749
23	0xbe16f9c2	-0.14743713
24	0xbc3bea68	-0.011469461
25	0xbd07227c	-0.03299187
26	0x3d0a595c	0.033776626
27	0xbd3b50d7	-0.04573139
28	0xbdd232b6	-0.102635786
29	0xbd433ba0	-0.047664285
30	0xbd39b30e	-0.045336775
31	0x3e356ff5	0.1771849
32	0xbe9f3ca6	-0.3110096
33	0xbe8ae3b9	-0.27126864
34	0xbd7c41a2	-0.06158603
35	0xbe284bee	-0.16435215
36	0x3d37e6e3	0.044897925
37	0xbe00202b	-0.12512271
38	0xbe4afabe	-0.19822213
39	0xbdc4748c	-0.09592542
40	0x3d0ffc6f	0.03515285
41	0x3d313c5d	0.043270458
42	0xbed22837	-0.41046306
43	0xbd563e3b	-0.05230544
44	0x3d418381	0.047244553
45	0x3c5e67ec	0.013574582
46	0xbd9f8419	-0.077888675
47	0xbc488ab9	-0.012240105
48	0xbddc7d9d	-0.10766146
49	0x3dccdf14	0.10003486
50	0xbba6a2b7	-0.005085315
51	0xbe07a8a0	-0.13247919
52	0x3ddd7daa	0.10814984
53	0xbd2a9d45	-0.04165389
54	0x3cbfab4f	0.023397116
55	0xbe1038e2	-0.14084199
56	0xbd88e5fd	-0.06684492
57	0xbd823c21	-0.06359125
58	0x3daafba5	0.08348779
59	0x3b86ee8e	0.0041177934
60	0xbe8f1d31	-0.2795196
61	0xbd5e4c4e	-0.05427199
62	0x3de96eb1	0.11398066
63	0x3ec7abc5	0.38998237
