experiments/konrad/saved_models/online/normal/model_step_1.pt (torch, 7434 bytes, 9 tensors)

A_gate f4 [9]
-0.020558786 0.023695285 0.024342602 0.55363286 0.022641953 -0.014420503 0.011032793 0.10561466
-0.07779811
00000000: e66a a8bc 9d1c c23c 236a c73c e2ba 0d3f
00000010: 9e7b b93c f943 6cbc e3c2 343c 804c d83d
00000020: 9e54 9fbd

B_gate f4 [120]
0.021646596 -1.8404646e-10 -0.11346378 -0.0005664421 -3.7406e-41 -0.08484938 -0.17298931 -6.5966066e-07
0.002576168 0.027571207 -7.609398e-07 -0.00023723034 0.062200405 -1.5623e-41 -0.017106637 0.01730633
-0.13536294 -0.026783554 0.014089433 0.008775927 -8.122466e-06 -0.014281901 -0.00028980346 1.2184e-41
0.022392191 1.5885569e-12 4.1278554e-34 0.028044607 7.6791444e-08 -0.01654432 -0.019001119 2.6084e-41
-0.037212033 0.47473446 -4.3157806e-06 -6.4084157e-16 -0.23161344 -0.0051586535 1.3375699e-05 -0.0071329908
4.6571728e-07 -1.567e-42 0.016461004 -2.6268603e-07 0.61862314 -0.2547809 8.847203e-18 -0.08744063
0.10553371 0.0017932032 8.171205e-05 0.08045957 -7.1653435e-20 -2.0133417e-23 0.02512412 3.0433e-41
0.15997425 -0.09889148 -0.014967548 1.8374002e-10 0.018216306 -0.0027267807 -2.3554e-41 0.041156802
-2.3357e-41 -0.0010587691 -0.30802366 -0.103427924 -1.008e-41 -0.006044386 3.665519e-05 0.004894031
0.7039728 -3.2503793e-18 2.16059e-40 -0.12782978 4.2191737e-31 -1.6599496e-09 -0.0225723 0.068747476
-0.0001254891 -0.04947627 0.010692957 -0.6242582 -0.010445058 -0.0030038364 -0.5407708 0.023713324
0.0030195888 -2.4418745e-28 0.07422593 -0.0013691323 0.027820988 -0.009118823 -0.00011994352 -2.2289359e-13
0.004736788 6.048e-42 0.010549047 0.04059542 2.2618e-41 -0.10185024 -0.0071011824 -8.607542e-12
2.9629e-41 0.022987455 -0.008602878 -1.8269957e-07 0.023154398 -0.0022999167 0.28841513 -0.013089198
3.8670606e-16 -0.0008283355 0.025385391 2.5598993e-05 0.04798267 0.05468525 2.9089144e-22 -0.0005902855
00000000: 3454 b13c 795c 4aaf b35f e8bd 497d 14ba
00000010: 4668 0080 83c5 adbd 1c24 31be 8913 31b5
00000020: edd4 283b 03dd e13c 6343 4cb5 09c1 78b9
00000030: dac5 7e3d 8d2b 0080 3823 8cbc 01c6 8d3c
00000040: 959c 0abe 2f69 dbbc 5dd7 663c e8c8 0f3c
00000050: ba45 08b7 a2fe 69bc c3f0 97b9 f721 0000
00000060: d46f b73c cb91 df2b e92b 0908 cebd e53c
00000070: 8be8 a433 f487 87bc 3ca8 9bbc b648 0000
00000080: a56b 18bd 6510 f33e 46d0 90b6 c3b5 38a6
00000090: 132c 6dbe ec09 a9bb 3168 6037 ddbb e9bb
000000a0: b207 fa34 5e04 0080 3ad9 863c 4b07 8db4
000000b0: 165e 1e3f a472 82be bc33 2323 1314 b3bd
000000c0: 0f22 d83d ea09 eb3a d35c ab38 fdc7 a43d
000000d0: d82f a99f edb7 c299 19d1 cd3c d654 0000
000000e0: 4ad0 233e 9e87 cabd 723a 75bc 3806 4a2f
000000f0: 5d3a 953c cab3 32bb a941 0080 0994 283d
00000100: 1c41 0080 65c6 8aba 47b5 9dbe 05d2 d3bd
00000110: 191c 0080 fc0f c6bb 36be 1938 1c5e a03b
00000120: 9037 343f eed5 6fa2 495a 0200 cfe5 02be
00000130: 86eb 080d 4924 e4b0 8be9 b8bc 7acb 8c3d
00000140: b995 03b9 a1a7 4abd 8331 2f3c 63cf 1fbf
00000150: c021 2bbc 03dc 44bb f56f 0abf 7242 c23c
00000160: 4be4 453b aec5 9a91 c403 983d 7574 b3ba
00000170: d7e8 e33c 1e67 15bc 308a fbb8 b4f4 7aaa
00000180: 0f37 9b3b dc10 0000 e9d5 2c3c 6247 263d
00000190: 0d3f 0000 dc96 d0bd 09b1 e8bb ec6c 17ad
000001a0: 9852 0000 3050 bc3c 16f3 0cbc 132c 44b4
000001b0: 4bae bd3c 33ba 16bb 26ab 933e 1374 56bc
000001c0: beeb de25 a824 59ba 06f5 cf3c 6bbd d637
000001d0: 7a89 443d a4fd 5f3d 45d5 af1b 64bd 1aba

A_mean f4 [9]
3.626336e-23 2.8551e-41 -5.801132e-38 9.3440486e-23 3.6137e-41 1.0611422e-38 3.698205e-23 6.38757e-40
1.930888e-39
00000000: de5b 2f1a 974f 0000 fdeb 9d81 dcec e11a
00000010: bc64 0000 548c 7300 8fd5 321a 98f4 0600
00000020: 8806 1500

B_mean f4 [120]
-5.9544534e-23 7.43778e-40 5.846652e-35 3.0423058e-38 -7.44381e-40 5.0034795e-15 -5.6083e-41 9.311349e-09
-1.36624545e-17 -6.209768e-24 -1.9001404e-17 2.5973267e-37 -7.251817e-38 6.9001124e-12 6.563652e-07 2.10958e-40
-3.7617194e-11 8.199099e-07 -6.546416e-23 0.00032232003 8.028764e-15 -8.850377e-39 8.6185314e-10 5.895917e-11
3.45045e-40 -1.1618071e-36 5.203088e-12 -1.0712477e-22 -1.3453174e-05 1.5133938e-06 2.2643778e-38 0.00013956992
4.6428502e-18 -1.043715e-39 -5.970728e-16 0.00021172389 -2.7801115e-24 -6.3841794e-16 -7.231819e-09 -1.4293564e-38
2.7849178e-06 -2.3215566e-10 -3.84982e-40 1.5693327e-07 -9.756192e-14 -7.9655426e-23 -1.876277e-18 4.449524e-38
2.5687424e-38 1.58421e-16 -5.0955673e-15 -8.60827e-40 -3.017917e-11 -3.868575e-33 -7.1691685e-23 -2.6849852e-13
3.4471142e-08 4.2659505e-38 7.983645e-10 1.8426833e-09 2.6045e-41 2.7076687e-19 -1.3321875e-07 -3.9505226e-23
4.7248494e-10 -1.3894851e-07 8.4850315e-38 -1.4108095e-12 -2.5341717e-07 -4.5878e-40 7.548669e-09 -9.481065e-09
7.137336e-24 1.5096175e-12 -2.2596478e-16 5.456475e-38 1.7557329e-19 2.7953094e-23 7.2704e-41 -1.4169993e-37
7.322222e-33 -8.317189e-25 -6.4744506e-07 4.896912e-20 2.4504652e-38 2.4482037e-25 -2.6929951e-12 -3.27518e-40
2.03322e-06 2.514985e-15 -3.256643e-23 -1.1346792e-16 -9.601707e-11 8.556256e-38 -7.737652e-10 -1.239879e-39
3.03062e-40 2.0888412e-14 -3.3342308e-15 -1.4727838e-24 -1.3857451e-11 -7.22378e-14 -3.948437e-38 -2.4240165e-09
4.4251534e-15 7.4923e-41 -4.2049297e-10 3.8177052e-07 -5.3851274e-23 -4.609865e-05 0.00039654423 1.489374e-38
8.4307114e-14 -4.934569e-15 -8.67372e-40 2.6514019e-16 7.1796267e-12 2.9261738e-24 -1.6622139e-14 -2.3567194e-14
00000000: 48f8 8f9a 5a19 0800 406e 9b06 8ea3 2501
00000010: 081b 0880 f444 b427 569c 0080 bff7 1f32
00000020: 1e07 7ca3 903a f098 cc41 afa3 d0c3 b002
00000030: ca69 c581 b0c6 f22c 1331 3035 114c 0200
00000040: 3271 25ae c817 5c35 5a48 9e9a 10fd a839
00000050: 24a2 1028 405f 6080 86e7 6c30 10a7 812e
00000060: d8c1 0300 d6ab c583 4011 b72c 8381 019b
00000070: f1b4 61b7 d11f cb35 a491 f600 8459 1239
00000080: 7b4a ab22 745d 0b80 3218 2ca6 3302 5e39
00000090: c819 5798 ee02 38a6 c17b f8b1 a4a4 9b80
000000a0: 86e4 3a36 0242 7faf 2c31 0480 7d81 2834
000000b0: 9eb0 dba9 5298 c09a df71 0aa2 5041 7201
000000c0: 0bdb 0b01 a0a5 3625 5096 b7a7 a35f 0980
000000d0: baba 04ae bfb1 a089 0157 ad9a b726 97aa
000000e0: 6c0d 1433 ac42 6801 e873 5b30 a841 fd30
000000f0: 9a48 0000 22d5 9f20 e40a 0fb4 1a09 3f9a
00000100: 2ce0 0130 e031 15b4 0afc e601 c58d c6ab
00000110: 640d 88b4 e4fe 0480 66af 0132 2ae2 22b2
00000120: 600e 0a19 b475 d42b 8442 82a5 158a 9401
00000130: c547 4f20 412c 071a abca 0000 38df 4082
00000140: 9c13 180a c8b3 8097 16cc 2db5 0940 671f
00000150: 806a 0501 5689 9716 b080 3dac fd90 0380
00000160: 7472 0836 4939 3527 4a7b 1d9a d2d1 02a5
00000170: ce24 d3ae 67ec e801 e3b0 54b0 4780 0d80
00000180: d04c 0300 6625 bc28 b441 70a7 fae6 e397
00000190: 69c8 73ad 42aa a2a9 2ef9 5681 c093 26b1
000001a0: d66e 9f27 dbd0 0000 202b e7af 24f6 cc34
000001b0: 5334 829a 0c5a 41b8 44e7 cf39 b02d a200
000001c0: bed7 bd29 5ec9 b1a7 e171 0980 c9d7 9825
000001d0: 549c fc2c d866 6218 0bb8 95a8 4046 d4a8

A_logvar f4 [9]
7.23e-42 8.856e-42 -2.2729e-41 1.1355e-41 -5.514e-42 1.0536e-41 3.883e-42 1.8542e-41
-1.3338e-41
00000000: 2814 0000 b018 0000 5c3f 0080 a71f 0000
00000010: 5f0f 0080 5f1d 0000 d30a 0000 b033 0000
00000020: 2e25 0080

B_logvar f4 [120]
2.938e-41 8.767335e-11 -8.709674e-07 -1.6523e-41 -5.5106458e-11 -9.293044e-12 -2.765e-42 4.4779526e-37
1.8828316e-14 -8.9574e-41 7.303338e-07 2.2794291e-20 8.628e-42 3.2913497e-17 -9.399465e-14 1.265e-41
-2.504133e-18 4.835844e-07 6.7317e-41 1.767484e-39 8.803519e-10 3.1357e-41 8.081457e-15 -2.0641981e-17
1.4421e-41 3.492452e-39 2.6101516e-05 -4.6813e-41 -4.1046842e-19 -9.067139e-12 1.139e-42 -4.62374e-32
-3.805195e-09 -2.6017e-41 1.0992522e-09 -2.4284884e-05 -3.019e-41 1.0387481e-12 9.741976e-06 1.6677e-41
-1.6992125e-20 7.206175e-15 -3.1493e-41 1.7527314e-14 -1.422489e-39 -7.957e-42 -3.4160978e-23 -2.0388368e-37
2.3919e-41 -5.0554352e-11 -7.4084916e-09 -2.397e-41 -3.4714967e-07 -5.360433e-22 3.0562e-41 1.87389e-13
-7.882007e-06 2.4081e-41 -2.268701e-30 1.2191859e-08 -2.3609e-41 4.681164e-17 -1.1689096e-12 2.2915e-41
1.4272728e-06 0.00053702627 -1.8996e-41 -4.8614258e-17 -4.1041085e-13 -2.9792e-41 -1.8773818e-09 -3.906788e-13
-5.7914e-41 -3.772985e-39 -4.4972578e-11 1.7298e-41 1.4404536e-14 2.3673645e-29 -2.333e-42 -3.447246e-12
2.1060143e-14 6.1422e-41 -0.00012248044 6.055283e-10 -1.4971e-41 -7.58583e-40 -5.0797994e-10 1.3933e-41
-7.959504e-26 2.9301016e-05 -1.05865e-40 -8.505447e-34 -3.07798e-39 -1.6073e-41 -7.761277e-12 4.800783e-39
-2.7192e-41 -1.5375104e-11 -6.9074326e-17 -2.6248e-41 9.905533e-35 2.494869e-39 2.9024e-41 -7.796524e-07
1.2312163e-37 1.8668e-41 -1.7091566e-10 -2.503707e-14 3.4591e-41 1.23721325e-14 -3.066719e-07 -5.751e-42
1.4655279e-15 2.216022e-39 -2.7398e-41 8.151561e-05 -9.1478855e-15 -3.0104e-41 2.0351853e-18 -3.3285e-40
00000000: e651 0000 b5cb c02e 6dcc 69b5 0f2e 0080
00000010: 5b5c 72ae 267c 23ad b507 0080 7860 1803
00000020: 2497 a928 b2f9 0080 280c 4435 3749 d71e
00000030: 0d18 0000 66c9 1724 3aa8 d3a9 4323 0000
00000040: bcc5 38a2 abcf 0135 a7bb 0000 073f 1300
00000050: 42fd 7130 6957 0000 2495 1128 8063 bea3
00000060: 3328 0000 8907 2600 94f4 da37 7f82 0080
00000070: 3c4c f2a0 c482 1fad 2d03 0000 0c14 708b
00000080: d9be 82b1 8648 0080 8014 9730 64b7 cbb7
00000090: 2854 0080 d830 922b 7871 2337 7d2e 0000
000000a0: 707c a09e 9ed0 0128 ca57 0080 3cdf 9d28
000000b0: 527d 0f80 2e16 0080 3e31 259a 8cc1 8a82
000000c0: ad42 0000 2457 5eae c88d feb1 d242 0080
000000d0: e35f bab4 5702 229c 3255 0000 34fb 522a
000000e0: f63c 04b7 2143 0000 140f 388e 5d74 5132
000000f0: d041 0080 6ee1 5724 6882 a4ab e13f 0000
00000100: b890 bf35 39c7 0c3a f434 0080 9631 60a4
00000110: 700a e7aa 0c53 0080 4003 01b1 c0ee dbaa
00000120: 71a1 0080 8c15 2980 9fca 45ae 3830 0000
00000130: 99be 8128 4c14 f00f 8106 0080 1094 72ac
00000140: 62b1 bd28 38ab 0000 186e 00b9 4472 2630
00000150: bc29 0080 9f42 0880 e9a1 0bb0 d726 0000
00000160: 5a11 c595 74cb f537 1c27 0180 2c52 8d88
00000170: 2884 2180 ce2c 0080 af89 08ad a146 3400
00000180: cd4b 0080 a83d 87ad 4946 9fa4 2b49 0080
00000190: c8aa 0307 ae2a 1b00 e850 0000 4e49 51b5
000001a0: a095 2702 0a34 0000 7bec 3baf 8e83 e1a8
000001b0: 6d60 0000 64e0 5e28 aaa4 a4b4 0810 0080
000001c0: 7034 d326 5e21 1800 604c 0080 5cf3 aa38
000001d0: 2dcb 24a8 eb53 0080 902b 1622 da9f 0380

ar_gate_lin.weight f4 [1, 64]
-0.07912252 0.13467762 0.074500784 0.07152641 0.01768456 -0.14548998 0.008147656 -0.11667707
-0.008445248 0.11662359 0.10254166 -0.21225043 -0.005216118 0.100490205 -0.0069486727 0.08888197
0.04024729 -0.03637486 -0.018231744 -0.11716945 -0.065261304 0.020888085 -0.058562193 0.008552349
-0.036150526 -0.08176689 -0.08658418 0.04650765 -0.09507656 -0.13289474 0.028667523 0.13563827
0.110095896 -0.07515233 -0.036968708 -0.020278748 0.022343447 0.034576893 -0.104467995 -0.016985323
0.036862753 0.06292939 0.016317826 0.016840339 -0.009808664 0.10199201 0.0015247101 0.008696706
0.11090064 0.023677394 0.035797227 -0.020465888 -0.12681353 0.010989137 0.04718124 -0.049432714
0.14838983 0.025568377 0.07121955 0.21333614 0.007528725 0.15804903 0.05778211 0.04800716
00000000: fd0a a2bd eee8 093e de93 983d 707c 923d
00000010: 36df 903c 53fb 14be bf7d 053c 63f4 eebd
00000020: f05d 0abc 59d8 ee3d 5d01 d23d 2d58 59be
00000030: f8eb aabb cfcd cd3d b1b1 e3bb c007 b63d
00000040: 58da 243d cefd 14bd bd5a 95bc 89f6 efbd
00000050: b8a7 85bd 7d1d ab3c e9de 6fbd 271f 0c3c
00000060: 9312 14bd 6675 a7bd 0c53 b1bd ce7e 3e3d
00000070: 80b7 c2bd 8f15 08be 27d8 ea3c c2e4 0a3e
00000080: f579 e13d 77e9 99bd 806c 17bd 9e1f a6bc
00000090: 9b09 b73c 80a0 0d3d 51f3 d5bd ce24 8bbc
000000a0: 66fd 163d 20e1 803d f6ac 853c c0f4 893c
000000b0: 85b4 20bc 30e1 d03d c8d8 c73a a17c 0e3c
000000c0: e01f e33d 18f7 c13c 1da0 123d 14a8 a7bc
000000d0: 68db 01be c80b 343c 1e41 413d f579 4abd
000000e0: 81f3 173e c674 d13c 8edb 913d ca74 5a3e
000000f0: 86b3 f63b 9bd7 213e efac 6c3d 28a3 443d

ar_mean_lin.weight f4 [1, 64]
-0.07267651 0.018492498 0.009823477 0.0055589913 0.0234775 0.012842812 -0.021074582 -0.015419722
-0.0034973598 0.009052828 0.016261818 -0.015919507 -0.017777417 0.006296383 -0.015832528 -0.01433401
0.028596906 -0.0045400113 0.092680216 -0.020577706 -0.013598087 0.008295002 -0.057921994 0.008887707
0.00417384 -0.015975613 0.039422445 -0.027236558 -0.027610296 -0.0051463665 -0.034002475 0.031153107
0.058741227 -0.022925127 0.026099615 -0.03083633 -0.008814207 -0.029885164 -0.047367472 0.027897295
-0.007855289 0.06332889 -0.014074814 0.0065801046 0.025639277 0.01972484 0.0048577175 -0.010063984
-0.022816192 0.04759212 0.030549722 0.028994173 -0.019104153 0.022515373 0.0045878864 0.010188056
0.018267516 0.047011506 -0.008001883 0.029645184 -0.007832982 0.015467803 0.17207906 0.38167974
00000000: 6cd7 94bd 947d 973c a6f2 203c 3328 b63b
00000010: e353 c03c a86a 523c 9aa4 acbc 00a3 7cbc
00000020: f633 65bb 5052 143c 8137 853c a069 82bc
00000030: f2a1 91bc e451 ce3b 38b3 81bc 32d9 6abc
00000040: 0f44 ea3c 60c4 94bb 20cf bd3d 9492 a8bc
00000050: 83ca 5ebc c3e7 073c 9d3f 6dbd bf9d 113c
00000060: b5c4 883b 4adf 82bc 6e79 213d 341f dfbc
00000070: fd2e e2bc daa2 a8bb 2e46 0bbd cd34 ff3c
00000080: a49a 703d 7acd bbbc dcce d53c 799c fcbc
00000090: 7769 10bc bbd1 f4bc 6504 42bd de88 e43c
000000a0: 78b3 00bc 94b2 813d 0c9a 66bc eb9d d73b
000000b0: 7609 d23c fd95 a13c 7d2d 9f3b 69e3 24bc
000000c0: 06e9 babc f4ef 423d 6943 fa3c 3085 ed3c
000000d0: 5080 9cbc 2972 b83c fb55 963b ceeb 263c
000000e0: c2a5 953c 238f 403d 541a 03bc 75da f23c
000000f0: e855 00bc ab6c 7d3c 7e35 303e 876b c33e

ar_logvar_lin.weight f4 [1, 64]
-0.20735152 0.24343918 0.06129499 -0.13789327 0.101607606 -0.30535594 -0.14577599 -0.0769916
-0.07467395 0.03156531 0.28445652 -0.01811896 -0.3689825 -0.02090514 0.09904353 -0.034710728
0.07223887 0.13882123 0.1509779 -0.22783886 -0.041540865 0.05214966 -0.0641706 -0.17013438
-0.007883289 -0.25428215 -0.076011315 -0.15205716 -0.21577865 0.15055649 -0.028212976 0.04398743
0.08140322 -0.21014978 -0.02922705 -0.14815538 -0.0014838176 0.02917031 -0.13947375 0.14620881
-0.1089684 0.018373674 0.014914196 -0.0538854 0.10250401 -0.13642806 0.013739446 0.12999944
-0.21175422 0.002319095 -0.05988324 -0.08069051 0.1891412 -0.05945489 0.01050098 -0.06341391
0.05137741 0.031373687 0.1662743 0.026581822 -0.13247913 0.15295354 0.33247197 0.31296343
00000000: f553 54be 1f48 793e 7510 7b3d e533 0dbe
00000010: a617 d03d 9d57 9cbe 4d46 15be c6ad 9dbd
00000020: a8ee 98bd a04a 013d 49a4 913e 376e 94bc
00000030: 46eb bcbe 4241 abbc 56d7 ca3d d62c 0ebd
00000040: f9f1 933d 2727 0e3e f399 1a3e 974e 69be
00000050: c126 2abd e29a 553d e06b 83bd b537 2ebe
00000060: e928 01bc 4531 82be d2ab 9bbd dfb4 1bbe
00000070: 14f5 5cbe 7b2b 1a3e e61e e7bc 2a2c 343d
00000080: bbb6 a63d 8131 57be 916d efbc 0bb6 17be
00000090: a87c c2ba 93f6 ee3c 35d2 0ebe c3b7 153e
000000a0: d32a dfbd 6384 963c ac5a 743c f0b6 5cbd
000000b0: 9fed d13d ccb3 0bbe 6a1b 613c 931e 053e
000000c0: 19d6 58be f5fb 173b 2148 75bd 1141 a5bd
000000d0: 3bae 413e f986 73bd 4d0c 2c3c 27df 81bd
000000e0: 1e71 523d b281 003d cf43 2a3e 1fc2 d93c
000000f0: 9ca8 07be da9f 1c3e c439 aa3e be3c a03e
