experiments/konrad/saved_models/rolling/lognormal/model_interval_2.pt (torch, 581194 bytes, 15 tensors)

A_gate f4 [9]
4.5645655e-05 -0.007931934 -0.08720558 -3.403905e-05 0.0063970364 -0.025611056 -5.4134194e-05 0.0022602836
0.31072974
00000000: a673 3f38 f1f4 01bc d798 b2bd 27c5 0eb8
00000010: 3b9e d13b 47ce d1bc 260e 63b8 4421 143b
00000020: f817 9f3e

B_gate f4 [120]
-8.9853775e-06 -9.997e-42 6.315737e-33 0.08597064 1.098535e-26 -6.108e-42 -0.0005339754 -1.802e-41
-9.226296e-09 -1.2815838e-05 -1.2361e-41 2.2276e-41 0.10153059 -2.5773e-23 3.815552e-21 -0.0006943298
-1.8417e-41 -9.106e-42 5.6462904e-06 -1.9946e-41 -8.092e-42 0.07830628 -4.497e-42 9.956e-42
0.00055724126 -2.497e-42 -3.5772186e-26 -1.3613004e-05 -9.202e-42 -8.1424173e-10 0.09493351 -1.0427e-41
1.8416e-41 -0.0008755885 1.5884e-41 -9.111e-42 -7.654345e-05 2.6152644e-11 -8.975e-42 0.06126509
-2.1846e-41 1.0377e-41 0.001219793 -3.9321294e-25 6.47e-43 -2.154927e-05 3.0268e-41 -9.670673e-15
0.089106545 1.786468e-07 1.1202e-41 0.0018252155 -9.705e-42 9.651e-42 -4.7522292e-08 2.8564e-41
3e-44 0.0106623825 1.2368e-41 -8.1639117e-13 0.0013883284 -1.2531449e-21 8.272e-42 -1.8286171e-05
2.2701e-41 2.7674e-41 0.101356566 2.3848887e-14 7.237322e-15 0.0021767663 3.258e-42 -8.123e-42
6.186053e-06 7.745e-42 8.143455e-07 0.082492724 -3.2668008e-14 1.749e-42 -0.0025786601 -1.1398e-41
1.4268019e-08 -1.2500679e-05 -7.58e-42 1.3162e-41 0.13120423 6.837e-42 2.6884e-41 0.00050831813
-2.368e-42 9.621e-42 -1.21009025e-05 -1.153479e-18 -1.2359516e-10 0.0826194 2.0662e-41 -6.482e-42
0.0005539853 2.863e-41 2.6022462e-17 2.7212627e-06 -8.4e-42 1.1681e-41 0.07162185 3.7830435e-15
-2.307e-42 0.0006138413 -2.5491e-41 2.9032942e-06 -5.4052803e-06 -1.7274604e-26 3.639e-42 0.07254721
9.335e-42 -2.213e-42 0.004666568 2.2855e-41 7.022e-42 9.9693825e-06 -5.457622e-36 -2.722304e-39
00000000: e7bf 16b7 de1b 0080 382c 030a 6011 b03d
00000010: 5896 5914 0711 0080 7cfa 0bba 3c32 0080
00000020: ae81 1eb2 9b03 57b7 7522 0080 193e 0000
00000030: 45ef cf3d db42 f999 c125 901d af03 36ba
00000040: 5733 0080 6219 0080 4475 bd36 9a37 0080
00000050: 8f16 0080 0b5f a03d 890c 0080 c11b 0000
00000060: d413 123a f606 0080 a222 3195 6863 64b7
00000070: a719 0080 2bd1 5fb0 806c c23d 111d 0080
00000080: 5633 0000 c087 65ba 472c 0000 6619 0080
00000090: f485 a0b8 850a e62d 0519 0080 1af1 7a3d
000000a0: e63c 0080 ed1c 0000 76e1 9f3a 1463 f396
000000b0: ce01 0000 b4c4 b4b7 6054 0000 1c36 2ea8
000000c0: 7e7d b63d 0fd2 3f34 3a1f 0000 123c ef3a
000000d0: 0e1b 0080 e71a 0000 501b 4cb3 a04f 0000
000000e0: 1500 0000 46b1 2e3c 7a22 0000 2fcb 65ab
000000f0: 92f8 b53a b25e bd9c 0f17 0000 4165 99b7
00000100: 483f 0000 254d 0000 0894 cf3d cacf d628
00000110: 4260 0228 14a8 0e3b 1509 0000 a516 0080
00000120: ca91 cf36 9715 0000 6699 5a35 f2f1 a83d
00000130: a61f 13a9 e004 0000 bdfe 28bb c61f 0080
00000140: 691f 7532 02ba 51b7 2115 0080 b124 0000
00000150: 675a 063e 0f13 0000 f14a 0000 a740 053a
00000160: 9a06 0080 d21a 0000 fb04 4bb7 3439 aaa1
00000170: f2e4 07af 5c34 a93d 9939 0000 1212 0080
00000180: 5339 113a cf4f 0000 cd03 f023 f09e 3636
00000190: 6a17 0080 9020 0000 7aae 923d 6b4c 8827
000001a0: 6e06 0080 31ea 203a 0f47 0080 37d6 4236
000001b0: 015f b5b6 5314 ab94 250a 0000 a293 943d
000001c0: 061a 0000 2b06 0080 02ea 983b b63f 0000
000001d0: 9313 0000 2c42 2737 3e24 e884 ada4 1d80

A_mean f4 [9]
0.15151289 -0.056156468 -0.101401985 0.11914701 -0.031145569 -0.13089731 0.13382328 -0.02745348
-0.10000945
00000000: 3226 1b3e 5304 66bd d8ab cfbd 5903 f43d
00000010: fe24 ffbc f209 06be f808 093e 1fe6 e0bc
00000020: c1d1 ccbd

B_mean f4 [120]
0.040876005 5.737573e-18 1.1238651e-12 -0.03502297 1.06625946e-19 -5.089401e-13 -0.009278225 -1.4349907e-21
-5.855013e-15 0.022693211 1.1570407e-08 -1.2845802e-14 -0.0637552 -1.7948235e-10 -3.5482644e-06 -0.016349746
3.6642483e-08 6.380976e-13 0.07231931 1.5527101e-05 -1.6539016e-10 -0.05469542 -2.0429809e-08 -3.2414403e-07
-0.017174488 -1.172711e-07 -2.8075e-41 0.0443167 -4.906775e-07 -1.6005691e-12 -0.06557583 -2.7798265e-17
2.5824395e-13 -0.016986221 6.7009217e-15 -2.8132681e-14 0.078117736 7.0111863e-09 3.3032975e-16 -0.038986612
4.2634994e-05 -3.079497e-16 -0.024175528 -7.197294e-10 -4.045412e-13 0.062474426 -5.5868157e-05 8.782658e-23
-0.04601324 -7.951102e-20 1.1695992e-07 -0.016394194 -3.8044473e-07 3.1414338e-09 0.06924646 -1.8238388e-05
4.8608506e-08 -0.07271511 -4.6448866e-07 -1.7545004e-12 -0.024808992 -1.6485552e-26 8.120624e-11 0.088986196
1.3768286e-05 -5.725841e-13 -0.056828912 -1.9958861e-11 -2.0189693e-22 -0.01661987 -9.069875e-20 -1.0680372e-21
0.07223044 -5.9280385e-09 5.7352987e-11 -0.04941575 7.304362e-18 -2.6371185e-07 -0.013752378 1.054278e-12
-4.4627217e-09 0.062130615 0.00011370865 4.4164837e-13 -0.054235127 -2.1042958e-15 -6.8307345e-06 -0.023106102
2.233125e-06 -5.152221e-10 0.0597499 2.9451945e-07 1.2482265e-12 -0.05571028 7.30732e-08 -1.1635451e-19
-0.017372845 8.738472e-19 4.296885e-12 0.07374963 3.312355e-32 -4.040645e-09 -0.034932118 2.9174563e-13
-0.00023486975 -0.013810068 -1.3819775e-12 -1.8348974e-08 0.06491974 3.2051706e-14 -3.745401e-05 -0.04287269
6.369643e-08 -2.2137394e-06 -0.02719932 2.56598e-14 -1.3569496e-10 0.04393719 1.13150406e-07 -5.120706e-16
00000000: 996d 273d d8ad d322 822b 9e2b 3f74 0fbd
00000010: 6ec3 fb1f 0041 0fab b203 18bc 84d9 d89c
00000020: f7f2 d2a7 1de7 b93c 30c7 4632 ce68 67a8
00000030: 1692 82bd ca57 45af b81e 6eb6 e7ef 85bc
00000040: d660 1d33 c79b 332b 251c 943d 3240 8237
00000050: 31d9 35af 4e08 60bd a07d afb2 0406 aeb4
00000060: 83b1 8cbc 78d6 fbb3 434e 0080 6e85 353d
00000070: 1ab7 03b5 9442 e1ab 9f4c 86bd 6632 00a4
00000080: e060 912a b026 8bbc 186d f127 8c65 fda8
00000090: 31fc 9f3d 0ce7 f031 116c be25 6db0 1fbd
000000a0: fad2 3238 5b85 b1a5 c20b c6bc 74d6 45b0
000000b0: 88bc e3aa 2fe5 7f3d fa53 6ab8 055a d41a
000000c0: 6178 3cbd 76bd bb9f 652b fb33 1e4d 86bc
000000d0: ed3f ccb4 b0e0 5731 17d1 8d3d a4fe 98b7
000000e0: 9ec5 5033 a9eb 94bd d65e f9b4 8aec f6ab
000000f0: 3a3c cbbc d743 a394 0d93 b22e 653e b63d
00000100: 57fe 6637 082b 21ab 6fc5 68bd 5c8f afad
00000110: 1314 749b 6526 88bc 0828 d69f b065 a19c
00000120: 8eed 933d 94af cbb1 b93d 7c2e 2b68 4abd
00000130: e0bd 0623 4894 8db4 a751 61bc 5e60 942b
00000140: 8456 99b1 ac7c 7e3d de76 ee38 3da0 f82a
00000150: a725 5ebd 68a1 17a7 9033 e5b6 0249 bdbc
00000160: ccdc 1536 889f 0db0 50bc 743d 721e 9e34
00000170: 19ac af2b 7630 64bd 6bec 9c33 fe5d 09a0
00000180: 7f51 8ebc 04f5 8021 e62e 972c 0c0a 973d
00000190: c0fc 2b0b e4d5 8ab1 fb14 0fbd fa3c a42a
000001a0: 5e47 76b9 a043 62bc fd7e c2ab d29d 9db2
000001b0: a4f4 843d 1a59 1029 f017 1db8 469b 2fbd
000001c0: 7cc9 8833 c18f 14b6 1cd1 debc 781f e728
000001d0: bc32 15af 7cf7 333d 18fd f233 2498 13a6

A_logvar f4 [9]
-3.8174098e-15 0.0019035013 -8.872372e-15 -3.0762996e-15 0.002983996 -9.4226766e-15 -3.6816135e-15 0.00203614
-8.520123e-15
00000000: 6489 89a7 e87e f93a 98d4 1fa8 b6ab 5da7
00000010: 258f 433b 6dbe 29a8 e4a4 84a7 c370 053b
00000020: 227c 19a8

B_logvar f4 [120]
3.096937e-15 1.1526792e-05 6.5505305e-13 6.984541e-15 -2.3110894e-15 -0.00012518626 -0.0011976019 3.7086595e-10
-2.6314436e-15 1.9268962e-15 1.2894349e-09 -1.6670815e-13 4.3317625e-15 8.675647e-05 -3.9163617e-11 -0.0011721249
-1.7825323e-06 -3.8394488e-09 1.4947197e-15 4.3471297e-05 9.402131e-07 5.7614597e-15 -2.83443e-12 -9.320917e-07
-0.0010587448 -1.4654569e-07 -2.3640742e-07 2.4049053e-15 -8.227863e-11 8.554413e-11 1.6166695e-15 -2.2499053e-06
-2.2656101e-09 -0.0010885668 2.6843024e-06 -1.1958912e-07 2.6086535e-15 2.8441138e-12 -1.0867925e-08 7.520334e-15
3.590984e-05 -4.5378346e-20 -0.00070112053 -2.488115e-07 9.639642e-10 2.0892826e-15 -4.262862e-07 -6.642719e-07
7.888558e-15 3.7453428e-06 -5.2717025e-10 -0.0016104273 1.3151652e-14 -6.0761354e-11 1.5179805e-15 -2.8725098e-09
8.4488284e-12 6.9187265e-15 -8.778903e-10 2.7673567e-11 -0.00082441856 -4.0138284e-06 3.1442823e-08 8.900942e-16
-2.9577226e-12 -1.7072124e-14 2.8596853e-15 -4.2035073e-21 9.377809e-12 -0.0012247452 -6.643157e-08 -1.5249812e-15
2.5199584e-15 3.8314876e-11 1.0779202e-12 3.6185087e-15 -6.449829e-13 -1.52849455e-30 -0.0008670355 -5.481926e-10
-2.1188665e-15 1.976197e-15 -1.303e-42 4.6389534e-15 7.2704844e-15 1.3934754e-12 2.4341443e-06 -0.0008885152
-2.6717598e-16 9.900083e-10 1.7329514e-15 1.6034024e-08 -8.87613e-07 5.46933e-15 4.830343e-10 -1.4074986e-11
-0.0012463175 2.4470077e-20 2.4376888e-08 2.0487156e-15 1.7368688e-09 2.3949913e-09 4.462294e-15 2.9169058e-09
-2.7491335e-15 -0.0010069422 -6.851837e-14 -5.8772713e-12 2.9192251e-15 -1.7580123e-07 -1.3221808e-09 3.929441e-15
-3.3506396e-08 1.230312e-10 -0.0006713345 -5.959948e-08 2.9462547e-11 1.6956417e-15 6.038389e-07 -3.91735e-17
00000000: 6728 5f27 3263 4137 8c61 382b 05a5 fb27
00000010: 1388 26a7 6e44 03b9 daf8 9cba bee2 cb2f
00000020: 919d 3da7 f6d8 0a27 f537 b130 5ab2 3baa
00000030: 7511 9c27 06f1 b538 503e 2cae fca1 99ba
00000040: 583f efb5 26ec 83b1 6c69 d726 f354 3638
00000050: f462 7c35 1694 cf27 8d74 47ac db34 7ab5
00000060: 95c5 8aba 2c5a 1db4 2dd7 7db4 ac4a 2d27
00000070: c0ee b4ae 101d bc2e 94fc e826 14fd 16b6
00000080: 09b1 1bb1 3eae 8eba f723 3436 6868 00b4
00000090: 2af9 3b27 0023 482c a4b5 3ab2 6b79 0728
000000a0: e69d 1638 0e4b 569f 67cb 37ba 6494 85b4
000000b0: 7a7c 8430 768c 1627 54dc e4b4 6b50 32b5
000000c0: 8d1b 0e28 8058 7b36 4fe8 10b0 f914 d3ba
000000d0: 4aeb 6c28 9a9d 85ae 98c3 da26 ba65 45b1
000000e0: 24a2 142d fd45 f927 0a50 71b0 556b f32d
000000f0: cb1d 58ba 86ae 86b6 c00b 0733 ae46 8026
00000100: 9821 50ac a3c5 99a8 e20f 4e27 d4cd 9e9d
00000110: e6f9 242d a187 a0ba 24a9 8eb3 e0c5 dba6
00000120: 0795 3527 b782 282e 2bb4 972b da5e 8227
00000130: ea8b 35ab 2e03 f88d c449 63ba a0af 16b0
00000140: 30ae 18a7 6666 0e27 a203 0080 cb22 a727
00000150: 31f9 0228 3e1d c42b 485a 2336 3feb 68ba
00000160: 3704 9aa5 d210 8830 9fbe f926 31bb 8932
00000170: 4d44 6eb5 aa0d c527 84c6 0430 1a9c 77ad
00000180: 7a5b a3ba 041d e71e 5865 d132 22a0 1327
00000190: a3b6 ee30 2295 2431 66c5 a027 c072 4831
000001a0: 9018 46a7 60fb 83ba 274a 9aa9 c1c9 ceac
000001b0: 335a 5227 e0c3 3cb4 1ab8 b5b0 b292 8d27
000001c0: ace8 0fb3 3446 072f 7ffc 2fba 52fa 7fb3
000001d0: e193 012e 235e f426 7e17 2235 e8a7 34a4

ar_gate_lin.weight f4 [1, 64]
0.010442886 -0.05157181 0.05627588 -0.016437456 -0.041341487 0.11758688 -0.011313436 0.015881909
0.0056601195 -0.05497858 -0.01535285 -0.055325363 -0.08948727 0.02338503 -0.011432062 0.014424693
-0.11235517 -0.04837765 -0.1312605 -0.015777098 -0.009878329 -0.038008228 0.039620142 -0.042979058
-0.118442394 -0.002640722 -0.051270768 0.02471122 0.007997628 -0.01688674 0.08788111 -0.045595586
-0.13061659 -0.018082572 0.06682441 0.06014604 -0.06621292 -0.024301717 0.08138621 -0.036018837
-0.04048301 -0.022850271 0.04858523 0.058979288 0.015327094 -0.056690004 -0.08268565 -0.03247168
-0.036389478 -0.024130356 0.07664327 0.04771587 -0.005764226 -0.011951741 -0.008669678 0.03155461
-0.13859019 0.03563123 -0.04326982 -0.12856077 0.077459626 0.121262476 -0.15703234 -0.35972676
00000000: a318 2b3c f63c 53bd 8a81 663d d8a7 86bc
00000010: b155 29bd 64d1 f03d fd5b 39bc c71a 823c
00000020: 8678 b93b 3831 61bd 858a 7bbc d99c 62bd
00000030: 1a45 b7bd f691 bf3c 8b4d 3bbc 8c55 6c3c
00000040: 781a e6bd a527 46bd 2769 06be f93e 81bc
00000050: b7d8 21bc 84ae 1bbd bb48 223d cf0a 30bd
00000060: ed91 f2bd f70f 2dbb 4c01 52bd 2f6f ca3c
00000070: 7c08 033c 1056 8abc 03fb b33d 70c2 3abd
00000080: 5bc0 05be e721 94bc 3cdb 883d b25b 763d
00000090: a49a 87bd 6514 c7bc d0ad a63d 7d88 13bd
000000a0: 83d1 25bd 7e30 bbbc 4e01 473d 4494 713d
000000b0: 7e1e 7b3c c733 68bd 1857 a9bd 0601 05bd
000000c0: 220d 15bd 06ad c5bc 26f7 9c3d b771 433d
000000d0: d5e1 bcbb 3cd1 43bc 440b 0ebc 683f 013d
000000e0: 96ea 0dbe 0df2 113d b23b 31bd 6fa5 03be
000000f0: 27a3 9e3d 7658 f83d 16cd 20be 1b2e b8be

ar_mean_lin.weight f4 [1, 64]
-0.056466933 0.0114106685 0.042286605 -0.053138718 0.05874693 0.058880836 -0.0017728361 -0.019791147
0.056481607 0.06963825 -0.07467685 -0.042739578 -0.11039648 0.016195785 0.013917153 0.0136287995
-0.118701234 0.044748522 -0.04096446 -0.0011903442 0.057644777 -0.10113841 0.021040453 -0.0009998884
-0.10478075 0.033789415 -0.008243884 -0.012765945 0.046531133 -0.07339611 0.08780047 -0.09241937
-0.027287059 0.0014033653 0.02569969 -0.0026487752 -0.08285351 -0.016422538 0.06776267 -0.080413036
0.095109634 0.04404648 -0.02021178 0.035260823 0.01636699 0.024560831 -0.1126526 0.025278907
-0.0695713 0.0748914 0.019310113 0.053989198 -0.04553464 0.0626617 0.032011274 0.07212658
-0.06957873 0.016081065 -0.06389999 0.0665021 0.009403598 0.016115107 0.1647267 0.6089027
00000000: df49 67bd d0f3 3a3c b834 2d3d fca7 59bd
00000010: 9fa0 703d 082d 713d 825e e8ba 0b21 a2bc
00000020: 4259 673d 809e 8e3d 2df0 98bd b20f 2fbd
00000030: 8d17 e2bd 06ad 843c c504 643c 544b 5f3c
00000040: a219 f3bd 3a4a 373d 59ca 27bd 5305 9cba
00000050: ee1c 6c3d a821 cfbd 075d ac3c b00e 83ba
00000060: 4a97 d6bd c566 0a3d 5b11 07bc 4128 51bc
00000070: 6e97 3e3d b350 96bd bcd0 b33d 5e46 bdbd
00000080: 1c89 dfbc 20f1 b73a 2888 d23c 1397 2dbb
00000090: 1aaf a9bd 8f88 86bc 28c7 8a3d 97af a4bd
000000a0: d7c8 c23d 156a 343d 2d93 a5bc a76d 103d
000000b0: 1114 863c cc33 c93c 68b6 e6bd b615 cf3c
000000c0: 667b 8ebd aa60 993d 3e30 9e3c c723 5d3d
000000d0: 8882 3abd c754 803d 411e 033d 1ab7 933d
000000e0: 4b7f 8ebd 70bc 833c ffdd 82bd 4132 883d
000000f0: 8c11 1a3c d403 843c 1eae 283e 0ce1 1b3f

ar_logvar_lin.weight f4 [1, 64]
-0.16149496 0.034837194 0.07930422 -0.08059695 0.104890846 -0.013459382 -0.08441434 0.037537783
-0.25288177 0.0029731388 -0.0069498355 0.026686182 -0.07553864 0.0033007981 -0.044645347 -0.17561962
-0.05438103 0.021739265 -0.03241435 0.10130479 0.0014437545 -0.021820417 -0.04802407 -0.103194214
0.1372146 -0.061058484 -0.1181355 -0.111679114 0.05676062 -0.02879784 0.024457341 0.042584118
-0.29892477 -0.05101809 0.06956077 -0.059096552 -0.2002294 -0.1222552 0.07645083 -0.17382796
-0.12870005 -0.08476379 -0.16746596 0.058426242 0.02316983 0.04682331 -0.073365316 -0.05424063
0.06913363 -0.07420371 -0.012893137 -0.17043665 0.019154103 -0.10602578 0.06520598 -0.18118453
-0.07697162 -0.08459471 -0.07898281 -0.06419227 -0.046426434 -0.077478655 0.0065003126 -0.14340025
00000000: ef5e 25be 72b1 0e3d 406a a23d 0410 a5bd
00000010: 03d1 d63d bd84 5cbc 6de1 acbd 38c1 193d
00000020: b879 81be fed8 423b 72bb e3bb fb9c da3c
00000030: 01b4 9abd 3452 583b 0ade 36bd a1d5 33be
00000040: a5be 5ebd 8b16 b23c e9c4 04bd e378 cf3d
00000050: 5d3c bd3a bbc0 b2bc e3b4 44bd 7d57 d3bd
00000060: fc81 0c3e 7618 7abd 06f1 f1bd 05b8 e4bd
00000070: d37d 683d 73e9 ebbc c35a c83c af6c 2e3d
00000080: ab0c 99be 58f8 50bd e175 8e3d 3a0f 72bd
00000090: f008 4dbe ef60 fabd 4192 9c3d f5ff 31be
000000a0: f2c9 03be a398 adbd 327c 2bbe 5b50 6f3d
000000b0: a8ce bd3c cdc9 3f3d 8e40 96bd 6c2b 5ebd
000000c0: ef95 8d3d 1df8 97bd bc3d 53bc f286 2ebe
000000d0: 11e9 9c3c 0b24 d9bd b68a 853d 7088 39be
000000e0: 4ca3 9dbd fe3f adbd bdc1 a1bd 3d77 83bd
000000f0: a529 3ebd 21ad 9ebd 9300 d53b 84d7 12be

feat_mlp_sigma.0.weight f4 [32, 1080]
-1.5881e-41 -1.05134787e-13 5.4403075e-36 2.277e-42 -2.5879e-41 -5.874e-42 -3.0736e-41 3.3379e-41
6.3024694e-12 1.1712e-41 4.72652e-40 -3.127e-41 -3.1875e-41 4.861797e-14 -3.277581e-11 7.615932e-18
3.8641828e-16 -1.2421e-41 -3.015537e-10 1.9435483e-06 1.465e-41 2.5347e-41 1.038896e-39 2.0249e-41
-7.078e-42 -2.0204e-41 -2.1376705e-05 -6.6489253e-10 5.83756e-40 9.096e-42 -3.039e-41 4.7962877e-17
-1.0791e-41 1.1611e-41 -7.65008e-40 7.1967904e-22 -3.273e-41 2.7719e-41 -2.2066e-41 -1.142e-42
9.633e-42 -2.5651e-41 2.2791105e-12 3.095e-41 -6.1055e-40 2.6071e-41 -5.815e-42 -1.636031e-39
-1.8639e-41 -2.71e-42 -1.9352e-41 -6.67e-43 -2.874e-42 -4.11987e-40 -3.1841984e-07 -4.435e-42
-8.734111e-39 9.140027e-19 2.912175e-21 -1.5742e-41 -1.1695e-41 8.9948386e-27 -7e-43 3.255e-42
3.2513e-41 6.530229e-09 4.6641125e-20 5.736e-42 7.406e-42 -6.82e-43 1.8852e-41 -1.4513401e-19
-3.1201e-41 -3.22e-42 -2.3686e-41 3.2684e-41 -1.525e-42 -1.49677e-39 -3.1327e-41 3.2362e-41
1.7836e-41 2.519274e-08 2.0788e-41 4.633e-42 -5.99628e-40 1.6867e-41 3.6755105e-20 -2.80305e-39
-2.5965534e-18 -5.942e-42 9.893e-42 2.288e-42 3.345541e-39 7.0986816e-10 9.583e-42 -3.922726e-12
-1.871e-41 -3.1419e-41 4.8561e-40 -6.477e-42 -5.38934e-40 -2.2122e-41 -1.8322e-41 2.2234547e-06
3.600012e-38 -1.7468034e-16 -2.4126e-41 7.2692e-40 1.8955e-41 -8.8281744e-17 -3.182e-42 5.4962736e-11
-9.63754e-40 -2.1062e-41 3.146e-41 1.16793055e-17 -4.558e-42 5.919751e-07 -1.5776e-41 -9.42e-43
-1.1446e-41 3.347e-41 -2.3101626e-23 -2.9973606e-23 -2.3193e-41 -2.0217e-41 -2.3355e-41 -2.193e-42
1.8798e-41 -3.3729e-41 9.298e-42 -1.46002e-39 1.7739477e-07 -1.3502e-41 9.309986e-08 -6.117e-42
2.707e-42 -6.28955e-40 -3.5076e-41 -1.9091e-41 -1.8485e-41 2.2455277e-14 -9.512629e-06 2.761e-41
1.8094e-41 5.7510515e-14 -1.3092e-41 1.3441e-41 1.6184e-41 -2.2526e-41 -2.1307e-41 1.076909e-39
4.068e-42 1.5388e-41 -2.406258e-39 -2.45e-43 1.0406e-41 2.8125e-41 5.411589e-07 -3.4133e-41
5.5901486e-13 -2.0661718e-16 -1.39816e-39 3.089636e-39 2.0273e-41 -1.527e-42 -2.0329e-41 -6.44569e-40
-1.1436e-41 2.5677838e-11 5.277e-42 -8.09405e-40 1.5028e-41 5.95855e-40 -2.5240074e-06 3.9866926e-11
2.840522e-39 -1.519341e-16 -3.126e-41 3.3636062e-15 -2.213e-42 -5.084e-42 -5.2879298e-11 -4.5908214e-20
2.3559e-41 2.0996e-41 4.63894e-40 1.024e-41 -4.018e-42 -4.3015494e-11 6.793e-42 -1.213136e-39
1.3314e-41 -1.7640212e-07 -1.2584e-41 3.4566256e-30 3.89345e-40 -3.7579384e-10 -3.0031388e-27 2.9377e-41
-8.886e-42 3.917e-40 -8.73399e-05 -1.9726261e-36 -1.9048726e-06 -1.8283e-41 -1.9888496e-10 -1.3011e-41
1.2203e-41 1.2600096e-07 9.458126e-18 -3.4724e-41 1.9318e-41 -1.9912e-41 -6.580201e-07 6.453e-42
-3.529916e-07 2.7582e-41 -4.19934e-18 -1.7229e-41 -9.61676e-34 -1.239e-42 2.8633e-41 -5.944e-42
-5.76685e-40 -3.3742e-41 4.460922e-39 7.04e-42 -2.7206e-41 1.311449e-39 -1.505063e-39 -8.904565e-08
3.0812e-41 -1.317e-42 2.7187e-41 1.5525e-41 2.1668e-41 -1.1653e-41 -1.1509e-41 -8.86041e-40
2.784362e-18 3.1637e-41 -1.99489e-39 -4.19654e-40 -5.44e-43 -5.773e-42 -1.1751e-41 -2.9434e-41
9.833e-42 -2.7253996e-05 1.021872e-39 -1.8804e-41 7.455e-42 -1.293604e-39 -2.2383e-41 -8.13326e-06
00000000: 452c 0080 14be eca9 b467 e704 5906 0000
00000010: 2448 0080 6010 0080 ae55 0080 0c5d 0000
00000020: 99bf dd2c a620 0000 9025 0500 2b57 0080
00000030: db58 0080 b4f4 5a29 4826 10ae 397d 0c23
00000040: 46c1 de25 a022 0080 e9c7 a5af e86d 0236
00000050: d728 0000 a846 0000 0550 0b00 7238 0000
00000060: bb13 0080 5238 0080 2052 b3b7 a7c3 36b0
00000070: 465b 0600 5b19 0000 b754 0080 9230 5d24
00000080: 151e 0080 5e20 0000 8854 0880 7882 591c
00000090: 3d5b 0080 454d 0000 833d 0080 2f03 0080
000000a0: da1a 0000 8147 0080 ce60 202c 4756 0000
000000b0: f7a5 0680 ad48 0000 3610 0080 97d0 1180
000000c0: f533 0080 8e07 0080 f235 0080 dc01 0080
000000d0: 0308 0080 747c 0480 4af3 aab4 5d0c 0080
000000e0: 261b 5f80 0ce2 8621 a809 5c1d e22b 0080
000000f0: 9a20 0080 4029 3214 f401 0080 1309 0000
00000100: a25a 0000 8060 e031 a941 5c1f fd0f 0000
00000110: a514 0000 e701 0080 8d34 0000 1058 2ba0
00000120: fa56 0080 fa08 0080 0742 0080 1c5b 0000
00000130: 4004 0080 634c 1080 5457 0080 365a 0000
00000140: b831 0000 6c67 d832 f339 0000 ea0c 0000
00000150: 8587 0680 052f 0000 3292 2d1f c385 1e80
00000160: 8297 3fa2 9010 0080 941b 0000 6106 0000
00000170: 026e 2400 8820 4330 b71a 0000 c604 8aac
00000180: 2834 0080 9557 0080 af49 0500 0e12 0080
00000190: 54de 0580 ab3d 0080 1333 0080 a936 1536
000001a0: d800 4401 8964 49a5 4143 0080 5bea 0700
000001b0: d734 0000 5890 cba4 df08 0080 8aba 712e
000001c0: 8e7e 0a80 b63a 0080 b357 0000 f671 5723
000001d0: b50c 0080 38e8 1e35 fa2b 0080 a002 0080
000001e0: e81f 0080 4d5d 0000 db6c df99 87f1 109a
000001f0: a740 0080 5b38 0080 1b41 0080 1d06 0080
00000200: 6734 0000 065e 0080 eb19 0000 f1e5 0f80
00000210: e779 3e34 a325 0080 30ee c733 0d11 0080
00000220: 8c07 0000 45d9 0680 c761 0080 3835 0080
00000230: 8733 0080 5842 ca28 6e98 1fb7 f74c 0000
00000240: 7032 0000 8e80 8129 7f24 0080 7825 0000
00000250: 1d2d 0000 cb3e 0080 653b 0080 fcb9 0b00
00000260: 570b 0000 e52a 0000 ab33 1a80 af00 0080
00000270: 021d 0000 674e 0000 2844 1135 265f 0080
00000280: 4459 1d2b a136 6ea5 8039 0f80 a6a4 2100
00000290: 8338 0000 4204 0080 ab38 0080 cc04 0780
000002a0: e11f 0080 5add e12d b60e 0000 4bd0 0880
000002b0: e429 0000 007d 0600 1e62 29b6 2b56 2f2e
000002c0: 38ee 1e00 082b 2fa5 2457 0080 955f 7227
000002d0: 2b06 0080 2c0e 0080 cc90 68ae a0cb 589f
000002e0: ac41 0000 873a 0000 260d 0500 8c1c 0000
000002f0: 330b 0080 242f 3dae f012 0000 bb35 0d80
00000300: 1d25 0000 0c69 3db4 1423 0080 a737 8c0e
00000310: 563d 0400 4898 ceaf e4ee 6d93 e451 0000
00000320: c518 0080 e643 0400 402a b7b8 fecf 2784
00000330: edaa ffb5 f732 0080 24ad 5aaf 4524 0080
00000340: 0422 0000 e14a 0734 bd78 2e23 cc60 0080
00000350: da35 0000 8237 0080 cca2 30b5 fd11 0000
00000360: cc82 bdb4 e34c 0000 a5ed 9aa2 0730 0080
00000370: 2cc9 9f88 7403 0080 d14f 0000 9210 0080
00000380: 9047 0680 0f5e 0080 3c93 3000 a013 0000
00000390: d74b 0080 c947 0e00 8163 1080 5d39 bfb3
000003a0: e455 0000 ac03 0080 c94b 0000 472b 0000
000003b0: 673c 0000 7c20 0080 1520 0080 eca5 0980
000003c0: 1c73 4d22 3158 0000 f1b8 1580 d391 0480
000003d0: 8401 0080 1810 0080 c220 0080 0d52 0080
000003e0: 691b 0000 839f e4b7 9020 0b00 6b34 0080
000003f0: c814 0000 0b16 0e80 653e 0080 1674 08b7

feat_mlp_sigma.0.bias f4 [32]
3.094299e-13 1.8940582e-06 -3.2228e-41 3.2415e-41 2.1560496e-09 2.0578e-41 1.1539505e-09 -1.5992e-41
1.5913e-41 5.98458e-40 2.6727e-41 5.4572414e-19 3.0137393e-08 1.4387e-41 -8.685682e-39 9.42e-42
4.36e-42 -1.8524156e-07 -7.139959e-09 1.4847e-41 1.458e-41 1.174e-41 -9.19878e-40 1.2104e-41
2.3711e-41 1.9545483e-20 1.7142e-41 2.6054e-41 -2.857e-42 1.0863e-41 1.457e-42 -6.592e-42
00000000: 8c31 ae2a 5837 fe35 d759 0080 5c5a 0000
00000010: a029 1431 5d39 0000 0699 9e30 942c 0080
00000020: 5c2c 0000 4284 0600 814a 0000 c011 2121
00000030: 6a70 0133 1b28 0000 2694 5e80 421a 0000
00000040: 270c 0000 d0e6 46b4 be53 f5b1 6329 0000
00000050: a528 0000 ba20 0000 3f04 0a80 be21 0000
00000060: 1942 0000 149a b81e c92f 0000 a148 0000
00000070: f707 0080 481e 0000 1004 0000 6012 0080

feat_mlp_sigma.2.weight f4 [1, 32]
-1.7698e-41 2.649e-41 1.7491e-41 1.3221e-41 3.3263e-41 6.145e-42 -5.915e-42 1.6355e-41
-2.9474e-41 3.0257e-41 -3.4853e-41 1.0164e-41 -2.3046e-41 2.7192193e-21 -2.9813e-41 -1.3738e-41
-1.1499e-41 3.481e-41 -2.053e-42 3.2454e-41 1.6806581e-18 -7.306e-42 6.398e-42 -2.2948e-41
-9.592e-42 2.2368e-41 1.4258e-41 -1.2607e-41 -2.2969e-41 -1.5521e-41 1.7675e-41 6.983e-42
00000000: 5631 0080 d849 0000 c230 0000 db24 0000
00000010: b95c 0000 2111 0000 7d10 0080 972d 0000
00000020: 2952 0080 5854 0000 2861 0080 551c 0000
00000030: 3e40 0080 5a75 4d1d 1b53 0080 4c26 0080
00000040: 0e20 0080 0961 0000 b905 0080 785a 0000
00000050: 7805 f821 5e14 0080 d611 0000 f83f 0080
00000060: bd1a 0080 5a3e 0000 bf27 0000 2523 0080
00000070: 0740 0080 442b 0080 4531 0000 7713 0000

feat_mlp_mu.0.weight f4 [100, 1080]
-2.699e-41 3.446835e-39 -3.087e-41 2.5997e-41 2.1374e-41 3.1546e-41 -6.524e-42 2.3221087e-06
1.1573848e-20 1.721963e-39 1.1191039e-06 -1.7449e-41 1.8262e-41 -2.2763e-41 1.5654e-41 1.9303e-41
-3.846734e-17 -2.659401e-39 1.763554e-09 5.44e-43 -2.3088e-41 -2.5471e-41 2.3074e-41 2.8641e-41
4.238e-42 2.914326e-10 -2.9332e-41 -3.8943812e-20 3.948305e-18 4.81077e-40 -8.249447e-13 1.618672e-39
7.172e-42 2.8322882e-13 1.2731302e-11 5.5851872e-14 4.4783834e-16 2.754234e-10 -3.6427056e-17 -2.0479e-41
2.1143e-41 2.1845275e-23 9.23194e-40 -4.0647774e-24 1.628e-42 -8.013e-42 1.8842e-41 5.696e-42
-1.396e-41 1.4603e-41 2.807339e-08 -3.1718e-41 -2.0515e-41 4.24619e-40 1.1882e-41 -4.931717e-39
-2.352e-41 -2.1565e-41 6.19454e-17 -5.38956e-40 4.345e-42 -3.0135e-41 -3.2680723e-18 -7.724939e-12
1.8829e-41 -4.1805576e-17 -2.6469e-41 -3.86449e-40 3.974269e-39 3.777191e-07 1.9604e-41 9.142e-42
-6.572e-42 -1.7733e-41 1.1537649e-08 3.333874e-39 3.4647e-41 3.229065e-39 -0.0001742664 1.7415e-41
-1.6827e-41 -0.00029620744 -6.095699e-39 6.24472e-40 -8.144e-40 8.0541324e-11 -3.9388212e-08 8.981e-42
2.632e-41 -7.13296e-40 5.30045e-13 -3.672093e-15 4.64037e-40 -1.077429e-39 -6.8813097e-09 3.2548e-41
-1.0678e-41 -2.119873e-39 -4.554834e-39 -2.6173e-41 1.2673453e-16 -1.0793e-41 3.1827424e-15 -6.29481e-40
1.5428e-41 5.28934e-40 -6.0204355e-05 3.1063e-41 -2.333077e-09 -9.565262e-12 7.367676e-09 -6.99437e-40
4.13855e-40 2.243e-42 -2.91035e-14 1.45e-41 1.389e-41 -2.5613e-41 2.105e-41 -2.705e-41
4.449e-42 -7.86264e-40 2.9171e-41 1.811505e-39 -3.653e-42 1.634e-41 -3.1433e-41 9.7201865e-12
3.317741e-39 8.51e-42 1.764655e-39 4.487174e-08 1.5986e-41 -9.356e-42 -2.3873886e-06 -3.9938685e-13
1.1009e-41 5.119e-42 -6.91275e-40 -9.33057e-40 5.813e-42 -9.67486e-40 2.0082e-41 1.4799e-41
5.6982674e-13 1.0920744e-15 6.5271534e-12 -1.4133e-41 1.3279e-41 -4.046e-42 -2.41e-43 -0.00030317702
-1.9527e-41 1.895e-42 1.254e-42 7.77e-42 -8.51217e-40 -1.2041e-41 -3.174733e-39 1.884374e-18
-7.526e-42 -6.0873166e-16 -9.529e-42 3.440385e-39 -3.267198e-18 5.72564e-40 -3.091098e-39 -2.5033e-41
-2.466e-42 6.735e-42 -5.8694734e-09 -8.572e-42 3.0104e-41 2.2377e-41 -1.2391188e-09 -1.799e-41
2.019e-41 -7.663884e-06 -1.3204e-41 -1.0720901e-35 -2.1476e-41 1.2907e-41 1.6509223e-12 2.5235e-41
-9.688116e-09 3.2199e-41 2.980327e-22 -1.072e-41 1.4232475e-10 2.7153e-41 2.9485e-41 -2.2138e-41
-2.3169e-41 8.916e-42 1.19e-42 2.3001e-41 -6.280534e-13 -2.9880233e-24 -3.3510854e-13 3.2252e-41
-1.8325e-41 1.6053e-41 5.068e-42 9.9801e-40 -2.8295e-41 1.2503973e-06 -1.0746435e-21 6.136e-42
2.968e-42 -2.3302e-41 1.506434e-39 8.86068e-40 -5.915056e-05 6.48797e-40 -2.5446e-41 7.6294384e-08
-7.98e-42 2.0173e-41 -1.0713648e-13 2.7959e-41 -3.475e-41 4.65265e-40 -3.2359e-41 -4.495e-42
2.2115e-41 -3.0258e-41 -2.1088e-41 2.5385107e-05 5.409e-42 3.4574e-41 2.835675e-39 1.4498e-41
-1.323e-41 -1.3682e-41 8.93e-43 5.582094e-12 -3.3834e-41 -7.5e-43 -1.7411e-41 6.122e-42
1.6163e-41 -9.459e-42 -1.2505e-41 -1.547682e-39 1.0201e-41 3.8253898e-20 3.4e-43 3.201212e-39
3.2706e-41 -2.5378e-41 -1.754e-41 -9.165412e-12 -1.1781895e-06 -2.9354e-41 -1.724223e-39 -2.2531e-41
00000000: 3d4b 0080 6088 2500 0e56 0080 7848 0000
00000010: 953b 0000 f057 0000 3012 0080 86d5 1b36
00000020: b29f 5a1e 22c0 1200 1e34 9635 a430 0080
00000030: e832 0000 743f 0080 a32b 0000 cf35 0000
00000040: 3866 31a4 54f5 1c80 8a61 f230 8401 0000
00000050: 5c40 0080 0147 0080 5240 0000 d74f 0000
00000060: d00b 0000 7e37 a02f c451 0080 2ee8 379f
00000070: b0aa 9122 0c3d 0500 8833 68ab 33a0 1100
00000080: fe13 0000 9371 9f2a b0f8 5f2d d388 7b29
00000090: a314 0126 666a 972f 7afd 27a4 1639 0080
000000a0: f03a 0000 4846 d319 7d0d 0a00 9b3f 9d98
000000b0: 8a04 0000 5616 0080 8634 0000 e10f 0000
000000c0: ea26 0080 b528 0000 0a26 f132 6b58 0080
000000d0: 3039 0080 aa9f 0400 1f21 0000 9fb3 3580
000000e0: 9041 0080 1d3c 0080 1cd6 8e24 64de 0580
000000f0: 1d0c 0000 0154 0080 2424 71a2 08e6 07ad
00000100: 7d34 0000 50cb 40a4 c949 0080 4335 0480
00000110: a546 2b00 51c9 ca34 a636 0000 7c19 0000
00000120: 5212 0080 6f31 0080 1e37 4632 7c4d 2400
00000130: 9560 0000 5229 2300 48bb 36b9 8c30 0000
00000140: e82e 0080 4a4c 9bb9 5460 4280 c6cc 0600
00000150: 37de 0880 bc1c b12e cc2b 29b3 0919 0000
00000160: 5f49 0000 61c4 0780 c431 152b 144d 84a7
00000170: 8c0d 0500 6fbb 0b80 a470 ecb1 bb5a 0000
00000180: c41d 0080 5815 1780 0699 3180 f648 0080
00000190: 6e1d 1225 161e 0080 3c57 6527 bdda 0680
000001a0: 022b 0000 74c2 0500 ef83 7cb8 9756 0000
000001b0: ed53 20b1 1c46 28ad c326 fd31 bf9d 0780
000001c0: a981 0400 4106 0000 0d12 03a9 6c28 0000
000001d0: b826 0000 6647 0080 ae3a 0000 684b 0080
000001e0: 670c 0000 c98f 0880 5151 0000 bdb9 1300
000001f0: 2f0a 0080 8d2d 0000 9f57 0080 d4ff 2a2d
00000200: 8320 2400 b917 0000 2437 1300 00b9 4033
00000210: 902c 0000 151a 0080 0637 20b6 b6d5 e0aa
00000220: b01e 0000 450e 0000 fe86 0780 fc28 0a80
00000230: 3410 0000 f588 0a80 fb37 0000 4129 0000
00000240: 5864 202b 6f62 9d26 5fa7 e52c 6627 0080
00000250: 0425 0000 470b 0080 ac00 0080 bbf3 9eb9
00000260: 6f36 0080 4805 0000 7f03 0000 a915 0000
00000270: d944 0980 9121 0080 dd91 2280 d20a 0b22
00000280: fb14 0080 7874 2fa6 901a 0080 6576 2500
00000290: a013 71a2 133c 0600 b9a8 2180 c845 0080
000002a0: e006 0080 c612 0000 6fac c9b1 e517 0080
000002b0: eb53 0000 613e 0000 9e4d aab0 2632 0080
000002c0: 4838 0000 2294 00b7 cf24 0080 2302 6485
000002d0: de3b 0080 fb23 0000 bf58 e82b 5846 0000
000002e0: c970 26b2 c259 0000 5426 b41b e21d 0080
000002f0: db7c 1c2f b14b 0000 3152 0000 b63d 0080
00000300: 9640 0080 db18 0000 5103 0000 1e40 0000
00000310: 04c8 30ab e62f 6798 3ba6 bcaa e859 0000
00000320: 1533 0080 c02c 0000 210e 0000 0cde 0a00
00000330: e04e 0080 53d3 a735 4265 a29c 1b11 0000
00000340: 4608 0000 f540 0080 5367 1000 ffa5 0900
00000350: 6e18 78b8 9510 0700 ef46 0080 48d7 a333
00000360: 3f16 0080 3c38 0000 fa3f f1a9 f04d 0000
00000370: de60 0080 f810 0500 345a 0080 880c 0080
00000380: a63d 0000 5954 0080 c93a 0080 1af2 d437
00000390: 140f 0000 6160 0000 b5e0 1e00 6a28 0000
000003a0: e124 0080 2426 0080 7d02 0000 0867 c42c
000003b0: 515e 0080 1702 0080 8930 0080 1111 0000
000003c0: 0e2d 0000 5e1a 0080 dc22 0080 4fda 1080
000003d0: 701c 0000 20a6 341f f300 0000 addb 2200
000003e0: 2c5b 0000 be46 0080 e530 0080 593d 21ad
000003f0: 4822 9eb5 d451 0080 6fc6 1280 cf3e 0080

feat_mlp_mu.0.bias f4 [100]
-2.575796e-14 -8.746e-42 -2.8124536e-18 7.788e-42 1.3318865e-29 -8.742708e-14 -3.4388e-41 2.586e-41
2.2041e-41 1.864765e-39 -2.9454e-41 -2.601e-42 -2.5124e-41 3.035e-41 -1.2247e-41 -2.4531e-41
-5.182e-42 -1.4899e-41 -2.7925e-41 -4.44129e-40 1.489e-41 -6.4909254e-06 -1.3846052e-10 1.120293e-39
-1.2859111e-14 5.72e-43 1.0913e-41 3.0042e-41 1.1194e-41 -1.323257e-39 2.73e-43 -3.2547e-41
-3.0719e-41 -4.318591e-09 -2.1406e-41 1.6258e-41 -1.421e-42 4.71e-43 7.2e-43 -1.9238e-41
-1.0751e-41 -1.4030118e-15 -5.3932477e-13 6.366e-42 4.7337926e-13 -1.2939619e-15 1.3281068e-17 -2.301e-42
-1.3127e-41 1.7251102e-19 3.809e-42 -1.8132701e-07 -5.232e-42 -8.821e-42 6.6307475e-06 2.0665e-41
-6.479435e-13 -3.556e-42 -1.862e-41 3.3305e-41 1.595e-42 3.3498e-41 -1.193e-42 -7.383e-42
8.591e-42 -3.1065e-41 2.9715e-41 -2.6828e-41 4.162e-42 -8.037468e-06 6.0065664e-25 -2.428e-42
-4.451218e-16 -6.682128e-10 -2.2474471e-09 1.7696e-41 -1.764e-41 -4.4872888e-09 1.558817e-39 -7.34066e-40
-1.5944e-41 -7.1416e-40 2.6281e-41 -4.740698e-11 5.03558e-40 2.2264e-41 2.5543e-41 7.271e-42
-1.1129e-41 4.84624e-40 4.87342e-40 -2.5781e-41 -3.47e-42 -5.032e-42 -2.246e-42 -2.4387e-41
7.83256e-40 -3.3012e-41 2.7649e-41 1.3776e-41
00000000: d001 e8a8 6118 0080 bf85 4fa2 b615 0000
00000010: c011 870f 48de c4a9 dc5f 0080 1648 0000
00000020: 713d 0000 354e 1400 1b52 0080 4007 0080
00000030: 0946 0080 9a54 0000 2422 0080 6244 0080
00000040: 720e 0080 8829 0080 d84d 0080 0dd6 0480
00000050: 8229 0000 a0cc d9b6 2c3d 18af ec32 0c00
00000060: 2fa6 67a8 9801 0000 6c1e 0000 bf53 0000
00000070: 341f 0000 b468 0e80 c300 0000 ba5a 0080
00000080: a255 0080 ba62 94b1 ac3b 0080 522d 0000
00000090: f603 0080 5001 0000 0202 0000 a135 0080
000000a0: f81d 0080 0032 caa6 72ce 17ab bf11 0000
000000b0: 923e 052b c57a baa6 12fe 7423 6a06 0080
000000c0: 9824 0080 42aa 4b20 9e0a 0000 cab2 42b4
000000d0: 960e 0080 9718 0080 b07d de36 9b39 0000
000000e0: 4061 36ab ea09 0080 e833 0080 d75c 0000
000000f0: 7204 0000 615d 0000 5303 0080 9514 0080
00000100: f317 0000 9956 0080 d552 0000 c94a 0080
00000110: 9a0b 0000 aad8 06b7 ece4 3917 c506 0080
00000120: 314c 00a6 4cad 37b0 8271 1ab1 5431 0000
00000130: 2c31 0080 9c2e 9ab1 59f9 1000 47fe 0780
00000140: 722c 0080 cac6 0780 4349 0000 847f 50ae
00000150: b77b 0500 103e 0000 3447 0000 4514 0000
00000160: 061f 0080 ef46 0500 834e 0500 de47 0080
00000170: ac09 0080 070e 0080 4306 0080 fb43 0080
00000180: 6687 0800 065c 0080 134d 0000 6726 0000

feat_mlp_mu.2.weight f4 [1, 100]
3.1923e-41 0.00021671974 2.9642e-41 1.1241484e-15 1.919e-41 -1.6475e-41 5.8e-43 1.2713e-41
-7.25884e-40 -1.8895907e-09 -8.177e-42 2.1104e-41 -2.3922e-41 -1.3874e-41 6.746488e-10 3.3553e-41
-9.526e-42 -3.285e-42 -3.0205e-41 -1.3118e-41 -1.2093e-41 3.53e-43 3.0852e-41 -3.2256e-41
1.6335e-41 -3.896e-42 -2.1269e-41 -7.2920215e-05 -1.295021e-39 2.145e-42 -2.9024e-41 5.359e-42
-6.628e-42 -2.0742e-41 -1.28e-43 -2.2148e-41 -8.356e-42 -1.2558e-41 -2.1511e-41 2.7564e-41
-2.389e-42 -3.0387e-41 -1.0364e-41 2.595e-42 -1.2486e-41 1.0263e-41 -1.1905e-41 1.4139e-41
-2.6438e-41 -9.354e-42 2.6428e-41 2.7659e-41 -2.348e-41 9.233e-42 -3.887e-42 -1.4673e-41
-2.5117e-41 1.3776e-41 -4.65e-42 -2.2662e-41 6.268e-42 -8.496701e-20 -2.43e-41 -1.6338e-41
-2.3793e-41 -8.95e-42 -2.2833e-41 2.9133e-41 2.8103e-41 1.7948e-41 3.4482e-41 3.4901e-41
-1.42673e-39 -9.438e-42 1.6758e-41 2.4409e-41 -1.972e-42 1.1268824e-12 -4.348e-42 6.454e-42
-5.79311e-40 -2.4395e-41 -2.6098e-41 2.2704e-41 -6.279e-42 3.0583e-41 2.8931e-41 -2.5704e-41
1.6755e-41 3.4315e-41 -2.9869e-41 -1.3e-43 2.1263e-41 -7.262e-42 4.141e-42 -2.066e-41
2.1628e-41 -3.933399e-39 -4.87e-42 1.6908e-41
00000000: fd58 0000 433f 6339 a152 0000 c101 a226
00000010: 7e35 0000 ed2d 0080 9e01 0000 7023 0000
00000020: 78e7 0780 08da 01b1 cb16 0080 d43a 0000
00000030: af42 0080 ad26 0080 3072 3930 885d 0000
00000040: 8e1a 0080 2809 0080 3354 0080 9124 0080
00000050: b621 0080 fc00 0000 0156 0000 eb59 0080
00000060: 892d 0000 dc0a 0080 4a3b 0080 beec 98b8
00000070: fe19 0e80 fb05 0000 e850 0080 f00e 0000
00000080: 7a12 0080 d239 0080 5b00 0080 bd3d 0080
00000090: 4b17 0080 0223 0080 f73b 0080 d64c 0000
000000a0: a906 0080 b554 0080 e41c 0080 3c07 0000
000000b0: ce22 0080 9c1c 0000 3021 0080 6a27 0000
000000c0: b349 0080 131a 0080 ac49 0000 1a4d 0000
000000d0: 7441 0080 bd19 0000 d60a 0080 e728 0080
000000e0: 0446 0080 6726 0000 f60c 0080 2c3f 0080
000000f0: 7911 0000 689f c89f bd43 0080 8b2d 0080
00000100: 5342 0080 f318 0080 a63f 0080 3651 0000
00000110: 574e 0000 0832 0000 1f60 0000 4a61 0000
00000120: 2589 0f80 4f1a 0080 b72e 0000 0b44 0000
00000130: 7f05 0080 3898 9e2b 1f0c 0080 fe11 0000
00000140: e24e 0680 0144 0080 c048 0080 4a3f 0000
00000150: 8111 0080 4155 0000 a650 0000 a747 0080
00000160: b52e 0000 a85f 0000 4353 0080 5d00 0080
00000170: 463b 0000 3e14 0080 8b0b 0000 9739 0080
00000180: 4a3c 0000 b7d4 2a80 930d 0080 222f 0000
