experiments/konrad/saved_models/rolling/lognormal/model_interval_3.pt (torch, 581194 bytes, 15 tensors)

A_gate f4 [9]
000000 d7 e8 cf b8 0d bd c0 38 66 7c 92 bc 19 c7 17 3a
       -9.913899e-05 9.190487e-05 -0.017881583 0.0005789861
000010 48 01 5a 3a 4f b1 29 bc 23 d9 66 b7 a3 0c 52 3a
       0.0008316231 -0.010357215 -1.3759624e-05 0.0008012747
000020 94 7f fd bc
       -0.030944623

B_gate f4 [120]
000000 3e 15 8a 39 6b 4e 00 80 51 48 00 80 47 33 cd 3a
       0.00026337238 -2.8131e-41 -2.5942e-41 0.0015655541
000010 93 4f 59 a7 b3 2d 00 00 2a ca 34 3a c7 fd 45 33
       -3.0157937e-15 1.6394e-41 0.000689658 4.6098446e-08
000020 e4 3e 73 1f 6b 84 d4 38 84 14 00 00 b6 30 00 00
       5.1509273e-20 0.000101336125 7.36e-42 1.7474e-41
000030 6e 2b 37 bc 0a 23 00 80 fe 1a 00 00 42 c0 b9 38
       -0.011179788 -1.257e-41 9.683e-42 8.857298e-05
000040 51 1a 00 00 0d 2e 00 00 39 cd 1e 39 c4 93 9a 87
       9.44e-42 1.652e-41 0.00015144506 -2.3258193e-34
000050 62 78 36 3a cb f6 db bb d0 42 00 80 ff 45 00 80
       0.00069606875 -0.0067127696 -2.3968e-41 -2.511e-41
000060 52 7d 5f 39 0c 38 00 00 b8 55 8b 2d f2 bb 43 37
       0.00021313623 2.0106e-41 1.5840537e-11 1.1666665e-05
000070 97 29 0c 84 2c 3a 00 80 70 f3 44 bc a4 3a 00 80
       -1.6476018e-36 -2.0868e-41 -0.012020931 -2.1036e-41
000080 23 97 ad b5 70 96 6a 39 01 9c a6 11 71 38 00 80
       -1.2933491e-06 0.00022372021 2.6286327e-28 -2.0247e-41
000090 7c 38 5e 39 a2 03 84 ae 29 16 00 00 b5 93 64 b9
       0.00021192612 -6.0033103e-11 7.95e-42 -0.000217988
0000a0 2b 95 82 2b bf b1 aa 33 02 4c 99 39 8b 36 3a 00
       9.278458e-13 7.948574e-08 0.00029239064 5.346025e-39
0000b0 2d aa f1 ad ba e8 30 39 59 00 00 80 d4 10 00 80
       -2.7474101e-11 0.00016871365 -1.25e-43 -6.037e-42
0000c0 aa fb aa bb 82 01 00 80 39 35 57 b9 d5 70 83 39
       -0.005217989 -5.41e-43 -0.00020523825 0.00025070334
0000d0 59 23 00 00 03 40 91 2d 08 b9 ef b8 91 1f 00 80
       1.268e-41 1.6513018e-11 -0.00011430873 -1.1324e-41
0000e0 f5 07 00 00 70 71 c0 bb 2e 49 00 80 d2 2e 00 80
       2.854e-42 -0.005872898 -2.6252e-41 -1.6796e-41
0000f0 13 7f 27 39 e5 1c 00 00 b3 09 00 00 9a ef 4c b7
       0.000159737 1.0365e-41 3.48e-42 -1.2215134e-05
000100 8c 2e 00 80 be a8 ad 37 c0 bd 53 bc b4 6e 2e 87
       -1.6698e-41 2.0701784e-05 -0.012923658 -1.3122838e-34
000110 95 0c c6 8a 86 ae 07 3a f4 eb 78 9c 35 28 a7 b5
       -1.907144e-32 0.00051758473 -8.236128e-22 -1.2454171e-06
000120 61 15 99 b7 75 0d 00 80 77 32 00 80 97 3d 8f bc
       -1.8248977e-05 -4.827e-42 -1.8103e-41 -0.017485423
000130 88 a4 1d 36 1b 13 b6 b8 e5 1f 96 b7 b1 20 00 00
       2.3490593e-06 -8.681995e-05 -1.7896245e-05 1.1727e-41
000140 0d 24 00 80 ef 11 47 b8 51 10 00 00 11 11 00 00
       -1.2933e-41 -4.7462e-05 5.853e-42 6.122e-42
000150 61 16 88 bb d5 bc 1c 31 ff 19 00 00 56 af dd b8
       -0.0041530584 2.2808326e-09 9.326e-42 -0.0001057076
000160 14 e5 9b ab 0f 0b 00 80 f2 e9 0f 39 d2 14 00 80
       -1.1076994e-12 -3.967e-42 0.00013724694 -7.469e-42
000170 fe 00 00 80 72 1c 81 bc 6f 60 00 00 b0 4e 00 23
       -3.56e-43 -0.015760634 3.4594e-41 6.955557e-18
000180 8d 73 cf b7 42 fb 0f a0 69 be 3a 1e fd 86 87 39
       -2.473013e-05 -1.2195705e-19 9.886134e-21 0.0002584978
000190 d3 3a 00 00 4f 1b 00 80 a8 53 28 bc b8 33 00 00
       2.1102e-41 -9.796e-42 -0.010273851 1.8553e-41
0001a0 da 06 00 00 56 00 84 39 8e 1c 00 80 cb 18 00 80
       2.458e-42 0.00025177252 -1.0243e-41 -8.894e-42
0001b0 ab d5 d9 b8 bf 5b 00 80 2c f3 0c 34 dc e5 5c bc
       -0.00010387165 -3.2912e-41 1.3126981e-07 -0.013482537
0001c0 4a 05 00 00 9e 05 00 00 bd ac e9 39 a2 3f 00 80
       1.897e-42 2.015e-42 0.00044569923 -2.2827e-41
0001d0 86 27 00 00 43 83 7c b8 4f 01 00 00 5f 14 00 00
       1.4178e-41 -6.020373e-05 4.7e-43 7.308e-42

A_mean f4 [9]
000000 27 18 00 00 ce 29 00 00 9c 37 00 00 fc 19 00 00
       8.664e-42 1.4997e-41 1.9949e-41 9.321e-42
000010 a4 1a 00 00 86 31 00 80 9c 2b 00 00 a9 03 00 00
       9.557e-42 -1.7766e-41 1.5644e-41 1.313e-42
000020 e6 36 00 80
       -1.9694e-41

B_mean f4 [120]
000000 15 32 00 80 1c 29 e1 b2 27 83 82 33 be 0f 00 80
       -1.7966e-41 -2.6212142e-08 6.077453e-08 -5.647e-42
000010 f0 5a c7 ad 13 c2 e0 34 1b 2f 00 00 66 7c 40 b1
       -2.2664065e-11 4.186446e-07 1.6898e-41 -2.801039e-09
000020 77 fd aa ad a2 28 00 00 66 49 a7 aa b6 cb a9 36
       -1.9439323e-11 1.4576e-41 -2.971609e-13 5.0603076e-06
000030 98 2a 00 80 2e 65 a2 a5 a4 c6 2b af 8f 33 00 00
       -1.528e-41 -2.8171082e-16 -1.5622931e-10 1.8496e-41
000040 fc 1d 63 30 98 3c 39 31 c8 46 00 00 9c fb e8 b1
       8.262473e-10 2.6955487e-09 2.5392e-41 -6.7806933e-09
000050 a8 bc 5d 33 2b 26 00 00 36 cd 04 30 d9 5a 8d 34
       5.1627154e-08 1.3692e-41 4.831294e-10 2.6329397e-07
000060 5d 1a 00 00 2d e3 34 b6 5a 4a 00 80 61 1b 00 00
       9.457e-42 -2.6954324e-06 -2.6672e-41 9.822e-42
000070 fe 4d b7 a7 87 ce 1e 32 ac 11 00 00 97 88 b2 b4
       -5.0877263e-15 9.243769e-09 6.34e-42 -3.3254466e-07
000080 91 e7 81 b2 23 1f 00 80 66 88 ad 25 03 c9 15 ae
       -1.512288e-08 -1.117e-41 3.0103143e-16 -3.4057212e-11
000090 e4 2f 00 00 6a e6 16 ad d6 44 00 00 e7 41 00 00
       1.718e-41 -8.577675e-12 2.4694e-41 2.3641e-41
0000a0 a8 df d4 2f ce 1b 1c a7 47 13 00 00 ec 49 91 30
       3.8721493e-10 -2.1664422e-15 6.915e-42 1.0571148e-09
0000b0 8a 7e 6d 2b 26 48 00 80 cc 37 6f af 60 c6 4d 29
       8.437492e-13 -2.5882e-41 -2.1756746e-10 4.5691207e-14
0000c0 ea 3e 00 80 20 63 ef a9 fc 43 ca 34 8c 4f 00 00
       -2.257e-41 -1.06309276e-13 3.7674897e-07 2.8536e-41
0000d0 6a 76 c6 b3 78 76 e2 31 83 17 00 00 0a a2 3a b3
       -9.241633e-08 6.590934e-09 8.434e-42 -4.3453873e-08
0000e0 ae 63 05 2d 25 44 00 80 80 0a 43 b3 0c 55 ba b3
       7.582308e-12 -2.4446e-41 -4.5411525e-08 -8.67677e-08
0000f0 e9 42 00 00 06 0f 02 b3 c4 dd c2 a4 94 49 00 00
       2.4003e-41 -3.0281647e-08 -8.4509774e-17 2.6395e-41
000100 28 65 37 32 d2 46 00 00 99 47 00 00 c6 65 42 b1
       1.0675002e-08 2.5406e-41 2.5684e-41 -2.8288567e-09
000110 28 1d a0 38 ab 4a 00 00 6a 7f ab 2e d6 2a 99 28
       7.634825e-05 2.6786e-41 7.798813e-11 1.700499e-14
000120 51 47 00 00 c5 1f 86 b1 06 ee 8d b6 32 1c 00 80
       2.5584e-41 -3.903525e-09 -4.229837e-06 -1.0115e-41
000130 48 c1 91 2b 06 c4 ab 2f c9 55 00 00 71 f5 8b ad
       1.0356516e-12 3.1244002e-10 3.0774e-41 -1.5911468e-11
000140 98 48 0f 30 84 35 00 80 58 7d be aa e2 3f 59 ac
       5.212626e-10 -1.9198e-41 -3.3837755e-13 -3.0873017e-12
000150 3f 22 00 80 20 b2 7c 33 00 23 8d 2e fb 53 00 00
       -1.2285e-41 5.8835326e-08 6.418155e-11 3.0127e-41
000160 88 85 04 b1 74 6c 61 34 e0 2e 00 00 1d d3 7f b8
       -1.9284432e-09 2.0994213e-07 1.6816e-41 -6.0993352e-05
000170 64 8c 4a af 3c 0b 00 00 b7 a6 e6 2d 4e c9 dc 32
       -1.842167e-10 4.03e-42 2.6222009e-11 2.5702914e-08
000180 02 0e 00 80 bc a1 59 2d 64 f9 37 26 cb 30 00 00
       -5.025e-42 1.2370934e-11 6.3828867e-16 1.7504e-41
000190 da c0 2b 38 80 5d 17 ab 82 45 00 80 00 f0 44 a3
       4.0949184e-05 -5.3775734e-13 -2.4935e-41 -1.0676003e-17
0001a0 2e e3 22 af ee 13 00 00 3d 32 be 34 c8 77 82 2c
       -1.4814525e-10 7.15e-42 3.542681e-07 3.7081206e-12
0001b0 1b 00 00 80 b2 9e 90 a9 b0 56 e6 2b fd 25 00 00
       -3.8e-44 -6.422414e-14 1.6366544e-12 1.3628e-41
0001c0 70 7f 8d 34 aa 32 0e 2f a1 46 00 00 10 10 e6 2e
       2.635602e-07 1.2932824e-10 2.5337e-41 1.0462042e-10
0001d0 01 0c 89 2f 94 2b 00 00 40 3f d1 b2 6f b0 6e 32
       2.4928684e-10 1.5633e-41 -2.4359565e-08 1.389354e-08

A_logvar f4 [9]
000000 31 31 00 80 17 0d 00 00 d5 13 00 00 cf 3b 00 80
       -1.7647e-41 4.696e-42 7.114e-42 -2.1455e-41
000010 81 3a 00 00 51 13 00 80 ca 28 00 80 97 09 00 00
       2.0987e-41 -6.93e-42 -1.4632e-41 3.44e-42
000020 17 3f 00 00
       2.2632e-41

B_logvar f4 [120]
000000 49 03 00 80 e0 37 5b b6 1e ca f4 ad 45 15 00 00
       -1.178e-42 -3.2666067e-06 -2.7829346e-11 7.63e-42
000010 90 44 cb a9 38 6d a1 a9 63 38 00 00 14 67 ce 32
       -9.0269047e-14 -7.168783e-14 2.0228e-41 2.402843e-08
000020 72 e6 d9 33 77 20 00 00 72 65 97 2d 65 96 86 28
       1.0146768e-07 1.1646e-41 1.7211763e-11 1.4942212e-14
000030 31 33 00 00 30 20 ed 25 b2 18 3d 35 51 0f 00 80
       1.8364e-41 4.1134757e-16 7.0443923e-07 -5.494e-42
000040 b8 fe 40 ad fc aa 90 25 39 19 00 00 fa 62 86 22
       -1.0970495e-11 2.5095882e-16 9.048e-42 3.642557e-18
000050 e4 4e 09 a4 b7 36 00 80 b0 2d 8e 2c 68 92 be b2
       -2.9773962e-17 -1.9628e-41 4.040955e-12 -2.2185489e-08
000060 4b 52 00 80 60 f7 81 33 fa 88 47 b1 08 48 00 00
       -2.9521e-41 6.052028e-08 -2.9036173e-09 2.584e-41
000070 28 f0 7a a5 c8 0d 66 38 6f 13 00 00 38 6a b1 b4
       -2.1765412e-16 5.4849108e-05 6.971e-42 -3.3046103e-07
000080 d6 1e 3c b1 6f 37 00 80 a7 17 82 ae 9d b1 e5 b8
       -2.7375129e-09 -1.9886e-41 -5.915917e-11 -0.00010952654
000090 26 02 00 80 b0 54 13 37 98 14 c0 33 66 01 00 00
       -7.71e-43 8.781601e-06 8.944443e-08 5.02e-43
0000a0 3c 10 a7 2b 78 35 c1 a4 c1 03 00 80 f2 37 fd af
       1.187057e-12 -8.379099e-17 -1.347e-42 -4.6060183e-10
0000b0 b6 2d 31 31 6f 00 00 80 b6 e8 e0 a9 ba d2 4d 38
       2.5782874e-09 -1.56e-43 -9.987967e-14 4.9072063e-05
0000c0 4b 1b 00 80 7c 70 a9 af ec c4 17 ae 95 28 00 80
       -9.791e-42 -3.0820846e-10 -3.4508327e-11 -1.4558e-41
0000d0 0c 44 00 00 20 51 85 30 89 33 00 80 b2 8b 88 28
       2.441e-41 9.700081e-10 -1.8487e-41 1.5159616e-14
0000e0 38 a2 ae b4 f7 4b 00 00 da 72 d9 38 12 91 9e a6
       -3.2528055e-07 2.7251e-41 0.00010368759 -1.1002774e-15
0000f0 51 00 00 00 87 6c e3 ad f6 b8 a9 2a 54 28 00 00
       1.14e-43 -2.5855108e-11 3.0148773e-13 1.4467e-41
000100 9e fb 49 36 b8 7b a4 2c 29 42 00 80 3a 41 ee 25
       3.0097794e-06 4.674896e-12 -2.3734e-41 4.1330618e-16
000110 5e fd c9 ae e1 12 00 00 04 bc 1a b3 10 43 31 b1
       -9.185429e-11 6.772e-42 -3.602692e-08 -2.579501e-09
000120 92 37 00 00 8c f0 00 ab 2c ba 87 2d 50 2b 00 00
       1.9935e-41 -4.580856e-13 1.54304e-11 1.5538e-41
000130 f7 5e aa ae d0 76 0a 29 76 2d 00 80 d2 f7 13 ac
       -7.747574e-11 3.074521e-14 -1.6308e-41 -2.1027524e-12
000140 76 a6 e9 38 85 52 00 00 3e b6 06 af 38 82 98 af
       0.000111413116 2.9602e-41 -1.2251974e-10 -2.7741165e-10
000150 07 57 00 80 a1 7d f9 25 48 5f 0c b0 37 2e 00 80
       -3.122e-41 4.3279744e-16 -5.1067106e-10 -1.6579e-41
000160 69 58 00 00 41 2d ed ad 0d 3a 00 80 3c 6f 9f b3
       3.1716e-41 -2.6963877e-11 -2.0825e-41 -7.424248e-08
000170 a0 4c c1 ad 5e 00 00 00 18 d7 32 ac c5 8f 84 34
       -2.1975588e-11 1.32e-43 -2.5414722e-12 2.4691522e-07
000180 42 36 00 80 40 50 37 2f a0 e1 f3 31 5b 03 00 80
       -1.9464e-41 1.6672264e-10 7.0978814e-09 -1.204e-42
000190 18 07 09 32 73 0a 20 34 d9 1f 00 80 70 18 b5 b6
       7.9760625e-09 1.4904963e-07 -1.1425e-41 -5.3970653e-06
0001a0 b9 ef 8a 2c a2 2c 00 80 c9 f1 a8 22 90 bb 10 37
       3.9488105e-12 -1.6011e-41 4.579249e-18 8.626739e-06
0001b0 e1 20 00 00 ff d8 02 2e 20 64 48 b1 35 3a 00 80
       1.1795e-41 2.975131e-11 -2.9160745e-09 -2.0881e-41
0001c0 b2 4b 1c ad 19 54 00 00 e6 19 00 80 f8 66 61 a5
       -8.884381e-12 3.0169e-41 -9.29e-42 -1.9550526e-16
0001d0 64 2d 00 80 a4 13 00 00 06 46 32 39 31 57 a1 aa
       -1.6283e-41 7.046e-42 0.00017001489 -2.8659846e-13

ar_gate_lin.weight f4 [1, 64]
000000 0c eb 1d 3e d2 38 31 3c 2d a1 1e bd a2 66 df 3d
       0.15421695 0.01081677 -0.038727928 0.109082475
000010 15 3e c6 bc 1e b5 cd bc bf c0 ce 3b 4a cb 03 bd
       -0.024199525 -0.025110777 0.006309598 -0.032176293
000020 b3 2c d5 bc bf d3 1b 3c 5a 97 a2 3c b5 fe aa bc
       -0.02602229 0.009510933 0.01984756 -0.020873407
000030 4c 01 04 bc 24 56 03 bc 29 ee 3d bd 64 9b ce 3c
       -0.00805695 -0.008016143 -0.046369705 0.02522058
000040 38 bd 02 bd 80 2c ab 3d 6a 72 3d bd b2 cf a5 bc
       -0.031918734 0.08358097 -0.046251692 -0.020240638
000050 2d e7 5f 3c d9 00 c2 bc 62 b6 e8 3c 3d b6 53 3c
       0.013665956 -0.023682045 0.02840728 0.012921867
000060 92 46 cc bd f0 50 5b bc 98 20 62 3d 9f cf 83 bc
       -0.09974398 -0.013385996 0.055206865 -0.016090212
000070 f6 fd 3c 3d ea 80 a0 3c 58 9f 3e bd 5a c8 0c 3c
       0.046140634 0.019592721 -0.04653868 0.008592689
000080 12 4c e0 3c a1 23 f0 bc 82 d2 d1 bc a5 ed 35 3d
       0.027380023 -0.029313864 -0.025613073 0.04441609
000090 3e 4e ce 3a e4 7f 64 bc 36 fd b7 bd 28 69 99 3d
       0.0015739871 -0.013946507 -0.08983843 0.0749076
0000a0 05 f4 93 bc 0a 27 44 bd a0 bb 42 3d f2 57 6b bd
       -0.018060694 -0.047888793 0.047542214 -0.057456918
0000b0 6d 56 46 bd c6 af 94 bc 20 14 c9 bd 47 73 46 bd
       -0.048422266 -0.018150222 -0.09818292 -0.04844978
0000c0 c8 96 27 3d c8 c1 b1 bc d1 b4 b8 3c bd ba 09 bc
       0.04091528 -0.021698847 0.022547157 -0.008406338
0000d0 03 b8 54 3d 0c dc e9 bc 64 df e0 3c f8 e7 c5 3a
       0.0519333 -0.02854731 0.027450271 0.0015099039
0000e0 1c af 8a bd d3 cb 4b bc 2f 2c 93 3c 6f b0 31 bd
       -0.06771681 -0.012438732 0.017965404 -0.04338115
0000f0 4a 46 5a bd 42 1d 23 3e b5 27 e7 bd 06 ba f4 be
       -0.05328969 0.1592913 -0.112868704 -0.47798175

ar_mean_lin.weight f4 [1, 64]
000000 3a c6 06 3d 7f 66 09 bd 04 05 f3 38 ad 4d 20 bb
       0.032903887 -0.033545014 0.00011588077 -0.002446036
000010 4b 90 09 3c a3 c1 46 3a ef 30 f9 bc d7 b7 23 bd
       0.0083962185 0.00075819547 -0.030418841 -0.039970245
000020 45 59 82 bc 8e 30 10 3d ff ba 76 bc 33 cf 4f bd
       -0.015911708 0.035202555 -0.015059232 -0.05073471
000030 bc 10 02 bc 99 6e 05 bd 64 eb 2b bd 05 7e 51 3d
       -0.00793856 -0.032576177 -0.041972533 0.051145572
000040 7f 23 b2 bc 21 88 b2 3c e9 01 c8 bc 97 07 8d 3b
       -0.021745441 0.021793427 -0.024414973 0.0043038833
000050 86 24 45 3d 34 9e 8f bc a9 c8 a9 3c 4d 0e 96 bb
       0.048130535 -0.017531492 0.020725565 -0.0045793415
000060 86 d8 b6 bd ad 77 83 3d 62 86 3b bc 97 87 59 3c
       -0.08928017 0.06419311 -0.011445614 0.013276956
000070 e0 15 81 3c 01 cc 07 bd fa 4f eb bc 18 20 32 bd
       0.015757501 -0.033153538 -0.02872466 -0.04348764
000080 34 e4 be 3c 35 b9 3e bd 63 2b 65 bd f8 8e 55 bc
       0.023302175 -0.046563346 -0.05594958 -0.013034575
000090 20 48 07 bd ca 8f 13 bc 3c a5 b3 bd ec d2 88 3c
       -0.033027768 -0.00900645 -0.0877175 0.016702138
0000a0 da a7 40 bc a5 0d 41 3d 1d 71 00 bc e2 f9 03 3c
       -0.011758769 0.047132153 -0.007839468 0.008055182
0000b0 da 56 27 3d 75 ae eb 3c 99 aa 06 3d b7 80 7c bd
       0.040854312 0.028769711 0.03287754 -0.06164619
0000c0 8c 11 b4 3c c8 91 40 3d 93 80 09 3d 98 df 1f 3d
       0.021981023 0.047014028 0.033569884 0.039031595
0000d0 42 c0 03 bc b0 b4 91 3c 99 db b3 bc dd 27 b1 3d
       -0.008041443 0.017786354 -0.021955298 0.086501814
0000e0 ee 22 38 bc 99 84 08 bc b7 b4 77 bc 9a 9f 74 3d
       -0.011238797 -0.008332395 -0.015118769 0.05972252
0000f0 d6 af 96 bc 43 83 3a 3d 81 5f 1b 3e ba 18 2f 3f
       -0.018394392 0.045535337 0.1517315 0.68397105

ar_logvar_lin.weight f4 [1, 64]
000000 cc 52 6e 3d 99 7a e9 bd 4e 4c 7c bb ed cd 6a 3d
       0.05818443 -0.11400337 -0.003849763 0.057325292
000010 48 4a c6 3b 4b 22 60 bd ea 43 1b bd 24 e7 85 bd
       0.0060513355 -0.054720204 -0.037906565 -0.06538227
000020 7c 62 00 be ac 97 a5 3d 5f 1a c9 3b ce bf 68 ba
       -0.12537569 0.0808557 0.006137177 -0.0008878679
000030 cf 76 3e 3d ee ae b1 bd d4 c2 8b bd 6f 99 68 3d
       0.046500023 -0.08675943 -0.0682427 0.05678695
000040 b8 f4 a7 bd ef e1 01 bd bd dd 19 bd 88 24 80 be
       -0.08200973 -0.031709608 -0.03756498 -0.2502787
000050 31 01 e2 bd 56 5b 32 be 36 40 6d bc 67 07 34 3d
       -0.110353835 -0.17417654 -0.014480641 0.043952372
000060 c3 c3 3b bc 1a b5 82 bd 1f f4 e1 3c 30 a3 a7 bd
       -0.011460247 -0.06382199 0.027582226 -0.081854224
000070 9a 16 87 bd 93 1f cc 3c 68 c8 09 bd 3e 69 22 bd
       -0.06596108 0.0249174 -0.033638388 -0.039651148
000080 00 1b 8d 3d 17 d4 01 be 77 a5 53 3c fb 88 54 3d
       0.068899155 -0.12678562 0.012917868 0.051888447
000090 de df 49 be 38 6d 9e bd f5 55 36 bc dc 2e 61 3c
       -0.19714305 -0.077356756 -0.011128892 0.013744082
0000a0 6a 3b 2a bc d3 24 85 3d a3 d9 00 be e0 d6 36 3d
       -0.010390142 0.06501164 -0.12583022 0.044638515
0000b0 ef 2b 4a be 29 45 d1 bd b3 3d de bd 85 2a 49 be
       -0.19743322 -0.102182694 -0.10851612 -0.19645126
0000c0 ec 0d 84 bd 0f f4 09 be ca 27 4c 3d 24 5f bb 3b
       -0.06447968 -0.13472007 0.049842633 0.0057181288
0000d0 a2 e5 81 3d d9 28 04 be 53 65 16 3d c5 68 09 3e
       0.06342627 -0.12906207 0.036717724 0.13418873
0000e0 8f 1e 90 be 55 76 05 be 1e b3 ac bd 2f be 12 3e
       -0.28148314 -0.13033421 -0.084326014 0.14330362
0000f0 ee 69 f6 bc ca ab da 3c 20 fb 1b be af 01 7a be
       -0.030079808 0.026693244 -0.15232515 -0.24414705

feat_mlp_sigma.0.weight f4 [32, 1080]
000000 8a 22 00 80 f7 1e 00 00 f2 0d 00 00 dc 4c 00 00
       -1.239e-41 1.1108e-41 5.003e-42 2.7572e-41
000010 15 e6 05 80 0c 26 7e 30 b2 54 00 80 af 59 00 80
       -5.41715e-40 9.245873e-10 -3.0383e-41 -3.2172e-41
000020 de 1d 00 00 57 3c 00 00 bd 37 00 80 93 40 00 80
       1.0714e-41 2.1646e-41 -1.9995e-41 -2.3165e-41
000030 6c 01 00 80 c4 02 1d ab 01 09 00 00 1b 43 43 a0
       -5.1e-43 -5.5781443e-13 3.23e-42 -1.6539346e-19
000040 ce 3e 17 b7 68 e1 4a 38 14 b1 01 a0 a8 20 07 ae
       -9.014924e-06 4.837048e-05 -1.0985315e-19 -3.072445e-11
000050 6c f7 08 80 8e 21 08 80 f8 07 00 80 a3 df 67 00
       -8.23442e-40 -7.46721e-40 -2.859e-42 9.539282e-39
000060 92 0a 00 80 15 50 00 80 67 10 00 00 02 09 93 b1
       -3.792e-42 -2.8728e-41 5.884e-42 -4.279287e-09
000070 68 9d d1 a9 72 53 ee 27 c4 5b 5d 17 a8 61 8b 22
       -9.30877e-14 6.614874e-15 7.1524776e-25 3.7779423e-18
000080 3a 04 00 80 94 da 05 00 51 fd 09 80 4e 2c 4e b7
       -1.516e-42 5.37589e-40 -9.17392e-40 -1.2288872e-05
000090 b3 2e 00 80 7a 39 00 80 c4 0f 10 80 13 37 0b 00
       -1.6753e-41 -2.0619e-41 -1.475024e-39 1.029947e-39
0000a0 d1 f1 08 80 d6 3d 00 80 a9 52 00 80 d2 52 00 00
       -8.21431e-40 -2.2183e-41 -2.9653e-41 2.971e-41
0000b0 96 f1 1c 80 8d 1f 00 80 1c be c6 ad e4 02 00 80
       -2.658059e-39 -1.1318e-41 -2.259442e-11 -1.037e-42
0000c0 bf 5c 00 80 e8 48 00 80 68 28 00 00 16 54 7a 2d
       -3.3271e-41 -2.6154e-41 1.4495e-41 1.42295255e-11
0000d0 80 03 26 38 bd 06 00 00 2f ba b5 a5 c4 19 98 1e
       3.9580744e-05 2.417e-42 -3.1524658e-16 1.6104282e-20
0000e0 94 6d fc 22 30 fe d0 38 ff 01 00 00 8d 46 00 80
       6.8420757e-18 9.965559e-05 7.16e-43 -2.5309e-41
0000f0 52 4b 00 80 a2 16 09 80 12 a8 43 20 47 1c 89 33
       -2.702e-41 -8.34639e-40 1.6572752e-19 6.384703e-08
000100 0c 79 06 00 d4 06 4b 00 31 42 00 80 5f 4c 00 00
       5.94436e-40 6.890112e-39 -2.3745e-41 2.7397e-41
000110 1e 16 00 00 df a9 06 00 11 f6 05 80 90 3f 06 80
       7.934e-42 6.11951e-40 -5.4745e-40 -5.73815e-40
000120 81 2e 00 80 26 21 00 00 47 43 b1 21 2e 59 00 00
       -1.6682e-41 1.1891e-41 1.2011795e-18 3.1992e-41
000130 1c 24 00 80 20 84 85 a8 27 d7 06 9d 7a 05 00 80
       -1.2954e-41 -1.4823266e-14 -1.7845983e-21 -1.965e-42
000140 f4 ff 0d 80 32 0e 09 00 5a fd 9a b3 ac 2d 00 00
       -1.28568e-39 8.31612e-40 -7.217268e-08 1.6384e-41
000150 0b 47 00 00 1e 01 00 80 87 51 00 00 6e 47 85 ae
       2.5485e-41 -4.01e-43 2.9247e-41 -6.060828e-11
000160 1c 28 00 80 78 61 00 80 32 c2 25 39 93 59 00 00
       -1.4389e-41 -3.4965e-41 0.0001580797 3.2133e-41
000170 68 8d 0f 28 d8 3d 00 80 00 12 1c 1b c0 10 00 80
       7.968757e-15 -2.2185e-41 1.2909834e-22 -6.009e-42
000180 e6 90 f2 b4 a4 77 2c b3 90 06 00 00 0d 30 00 00
       -4.518144e-07 -4.0155683e-08 2.354e-42 1.7237e-41
000190 d4 2c 00 00 f4 3d 00 00 08 00 00 00 f3 34 00 80
       1.6081e-41 2.2225e-41 1.1e-44 -1.8995e-41
0001a0 0e ec 07 00 2d 16 00 00 82 31 c4 25 bf 5b 00 00
       7.27529e-40 7.955e-42 3.4034128e-16 3.2912e-41
0001b0 60 78 c3 98 85 34 00 00 e2 b6 c7 1b 52 25 00 80
       -5.0527866e-24 1.884e-41 3.3039974e-22 -1.3388e-41
0001c0 cd 24 00 80 eb 52 00 80 e1 5a 00 80 b3 7e b9 ac
       -1.3202e-41 -2.9745e-41 -3.2601e-41 -5.2720827e-12
0001d0 dc 01 95 20 32 21 53 b1 ad 2c 00 80 7b 48 00 00
       2.5242812e-19 -3.072341e-09 -1.6027e-41 2.6001e-41
0001e0 20 81 07 00 40 51 41 1f 6d 2b 00 80 e6 b3 ea 9e
       6.8917e-40 4.0936548e-20 -1.5578e-41 -2.4850118e-20
0001f0 3e 51 b6 a5 8f 09 19 80 e2 09 04 2d 1d 3a 00 00
       -3.162702e-16 -2.299316e-39 7.505526e-12 2.0847e-41
000200 5e 2c 00 00 17 2c 00 80 cc 06 00 80 a0 07 00 80
       1.5916e-41 -1.5816e-41 -2.438e-42 -2.735e-42
000210 d3 5c 00 00 41 ed 08 00 34 43 00 00 23 b4 04 00
       3.3299e-41 8.19795e-40 2.4108e-41 4.31963e-40
000220 e2 92 07 00 16 4d 00 00 1c 35 00 00 92 1a 00 80
       6.9554e-40 2.7653e-41 1.9052e-41 -9.532e-42
000230 ad fd 0c 80 37 d7 10 80 35 1a 00 00 73 0b 23 00
       -1.193028e-39 -1.546572e-39 9.401e-42 3.21835e-39
000240 42 79 06 80 8f 13 00 80 20 4e 00 80 55 1d 00 80
       -5.94512e-40 -7.016e-42 -2.8026e-41 -1.0522e-41
000250 54 9f c2 29 82 07 00 80 f2 3a b7 b4 26 00 00 80
       8.64297e-14 -2.693e-42 -3.4129295e-07 -5.3e-44
000260 d2 56 78 2f 51 b9 07 01 fe 43 08 00 e4 52 00 00
       2.2586313e-10 2.4928542e-38 7.59075e-40 2.9736e-41
000270 46 cb 05 a7 a9 36 00 00 be 48 00 80 e4 53 00 80
       -1.8567653e-15 1.9608e-41 -2.6095e-41 -3.0094e-41
000280 17 48 00 80 75 46 00 80 8a 09 00 80 67 72 05 80
       -2.5861e-41 -2.5275e-41 -3.422e-42 -5.00217e-40
000290 5c 0a 00 00 e7 5a 00 80 23 08 90 b8 f1 0f 00 80
       3.716e-42 -3.261e-41 -6.867971e-05 -5.719e-42
0002a0 82 93 0d 80 8f 5b 00 00 7a 5b 6d 2e e9 bf 06 80
       -1.246777e-39 3.2845e-41 5.396881e-11 -6.19857e-40
0002b0 93 f4 93 b1 12 52 00 80 46 27 00 80 47 ca 2f 00
       -4.306068e-09 -2.9441e-41 -1.4089e-41 4.388832e-39
0002c0 dd 42 00 80 a7 30 00 80 d9 67 78 08 f2 14 00 00
       -2.3986e-41 -1.7453e-41 7.4751858e-34 7.514e-42
0002d0 82 49 00 80 88 29 00 00 70 4f 00 00 44 52 00 00
       -2.637e-41 1.4899e-41 2.8497e-41 2.9511e-41
0002e0 1c ad f6 21 68 95 0f 1e c2 4b 00 00 5d 00 00 80
       1.671543e-18 7.6012535e-21 2.7177e-41 -1.3e-43
0002f0 db 00 2e 37 d7 4e 00 00 60 0d 75 24 b5 61 00 80
       1.0371407e-05 2.8282e-41 5.3137236e-17 -3.505e-41
000300 e3 de 05 80 bf 0a 1d 80 1b 71 45 9b 80 ed 41 2b
       -5.39134e-40 -2.667084e-39 -1.6332004e-22 6.889697e-13
000310 38 b5 10 00 2f bd 23 00 34 0a 00 00 b2 c2 0c 00
       1.534377e-39 3.282109e-39 3.66e-42 1.17187e-39
000320 4c 2b 9c b8 3a 10 86 a9 40 5e 00 00 f8 2c 13 00
       -7.446724e-05 -5.95361e-14 3.381e-41 1.761006e-39
000330 e8 37 00 00 f2 04 00 00 2b 16 00 00 4f 51 00 00
       2.0055e-41 1.774e-42 7.952e-42 2.9168e-41
000340 ec 9c a1 2b 6c a9 06 00 de 22 00 00 89 4e 00 00
       1.1483293e-12 6.1179e-40 1.2508e-41 2.8173e-41
000350 b9 1c 00 00 89 a8 06 00 1a 67 39 ad 38 1e 6d 1b
       1.0304e-41 6.11472e-40 -1.0538926e-11 1.9613945e-22
000360 0b 10 00 00 54 0b 00 00 ae 13 43 25 e1 35 00 80
       5.755e-42 4.064e-42 1.6920222e-16 -1.9328e-41
000370 a4 e9 32 8e 45 62 00 80 82 1a 00 80 4b 02 00 00
       -2.2052688e-30 -3.5252e-41 -9.509e-42 8.23e-43
000380 eb 26 00 00 e3 3a 00 80 71 4e 00 80 b9 13 00 80
       1.3961e-41 -2.1125e-41 -2.814e-41 -7.075e-42
000390 b5 11 00 80 99 53 00 80 b2 59 00 80 dd 88 23 00
       -6.352e-42 -2.9989e-41 -3.2177e-41 3.26334e-39
0003a0 e7 30 00 80 b0 c4 68 30 b2 9c c4 2e f3 14 00 00
       -1.7543e-41 8.468062e-10 8.940883e-11 7.515e-42
0003b0 05 3e 00 00 f6 a9 35 b3 ba 26 00 00 8e bb be ae
       2.2248e-41 -4.2296925e-08 1.3892e-41 -8.673516e-11
0003c0 38 44 2b b7 b5 03 00 00 a7 46 00 80 00 6b 13 22
       -1.0208278e-05 1.33e-42 -2.5345e-41 1.997886e-18
0003d0 dd b6 69 80 6c 51 57 05 9f c1 10 00 c0 3e 00 00
       -9.708326e-39 1.0124206e-35 1.538826e-39 2.251e-41
0003e0 bc c0 2a a8 bf 3d 08 00 bf 04 00 80 9e 06 00 80
       -9.478688e-15 7.56834e-40 -1.703e-42 -2.374e-42
0003f0 4c 89 b6 2b ba 25 00 00 ed e0 46 00 c4 5b 63 28
       1.2969985e-12 1.3534e-41 6.509173e-39 1.262093e-14

feat_mlp_sigma.0.bias f4 [32]
000000 b7 46 00 00 fc 00 00 00 d5 15 00 80 4a 0b 36 80
       2.5368e-41 3.53e-43 -7.832e-42 -4.963167e-39
000010 34 a6 05 80 46 2c 05 00 0e 01 00 80 b6 14 00 80
       -5.188e-40 4.7506e-40 -3.78e-43 -7.43e-42
000020 ef 64 f0 b6 ad 52 00 00 0c 12 00 00 ef 5f 00 80
       -7.1643076e-06 2.9658e-41 6.474e-42 -3.4414e-41
000030 1f 10 00 00 53 ca 04 00 c0 4c e5 17 7c 42 00 00
       5.783e-42 4.39922e-40 1.4818153e-24 2.385e-41
000040 8b 36 09 00 3c 24 00 80 9c 3f 00 00 0f 1f 00 80
       8.46086e-40 -1.2998e-41 2.2819e-41 -1.1142e-41
000050 3e 5c 0a 80 ad eb 04 33 92 1d 00 00 03 38 00 00
       -9.51445e-40 3.094799e-08 1.0608e-41 2.0093e-41
000060 46 60 00 00 98 1d 00 80 a4 27 00 80 18 12 00 00
       3.4536e-41 -1.0616e-41 -1.422e-41 6.491e-42
000070 9c 4d 00 80 a8 4e 1e 21 56 53 00 80 a2 27 00 80
       -2.7841e-41 5.3636583e-19 -2.9895e-41 -1.4218e-41

feat_mlp_sigma.2.weight f4 [1, 32]
000000 b9 16 00 80 07 40 00 00 e3 3f 00 80 9d 1b 00 80
       -8.151e-42 2.2969e-41 -2.2918e-41 -9.906e-42
000010 fd 30 00 00 db 11 06 00 7f 55 00 00 8b 57 00 80
       1.7574e-41 5.57418e-40 3.067e-41 -3.1404e-41
000020 b1 23 00 80 6b 51 00 80 ed 43 00 00 3e 2f 00 80
       -1.2804e-41 -2.9207e-41 2.4367e-41 -1.6947e-41
000030 df 03 00 00 72 36 00 00 16 07 00 80 1c 0f 00 00
       1.389e-42 1.9531e-41 -2.542e-42 5.42e-42
000040 53 3a 00 80 e6 2b 00 80 f5 06 00 80 65 3f 00 80
       -2.0923e-41 -1.5748e-41 -2.496e-42 -2.2742e-41
000050 42 2e 00 00 16 3a 00 00 a9 42 00 80 56 09 00 00
       1.6594e-41 2.0837e-41 -2.3913e-41 3.349e-42
000060 1d 15 00 80 6b 57 00 80 07 46 00 80 11 3b 00 00
       -7.574e-42 -3.136e-41 -2.5121e-41 2.1189e-41
000070 05 61 00 80 2a 42 00 80 28 be d9 9c d6 24 00 00
       -3.4804e-41 -2.3735e-41 -1.440901e-21 1.3214e-41

feat_mlp_mu.0.weight f4 [100, 1080]
000000 65 35 00 80 0a b6 2f 34 6b 5f 00 80 b1 44 00 80
       -1.9154e-41 1.636437e-07 -3.423e-41 -2.4642e-41
000010 f9 65 a2 b0 af 2b 00 80 61 72 2f 30 71 3e 00 00
       -1.1816034e-09 -1.5671e-41 6.382717e-10 2.24e-41
000020 10 e9 38 00 0b 4e 00 00 bf 1e 00 80 75 0e 00 00
       5.226395e-39 2.7997e-41 -1.103e-41 5.186e-42
000030 44 68 bd ac e4 78 eb 24 7f 53 00 00 33 49 00 00
       -5.383279e-12 1.021198e-16 2.9953e-41 2.6259e-41
000040 80 72 df 2d b6 0b 00 80 85 60 00 00 6a 9b a9 36
       2.5403013e-11 -4.201e-42 3.4625e-41 5.054685e-06
000050 3f a4 08 00 30 aa 30 a5 ee 10 00 00 06 3d 37 00
       7.93604e-40 -1.5323228e-16 6.073e-42 5.072843e-39
000060 14 42 00 80 a3 3b 00 80 a0 13 24 24 79 e8 07 00
       -2.3704e-41 -2.1394e-41 3.5578454e-17 7.26244e-40
000070 0c 4c 00 80 2e 05 00 80 3e 5b 00 80 37 ed 0d 80
       -2.728e-41 -1.858e-42 -3.2732e-41 -1.278958e-39
000080 39 03 00 80 0d 60 00 80 e6 84 fa 34 94 4b 00 00
       -1.156e-42 -3.4457e-41 4.6662825e-07 2.7112e-41
000090 8a 22 00 80 a4 15 0a 36 81 5d 00 00 22 5a 00 80
       -1.239e-41 2.05762e-06 3.3543e-41 -3.2334e-41
0000a0 9f a0 04 00 5b 4a 00 80 5a 08 04 00 51 05 f9 34
       4.24962e-40 -2.6674e-41 3.70338e-40 4.6383732e-07
0000b0 a8 26 24 80 5e 1f 00 00 5a 38 00 00 6c 74 fd 9b
       -3.319945e-39 1.1252e-41 2.0215e-41 -4.1930575e-22
0000c0 68 4a 00 00 4e 2e 00 80 ba 3a ea 34 bf ab 15 00
       2.6692e-41 -1.6611e-41 4.3628626e-07 1.990156e-39
0000d0 c0 d7 14 80 03 57 00 80 67 00 00 80 46 1c 00 00
       -1.914106e-39 -3.1214e-41 -1.44e-43 1.0143e-41
0000e0 d7 5a 00 00 4f 0d 00 80 8e 89 9c a4 d8 d9 09 80
       3.2587e-41 -4.774e-42 -6.788724e-17 -9.04667e-40
0000f0 0f 52 00 80 27 50 00 00 38 05 00 80 ca 00 00 00
       -2.9437e-41 2.8753e-41 -1.872e-42 2.83e-43
000100 02 3f 00 00 63 8c 1a 33 24 a0 31 36 0c 26 00 00
       2.2603e-41 3.59836e-08 2.646827e-06 1.3649e-41
000110 7c f4 65 23 3b 2d 00 00 b4 0c 00 80 b2 9b 53 8a
       1.24658865e-17 1.6226e-41 -4.557e-42 -1.01885635e-32
000120 b5 1c 00 80 1a 39 b3 19 b9 18 00 00 af 60 00 00
       -1.0298e-41 1.853123e-23 8.869e-42 3.4684e-41
000130 a1 5a 00 00 6d 28 00 80 2c 4e 00 00 ae 00 5b 36
       3.2512e-41 -1.4502e-41 2.8043e-41 3.2633939e-06
000140 93 d4 0e 00 7e b8 92 ae a3 08 00 00 f9 11 00 00
       1.361954e-39 -6.672084e-11 3.098e-42 6.447e-42
000150 3a 50 00 80 88 41 97 b3 a2 0c 00 80 17 2c 00 00
       -2.878e-41 -7.0434055e-08 -4.532e-42 1.5816e-41
000160 1b bc 24 80 e5 1d 00 00 bc ec 04 00 5e 1b 00 00
       -3.373557e-39 1.0724e-41 4.52266e-40 9.817e-42
000170 98 16 00 00 54 36 41 97 81 4d 00 00 f5 5f 00 00
       8.105e-42 -6.2430235e-25 2.7803e-41 3.4423e-41
000180 cf 22 00 00 12 2c 00 00 9c 1a 04 80 18 53 00 00
       1.2487e-41 1.581e-41 -3.76888e-40 2.9808e-41
000190 b6 08 00 00 3f 30 00 00 47 f4 98 b0 6c 11 78 a8
       3.125e-42 1.7307e-41 -1.1128883e-09 -1.3770543e-14
0001a0 e4 2c 00 80 72 25 00 00 63 b4 09 80 50 0f 00 80
       -1.6104e-41 1.3433e-41 -8.9123e-40 -5.493e-42
0001b0 ae bb 0d 1c 42 30 00 80 10 a9 49 aa c7 12 00 00
       4.6895557e-22 -1.7312e-41 -1.7911042e-13 6.736e-42
0001c0 22 19 00 80 90 3d 15 80 d0 03 00 00 e8 1f 00 00
       -9.016e-42 -1.95063e-39 1.368e-42 1.1446e-41
0001d0 2c 0d 00 00 10 7a 11 00 2b c3 6f b2 9c d2 08 80
       4.725e-42 1.604991e-39 -1.3956007e-08 -8.10236e-40
0001e0 d4 5d 00 00 d0 3c 00 80 22 2b 00 00 9a e1 05 00
       3.3659e-41 -2.1815e-41 1.5473e-41 5.40108e-40
0001f0 61 2b 00 00 72 ff 04 00 c4 12 73 ab 28 45 00 80
       1.5561e-41 4.58978e-40 -8.6356985e-13 -2.4809e-41
000200 d1 e9 05 80 07 12 00 00 37 29 05 80 7c 1b 00 80
       -5.43055e-40 6.467e-42 -4.73963e-40 -9.86e-42
000210 a2 24 00 00 32 d6 80 9f c4 30 00 00 1a 27 00 80
       1.3141e-41 -5.4564465e-20 1.7494e-41 -1.4027e-41
000220 4e be 2b 1f 76 50 00 00 12 d1 0a 80 61 10 00 80
       3.6368075e-20 2.8864e-41 -9.93355e-40 -5.876e-42
000230 c4 a9 6e ae da 03 00 80 92 0b 00 80 61 09 00 00
       -5.4265717e-11 -1.382e-42 -4.15e-42 3.365e-42
000240 36 15 00 80 0b 0e 00 80 86 02 00 00 72 62 04 80
       -7.609e-42 -5.038e-42 9.05e-43 -4.02658e-40
000250 48 19 00 80 16 03 00 00 02 25 00 00 60 22 00 80
       -9.069e-42 1.107e-42 1.3276e-41 -1.2331e-41
000260 89 4f 00 80 7e 5c 00 80 13 13 00 00 bf 0b 00 00
       -2.8532e-41 -3.318e-41 6.843e-42 4.214e-42
000270 d9 3b 00 00 12 b1 54 21 bc e9 6d a8 a4 2b 3a 36
       2.1469e-41 7.2062745e-19 -1.3206826e-14 2.7741562e-06
000280 d1 17 00 00 fe 2a 00 00 92 38 41 2a 85 5a 00 80
       8.544e-42 1.5423e-41 1.716147e-13 -3.2472e-41
000290 1b 85 1c 00 cf 38 00 00 d3 14 00 80 20 5a 8a af
       2.619143e-39 2.0379e-41 -7.47e-42 -2.5166091e-10
0002a0 3a 2b 54 27 c6 16 00 80 ea 53 00 00 f6 0a 00 80
       2.9444343e-15 -8.17e-42 3.0103e-41 -3.932e-42
0002b0 fb 31 00 00 a7 1e 00 80 e6 34 00 00 58 20 8c 1d
       1.793e-41 -1.0996e-41 1.8976e-41 3.7091134e-21
0002c0 39 38 06 80 23 9e 05 00 48 e1 e1 97 3f 0a 00 00
       -5.71182e-40 5.15906e-40 -1.4597153e-24 3.676e-42
0002d0 a8 16 e4 0e 4f 7b 05 00 35 54 00 80 05 5d 00 00
       5.6228157e-30 5.03412e-40 -3.0208e-41 3.3369e-41
0002e0 c9 8f 25 37 47 11 00 00 fc 39 00 00 76 3f 00 00
       9.868244e-06 6.198e-42 2.0801e-41 2.2765e-41
0002f0 d3 03 09 00 10 5c 00 00 ef 4a 06 00 dd 01 00 80
       8.27891e-40 3.3026e-41 5.77894e-40 -6.68e-43
000300 00 89 c7 1f c3 12 00 00 6e a1 2d 2b 70 e6 c8 ad
       8.4506426e-20 6.73e-42 6.1685975e-13 -2.2839702e-11
000310 6f 60 00 80 79 44 00 80 40 58 00 80 b7 7a f4 2e
       -3.4594e-41 -2.4563e-41 -3.1658e-41 1.1117634e-10
000320 05 17 00 00 7c 02 00 00 d2 1b 00 00 c0 c4 5b 9f
       8.258e-42 8.91e-43 9.98e-42 -4.6537802e-20
000330 0e 4c bd b7 b8 b2 89 b0 8a 23 00 80 e0 c9 05 80
       -2.2565971e-05 -1.0018857e-09 -1.2749e-41 -5.31597e-40
000340 e0 df e4 2d 84 30 00 00 87 46 00 00 6a 50 00 80
       2.602002e-11 1.7404e-41 2.53e-41 -2.8847e-41
000350 08 2c 00 80 e6 4c 00 80 47 9b 07 80 7a 6c da b3
       -1.5795e-41 -2.7586e-41 -6.98551e-40 -1.0171148e-07
000360 70 8d 70 a5 9d 54 00 80 87 48 00 80 63 3e 00 80
       -2.0864603e-16 -3.0354e-41 -2.6018e-41 -2.238e-41
000370 8d 37 00 80 6c c7 95 2a ce 0f 00 00 d3 07 00 00
       -1.9928e-41 2.6606094e-13 5.67e-42 2.807e-42
000380 87 60 00 00 23 a4 09 80 5e 60 98 30 ee 34 e0 ae
       3.4627e-41 -8.854e-40 1.1086845e-09 -1.0195743e-10
000390 24 4f 43 00 4a 23 00 80 49 0c 04 00 f0 51 41 98
       6.181369e-39 -1.266e-41 3.71749e-40 -2.4986033e-24
0003a0 89 07 00 00 4e 47 bc b1 00 33 00 00 a6 55 00 80
       2.703e-42 -5.4796265e-09 1.8295e-41 -3.0725e-41
0003b0 e7 50 00 00 b8 bf 08 80 b0 3a 83 31 33 c8 35 80
       2.9022e-41 -8.0346e-40 3.819274e-09 -4.939099e-39
0003c0 5d dd fa b2 ae 5c 00 80 56 7f 85 30 95 5c 00 80
       -2.9204495e-08 -3.3247e-41 9.713215e-10 -3.3212e-41
0003d0 79 1e 00 80 14 40 00 80 67 de 92 9f a0 98 cc 2e
       -1.0932e-41 -2.2987e-41 -6.220134e-20 9.3039576e-11
0003e0 b0 41 12 38 65 2e 00 00 4d 26 00 80 e4 3f 00 00
       3.487029e-05 1.6643e-41 -1.374e-41 2.292e-41
0003f0 68 4e 00 80 51 41 00 80 cb 35 00 80 a7 07 00 00
       -2.8127e-41 -2.3431e-41 -1.9297e-41 2.745e-42

feat_mlp_mu.0.bias f4 [100]
000000 08 3b 00 00 5d c8 06 80 13 96 4f 38 78 17 43 00
       2.1176e-41 -6.2289e-40 4.9492413e-05 6.161397e-39
000010 08 3e 00 00 0f c8 06 00 b1 2a 00 80 a3 01 00 80
       2.2253e-41 6.2278e-40 -1.5315e-41 -5.87e-43
000020 25 48 00 00 a4 4b 00 00 42 47 00 00 cf 94 08 80
       2.588e-41 2.7135e-41 2.5562e-41 -7.88066e-40
000030 c4 42 00 80 dc 13 00 00 f4 33 00 80 d5 a8 fd 35
       -2.3951e-41 7.124e-42 -1.8637e-41 1.8899105e-06
000040 b0 bb d3 33 86 88 d8 ad 8c 41 00 00 f8 4f 00 00
       9.859593e-08 -2.4616986e-11 2.3514e-41 2.8687e-41
000050 2a 41 00 00 98 04 00 00 96 b8 01 b2 3b 09 00 00
       2.3376e-41 1.648e-42 -7.550758e-09 3.311e-42
000060 e0 3b 00 00 25 76 8c ad 51 4e 00 00 32 0c 00 00
       2.1479e-41 -1.5968624e-11 2.8095e-41 4.375e-42
000070 8b 4a 00 00 ef 03 00 00 f5 29 00 00 fe a7 29 80
       2.6741e-41 1.411e-42 1.5051e-41 -3.82552e-39
000080 af c8 05 80 44 d6 ca b6 9d 27 13 ae 34 32 b5 a5
       -5.31169e-40 -6.045013e-06 -3.3459114e-11 -3.1432514e-16
000090 3a 4e 00 80 37 2e 00 80 67 3b 00 00 cf 82 15 00
       -2.8062e-41 -1.6579e-41 2.131e-41 1.975471e-39
0000a0 40 2c 00 00 90 01 00 80 35 4b 00 80 9a 53 00 80
       1.5874e-41 -5.6e-43 -2.6979e-41 -2.999e-41
0000b0 ec e8 05 00 8f 04 00 00 fa 6b 0e 29 bf 13 00 00
       5.42734e-40 1.635e-42 3.162399e-14 7.084e-42
0000c0 a4 81 02 32 4e 34 00 80 7a 3e 00 00 56 4a 00 00
       7.596473e-09 -1.8763e-41 2.2412e-41 2.6667e-41
0000d0 c5 12 06 30 b0 43 00 80 c6 13 00 00 cd 81 14 80
       4.877559e-10 -2.4282e-41 7.093e-42 -1.883274e-39
0000e0 8b 1e 00 80 3e fa b7 1d 79 40 00 80 a2 82 a5 ac
       -1.0957e-41 4.869844e-21 -2.3128e-41 -4.704085e-12
0000f0 ea 40 00 80 cb 54 00 00 f9 34 0b 80 02 52 20 80
       -2.3287e-41 3.0418e-41 -1.029193e-39 -2.968155e-39
000100 e8 9a 28 80 83 0d 00 80 85 19 00 80 ea 69 e1 2c
       -3.72899e-39 -4.847e-42 -9.155e-42 6.4066434e-12
000110 00 f1 05 80 83 af 0b 00 d4 28 00 00 f4 c0 85 a5
       -5.45632e-40 1.073152e-39 1.4646e-41 -2.3202572e-16
000120 60 07 00 00 79 2a 00 00 6f 0b 00 80 8b ad 1e 80
       2.646e-42 1.5236e-41 -4.102e-42 -2.81732e-39
000130 18 5f 00 80 98 a2 04 80 c0 af c3 1c 6e 46 00 80
       -3.4113e-41 -4.2567e-40 1.2949448e-21 -2.5265e-41
000140 67 17 00 80 c6 39 00 80 a2 43 00 00 ba 07 00 00
       -8.395e-42 -2.0725e-41 2.4262e-41 2.772e-42
000150 f5 59 b4 b3 df 06 00 00 35 58 00 00 5f 3e 00 80
       -8.398266e-08 2.465e-42 3.1643e-41 -2.2375e-41
000160 a7 82 04 80 f0 6f 4d b3 04 4f b6 b0 bf 41 00 80
       -4.14211e-40 -4.783209e-08 -1.32647e-09 -2.3585e-41
000170 72 86 07 00 cf e0 08 00 1a 57 00 00 b3 85 0a 00
       6.91078e-40 8.1533e-40 3.1246e-41 9.66317e-40
000180 3d 2c 07 80 94 0d 0c 27 fc 40 04 00 98 3c 00 80
       -6.58718e-40 1.9436264e-15 3.90654e-40 -2.1737e-41

feat_mlp_mu.2.weight f4 [1, 100]
000000 4c 40 00 00 9f 34 00 00 11 46 00 80 b9 18 00 80
       2.3065e-41 1.8877e-41 -2.5135e-41 -8.869e-42
000010 60 5e 00 80 c8 54 00 00 97 0c 00 00 67 02 00 80
       -3.3855e-41 3.0414e-41 4.516e-42 -8.62e-43
000020 60 52 00 00 92 34 00 00 ee 1f 00 80 96 0b 00 00
       2.955e-41 1.8859e-41 -1.1454e-41 4.156e-42
000030 95 00 00 80 17 5a 00 00 9e 34 00 80 3f 51 00 80
       -2.09e-43 3.2318e-41 -1.8875e-41 -2.9146e-41
000040 fc 6f 80 24 6d 35 00 80 5b 3c 00 80 b2 25 00 00
       5.570086e-17 -1.9166e-41 -2.1651e-41 1.3523e-41
000050 64 48 00 80 b0 13 00 80 9a 10 b9 38 c1 48 00 00
       -2.5969e-41 -7.063e-42 8.82458e-05 2.6099e-41
000060 53 27 00 00 71 0f 00 00 9d 56 00 80 51 7e 0e 00
       1.4107e-41 5.54e-42 -3.1071e-41 1.331011e-39
000070 cf 60 00 00 52 60 00 00 96 00 00 80 a5 30 00 00
       3.4728e-41 3.4553e-41 -2.1e-43 1.745e-41
000080 eb 03 00 80 aa ef 07 80 a9 52 00 80 8c 2d 65 25
       -1.406e-42 -7.28824e-40 -2.9653e-41 1.9878016e-16
000090 94 11 00 00 c4 4b 00 80 27 0f 00 00 5e 1c 00 00
       6.306e-42 -2.718e-41 5.436e-42 1.0176e-41
0000a0 17 35 00 00 c5 12 00 80 ed 05 00 80 e0 14 00 00
       1.9045e-41 -6.733e-42 -2.126e-42 7.489e-42
0000b0 61 57 00 00 f8 2b 00 80 ea 5d 00 00 a2 59 00 80
       3.1346e-41 -1.5773e-41 3.369e-41 -3.2154e-41
0000c0 e9 10 00 00 45 60 00 80 24 41 00 00 cd 47 00 80
       6.066e-42 -3.4535e-41 2.3368e-41 -2.5757e-41
0000d0 88 59 00 80 20 0b 00 80 8c 4d 00 00 e8 07 00 80
       -3.2118e-41 -3.991e-42 2.7819e-41 -2.836e-42
0000e0 19 4f 00 00 8e 1f 00 80 cc 89 8e 28 3c 1a 00 80
       2.8375e-41 -1.132e-41 1.5824927e-14 -9.411e-42
0000f0 aa 39 00 80 a9 3a 00 00 36 27 00 00 58 4d 00 00
       -2.0686e-41 2.1043e-41 1.4066e-41 2.7746e-41
000100 c2 96 08 80 e6 07 00 00 67 1d 00 80 bf 21 00 00
       -7.88766e-40 2.833e-42 -1.0548e-41 1.2106e-41
000110 1c 4d 00 00 36 46 00 00 aa 3c 00 80 d5 30 00 80
       2.7662e-41 2.5187e-41 -2.1762e-41 -1.7518e-41
000120 41 53 00 80 5f 59 00 00 08 34 00 80 ea 5e 00 00
       -2.9866e-41 3.206e-41 -1.8665e-41 3.4049e-41
000130 a1 10 00 80 41 a1 4a b0 b7 0a 00 80 d3 58 00 00
       -5.965e-42 -7.371633e-10 -3.844e-42 3.1864e-41
000140 af 1b 00 80 dc 43 00 80 ce 42 00 80 9f 15 00 00
       -9.931e-42 -2.4343e-41 -2.3965e-41 7.756e-42
000150 4a 46 00 80 c8 3e 00 00 09 53 00 80 99 00 00 00
       -2.5215e-41 2.2522e-41 -2.9787e-41 2.14e-43
000160 44 1c 00 80 5c aa 6a 30 ac 58 00 80 16 48 00 80
       -1.014e-41 8.53708e-10 -3.181e-41 -2.586e-41
000170 a3 3f 00 80 aa 2e 00 00 1c 1c 00 80 77 2d 00 80
       -2.2829e-41 1.674e-41 -1.0084e-41 -1.631e-41
000180 f5 06 00 80 40 15 00 00 e7 0c 00 00 c4 35 00 80
       -2.496e-42 7.623e-42 4.628e-42 -1.9287e-41
