experiments/konrad/saved_models/rolling/hinge_inverse_gaussian/model_interval_3.pt (torch, 881842 bytes, 13 tensors)

A_gate f4 [9]
0	0xb60c6912	-2.0922785e-06
1	0x3b11cf0e	0.0022248658
2	0xb7852c38	-1.5875426e-05
3	0xb6123aa8	-2.1789838e-06
4	0x397641ba	0.00023484873
5	0xb94f9d38	-0.00019799627
6	0x37d97d8a	2.5926875e-05
7	0x3a120766	0.00055705605
8	0x38e03420	0.000106908614

B_gate f4 [120]
0	0xb66e573d	-3.5515543e-06
1	0x000024fe	1.327e-41
2	0xbae36cdf	-0.0017351172
3	0x3705101e	7.93117e-06
4	0xb2c1c2a3	-2.2556668e-08
5	0x80000da2	-4.89e-42
6	0x3c2547d4	0.010087926
7	0x3943990c	0.00018653664
8	0x800036b6	-1.9627e-41
9	0x3506a1dc	5.0154426e-07
10	0x80002305	-1.2563e-41
11	0x330996b2	3.2034855e-08
12	0x36b32e0c	5.3399763e-06
13	0x2f5238e2	1.9119598e-10
14	0x30f05aa2	1.7488058e-09
15	0xb8a5d40a	-7.9073085e-05
16	0x360d3226	2.1039828e-06
17	0xb8efa670	-0.000114274095
18	0xb5aab4ed	-1.2718643e-06
19	0x000060b7	3.4695e-41
20	0x000035f8	1.936e-41
21	0xb799d90a	-1.8340088e-05
22	0xba938701	-0.0011255444
23	0x394f9e8d	0.00019800123
24	0xb85f864d	-5.329242e-05
25	0x899bf58a	-3.7545796e-33
26	0x80006b75	-3.8548e-41
27	0x34a26c0b	3.0253463e-07
28	0x800049bf	-2.6455e-41
29	0x80000dc3	-4.937e-42
30	0xb798a01d	-1.819437e-05
31	0x326b68e5	1.3702651e-08
32	0x00005bfe	3.3e-41
33	0xb56520e0	-8.535699e-07
34	0xacf7794a	-7.033628e-12
35	0x25620372	1.9603543e-16
36	0xb59a7a97	-1.1509572e-06
37	0x0000a5be	5.9457e-41
38	0x00005987	3.2116e-41
39	0xb7cb2b54	-2.4219662e-05
40	0x000097b0	5.4415e-41
41	0x89074e53	-1.6286862e-33
42	0x395ecbc6	0.00021247481
43	0x80000cef	-4.64e-42
44	0x80004058	-2.3082e-41
45	0xb4def74f	-4.1530663e-07
46	0x800027d1	-1.4283e-41
47	0xb51638f2	-5.596222e-07
48	0xb6103179	-2.148647e-06
49	0xae1e10a2	-3.5939814e-11
50	0x00005926	3.198e-41
51	0x386aa45c	5.594302e-05
52	0x80003a91	-2.101e-41
53	0x0004fcb2	4.57992e-40
54	0x37e706a0	2.754043e-05
55	0xbb15551e	-0.002278633
56	0x8000b00a	-6.3151e-41
57	0x3ac75875	0.0015208857
58	0x80000017	-3.2e-44
59	0x800019ef	-9.303e-42
60	0x3991e47c	0.0002782679
61	0x25510dda	1.8132553e-16
62	0x80001119	-6.133e-42
63	0x35da3397	1.625728e-06
64	0x29594fdc	4.8252946e-14
65	0x187d54e4	3.2742342e-24
66	0xb709b851	-8.208751e-06
67	0xb46800fc	-2.1607042e-07
68	0x36936ad3	4.3933774e-06
69	0x3901da51	0.00012383728
70	0x800004c9	-1.717e-42
71	0x0000a967	6.077e-41
72	0x35c0d5d0	1.4367342e-06
73	0x3019844f	5.58491e-10
74	0xb10fea13	-2.0942295e-09
75	0x35eead9c	1.7782909e-06
76	0x800012cb	-6.742e-42
77	0x8d99e2b3	-9.483929e-31
78	0x394bd189	0.00019437647
79	0x000021f2	1.2177e-41
80	0x00008410	4.7375e-41
81	0xb4a6c231	-3.1061202e-07
82	0x3789f776	1.6446906e-05
83	0x00008a1f	4.9549e-41
84	0x361ecee6	2.3664265e-06
85	0x95a20723	-6.544254e-26
86	0x1c00618c	4.2477724e-22
87	0x37ce1a2c	2.45693e-05
88	0x96a9e207	-2.7446066e-25
89	0x3902a7d6	0.0001246029
90	0xb4fb7507	-4.6837542e-07
91	0x2f0e2110	1.2926571e-10
92	0xa40a169b	-2.9943128e-17
93	0x3620b333	2.3946166e-06
94	0x800031de	-1.7889e-41
95	0x80005dba	-3.3623e-41
96	0x3a035a82	0.000501074
97	0x80005f24	-3.413e-41
98	0x11a82d6a	2.6533715e-28
99	0xb5b76150	-1.3662884e-06
100	0x80001891	-8.813e-42
101	0x9d3a7698	-2.4678207e-21
102	0x364c9cb3	3.048958e-06
103	0x000050fb	2.905e-41
104	0x00006939	3.7747e-41
105	0x39582e33	0.00020616576
106	0xbade0c86	-0.0016940988
107	0x8fb4568c	-1.7782707e-29
108	0xb5910e03	-1.080742e-06
109	0x80004865	-2.597e-41
110	0x8000a1d6	-5.8056e-41
111	0x3455d7a0	1.9915615e-07
112	0x23293d46	9.1744835e-18
113	0x800001fe	-7.15e-43
114	0x39b20d32	0.00033960637
115	0x285d4085	1.2281955e-14
116	0x3c5a6a08	0.013330944
117	0x3524ed85	6.14404e-07
118	0x80007835	-4.3122e-41
119	0x00005db6	3.3617e-41

ar_gate_lin.weight f4 [1, 64]
0	0xbcfa0984	-0.030522116
1	0x3b9f30fb	0.004858134
2	0xbcf0ebe8	-0.029409364
3	0x3c6161cf	0.01375623
4	0xba6fec49	-0.00091523357
5	0xbd696d87	-0.05698922
6	0xbcc819a0	-0.024426281
7	0x3c5037fd	0.012708661
8	0x3bdf1501	0.006807924
9	0xbce5a973	-0.028034901
10	0xbd00535c	-0.031329498
11	0x3c436d54	0.011927921
12	0xbd133d73	-0.035947274
13	0xbcc24981	-0.02371669
14	0xbd9d95f7	-0.07694619
15	0x3c8aaa97	0.016927047
16	0xb9f733b9	-0.00047150048
17	0xbc9131b6	-0.0177239
18	0xbcf7ded7	-0.030257626
19	0xbde91721	-0.113813646
20	0xbd97c570	-0.07410705
21	0xbcae68f8	-0.021290287
22	0xbd4e63e1	-0.05038822
23	0xbd1a2f5b	-0.037642818
24	0x3c1c049f	0.009522586
25	0x3cf91628	0.030406073
26	0xbcc85800	-0.024456024
27	0x3c140692	0.00903477
28	0x3d3480c5	0.044068117
29	0xbc067b5c	-0.008208122
30	0xbd2075b0	-0.039174736
31	0xbd2761eb	-0.040864866
32	0xbc1b898e	-0.009493245
33	0x3d403835	0.046928603
34	0x3d9cddb7	0.07659476
35	0xbdbaacc9	-0.091149874
36	0xbd256c7c	-0.040386662
37	0x3c18d033	0.009326982
38	0xbc9efaa9	-0.019406633
39	0xbd9a4ed1	-0.07534564
40	0xbdd04792	-0.10169901
41	0xbc297c28	-0.010344543
42	0x3bc5399d	0.006018831
43	0xbe09890c	-0.13431185
44	0x3d977250	0.0739485
45	0xbd742ffd	-0.059616078
46	0x3d820b5d	0.063498236
47	0xbd0fd862	-0.035118468
48	0xbd78ea9d	-0.06077062
49	0xbd12140f	-0.03566366
50	0x3d8ea7f5	0.06965629
51	0x3c232947	0.009958572
52	0xbcc77cbe	-0.024351474
53	0xbd77fdf6	-0.06054493
54	0xbd6043c5	-0.05475213
55	0xbdb80a47	-0.08986335
56	0xbd4480dd	-0.047974456
57	0xbb9c1145	-0.004762801
58	0xbbe4f23a	-0.0069868835
59	0x3c80ad7e	0.015707728
60	0xbd8ee8ed	-0.06978021
61	0xbd713d97	-0.058896627
62	0xbd94b313	-0.07260718
63	0xbda2d6b5	-0.07951108

ar_mean_net.weight f4 [1, 64]
0	0xbc75a0e4	-0.014991973
1	0x3ab327de	0.0013668498
2	0xbc5878dc	-0.013212409
3	0xbc556f87	-0.0130270785
4	0xbc69c5fa	-0.014268393
5	0xbbe850a8	-0.007089693
6	0xbcb4279a	-0.02199154
7	0xbbb447b6	-0.0055017127
8	0xbb4318bc	-0.0029769382
9	0xbc875c8d	-0.016523624
10	0xbc308acc	-0.010775279
11	0xbc1085e7	-0.008820987
12	0xbc26345d	-0.01014432
13	0xbc80777e	-0.015681978
14	0xbbf8888c	-0.007584637
15	0xbc806f05	-0.015677938
16	0xbc392443	-0.011300149
17	0x3c6370cb	0.013881872
18	0xbca28661	-0.019839467
19	0xbc87c435	-0.016573051
20	0xbc9467ef	-0.018115966
21	0xbc50a1d1	-0.012733893
22	0xbc68c2fc	-0.014206644
23	0x3c724579	0.014787071
24	0x3b32f334	0.0027305605
25	0x3bfa2b16	0.007634531
26	0xbc78afb8	-0.015178613
27	0xbb567c41	-0.003272787
28	0x3b9cb454	0.004782239
29	0xbc08de5d	-0.008353797
30	0xbc0952a0	-0.008381516
31	0xbc126d70	-0.008937225
32	0xbc276bdd	-0.010218588
33	0x3cd82b31	0.026387783
34	0xbd70330d	-0.058642436
35	0xbc1f8dde	-0.009738414
36	0xbbffc4a0	-0.007805422
37	0xbc5ccbd3	-0.01347633
38	0xbc1ae3a4	-0.009453688
39	0xbb6eeebc	-0.0036458215
40	0xbadfa7ff	-0.0017063617
41	0xbaef47be	-0.0018255634
42	0x3c0fb5ad	0.008771342
43	0xbae43c84	-0.0017413055
44	0x3db83806	0.089950606
45	0x3b686acc	0.0035464047
46	0xbca6f3d5	-0.02037994
47	0xbb43f431	-0.0029900188
48	0xbcb0fbf5	-0.021604517
49	0xbc1d0334	-0.009583283
50	0x3dba8793	0.0910789
51	0xbc8236d2	-0.015895281
52	0xbcbdec74	-0.023184039
53	0xbc99be67	-0.018767549
54	0xbd2a251e	-0.041539304
55	0xbc972b63	-0.018453306
56	0xbc6eb38c	-0.0145691745
57	0xbb8d6320	-0.004314795
58	0xbc9c741c	-0.019098334
59	0x3c328cf3	0.010897863
60	0xbbece7f9	-0.0072298017
61	0xbbd73292	-0.0065673077
62	0xbbf48d1d	-0.007463111
63	0x3b2ff821	0.0026850777

ar_sigma_net.0.weight f4 [32, 64]
0	0xa3b4e3a0	-1.9612042e-17
1	0x25c40ec2	3.401058e-16
2	0x25901b87	2.499867e-16
3	0x25f4f2b2	4.249171e-16
4	0xa4044ae9	-2.868639e-17
5	0x2521ed58	1.4044939e-16
6	0x24dae6e6	9.4933587e-17
7	0x251f6cb4	1.3827882e-16
8	0x24f6ad2c	1.0697886e-16
9	0x268e8048	9.888e-16
10	0x261f337c	5.523398e-16
11	0x263fa02d	6.6483515e-16
12	0xa1637680	-7.7067425e-19
13	0x2527f11b	1.4566631e-16
14	0x24ced8a1	8.970524e-17
15	0x240012dc	2.777155e-17
16	0xa4ec36c7	-1.0244148e-16
17	0xa60a5d82	-4.8005095e-16
18	0x27537ffe	2.9351517e-15
19	0x261357aa	5.1119677e-16
20	0x26bb6897	1.3004081e-15
21	0xa3806e88	-1.39246e-17
22	0x25b139d0	3.074378e-16
23	0x2623105b	5.657415e-16
24	0x26740538	8.466158e-16
25	0x26a29fc2	1.1284311e-15
26	0x265c0a8d	7.634213e-16
27	0x25aadcf2	2.9640017e-16
28	0x25dd7e0f	3.842281e-16
29	0x253649ea	1.5811027e-16
30	0x2550bc8d	1.8105008e-16
31	0x260565b8	4.62815e-16
32	0x26943b11	1.0285573e-15
33	0xa6a3d794	-1.136883e-15
34	0xa591eb1f	-2.5312815e-16
35	0x251e286c	1.3718011e-16
36	0x25c7ccb1	3.4659701e-16
37	0x274c1140	2.8320038e-15
38	0x264b4f39	7.053714e-16
39	0x23e00170	2.4286737e-17
40	0x248fb912	6.2329886e-17
41	0x256f66c8	2.0764769e-16
42	0x25cf1382	3.5921995e-16
43	0x23caa324	2.1969977e-17
44	0x26778111	8.5870257e-16
45	0xa472a9f2	-5.2619334e-17
46	0x268dbf2b	9.835657e-16
47	0x25e0c478	3.8990938e-16
48	0x2554025a	1.8388866e-16
49	0x25f93dd5	4.3236514e-16
50	0x28810274	1.4322941e-14
51	0x27b37ac4	4.9815583e-15
52	0x268088ae	8.918831e-16
53	0x266b01d6	8.153449e-16
54	0x26af4407	1.2161503e-15
55	0x25e6ea8c	4.0057575e-16
56	0x25ed23b4	4.113714e-16
57	0x25a29d95	2.8209302e-16
58	0x271f5abf	2.2114876e-15
59	0x2679d3f9	8.6676506e-16
60	0x25ffee80	4.4397063e-16
61	0x2542c87e	1.6894747e-16
62	0x252c5045	1.4945818e-16
63	0x25c8102c	3.4705428e-16
64	0xb66bdf02	-3.5147536e-06
65	0x392afc17	0.00016306374
66	0x38865cd7	6.406911e-05
67	0x3911fbf6	0.0001392214
68	0x37bcca32	2.2505501e-05
69	0x37981c52	1.8133e-05
70	0x383411af	4.2931813e-05
71	0x387ab3ac	5.9771977e-05
72	0x383ced2e	4.5043584e-05
73	0x3944a2de	0.0001875269
74	0x38a73d20	7.974566e-05
75	0x38c78afc	9.514947e-05
76	0xb62b0541	-2.5484044e-06
77	0x36cac84e	6.0433877e-06
78	0x36c62b41	5.9058953e-06
79	0x388697bb	6.41788e-05
80	0x384a16c4	4.8181755e-05
81	0xb828acd2	-4.0215273e-05
82	0x398c6c32	0.00026783493
83	0x389b3ac5	7.4019226e-05
84	0x3982055a	0.0002479952
85	0x37ae0cd4	2.074839e-05
86	0x3806cd9e	3.2139586e-05
87	0x392e7af1	0.00016639732
88	0x391416e5	0.00014122909
89	0x392fc52b	0.00016762751
90	0x38efa1a6	0.000114265174
91	0x38423531	4.6302743e-05
92	0x38836df5	6.267048e-05
93	0x3808450e	3.248924e-05
94	0x383611fa	4.3408923e-05
95	0x38ec6e8d	0.000112739486
96	0x393167b5	0.0001691867
97	0x3a69190e	0.0008891978
98	0x39d67ad0	0.00040908763
99	0x383d0932	4.5069675e-05
100	0x38c3d68d	9.338288e-05
101	0x39c1af68	0.00036942516
102	0x38e470e0	0.00010892912
103	0x38806aa1	6.123377e-05
104	0xb7dd5ef1	-2.6389464e-05
105	0x389b6906	7.410538e-05
106	0x3941f648	0.00018497661
107	0x369b783e	4.633358e-06
108	0x3a7a8f2a	0.0009558076
109	0x38ea4f6b	0.00011172782
110	0x395121ec	0.0001994443
111	0x39136cfa	0.0001405961
112	0x38197e5c	3.6595724e-05
113	0x38c21c84	9.255952e-05
114	0x3a9f484d	0.0012152285
115	0x3a149125	0.000566738
116	0x39066730	0.00012817676
117	0x3937ec00	0.00017540157
118	0x394b5618	0.00019391661
119	0x3829e97a	4.0510182e-05
120	0x38719ae3	5.7603127e-05
121	0x38f93b98	0.000118843454
122	0x391c5d4a	0.00014912072
123	0x39adf345	0.0003317838
124	0x39006a25	0.00012246573
125	0x38c0c634	9.192192e-05
126	0x384f5ada	4.9437258e-05
127	0x35da6e7c	1.6274421e-06
128	0xb2ce1267	-2.3989925e-08
129	0x3437f3cd	1.7131897e-07
130	0x335fc61c	5.2101413e-08
131	0x3402ef40	1.2194232e-07
132	0x329fcfe1	1.8604569e-08
133	0xb2708148	-1.3999234e-08
134	0x32dc82b0	2.56708e-08
135	0xb21a87a9	-8.994825e-09
136	0xb218b654	-8.889021e-09
137	0x33b005f8	8.1967244e-08
138	0x3320d950	3.7450548e-08
139	0x336c1dff	5.4975313e-08
140	0xb2e7ef64	-2.7000802e-08
141	0xb2debfd0	-2.5931428e-08
142	0xb1317a78	-2.5826505e-09
143	0x33871856	6.290854e-08
144	0x3304d2c1	3.0925325e-08
145	0xb42b42e1	-1.5949946e-07
146	0xb36a51d2	-5.4556786e-08
147	0xb2c8d1e6	-2.3378515e-08
148	0x32847581	1.5420257e-08
149	0xb28c5de3	-1.634084e-08
150	0xb2b3faf7	-2.0952468e-08
151	0xb3189bab	-3.5531837e-08
152	0x33c7ced7	9.3042836e-08
153	0x3453c9d1	1.9724327e-07
154	0xb118cb97	-2.2234639e-09
155	0xb28e5c67	-1.6572995e-08
156	0x330f4d01	3.3364817e-08
157	0xb1df9f12	-6.5082384e-09
158	0x321e7f4f	9.225757e-09
159	0x32bfae98	2.2314723e-08
160	0x337448c1	5.6876846e-08
161	0x359296a6	1.0921692e-06
162	0x34e8765f	4.3299494e-07
163	0x32c8d6ca	2.338074e-08
164	0x33a9e40a	7.911156e-08
165	0x34eea7bc	4.4452997e-07
166	0x33298c5c	3.9476035e-08
167	0xb1c80688	-5.8215086e-09
168	0xb363c2fd	-5.3029897e-08
169	0x3320e768	3.7463366e-08
170	0x342bcff9	1.6001276e-07
171	0xb2c6dd19	-2.3150777e-08
172	0x359b96f3	1.1592332e-06
173	0x33f41aef	1.13670346e-07
174	0x3444f25a	1.834209e-07
175	0x33e6ddbc	1.0750543e-07
176	0x30ad8a64	1.262674e-09
177	0x33987a81	7.100335e-08
178	0x32bf942e	2.230271e-08
179	0x339ff664	7.448833e-08
180	0x33964543	6.997518e-08
181	0x32cd1f71	2.3879439e-08
182	0x320706fb	7.859621e-09
183	0xb3193770	-3.567351e-08
184	0x33225cce	3.780297e-08
185	0x3405ab68	1.2448947e-07
186	0x33547b66	4.9472327e-08
187	0x3412bd22	1.3666116e-07
188	0x3355a0f4	4.9739313e-08
189	0x33755706	5.7122655e-08
190	0x329d4e72	1.8312878e-08
191	0xb3ae8f0a	-8.128525e-08
192	0xba7492f1	-0.00093297573
193	0x3bd08f8c	0.0063647684
194	0x3a44203c	0.000748161
195	0x3b39a45f	0.0028326733
196	0x3ab90d8c	0.0014118417
197	0xba4c81c7	-0.0007801321
198	0xb9af3093	-0.00033414792
199	0x3b2ef610	0.0026696958
200	0x39085a75	0.00013003669
201	0x3b3f3130	0.0029173605
202	0x3af6bd02	0.0018824639
203	0x3b114790	0.0022167899
204	0xba0f719d	-0.0005471947
205	0xba36737d	-0.0006959958
206	0xba2f2010	-0.0006680498
207	0x3aef89b4	0.0018275292
208	0x39dca224	0.00042082474
209	0x3c4ab32e	0.012371821
210	0x3beb370f	0.0071781944
211	0xb89d2d90	-7.49483e-05
212	0x3b2c9932	0.0026336429
213	0x39b1c30a	0.00033905386
214	0xba066b92	-0.00051277236
215	0x3bacf868	0.005278636
216	0x3bbde31e	0.0057948967
217	0x3c142fd5	0.009044607
218	0x3b37c6b3	0.0028042018
219	0x3aa1625a	0.0012312636
220	0x3b12d43c	0.0022404334
221	0x38bf7c0e	9.130697e-05
222	0x39596814	0.00020733505
223	0x3a7e8f4c	0.0009710684
224	0x3b664e7c	0.0035141995
225	0x3d30b46b	0.04314081
226	0x3ca7b770	0.020473212
227	0x3ac14f81	0.0014748425
228	0x3b3fd579	0.0029271527
229	0x3bbd58d4	0.0057784114
230	0x3adf87c7	0.0017054015
231	0x3a7f3a92	0.00097362057
232	0x3abe6a2c	0.0014527491
233	0x3b2064f5	0.0024474238
234	0x3bc613de	0.006044849
235	0xb9e7a863	-0.0004418521
236	0x3d2fd882	0.042931087
237	0x3bdfd64b	0.0068309656
238	0x3c195f41	0.009361089
239	0x3bac5507	0.0052591595
240	0x3ac173ee	0.0014759281
241	0x3b82704e	0.003980673
242	0x3d7c6e72	0.061628766
243	0x3cad5e19	0.021163033
244	0x3b5db85f	0.0033831818
245	0x3b53b7ad	0.0032305524
246	0x3ae7a036	0.0017671648
247	0xba060f3b	-0.0005113964
248	0x3a2b6be8	0.00065392116
249	0x3b5b950b	0.0033505585
250	0x3bfec04b	0.007774388
251	0x3cc174b5	0.02361522
252	0x3b1765d6	0.002310147
253	0x3b371602	0.0027936702
254	0xb91a9874	-0.00014743378
255	0x3bdc5307	0.006723765

ar_sigma_net.0.bias f4 [32]
0	0x25c66908	3.4418697e-16
1	0x3939f773	0.00017735157
2	0x33b2d264	8.327041e-08
3	0x3bf57e85	0.007491889
4	0x18fb2264	6.4916705e-24
5	0x3c45d977	0.012075773
6	0x938382ad	-3.3197905e-27
7	0x9e5445b1	-1.1237598e-20
8	0x979700ff	-9.758398e-25
9	0x2dade579	1.976973e-11
10	0x9f24af92	-3.487358e-20
11	0x0675e6ca	4.6248936e-35
12	0x14216207	8.147755e-27
13	0x3c1e2b99	0.009653949
14	0x388ab6e9	6.6144225e-05
15	0x3a42205b	0.0007405334
16	0x2f1d2372	1.429166e-10
17	0x276567fc	3.1836504e-15
18	0x03fbfaea	1.4810061e-36
19	0x1f6f7d25	5.0713736e-20
20	0x3536ab49	6.8049536e-07
21	0xaa916209	-2.58252e-13
22	0x3897001c	7.2002615e-05
23	0x9c0ec3fc	-4.7237163e-22
24	0x275729e4	2.9859953e-15
25	0x3c0a6bd2	0.008448558
26	0x85025850	-6.128791e-36
27	0x9fd43452	-8.987205e-20
28	0x3bc19d76	0.0059086634
29	0x00004102	2.332e-41
30	0x3c03b28e	0.008038176
31	0x3bd53b95	0.006507347

ar_sigma_net.2.weight f4 [1, 32]
0	0xa7b7b325	-5.0986932e-15
1	0xbac41092	-0.0014958552
2	0xb5d4633e	-1.5824114e-06
3	0xbdb85cac	-0.09002051
4	0x1c4399e9	6.471901e-22
5	0xbe1c2f9d	-0.15252538
6	0x961a5171	-1.2465719e-25
7	0x1fc078c9	8.1514985e-20
8	0x9cde9b14	-1.4730814e-21
9	0xaf314378	-1.6122026e-10
10	0x21af216b	1.1867307e-18
11	0x8846708a	-5.9715747e-34
12	0x95fdde82	-1.0253694e-25
13	0xbdf24cdd	-0.11831067
14	0xba13e6a5	-0.00056419737
15	0xbbfdc1ff	-0.0077440734
16	0xb093ffb3	-1.0768332e-09
17	0xa87c296a	-1.399779e-14
18	0x86923cd5	-5.500848e-35
19	0xa0cfbd49	-3.5192422e-19
20	0xb6fd611a	-7.5512917e-06
21	0x2c909cae	4.110121e-12
22	0xba1d0ddf	-0.00059911417
23	0x9ecde154	-2.1798413e-20
24	0xa8fe8bb2	-2.8260248e-14
25	0xbdd37c15	-0.10326401
26	0x899e3666	-3.8088272e-33
27	0xa123a5ba	-5.5445885e-19
28	0xbd8bccfe	-0.068262085
29	0x8000a04a	-5.7501e-41
30	0xbdc7b17c	-0.09750649
31	0xbd9f5f10	-0.077818036

feat_mean_net.0.weight f4 [100, 1080]
0	0xb6651ade	-3.4139298e-06
1	0x800009b3	-3.48e-42
2	0x8006e630	-6.33589e-40
3	0x80003a67	-2.0951e-41
4	0x800027fa	-1.4341e-41
5	0x00000fde	5.692e-42
6	0x80003b4e	-2.1275e-41
7	0x00005d06	3.337e-41
8	0x800015a8	-7.769e-42
9	0xb67b1114	-3.7411855e-06
10	0x800058e4	-3.1888e-41
11	0x80006682	-3.6773e-41
12	0x002cfd38	4.1316e-39
13	0x80002c33	-1.5856e-41
14	0x8005b663	-5.24606e-40
15	0x3512d6a7	5.47016e-07
16	0x80002027	-1.1534e-41
17	0x00001156	6.219e-42
18	0x3623e2a3	2.4420813e-06
19	0x26557b78	7.406655e-16
20	0x0000340c	1.8671e-41
21	0x00003b1f	2.1209e-41
22	0x80004da1	-2.7848e-41
23	0x00001c15	1.0074e-41
24	0x000a1f96	9.29686e-40
25	0x00003c97	2.1736e-41
26	0x8000034d	-1.184e-42
27	0xb70f4e76	-8.541732e-06
28	0x00000a5e	3.719e-42
29	0x0000060f	2.173e-42
30	0x80081662	-7.42713e-40
31	0x000061db	3.5104e-41
32	0x800046a5	-2.5342e-41
33	0x300ea91a	5.1899607e-10
34	0x800003bf	-1.344e-42
35	0x8000367f	-1.955e-41
36	0x36c124e2	5.756142e-06
37	0x0000061b	2.19e-42
38	0x00000e0d	5.04e-42
39	0x2506b000	1.1682278e-16
40	0x8e493e38	-2.480512e-30
41	0x80005458	-3.0257e-41
42	0x80006255	-3.5275e-41
43	0x318c1657	4.077076e-09
44	0x0013e838	1.828179e-39
45	0xb4b331a2	-3.337746e-07
46	0x00000f3f	5.469e-42
47	0x3625d53c	2.4711035e-06
48	0x80001237	-6.534e-42
49	0x00002942	1.48e-41
50	0x800042c5	-2.3952e-41
51	0x800031bc	-1.7841e-41
52	0x80000dd6	-4.963e-42
53	0x80007649	-4.2433e-41
54	0xb3a4ef60	-7.680387e-08
55	0x00001468	7.32e-42
56	0x2ee23994	1.0287518e-10
57	0x80004c4e	-2.7373e-41
58	0x00007091	4.0381e-41
59	0x80006401	-3.5875e-41
60	0x868aaac7	-5.2160765e-35
61	0x00004536	2.4828e-41
62	0x8000826e	-4.679e-41
63	0xb5b89080	-1.3751123e-06
64	0x800081c4	-4.6551e-41
65	0x80005276	-2.9581e-41
66	0x80004e38	-2.806e-41
67	0x33f67500	1.147655e-07
68	0x00000d5d	4.794e-42
69	0x00006a95	3.8234e-41
70	0x000054fa	3.0484e-41
71	0x00008002	4.592e-41
72	0x363e564d	2.836244e-06
73	0x80002c2d	-1.5847e-41
74	0x80003ac4	-2.1081e-41
75	0x0000a262	5.8252e-41
76	0xae80ddf5	-5.8601936e-11
77	0x0000723a	4.0977e-41
78	0x8000823e	-4.6722e-41
79	0x00000ff4	5.723e-42
80	0x80007dda	-4.5147e-41
81	0x37033905	7.821484e-06
82	0x80007914	-4.3435e-41
83	0x00005e1a	3.3757e-41
84	0x80000f91	-5.584e-42
85	0x9080cdc0	-5.0804106e-29
86	0x800020bd	-1.1744e-41
87	0x967c7993	-2.039476e-25
88	0x00006cb2	3.8993e-41
89	0x8000178b	-8.446e-42
90	0x3660a0d5	3.3472218e-06
91	0x00001a10	9.35e-42
92	0x00007915	4.3436e-41
93	0x00002e29	1.6559e-41
94	0x00002849	1.4452e-41
95	0x800010db	-6.047e-42
96	0x00002641	1.3723e-41
97	0x2e9cf866	7.138183e-11
98	0x29f8c00f	1.1046729e-13
99	0xb40ebf6e	-1.3294422e-07
100	0x00001246	6.555e-42
101	0x000057f7	3.1556e-41
102	0x80093e3e	-8.48848e-40
103	0x000804fd	7.36473e-40
104	0x000acf1d	9.92653e-40
105	0x000055d8	3.0795e-41
106	0x8000141c	-7.214e-42
107	0x8008f52b	-8.22634e-40
108	0xb1e7287c	-6.7275874e-09
109	0x8f15e33c	-7.390031e-30
110	0x80002370	-1.2713e-41
111	0x339e3b14	7.3681946e-08
112	0x80003720	-1.9775e-41
113	0x00005a68	3.2432e-41
114	0x80000f8d	-5.579e-42
115	0x000025bd	1.3538e-41
116	0x80139391	-1.797811e-39
117	0x36dc153a	6.558982e-06
118	0x8046b90a	-6.494864e-39
119	0x80002e14	-1.653e-41
120	0x25b073ec	3.0609685e-16
121	0x80006514	-3.626e-41
122	0x9fa306b4	-6.9044275e-20
123	0x00005539	3.0572e-41
124	0x02838c6c	1.9329318e-37
125	0x80009746	-5.4267e-41
126	0x3611d7fd	2.1732405e-06
127	0x000062ad	3.5398e-41
128	0x9b70bf6e	-1.9914189e-22
129	0x00005362	2.9912e-41
130	0x00007920	4.3451e-41
131	0x00003eec	2.2572e-41
132	0x802c335a	-4.059183e-39
133	0x9a982b1a	-6.293536e-23
134	0x000087ad	4.8671e-41
135	0xb3b0ccd8	-8.2328995e-08
136	0x801c08a5	-2.574495e-39
137	0x80007bde	-4.4435e-41
138	0x0accaec6	1.9710228e-32
139	0x00005374	2.9937e-41
140	0x2d173030	8.594056e-12
141	0x00006ee6	3.9783e-41
142	0x80003479	-1.8824e-41
143	0x800019c9	-9.25e-42
144	0x36747f3d	3.6432896e-06
145	0x8000736c	-4.1406e-41
146	0x80001407	-7.184e-42
147	0x80002481	-1.3095e-41
148	0x800082de	-4.6946e-41
149	0x80007322	-4.1302e-41
150	0x8b7cc48e	-4.8681306e-32
151	0x0000296a	1.4857e-41
152	0xb5406905	-7.16784e-07
153	0xb6eb4d58	-7.0125498e-06
154	0x80000bcd	-4.233e-42
155	0x000054c9	3.0415e-41
156	0x00002ca8	1.602e-41
157	0xa7c12290	-5.3605734e-15
158	0x80003a03	-2.081e-41
159	0x80003cdc	-2.1832e-41
160	0x00003bf2	2.1504e-41
161	0x00000e10	5.045e-42
162	0x36777c97	3.687839e-06
163	0x80005539	-3.0572e-41
164	0x29130878	3.2647902e-14
165	0x00000e1b	5.06e-42
166	0x0645aaf6	3.7177184e-35
167	0x00b22c29	1.636256e-38
168	0x8000aab5	-6.1238e-41
169	0x80003621	-1.9418e-41
170	0x800029b7	-1.4964e-41
171	0xb6aa2d08	-5.071637e-06
172	0x90d44756	-8.3729166e-29
173	0x00001a51	9.44e-42
174	0x00000c82	4.487e-42
175	0x0008fc4e	8.25194e-40
176	0x80005fa6	-3.4312e-41
177	0x00001896	8.82e-42
178	0x80007700	-4.2689e-41
179	0x00002bdf	1.5738e-41
180	0xb70da5fd	-8.442902e-06
181	0x800e4805	-1.311533e-39
182	0x80069b38	-6.06695e-40
183	0x800044c6	-2.4671e-41
184	0x80002b8c	-1.5622e-41
185	0x000081ca	4.656e-41
186	0x8000984a	-5.4631e-41
187	0x00a18c0f	1.4835758e-38
188	0x0000706f	4.0334e-41
189	0xb58e4b17	-1.0601678e-06
190	0x8000646f	-3.6029e-41
191	0x80002b57	-1.5547e-41
192	0x80003bdc	-2.1473e-41
193	0xb8dd3bba	-0.00010549226
194	0x000b1d68	1.02074e-39
195	0x00002677	1.3799e-41
196	0x00003054	1.7337e-41
197	0x80001353	-6.932e-42
198	0x36394f6b	2.7613376e-06
199	0x000039bd	2.0713e-41
200	0x80002a53	-1.5183e-41
201	0x80002b47	-1.5525e-41
202	0x2c2861ff	2.3928635e-12
203	0x0000325a	1.8063e-41
204	0x00001ec9	1.1044e-41
205	0x800074e6	-4.1935e-41
206	0x800051d9	-2.9361e-41
207	0xb580a774	-9.585478e-07
208	0x01d12dec	7.684037e-38
209	0x800f31e0	-1.395424e-39
210	0x000077df	4.3002e-41
211	0x80004d27	-2.7677e-41
212	0x00579b64	8.045432e-39
213	0x80002bc7	-1.5704e-41
214	0x80003d9c	-2.2101e-41
215	0x80003bb5	-2.1419e-41
216	0x360a9045	2.0647578e-06
217	0x80004e5d	-2.8111e-41
218	0x001a0a20	2.391355e-39
219	0x00006da7	3.9336e-41
220	0x00004859	2.5953e-41
221	0x000018db	8.916e-42
222	0x00000bd1	4.239e-42
223	0x000a7c5e	9.6297e-40
224	0x00000d81	4.844e-42
225	0xb6320d02	-2.6531638e-06
226	0x80004eb4	-2.8233e-41
227	0x90f60f9b	-9.7053935e-29
228	0x1ce9d2a0	1.5473092e-21
229	0x800063d9	-3.5819e-41
230	0x8000ad13	-6.2087e-41
231	0x00004f19	2.8375e-41
232	0x80006315	-3.5544e-41
233	0x00002b72	1.5585e-41
234	0x36992a2a	4.564664e-06
235	0xb1698efd	-3.3987242e-09
236	0x00006be6	3.8707e-41
237	0x00004bfd	2.726e-41
238	0x00002a85	1.5253e-41
239	0x8000548f	-3.0334e-41
240	0x00004a95	2.6755e-41
241	0x000006f6	2.497e-42
242	0x800023cf	-1.2846e-41
243	0x365b205e	3.2652383e-06
244	0x00000f18	5.415e-42
245	0x800029ac	-1.4949e-41
246	0x003b31dd	5.436182e-39
247	0x8d188a59	-4.7005146e-31
248	0x80001fe3	-1.1439e-41
249	0x1bda5f4d	3.6126661e-22
250	0x00002ad8	1.537e-41
251	0x00005200	2.9416e-41
252	0xb6939126	-4.397839e-06
253	0x0010dcd1	1.548582e-39
254	0x800055d0	-3.0784e-41
255	0x0000665d	3.6721e-41

feat_mean_net.0.bias f4 [100]
0	0xb7d43b7f	-2.5300074e-05
1	0x3c69ae76	0.014262786
2	0x3d901e10	0.07036984
3	0x3d4e4f8a	0.050368823
4	0xbd6b49fe	-0.05744361
5	0xbe55e5e4	-0.20888478
6	0xbe3bd103	-0.1834145
7	0xbb4005e5	-0.0029300388
8	0xbe438613	-0.19094114
9	0xbbc158eb	-0.0059004924
10	0xba6ff3ec	-0.00091534737
11	0x3cca8f7d	0.024726624
12	0xbe3c0ba3	-0.18363814
13	0x3d68db88	0.056849986
14	0xbcdec236	-0.027192216
15	0xb8cae5f8	-9.6749456e-05
16	0xbc11a960	-0.00889048
17	0xb535151c	-6.745847e-07
18	0xbe54d498	-0.20784223
19	0xbdefb3f6	-0.11704247
20	0xbc6c3251	-0.014416293
21	0xbca61d99	-0.020277785
22	0x3d9e6ecf	0.07735979
23	0xbd801d82	-0.06255628
24	0x3dc11017	0.09426897
25	0xb71362cf	-8.784888e-06
26	0xbe7430d9	-0.23846759
27	0xbb8452d3	-0.0040381937
28	0x3ce4b83c	0.027919881
29	0xbc1774f6	-0.009244194
30	0xbb973d97	-0.0046154964
31	0xbc9e60ca	-0.019333262
32	0x3c1ba987	0.009500868
33	0x3ce0d788	0.027446523
34	0x3cdd0f6e	0.026984897
35	0x3cd3a9b3	0.025837755
36	0xbe121334	-0.14265138
37	0xb70bb62c	-8.327461e-06
38	0xba46d729	-0.0007585162
39	0xbc65aaae	-0.014017744
40	0xbe4ceeeb	-0.20013015
41	0x3cf3b393	0.029748714
42	0xbc33ce3e	-0.010974465
43	0xbcc3ee58	-0.023917362
44	0xb9741261	-0.000232765
45	0xbcdd79cd	-0.027035618
46	0xbe48cac0	-0.19608593
47	0xbb829b48	-0.003985796
48	0xba9a9ed5	-0.0011796603
49	0xbb2c42ca	-0.0026284927
50	0x3d7ac920	0.061226964
51	0xbbd853fa	-0.0066018077
52	0xbe2d6945	-0.16934688
53	0xba8dc35d	-0.0010815669
54	0xb9f9a7a3	-0.0004761788
55	0xbe461a88	-0.19346058
56	0x3d2cd033	0.04219074
57	0xbd913c63	-0.07091596
58	0xb270246c	-1.397812e-08
59	0xbe30f27d	-0.17280002
60	0x3bb18031	0.005416893
61	0xbaaa3c52	-0.0012987948
62	0xbcb482d9	-0.02203505
63	0xbe2d22d8	-0.16907823
64	0x3a329fa0	0.0006813947
65	0xbe754cbd	-0.23955055
66	0x3cd46190	0.025925428
67	0x3dc65230	0.09683645
68	0xbe285234	-0.16437608
69	0xbe74db01	-0.23911668
70	0xbb1718d1	-0.0023055563
71	0xbe54830c	-0.20753115
72	0xb85f87c5	-5.329379e-05
73	0xbd761859	-0.060081813
74	0xbe3b8ef8	-0.18316257
75	0xbca498f4	-0.020092465
76	0xbe48d974	-0.19614202
77	0xbe336bdf	-0.17521618
78	0xbe21ca37	-0.15799795
79	0xbb9861ce	-0.004650331
80	0xbcc2a876	-0.023761969
81	0xbe57ed1e	-0.21086547
82	0xbba33e3e	-0.004981785
83	0xbeac257b	-0.33622345
84	0x3bb22289	0.005436246
85	0x3ba20d84	0.004945459
86	0x3d4f7615	0.05064972
87	0xb8eb1c4f	-0.00011210946
88	0xbe791c28	-0.24327147
89	0xbe434423	-0.19068961
90	0x3df45cc1	0.11931754
91	0xbda18b35	-0.0788788
92	0xb6f9d7b2	-7.4458885e-06
93	0xbd68a21e	-0.056795232
94	0x3c30dda4	0.010795031
95	0xbb021341	-0.0019847902
96	0xbe6bc0e4	-0.230228
97	0xbe70f119	-0.23529471
98	0x3c60392b	0.013685505
99	0xbe5add30	-0.21373439

feat_mean_net.2.weight f4 [1, 100]
0	0x34e469ee	4.2545383e-07
1	0xbe8410d4	-0.2579409
2	0xbef7bc4b	-0.48385844
3	0xbea536a6	-0.32268256
4	0x3c9e047d	0.01928925
5	0x3ef8ca28	0.48591733
6	0x3e48ddfc	0.1961593
7	0xb61b8e20	-2.3179527e-06
8	0x3eba821d	0.36427394
9	0xbc8b84fe	-0.017031189
10	0xb9b0b7fb	-0.00033706412
11	0xbda222ab	-0.07916769
12	0x3e5e7743	0.21725182
13	0xbdf43d2d	-0.11925731
14	0xbea0de9a	-0.31419832
15	0x36fb25bb	7.4847753e-06
16	0xb9de9719	-0.00042455716
17	0xb3dc6b68	-1.02640854e-07
18	0x3ee50bff	0.44735715
19	0x3d89e866	0.067337796
20	0xbaa79545	-0.0012785575
21	0xbe3d46b8	-0.18484008
22	0xbe758035	-0.23974688
23	0xbe23b0fa	-0.1598548
24	0xbe96c551	-0.29447415
25	0xb6b88716	-5.4993534e-06
26	0x3eb2b337	0.34902355
27	0xb9defff7	-0.00042533848
28	0xbe2ece18	-0.17070806
29	0x39c113eb	0.0003682667
30	0xbd7a62f8	-0.06112954
31	0xbb28b75a	-0.0025744052
32	0xbc36d7b1	-0.011159823
33	0xbdeec32d	-0.116583206
34	0xbe4ac036	-0.19799885
35	0xbe97bd2c	-0.29636514
36	0x3daae0d0	0.08343661
37	0xb468bca1	-2.1675307e-07
38	0xbaff956f	-0.0019499491
39	0xbe63f770	-0.22262359
40	0x3ea1606d	0.3151888
41	0xbe9394d0	-0.28824472
42	0xbe5a967a	-0.21346465
43	0xbd71471d	-0.05890571
44	0xbe7497c9	-0.23886026
45	0x3b8fdf48	0.004390631
46	0x3e58b099	0.21161117
47	0xbe38dfcb	-0.1805412
48	0x3783cd14	1.5711914e-05
49	0x38b1f466	8.4855405e-05
50	0xbe5bab9a	-0.2145218
51	0xbc591abc	-0.013251003
52	0x3ddc89ac	0.10768446
53	0xb88951d4	-6.547911e-05
54	0x376559aa	1.367034e-05
55	0x3f051140	0.51979446
56	0xbe9ff824	-0.31244004
57	0xbe3a01db	-0.1816477
58	0x2ffdf1a8	4.619214e-10
59	0x3e7f2406	0.24916086
60	0xbe873ca0	-0.2641344
61	0xbe01b564	-0.12666851
62	0xbbcd5b16	-0.006266962
63	0x3e048804	0.12942511
64	0xbc5b8680	-0.0133987665
65	0x3ef140ef	0.47119853
66	0xbe269dd1	-0.1627114
67	0xbe930224	-0.2871257
68	0x3eb57f4e	0.35448688
69	0x3e98cf69	0.2984574
70	0xbe51da7c	-0.20493501
71	0x3eabfebf	0.33592793
72	0xb7b9f6e4	-2.2168686e-05
73	0xbeb4202b	-0.35180792
74	0x3edaacff	0.4271011
75	0xbc69aea5	-0.01426283
76	0x3ed1704c	0.40905988
77	0x3eb46f22	0.35241038
78	0x3eeaa93e	0.45832247
79	0xbad38d04	-0.0016140048
80	0xbc8b8278	-0.017029986
81	0x3eae57e9	0.34051445
82	0x39fa05eb	0.00047688125
83	0x3ef96b43	0.48714647
84	0xbe1fa15c	-0.15588897
85	0xbb2c3c86	-0.0026281192
86	0xbe419bf9	-0.18907155
87	0x36320b2b	2.6530568e-06
88	0x3ee17e15	0.44041505
89	0x3eb00143	0.34375963
90	0xbeb7ed56	-0.3592326
91	0x3ce9010c	0.028442882
92	0xb424b119	-1.5338118e-07
93	0xbe9ab8b2	-0.30219036
94	0xbe02c823	-0.12771659
95	0xb9436c2b	-0.00018636945
96	0x3ead29de	0.33821005
97	0x3efb987c	0.49139774
98	0xbeb2c6e6	-0.34917372
99	0x3ea446fa	0.320854

feat_lambda_net.0.weight f4 [100, 1080]
0	0x89b139a2	-4.2665398e-33
1	0x800015b7	-7.79e-42
2	0x00135d85	1.778423e-39
3	0x89babf71	-4.4957902e-33
4	0x000039a7	2.0682e-41
5	0x0000389f	2.0312e-41
6	0x981dccf0	-2.0395241e-24
7	0x1883284d	3.39034e-24
8	0x80003830	-2.0156e-41
9	0x88a0bdba	-9.674254e-34
10	0x800012db	-6.764e-42
11	0x00004d20	2.7667e-41
12	0x00003d27	2.1937e-41
13	0x00005156	2.9178e-41
14	0x80002760	-1.4125e-41
15	0x00001c3b	1.0127e-41
16	0x000037fa	2.008e-41
17	0x00003263	1.8075e-41
18	0x8a20ce66	-7.742539e-33
19	0x00000a28	3.643e-42
20	0x3282e357	1.5237374e-08
21	0xa5ee5dc6	-4.1349962e-16
22	0x33dbe760	1.0240069e-07
23	0x00001c54	1.0162e-41
24	0x00001bdd	9.995e-42
25	0x00006f71	3.9978e-41
26	0x00004847	2.5928e-41
27	0x88aa1dcb	-1.0238507e-33
28	0x80002e30	-1.6569e-41
29	0x800081bd	-4.6541e-41
30	0x8000754d	-4.208e-41
31	0x80002e5b	-1.6629e-41
32	0x005c5def	8.482563e-39
33	0x800bc462	-1.08064e-39
34	0x00002fed	1.7193e-41
35	0x00007ad4	4.4062e-41
36	0x89c236a2	-4.6755178e-33
37	0x000050d7	2.9e-41
38	0x1814b1ef	1.9218385e-24
39	0x80004964	-2.6328e-41
40	0x369f2aa2	4.7435324e-06
41	0x00001555	7.652e-42
42	0xb30b9930	-3.2502783e-08
43	0x80000a67	-3.732e-42
44	0x1a7b87b4	5.2015204e-23
45	0x89dac355	-5.266528e-33
46	0x800a5486	-9.48676e-40
47	0x8000598b	-3.2122e-41
48	0x80007e0a	-4.5214e-41
49	0x0f1b0ece	7.644941e-30
50	0x80042bab	-3.83007e-40
51	0x80000e61	-5.158e-42
52	0x8000208e	-1.1678e-41
53	0x80006f09	-3.9832e-41
54	0x89e6d73a	-5.5572884e-33
55	0x0e950c7e	3.6743365e-30
56	0x80004584	-2.4938e-41
57	0x000081b4	4.6529e-41
58	0xa20a06e6	-1.870614e-18
59	0x000ed40d	1.361766e-39
60	0x80124c23	-1.680352e-39
61	0x00004eba	2.8242e-41
62	0x00180bb9	2.208257e-39
63	0x88764be4	-7.411714e-34
64	0x00003518	1.9046e-41
65	0x000029b8	1.4966e-41
66	0x80000fc0	-5.65e-42
67	0x0000584e	3.1678e-41
68	0x80003205	-1.7944e-41
69	0x80003fbf	-2.2868e-41
70	0x00002bca	1.5709e-41
71	0x80006556	-3.6352e-41
72	0x8a24229b	-7.902821e-33
73	0x80003a7a	-2.0977e-41
74	0x80001517	-7.566e-42
75	0x000048eb	2.6158e-41
76	0x00001a69	9.474e-42
77	0x00002ca7	1.6018e-41
78	0x80004ceb	-2.7593e-41
79	0x0006a210	6.0915e-40
80	0x00007e42	4.5293e-41
81	0x8a748cfa	-1.17746874e-32
82	0x00006604	3.6596e-41
83	0x8000028b	-9.12e-43
84	0x0da773ea	1.0320075e-30
85	0x17829755	8.439255e-25
86	0x000008e6	3.192e-42
87	0x800008c4	-3.145e-42
88	0x00b2306c	1.6364089e-38
89	0x3155157d	3.1007794e-09
90	0x8a0e4aa9	-6.851093e-33
91	0x8021df62	-3.110706e-39
92	0x80130de8	-1.749863e-39
93	0x00004cd8	2.7566e-41
94	0x00000aca	3.87e-42
95	0x800e56e1	-1.316863e-39
96	0x0000a65a	5.9676e-41
97	0x001e2306	2.767629e-39
98	0x00000dc3	4.937e-42
99	0x8a755d4d	-1.1813869e-32
100	0x800074ab	-4.1853e-41
101	0x8000283c	-1.4433e-41
102	0x800df4ef	-1.281727e-39
103	0x8000a51c	-5.923e-41
104	0x8004bad1	-4.34359e-40
105	0x80001e17	-1.0794e-41
106	0x00001265	6.599e-42
107	0x803a8429	-5.373869e-39
108	0x8a72cb3d	-1.1690101e-32
109	0x0000765c	4.246e-41
110	0x00006c7e	3.892e-41
111	0x00001d69	1.055e-41
112	0x918eac61	-2.2509886e-28
113	0x80007140	-4.0626e-41
114	0x00007116	4.0568e-41
115	0x8017b8a9	-2.17846e-39
116	0x91d7d4ad	-3.405209e-28
117	0x8aae02f6	-1.6756704e-32
118	0xb4be1209	-3.540338e-07
119	0x80006b7e	-3.8561e-41
120	0x800048ee	-2.6162e-41
121	0x80002239	-1.2277e-41
122	0x2410ee06	3.1426636e-17
123	0xb44718ae	-1.8542298e-07
124	0x864071b2	-3.6194717e-35
125	0x8000691e	-3.7709e-41
126	0x8a138691	-7.103102e-33
127	0x800044ea	-2.4722e-41
128	0x00007d24	4.4892e-41
129	0x00000fa6	5.614e-42
130	0x87f4eddc	-3.685284e-34
131	0x000d23a1	1.206643e-39
132	0x800025df	-1.3586e-41
133	0x8000051a	-1.83e-42
134	0x80001a09	-9.34e-42
135	0x89d632aa	-5.156627e-33
136	0x80005aa1	-3.2512e-41
137	0x80002252	-1.2312e-41
138	0x0000755a	4.2098e-41
139	0x8000011e	-4.01e-43
140	0x2de27822	2.5746575e-11
141	0x80003d08	-2.1894e-41
142	0x00004374	2.4198e-41
143	0x000073a9	4.1491e-41
144	0x0908acad	1.6451596e-33
145	0x00001cad	1.0287e-41
146	0x0000968f	5.401e-41
147	0x80004caa	-2.7502e-41
148	0x0008cfe2	8.09258e-40
149	0x8000447f	-2.4572e-41
150	0x80000d28	-4.72e-42
151	0x80001eee	-1.1095e-41
152	0x00000757	2.633e-42
153	0x89251537	-1.9871128e-33
154	0x80001f9d	-1.1341e-41
155	0x00003156	1.7698e-41
156	0x00007714	4.2717e-41
157	0x80001d0c	-1.042e-41
158	0x00008090	4.612e-41
159	0x00001541	7.624e-42
160	0x000005c9	2.075e-42
161	0x80007b2d	-4.4187e-41
162	0x07397b88	1.3954156e-34
163	0x800b7f83	-1.055933e-39
164	0x36f2d81b	7.23732e-06
165	0x80005107	-2.9067e-41
166	0x000003c3	1.35e-42
167	0x000014c7	7.454e-42
168	0x80005eca	-3.4004e-41
169	0x00008d49	5.0684e-41
170	0x274271e0	2.698464e-15
171	0x08f69329	1.4840184e-33
172	0x00002678	1.38e-41
173	0x8003f8da	-3.64778e-40
174	0x00004c5a	2.739e-41
175	0x80002a9e	-1.5288e-41
176	0x8015f4c5	-2.016352e-39
177	0x80001e25	-1.0814e-41
178	0x80005dc7	-3.3641e-41
179	0xa9a9aba0	-7.53488e-14
180	0x0942783d	2.3408436e-33
181	0x8000795c	-4.3536e-41
182	0x929a2eda	-9.730316e-28
183	0x006907f4	9.64558e-39
184	0x00003332	1.8365e-41
185	0x80005ac7	-3.2565e-41
186	0x00006fba	4.008e-41
187	0x158548a0	5.3832854e-26
188	0x0000063b	2.235e-42
189	0x08849473	7.979361e-34
190	0x00163b1a	2.041583e-39
191	0x00006ac1	3.8296e-41
192	0x00255c6e	3.431071e-39
193	0x800067b9	-3.7209e-41
194	0x800017e6	-8.573e-42
195	0x0c09e546	1.062309e-31
196	0x00004fa5	2.8571e-41
197	0x80007b5d	-4.4254e-41
198	0x8a0d881c	-6.8145024e-33
199	0x26bff058	1.3318433e-15
200	0x80002ccc	-1.607e-41
201	0x80001836	-8.685e-42
202	0x80002e26	-1.6555e-41
203	0x00003a17	2.0839e-41
204	0x1e4f8f0f	1.09880726e-20
205	0x0033e071	4.764125e-39
206	0x00000809	2.882e-42
207	0x093eaa87	2.29506e-33
208	0x80004951	-2.6301e-41
209	0x38842682	6.301423e-05
210	0xb084042d	-9.605451e-10
211	0x809f5c84	-1.4635032e-38
212	0x80005903	-3.1931e-41
213	0x00001fdd	1.143e-41
214	0x000017bd	8.516e-42
215	0x00005cf9	3.3352e-41
216	0x89b7b648	-4.4227064e-33
217	0x801a6436	-2.423672e-39
218	0x8be07ab5	-8.646629e-32
219	0x2d8d48cc	1.6062172e-11
220	0x8008e627	-8.17247e-40
221	0x80004524	-2.4803e-41
222	0x26d06f20	1.446302e-15
223	0x800001cc	-6.45e-43
224	0x800036bd	-1.9636e-41
225	0x89940089	-3.5630207e-33
226	0x00003726	1.9784e-41
227	0x800003c0	-1.345e-42
228	0x80004322	-2.4083e-41
229	0x80002a48	-1.5168e-41
230	0x00002cba	1.6045e-41
231	0x80001216	-6.488e-42
232	0x8000528a	-2.961e-41
233	0x9817999b	-1.9593844e-24
234	0x8a4dabbe	-9.902692e-33
235	0x000028ff	1.4707e-41
236	0x002324de	3.227468e-39
237	0x00006bc5	3.866e-41
238	0x00072c8d	6.5883e-40
239	0x8000151f	-7.577e-42
240	0x000039ae	2.0692e-41
241	0x80047d53	-4.123e-40
242	0x80002805	-1.4356e-41
243	0x89a7caf8	-4.039466e-33
244	0x80000150	-4.71e-43
245	0x80004681	-2.5292e-41
246	0x8000780b	-4.3063e-41
247	0x00106e33	1.5089e-39
248	0x80001540	-7.623e-42
249	0x004ced3f	7.064606e-39
250	0x80003265	-1.8078e-41
251	0x0000514e	2.9167e-41
252	0x8a0fd53d	-6.925305e-33
253	0x00147b56	1.880955e-39
254	0x0008159a	7.42433e-40
255	0x8000991f	-5.493e-41

feat_lambda_net.0.bias f4 [100]
0	0x8a991351	-1.474063e-32
1	0x3ea5185d	0.3224515
2	0xb82db4db	-4.141485e-05
3	0xba09a724	-0.0005251041
4	0xbbd389af	-0.006455622
5	0xbce2f9f4	-0.027707078
6	0x3ea2168b	0.31657824
7	0x3e92a363	0.2864028
8	0xbcdf3e8b	-0.027251502
9	0xbd0a240b	-0.03372578
10	0x3eb95d6a	0.36204082
11	0xbb13f716	-0.0022577695
12	0xae9d372e	-7.149335e-11
13	0x3e79d2de	0.24396846
14	0xbc088a39	-0.008333736
15	0x0c1dcedb	1.2157088e-31
16	0x2c319794	2.5237356e-12
17	0x1f0c8b2b	2.976127e-20
18	0x3ec917fe	0.39276117
19	0x11ccec94	3.2331327e-28
20	0xbb0c7b1b	-0.0021435681
21	0x3ecc0d0c	0.39853704
22	0xa388232d	-1.4760047e-17
23	0x3ee3ba46	0.44478053
24	0xbd000055	-0.031250317
25	0xbd055c95	-0.032558996
26	0xbccb7f76	-0.024841052
27	0xb931b864	-0.00016948726
28	0x3e47df59	0.19518794
29	0xbc2e03e4	-0.010621045
30	0xbc836213	-0.016037976
31	0x3ed62faf	0.41833255
32	0x3eca1eaf	0.39476535
33	0xbd01afd1	-0.031661812
34	0xbcb8bcf9	-0.022551047
35	0xb9cae445	-0.00038698516
36	0xbd2ef2ed	-0.04271214
37	0x3e8ed484	0.27896512
38	0x3eb4b658	0.35295367
39	0xbc0c6576	-0.008569112
40	0xbb85ceac	-0.004083475
41	0x3ea44469	0.32083443
42	0x9ca7bb78	-1.1099593e-21
43	0x000073af	4.15e-41
44	0xbcc27e00	-0.023741722
45	0xbc4c0d8d	-0.012454403
46	0xbc9b5a0b	-0.018963834
47	0x876c1850	-1.7761811e-34
48	0x09dc659d	5.305863e-33
49	0xb3f965e6	-1.1613501e-07
50	0xb95d7056	-0.00021118051
51	0xb909e229	-0.0001314959
52	0xaf6f9918	-2.1791313e-10
53	0xbd26b5d7	-0.04070076
54	0x000279d9	2.27382e-40
55	0x3ea0a8ff	0.31378934
56	0x3ebda7b0	0.37041998
57	0xb778c905	-1.4828755e-05
58	0x12e0a8b3	1.4177975e-27
59	0x3ea9760e	0.3309788
60	0xbcfecaba	-0.031102527
61	0x00005a02	3.2289e-41
62	0xb4c1b257	-3.607881e-07
63	0x3ed64f0b	0.4185718
64	0xbcd8fe8c	-0.026488565
65	0x97f56934	-1.5859311e-24
66	0xbd134911	-0.035958353
67	0xa7b6ab74	-5.0701037e-15
68	0xbce04f07	-0.027381433
69	0xbbdc7dc9	-0.006728862
70	0x3eb74946	0.3579809
71	0x0d08db3c	4.217213e-31
72	0x3707d2a4	8.095671e-06
73	0x3eb19371	0.346828
74	0xbd0bc305	-0.034121532
75	0xbc6ef7cb	-0.014585446
76	0xba66afa3	-0.00087999756
77	0x3eb3ed18	0.35141826
78	0xbcaa1c70	-0.020765513
79	0x3e780648	0.24221146
80	0x3a157a49	0.0005702121
81	0x3ea1c7f1	0.31597856
82	0xbc715e57	-0.014731965
83	0x0dfeaec3	1.5696031e-30
84	0x3e50eef5	0.20403655
85	0xbbb73ccc	-0.0055919643
86	0x8e3ff352	-2.3659722e-30
87	0xbd2efa00	-0.042718887
88	0xba5f8dae	-0.0008527887
89	0x05e0542f	2.1095783e-35
90	0xbbdaefc6	-0.0066814153
91	0x3ef4543d	0.4772052
92	0xafdba5ea	-3.9953757e-10
93	0x33364a91	4.2442995e-08
94	0x16068dd6	1.0869189e-25
95	0x86845592	-4.9778616e-35
96	0x03e8bae3	1.3678642e-36
97	0x3e742b11	0.23844554
98	0xbd836553	-0.064158104
99	0x80002a2f	-1.5133e-41

feat_lambda_net.2.weight f4 [1, 100]
0	0x8a190380	-7.36734e-33
1	0x3ef1dee3	0.47240362
2	0xb96c372d	-0.00022527268
3	0xba1e9b07	-0.00060503226
4	0xbcca4c58	-0.024694607
5	0xbe119ec1	-0.14220716
6	0x3ee770cd	0.45203248
7	0x3f012d78	0.50460005
8	0xbdd290a6	-0.10281496
9	0xbe3463c8	-0.17616189
10	0x3f13ea7d	0.57779676
11	0xbc45b679	-0.012067431
12	0xaf3cce2b	-1.7171746e-10
13	0x3ed3b8cc	0.41351926
14	0xbcefb550	-0.029261261
15	0x0bd4312c	8.1733415e-32
16	0x2d021e2b	7.396343e-12
17	0x1f0b8d04	2.955104e-20
18	0x3f292d60	0.6608486
19	0x127d247a	7.9877684e-28
20	0xbbe552e6	-0.0069984077
21	0x3f2056e3	0.6263258
22	0xa42c92b1	-3.7420807e-17
23	0x3f2c4cc4	0.67304635
24	0xbdf3dd3f	-0.11907434
25	0xbe297213	-0.16547422
26	0xbe08fee4	-0.13378483
27	0xba31c185	-0.0006780851
28	0x3ea415e0	0.3204794
29	0xbd7492f5	-0.05971046
30	0xbd6e49bb	-0.058175784
31	0x3f1491cf	0.58034986
32	0x3f125fda	0.5717751
33	0xbdd42f2e	-0.10360561
34	0xbdf86af6	-0.12129776
35	0xbb07628f	-0.002065811
36	0xbe2623f9	-0.1622466
37	0x3ee6f63e	0.45109743
38	0x3f0ee85d	0.5582331
39	0xbd47fa46	-0.048822664
40	0xbc5d7193	-0.013515848
41	0x3efff2d4	0.4998995
42	0x9cdd4b86	-1.4644076e-21
43	0x80002b01	-1.5427e-41
44	0xbdb389d9	-0.08766527
45	0xbd37359c	-0.04472886
46	0xbdad093d	-0.08449028
47	0x060780bd	2.548526e-35
48	0x0a85bd07	1.2878538e-32
49	0x360ba875	2.081067e-06
50	0xba8409bc	-0.0010073702
51	0xb9b8534e	-0.00035157282
52	0xb01f72d0	-5.800702e-10
53	0xbe1da270	-0.15393996
54	0x0005b210	5.23054e-40
55	0x3ef72efe	0.4827804
56	0x3f0ff593	0.5623409
57	0xb893d7ad	-7.049679e-05
58	0x1316bfe4	1.9027271e-27
59	0x3f0a5e17	0.5404982
60	0xbe228d5f	-0.15874241
61	0x0000eb58	8.4425e-41
62	0xb608052c	-2.026859e-06
63	0x3f2570f9	0.6462551
64	0xbe109754	-0.14120227
65	0x96f6100b	-3.9753568e-25
66	0xbe39977e	-0.18124196
67	0xa794d926	-4.1313685e-15
68	0xbdd3b9d6	-0.1033818
69	0xbd17701e	-0.036972158
70	0x3f0baecb	0.5456359
71	0x8e7ade8e	-3.0922035e-30
72	0x38ec58a9	0.00011269871
73	0x3f16016b	0.58595914
74	0xbe0566d6	-0.1302751
75	0xbdacc20d	-0.0843545
76	0xbba49b12	-0.0050233686
77	0x3f18b6e2	0.5965406
78	0xbd9aad55	-0.07552592
79	0x3ec74309	0.3891833
80	0x3a67f0d5	0.00088478375
81	0x3f072098	0.5278411
82	0xbd59e30e	-0.05319505
83	0x0e9159d7	3.5831772e-30
84	0x3ea3d7f9	0.32000712
85	0xbc9b3acd	-0.018948937
86	0x8ea1d123	-3.9890956e-30
87	0xbe270d2c	-0.16313618
88	0xbba1ef4e	-0.0049418574
89	0x869d93b2	-5.9273855e-35
90	0xbcbf4f43	-0.023353225
91	0x3f5bd77e	0.8587569
92	0xb070c435	-8.759032e-10
93	0x34fca30a	4.7057284e-07
94	0x16b32f9a	2.894905e-25
95	0x07bb3235	2.8166142e-34
96	0x029d3f57	2.3105432e-37
97	0x3ed24639	0.410692
98	0xbea79a91	-0.32735112
99	0x0000c577	7.0837e-41
